saved_models/chunk_len_300.pt (torch, 570895 bytes, 11 tensors)

weight f4 [100, 100]
0.6070522 0.91889703 -3.0397577 0.6454012 -1.7416513 -0.34604147 -0.060809113 0.78203917
0.3344945 -0.12592565 0.6751767 -1.6072513 1.4134053 -0.28106 -0.61799574 -1.4080653
-0.24865474 -0.88646007 -0.6904699 0.45997277 0.323269 -0.9164362 -0.8469321 0.37261668
-0.55715084 -0.8557651 0.59914744 0.4442047 -1.000106 0.47060412 0.6761566 0.3242067
-0.15532139 -1.8661758 -0.3631542 1.0413814 0.72476256 -0.8656421 -0.4287603 -0.83434427
0.093177885 0.97491175 -2.0986538 -1.1258041 -1.7310288 -0.39868668 0.9809375 0.34037256
-0.067429304 -0.5134868 0.18357658 -1.5848787 -0.25311044 -0.09216436 0.9517265 -0.159117
-1.041066 0.9769788 0.04972621 -0.9311045 0.88127184 1.1875596 0.09308517 0.74402595
0.14838047 0.90224385 0.6805614 0.84206575 -0.34447592 -0.07804612 1.1390276 -0.42135003
-2.2813036 -1.6573588 -0.47631586 0.14627145 0.32422012 -0.79381037 -0.1522462 1.1355848
0.27274942 -1.2956775 0.79324174 2.4396346 0.39094234 1.3923852 0.14641643 0.89894605
0.58219564 0.4700271 0.9790731 -0.6958696 -1.0752844 -0.4721863 -0.32030034 -0.46483997
-1.1077666 -1.0989236 -0.99260277 -0.41991994 -1.083126 0.16564044 0.03292457 -0.7497721
-0.39199343 0.22997102 -0.04846311 -1.465145 -1.6689214 0.3082158 0.95454884 0.65132445
-0.69383955 -0.7346713 0.9281592 0.67336994 1.7229162 -0.93404686 1.1439399 -0.38530833
0.20724832 -1.748618 0.5480497 -0.2862303 -0.04554145 1.875324 0.029221587 0.48769996
0.18625326 1.0383534 -0.97043735 0.5509072 -0.1808523 -0.06354156 -1.0046583 0.38488927
-0.36204144 -0.16148752 -0.976201 1.3460561 -0.2585969 0.6207461 -0.7298503 0.10267104
-0.10137003 -1.2203223 0.67368865 1.2689092 1.1580267 1.4610068 0.14943957 0.78227913
-1.765949 1.9894649 0.2573704 1.13005 -2.194613 0.60921776 -0.8614145 -0.3336345
1.7980199 -0.49672237 0.93277407 0.56209284 1.0712274 0.490188 -1.7883799 3.148962
-0.28856996 0.11931349 -0.6048339 -0.9391991 1.4962525 -0.3894133 0.01474962 -0.9797901
-1.7175391 -1.4121982 2.8741298 1.6223562 -1.4113426 -1.6257007 1.671085 -0.6587422
0.90902185 -0.9224232 0.6032888 -0.59569556 -0.5268047 -0.97922903 -0.44378203 0.37852544
0.2763972 -0.62578595 -0.32558063 -0.18164977 -1.2131977 -0.030630128 -0.34808567 0.35669863
-0.6921439 -1.1432354 -0.24980347 -1.0153819 -0.69386476 -0.3739423 -1.4599298 0.71469694
0.11900215 -0.9697401 0.68610775 0.29241672 -1.1213443 -0.7256519 2.0320532 -0.97965795
-1.0035617 0.9403337 -0.029256685 1.4584537 -2.2587748 0.3045174 0.3518563 0.09653972
-0.12001127 0.438383 1.2281413 -1.3676888 -2.3404357 -0.1863099 1.131626 0.90833074
-0.09998616 0.94348276 0.14384744 -0.6689248 -0.013134068 -0.7033058 -0.09451508 1.4994301
-0.007331327 -0.41833168 -0.40409175 -0.07273717 0.9160238 1.465658 -1.2581314 -0.8216317
1.5634179 -1.108383 -1.618192 -1.1146191 -0.0026031402 -0.78128093 -1.3829377 -1.1185721
00000000: c667 1b3f d63c 6b3f 648b 42c0 0339 253f
00000010: 6eee debf 592c b1be fa12 79bd b833 483f
00000020: dd42 ab3e a7f2 00be 61d8 2c3f 69ba cdbf
00000030: 77ea b43f 19e7 8fbe f834 1ebf 7c3b b4bf
00000040: 599f 7ebe 0cef 62bf a3c2 30bf 8d81 eb3e
00000050: 8483 a53e 909b 6abf 8bd0 58bf 9dc7 be3e
00000060: 70a1 0ebf 6c13 5bbf ba61 193f cc6e e33e
00000070: 7903 80bf 06f3 f03e 9918 2d3f 6cfe a53e
00000080: 920c 1fbe d9de eebf 59ef b9be fc4b 853f
00000090: 0a8a 393f b89a 5dbf 7886 dbbe 9697 55bf
000000a0: 0cd4 be3d d193 793f 5850 06c0 591a 90bf
000000b0: 5a92 ddbf a920 ccbe b81e 7b3f 5045 ae3e
000000c0: 6018 8abd df73 03bf 80fb 3b3e 4edd cabf
000000d0: b197 81be abc0 bcbd 59a4 733f 91ef 22be
000000e0: a741 85bf 481b 7a3f b6ad 4b3d dd5c 6ebf
000000f0: 089b 613f f401 983f 70a3 be3d 7c78 3e3f
00000100: 0df1 173e 74f9 663f 4639 2e3f 9f91 573f
00000110: 265f b0be a5d6 9fbd a8cb 913f 31bb d7be
00000120: e100 12c0 5524 d4bf acdf f3be 2fc8 153e
00000130: 2e00 a63e 2837 4bbf 6ee6 1bbe d85a 913f
00000140: d0a5 8b3e c3d8 a5bf e411 4b3f f922 1c40
00000150: 9829 c83e ae39 b23f 30ee 153e 5421 663f
00000160: c60a 153f 64a7 f03e 89a4 7a3f 8324 32bf
00000170: eba2 89bf 67c2 f1be 68fe a3be 81ff edbe
00000180: 4ccb 8dbf 87a9 8cbf 371b 7ebf bfff d6be
00000190: dfa3 8abf a69d 293e eadb 063d 10f1 3fbf
000001a0: 5db3 c8be 867d 6b3e 4181 46bd df89 bbbf
000001b0: 379f d5bf 76ce 9d3e 505d 743f 33bd 263f
000001c0: 789f 31bf 6b13 3cbf d79b 6d3f f961 2c3f
000001d0: 8588 dc3f b21d 6fbf 9f6c 923f 2247 c5be
000001e0: e738 543e b7d2 dfbf fc4c 0c3f c78c 92be
000001f0: ac89 3abd 9e0a f03f 1c62 ef3c cfb3 f93e
00000200: 2db9 3e3e c4e8 843f 956e 78bf 4108 0d3f
00000210: 5831 39be 1422 82bd a598 80bf 3510 c53e
00000220: 7f5d b9be fc5c 25be 4fe8 79bf 914b ac3f
00000230: d066 84be 37e9 1e3f 78d7 3abf 3245 d23d
00000240: 179b cfbd 8533 9cbf dc76 2c3f 9e6b a23f
00000250: 383a 943f 4502 bb3f b006 193e 7243 483f
00000260: 9e0a e2bf c9a6 fe3f 0ec6 833e 7aa5 903f
00000270: 8a74 0cc0 b2f5 1b3f a985 5cbf 24d2 aabe
00000280: 8425 e63f 6552 febe 48ca 6e3f 51e5 0f3f
00000290: fb1d 893f ecf9 fa3e a2e9 e4bf 9888 4940
000002a0: 71bf 93be a25a f43d 65d6 1abf 5a6f 70bf
000002b0: 3485 bf3f 2e61 c7be 64a8 713c 86d3 7abf
000002c0: 52d8 dbbf e9c2 b4bf bef1 3740 5ea9 cf3f
000002d0: e0a6 b4bf f616 d0bf 1de6 d53f 54a3 28bf
000002e0: a8b5 683f ed23 6cbf 2371 1a3f 817f 18bf
000002f0: acdc 06bf c1ae 7abf 6637 e3be 16ce c13e
00000300: ef83 8d3e 8233 20bf 81b2 a6be 6602 3abe
00000310: 104a 9bbf 09ec fabc 4938 b2be 34a1 b63e
00000320: 5830 31bf 8a55 92bf 7bcc 7fbe 09f8 81bf
00000330: 1fa1 31bf 5d75 bfbe fbde babf 61f6 363f
00000340: 66b7 f33d e340 78bf c2a4 2f3f a5b7 953e
00000350: 3688 8fbf 53c4 39bf 290d 0240 ddca 7abf
00000360: b674 80bf b6b9 703f b7ab efbc 9cae ba3f
00000370: c48f 10c0 b4e9 9b3e 8226 b43e 9eb6 c53d
00000380: 78c8 f5bd bd73 e03e bc33 9d3f 6d10 afbf
00000390: b3c9 15c0 06c8 3ebe 1fd9 903f 5d88 683f
000003a0: 8bc5 ccbd 1688 713f be4c 133e a83e 2bbf
000003b0: 4630 57bc d90b 34bf 1f91 c1bd 53ed bf3f
000003c0: a13b f0bb 922f d6be 1de5 cebe 3af7 94bd
000003d0: 8980 6a3f ae9a bb3f 730a a1bf 7556 52bf
000003e0: 141e c83f 7fdf 8dbf ea20 cfbf d7ab 8ebf
000003f0: 7299 2abb 0702 48bf 1a04 b1bf 5f2d 8fbf

weight_ih_l0 f4 [300, 100]
0.10571329 0.5525884 -0.14543143 -0.20175378 0.5476567 -0.3157492 0.104559064 0.20062591
0.3549146 -0.3706358 -0.6284485 0.048457846 -0.13045354 -0.5192222 -0.5158346 -0.35250974
0.35972235 0.41510633 0.3627811 0.77252877 -1.0149484 -0.16755961 0.08389758 -0.6826472
0.8214173 0.1349625 -0.7860625 -0.4387615 -0.21780337 -0.5683106 -0.11321966 -0.11646608
0.1499512 0.058762968 -0.2653091 -0.80564606 0.45549145 -0.17964426 -0.459629 -0.1041836
-0.22685736 0.058149338 -0.2775135 0.06730632 -0.27337947 0.06791493 0.20967802 -0.17067471
0.5217709 0.052278534 -0.24009371 -0.47429466 0.3385948 -0.47739387 -0.78990805 -0.28793812
0.4449514 0.42329308 -0.9482416 0.22500958 -0.46940184 -0.073377684 -0.02872391 0.3834614
0.09895099 0.070662886 0.24158 -0.24472067 -0.3856269 -0.7603615 -0.40932676 -0.20969318
0.46058303 1.2331576 -0.46541157 -0.12333854 0.29363075 -0.053134434 0.43518022 0.67823315
0.14456455 -0.45934105 -0.7673082 0.44463924 -0.04982492 0.09481654 -0.1065352 0.07344832
0.4390322 0.052956898 0.13830648 -0.3630127 0.12249689 0.5409527 -0.16651393 -0.2671171
0.13151406 0.107347034 0.95455754 -0.14665873 -0.086793 -0.2958801 -0.19466177 -0.7226218
-0.41051272 -0.20520264 -0.04507522 -0.2829692 -0.31999594 0.24679214 0.115659334 -0.025964433
0.15879695 0.019990962 -0.125139 0.27820218 0.29354465 -0.3097966 0.29706323 0.6519253
0.048630327 0.22458895 -0.5363023 -0.13046584 -0.1963374 0.6052269 -0.6307942 -0.12102774
0.0367423 0.6138376 0.17990917 0.100854464 0.3318768 -0.09227968 0.44892904 0.008579606
0.30342713 -0.33509836 0.31131068 -0.8023015 -0.17416118 0.074365936 0.04676004 0.02621897
0.24370559 -0.6289539 0.20897353 -0.28299767 -0.46722418 -0.5815023 0.28715688 1.0523957
0.8306732 0.18732505 -0.96451885 -0.22716704 0.009741673 0.43554136 0.3807431 -0.19216536
0.10189996 0.8105347 0.11682349 0.18342671 0.1448574 0.19336446 -0.06449838 0.51014155
-0.26772574 -0.9788282 0.25873923 -0.12155567 -0.09746103 0.463192 0.28343624 0.12864043
0.03717689 0.5350757 0.58288205 -0.31398523 -0.1733169 0.51579005 -0.1584862 0.5841731
0.14594534 0.90174806 -0.12845236 -0.14578629 0.41781744 0.71686494 0.114297226 0.25597915
0.2671474 0.32328326 0.09610819 0.006288956 -0.43399692 -0.500679 -0.12395038 -1.024714
0.585233 0.42193103 -0.025544873 -1.1671188 0.5400298 -0.29083717 0.24363586 0.005192528
-0.73187363 -0.083479516 -0.92810625 0.3746513 -0.12772587 0.37052587 0.045156706 -0.91218805
-0.6277062 -0.4118851 -0.56107384 -0.46970877 -0.03401851 -0.030768622 0.33816501 -0.4831316
-0.12188913 -0.3137454 0.09937324 -0.6379043 0.33455336 -0.66943604 0.1811188 -0.21610007
-0.06190454 0.7422117 -0.5125218 0.24615622 0.35605288 -0.1782375 0.8111731 -0.4197805
0.36759412 -0.029438334 0.32279435 -0.08709775 0.10870316 0.32548484 0.34963903 -0.041520797
0.5496981 -0.2660997 0.09633496 -0.52398545 -0.24204737 -0.63677645 0.2879003 0.10084603
00000000: 3680 d83d 6f76 0d3f faeb 14be 8b98 4ebe
00000010: 3b33 0c3f e1a9 a1be 1023 d63d e170 4d3e
00000020: 5eb7 b53e fac3 bdbe 00e2 20bf bc7b 463d
00000030: 9d95 05be bfeb 04bf bd0d 04bf 287c b4be
00000040: 872d b83e d188 d43e 72be b93e 72c4 453f
00000050: d4e9 81bf bf94 2bbe 7fd2 ab3d f8c1 2ebf
00000060: 6748 523f 9c33 0a3e 643b 49bf 59a5 e0be
00000070: d907 5fbe ce7c 11bf b6df e7bd c585 eebd
00000080: cf8c 193e 70b1 703d 98d6 87be d23e 4ebf
00000090: 2d36 e93e aaf4 37be 7e54 ebbe 365e d5bd
000000a0: 4c4d 68be 002e 6e3d 4016 8ebe e5d7 893d
000000b0: 65f8 8bbe fc16 8b3d d6b5 563e 5ac5 2ebe
000000c0: c792 053f 0422 563d 20db 75be c0d6 f2be
000000d0: 4c5c ad3e f86c f4be 6a37 4abf a06c 93be
000000e0: abd0 e33e dfb9 d83e f6bf 72bf e968 663e
000000f0: 7055 f0be 0a47 96bd 684e ebbc 0d55 c43e
00000100: d1a6 ca3d b4b7 903d bf60 773e 0e98 7abe
00000110: e470 c5be 0da7 42bf 4793 d1be cfb9 56be
00000120: 8ad1 eb3e 1cd8 9d3f 6d4a eebe eb98 fcbd
00000130: c556 963e 7ea3 59bd f1cf de3e b0a0 2d3f
00000140: bb08 143e c02e ebbe 4f6e 44bf c1a7 e33e
00000150: 3715 4cbd 2d2f c23d 202f dabd 136c 963d
00000160: d4c8 e03e 55e9 583d 37a0 0d3e cddc b9be
00000170: a6df fa3d e07b 0a3f a182 2abe 93c3 88be
00000180: 9fab 063e c3d8 db3d e25d 743f b52d 16be
00000190: 87c0 b1bd 997d 97be 6a55 47be befd 38bf
000001a0: b92e d2be a420 52be cba0 38bd 57e1 90be
000001b0: 82d6 a3be 14b7 7c3e cdde ec3d 5db3 d4bc
000001c0: ab9b 223e 16c4 a33c 7024 00be 8470 8e3e
000001d0: 7c4b 963e a99d 9ebe ac18 983e 94e4 263f
000001e0: 9830 473d a5fa 653e 1c4b 09bf d698 05be
000001f0: ac0c 49be 26f0 1a3f bb7b 21bf 64dd f7bd
00000200: 187f 163d 7624 1d3f 1c3a 383e c98c ce3d
00000210: c2eb a93e 21fd bcbd 07da e53e 7a91 0c3c
00000220: cd5a 9b3e 0392 abbe 1d64 9f3e a263 4dbf
00000230: 4f57 32be 2b4d 983d 7587 3f3d 2ac9 d63c
00000240: f58d 793e 1f03 21bf 28fd 553e 12e5 90be
00000250: 0238 efbe 56dd 14bf 3a06 933e e7b4 863f
00000260: 00a7 543f 23d2 3f3e b5ea 76bf 7a9e 68be
00000270: 8a9b 1f3c 47ff de3e c2f0 c23e ffc6 44be
00000280: edb0 d03d 347f 4f3f 2741 ef3d 36d4 3b3e
00000290: 8055 143e 5501 463e ba17 84bd a398 023f
000002a0: 5913 89be 7c94 7abf 7879 843e 2ef2 f8bd
000002b0: a699 c7bd 8027 ed3e 8e1e 913e 51ba 033e
000002c0: cb46 183d b9fa 083f c237 153f acc2 a0be
000002d0: fc79 31be d10a 043f 354a 22be 5e8c 153f
000002e0: b272 153e f6d8 663f 0489 03be 0049 15be
000002f0: 2bec d53e 7684 373f aa14 ea3d b30f 833e
00000300: 8bc7 883e 6285 a53e 5fd4 c43d 9613 ce3b
00000310: d834 debe 802c 00bf b2d9 fdbd d429 83bf
00000320: d4d1 153f 5807 d83e 7b43 d1bc 2664 95bf
00000330: 653f 0a3f 9ce8 94be ae7b 793e 1526 aa3b
00000340: 125c 3bbf 4ff7 aabd 5f98 6dbf 4cd2 bf3e
00000350: 92ca 02be 91b5 bd3e 3df6 383d 2885 69bf
00000360: 5bb1 20bf 9be2 d2be 89a2 0fbf ab7d f0be
00000370: fe56 0bbd 7a0e fcbc f723 ad3e 065d f7be
00000380: 02a1 f9bd 3da3 a0be 3284 cb3d b24d 23bf
00000390: 944a ab3e 2960 2bbf 3577 393e 5649 5dbe
000003a0: 9d8f 7dbd 9601 3e3f a134 03bf 6010 7c3e
000003b0: 904c b63e e483 36be 0aa9 4f3f 78ed d6be
000003c0: 4c35 bc3e a928 f1bc 4d45 a53e 4e60 b2bd
000003d0: c39f de3d f3a5 a63e e303 b33e b611 2abd
000003e0: 04b9 0c3f 383e 88be 434b c53d e923 06bf
000003f0: 44db 77be c803 23bf ab67 933e 5d88 ce3d

weight_hh_l0 f4 [300, 100]
-0.45712873 0.86538666 -0.9347673 0.2698829 -0.04025067 -0.83242565 1.2792249 -0.8601764
0.48657832 -0.52123064 0.9157389 0.5403163 -0.44320157 0.6008684 -0.44646168 -0.13113739
-0.19462879 0.0561183 -0.90942687 -0.15385523 -0.63420665 0.50563926 -0.26248837 0.68737686
0.4341175 0.98508847 -0.08705305 0.49513903 -0.6861029 -0.16836944 -0.22980198 -1.031045
0.47267327 -0.26394638 -0.54133296 0.20649582 -0.6013196 -0.18598108 -0.030610846 0.2747763
-0.58382076 -0.64571154 -0.76973754 -0.21505107 -0.792767 -0.6405866 0.08349049 -0.6445134
0.47711554 -0.12793757 -0.040376306 -0.014617458 -0.16846906 0.49634707 0.40106553 0.277331
0.09082351 0.133228 -0.9615815 -0.74155706 0.6801908 -0.59361815 -0.10839987 -0.05790606
-0.8497959 -0.33860597 -0.41867286 -0.310381 0.7702094 0.2271812 -0.06910244 0.605098
-0.32131106 0.059058044 0.24900967 -0.6532753 0.56862587 -0.63946575 -0.7342907 0.026593713
-0.5796095 -0.9513477 0.14752834 0.016646408 0.1781889 -0.21440838 1.6257424 0.8834377
-0.2988906 -0.29963493 0.10808603 0.3360564 0.45685282 0.17873003 0.015141047 -0.07455354
-0.5617981 1.3124509 0.312247 0.22064951 -0.3159252 0.27907532 0.23806392 -0.53001493
0.35992095 -1.004031 -0.33124447 0.37209058 -0.05893803 -0.19198133 -0.24938692 -0.028488081
-0.15933713 0.47307542 0.43745106 -0.32345408 -0.89200443 0.7697479 0.33761805 -0.32358128
-0.7694865 -0.4230084 0.71730727 -1.3712661 -0.96204203 0.81098473 0.41027918 -0.08294007
0.121329166 -0.07126456 -0.5850249 -0.4411952 0.7537099 0.37903374 0.63483655 -0.036239933
0.6436729 -0.48504686 0.33952028 0.3151073 -0.82610494 -0.25947863 -0.007663794 -0.11188514
-0.2123372 -0.20705889 -0.3775887 -0.8220042 -0.32097456 1.1741521 -0.044325657 0.26832873
-0.08974028 0.26778615 -0.8488374 -0.6319351 0.40317369 -0.14375506 0.30606124 1.1187238
-0.58027184 0.13869257 0.3335512 -0.34145582 -0.13307403 -0.34529087 0.035849992 -0.07687551
-0.17486097 0.60548013 0.30978784 0.8392853 -0.48852375 -0.00053501385 0.48935944 0.32471073
-0.056305096 -0.36478606 -0.73587507 -0.6646426 0.09355694 -0.47248617 0.08404566 -0.13845286
-0.08996752 0.37264213 -0.035181064 -0.7262167 0.13917279 -0.04686688 0.4594727 0.62084645
-0.06641407 0.48232755 -0.16937585 0.033539716 0.09359214 0.6542294 0.11342657 0.32824323
-0.49502438 0.045851663 0.6859873 0.04708005 0.42569903 0.33064628 0.093956396 -0.5202653
-0.36445707 0.46325967 -0.20306551 0.7643572 0.5503345 0.058341242 -0.3761523 -0.42058825
0.7535208 0.08614947 -0.4236741 0.08434954 -1.1274705 0.11417027 0.4680327 0.23124576
-0.019800067 -0.11487289 0.12808558 -0.21976125 0.47550339 0.23956288 0.033941597 0.40287858
-0.0839255 0.36979732 0.6796357 0.046202842 0.23994333 -0.6998034 0.07818982 0.43995616
-0.27048182 -0.10253796 -0.16922145 0.2056008 -0.2877014 0.8784466 0.09806317 -0.4985318
-0.025755333 1.2309003 0.17865555 0.30666405 0.30881956 -0.5126825 0.5150241 -0.1876422
00000000: c70c eabe fb89 5d3f e94c 6fbf 172e 8a3e
00000010: e3dd 24bd d919 55bf a4bd a33f 8534 5cbf
00000020: cb20 f93e 5f6f 05bf dd6d 6a3f 2b52 0a3f
00000030: 51eb e2be 83d2 193f a096 e4be e148 06be
00000040: c54c 47be 4ddc 653d 33d0 68bf 3a8c 1dbe
00000050: 5e5b 22bf 9371 013f e064 86be eef7 2f3f
00000060: a644 de3e c22e 7c3f df48 b2bd dd82 fd3e
00000070: 71a4 2fbf 0a69 2cbe 3651 6bbe 48f9 83bf
00000080: 3b02 f23e fb23 87be cc94 0abf a473 533e
00000090: 15f0 19bf d371 3ebe 99c3 fabc 7baf 8c3e
000000a0: 4775 15bf 5a4d 25bf 850d 45bf 5936 5cbe
000000b0: c7f2 4abf 7cfd 23bf 10fd aa3d d5fe 24bf
000000c0: 7d48 f43e 1102 03be a061 25bd 107e 6fbc
000000d0: 2783 2cbe 3421 fe3e 7658 cd3e 54fe 8d3e
000000e0: ad01 ba3d ec6c 083e 352a 76bf afd6 3dbf
000000f0: fc20 2e3f 5cf7 17bf c000 debd e82e 6dbd
00000100: 398c 59bf c35d adbe 4a5c d6be 42ea 9ebe
00000110: 712c 453f 30a2 683e 9485 8dbd b4e7 1a3f
00000120: e282 a4be d9e6 713d 64fc 7e3e 0d3d 27bf
00000130: 7791 113f 07b4 23bf 7afa 3bbf 0fdb d93c
00000140: 4a61 14bf 868b 73bf ab11 173e 0c5e 883c
00000150: 2777 363e df8d 5bbe 5418 d03f f928 623f
00000160: 3008 99be c069 99be 355c dd3d 960f ac3e
00000170: 9de8 e93e 0105 373e 2712 783c 87af 98bd
00000180: 00d2 0fbf 64fe a73f d7de 9f3e f2f1 613e
00000190: f3c0 a1be f6e2 8e3e 07c7 733e 0faf 07bf
000001a0: 8f47 b83e 1684 80bf e098 a9be a882 be3e
000001b0: 0169 71bd c196 44be 495f 7fbe d65f e9bc
000001c0: 4629 23be f136 f23e 96f9 df3e c69b a5be
000001d0: 675a 64bf 330e 453f 46dc ac3e 72ac a5be
000001e0: 11fd 44bf 8f94 d8be 73a1 373f a685 afbf
000001f0: 6348 76bf b29c 4f3f 1d10 d23e 7cdc a9bd
00000200: 6d7b f83d 27f3 91bd 31c4 15bf 56e4 e1be
00000210: 22f3 403f b610 c23e a684 223f 5370 14bd
00000220: bfc7 243f 1058 f8be 9ad5 ad3e be55 a13e
00000230: 9d7b 53bf 62da 84be 9020 fbbb 0924 e5bd
00000240: ec6e 59be 3f07 54be 4e53 c1be de6e 52bf
00000250: c756 a4be 9e4a 963f d28e 35bd 6262 893e
00000260: c0c9 b7bd 441b 893e 684d 59bf 80c6 21bf
00000270: c86c ce3e 8734 13be 0fb4 9c3e 5732 8f3f
00000280: b28c 14bf 6d05 0e3e 39c7 aa3e 4cd3 aebe
00000290: 8f44 08be f7c9 b0be 71d7 123d e870 9dbd
000002a0: c10e 33be bf00 1b3f 839c 9e3e 67db 563f
000002b0: c91f fabe 2c40 0cba 528d fa3e 7c40 a63e
000002c0: 2ca0 66bd 3dc5 babe 4f62 3cbf 0426 2abf
000002d0: c89a bf3d b5e9 f1be 2220 ac3d 96c6 0dbe
000002e0: e440 b8bd f3ca be3e 051a 10bd 56e9 39bf
000002f0: 5083 0e3e 7cf7 3fbd 0140 eb3e cbef 1e3f
00000300: 1a04 88bd a3f3 f63e dd70 2dbe f160 093d
00000310: 3cad bf3d 947b 273f 314c e83d 7f0f a83e
00000320: d673 fdbe f4ce 3b3d dd9c 2f3f 03d7 403d
00000330: 39f5 d93e 784a a93e 366c c03d 1b30 05bf
00000340: 1e9a babe 5f30 ed3e 68f0 4fbe eaac 433f
00000350: b9e2 0c3f 3af7 6e3d 0997 c0be 5857 d7be
00000360: bde6 403f 226f b03d d0eb d8be 74bf ac3d
00000370: f450 90bf 1ad2 e93d fba1 ef3e b0cb 6c3e
00000380: c033 a2bc 7a42 ebbd de28 033e 1809 61be
00000390: 2e75 f33e f94f 753e 5806 0b3d 1a46 ce3e
000003a0: 22e1 abbd 1356 bd3e 9bfc 2d3f 313f 3d3d
000003b0: b4b3 753e 5126 33bf fc21 a03d ef41 e13e
000003c0: 987c 8abe 6cff d1bd 6348 2dbe 0489 523e
000003d0: 994d 93be e0e1 603f 58d5 c83d 8f3f ffbe
000003e0: d9fc d2bc 248e 9d3f 7bf1 363e 1203 9d3e
000003f0: 991d 9e3e 293f 03bf 9fd8 033f 4725 40be

bias_ih_l0 f4 [300]
0.118088365 -0.086676285 -0.24523206 0.15534255 -0.08740097 -0.30243832 -0.3428709 -0.06402368
-0.6678266 -0.17420791 -0.10733535 -0.38288015 -0.14340454 -0.06476558 0.07041013 -0.36975223
-0.22478957 -0.093517 -0.12685297 -0.17913756 -0.13651027 0.19709094 0.021156607 0.08216184
-0.16727203 0.17334267 -0.15148813 -0.13488768 -0.043948077 -0.44719762 -0.18383428 -0.33566955
-0.5255777 -0.30000365 0.04622641 -0.056940593 -0.25177866 -0.19684875 -0.14715664 0.012848482
-0.08325819 -0.36571944 -0.29882917 0.21974045 0.43478063 -0.17587796 -0.06798399 0.06763199
-0.15939786 -0.15147802 -0.21873064 0.23012763 -0.35425004 -0.13981128 -0.5439744 0.042103246
0.033056967 -0.48302072 0.045052815 -0.31630248 -0.7066977 -0.19013897 -0.23235251 -0.180475
-0.11299068 0.091758735 -0.3728171 -0.39139342 0.06822174 -0.12254787 -0.13693495 -0.03530854
-0.5320106 -0.016100777 -0.28743243 -0.043812357 -0.026181642 -0.16511048 0.094929166 -0.13147779
0.14117326 -0.03737728 -0.4426109 -0.29495716 -0.33633655 0.17935203 0.10727531 -0.062289484
0.050229605 -0.32853496 0.15398487 -0.24788311 -0.31395403 0.04896828 -0.26046947 -0.08218252
-0.4147823 -0.30910704 -0.10334673 -0.17820328 -0.14117566 -0.5110477 -0.5296283 -0.23681493
-0.27572495 -0.14545332 -0.17101966 -0.78848684 -0.48939624 -0.8020891 -0.36761594 -0.21489589
-0.45314223 -0.48782858 -0.268058 -0.36893547 -0.43742198 -0.41752115 -0.2725983 -0.45733422
-0.38560793 -0.42387053 -0.67683214 -0.6336015 -0.2347551 -0.7167044 0.13424031 -0.4932071
-0.4606893 -0.23822173 -0.3631888 -0.57162803 -0.33415285 -0.3421047 -0.5511976 -0.42328233
-0.2822388 -0.26765546 -0.17861666 -0.4640247 -0.40824953 -0.5552835 -0.58297914 -0.6427774
-0.6152261 -0.6269462 -0.6977632 -0.44258192 -0.3711581 -0.5833842 -0.73272157 -0.1748158
-0.23969886 -0.417322 -0.7444421 -0.41503936 -0.5662535 -0.493737 -0.5075146 -0.17583261
-0.39383277 0.0058999937 -0.11131687 -0.34357387 -0.5211769 -0.49029014 -0.33470398 -0.43675998
-0.729462 -0.26559934 -1.0087014 -0.06391941 0.45258525 -0.0015017812 -0.31239235 -0.26890612
-0.4099292 -0.15868464 -0.50133765 -0.4935185 -0.42405966 -0.7131698 -0.3748248 -0.14757545
-0.0056810244 -0.27020484 -0.030968064 -0.66502833 -0.06102148 -0.6077595 -0.43956447 -0.48882484
-0.31420264 -0.33549014 -0.6057718 -0.8239352 -0.863572 -0.15289295 -0.3290714 -0.5282138
0.24158177 0.15058976 0.09168361 -0.008922329 -0.20915739 -0.30479366 0.023055904 0.21867637
-0.10799707 0.1858733 0.20760402 -0.008135545 0.04334726 0.08664644 -0.029566927 0.17903534
0.27483046 -0.19681987 -0.22495076 0.40535438 0.083840504 -0.037175722 0.16759844 0.09543375
0.2046166 0.1364906 -0.047743935 0.23358253 0.2950886 -0.39257672 -0.14759861 0.18165113
0.2530205 0.1889958 -0.032604247 0.12293406 -0.13440719 -0.013735169 0.22987482 -0.04894951
-0.08069124 -0.30417386 0.22220261 0.114201434 -0.09789948 -0.027088122 -0.10309951 0.020436892
0.02216372 -0.17615357 0.17362678 0.0838967 -0.082229674 -0.25097856 -0.1448563 0.028192658
00000000: 50d8 f13d 5683 b1bd 1d1e 7bbe 1e12 1f3e
00000010: 48ff b2bd 32d9 9abe c68c afbe d91e 83bd
00000020: aff6 2abf 8f63 32be a3d2 dbbd de08 c4be
00000030: a4d8 12be d1a3 84bd 3033 903d 2a50 bdbe
00000040: 3d2f 66be d785 bfbd bfe5 01be d66f 37be
00000050: 59c9 0bbe 35d2 493e 9f50 ad3c 7744 a83d
00000060: 5c49 2bbe be80 313e b41f 1bbe ff1f 0abe
00000070: e602 34bd 16f7 e4be 0e3f 3cbe e1dc abbe
00000080: 438c 06bf 149a 99be e757 3d3d 8a3a 69bd
00000090: 22e9 80be b892 49be 3bb0 16be 7082 523c
000000a0: 4583 aabd 943f bbbe 2300 99be a403 613e
000000b0: 919b de3e 5a19 34be 313b 8bbd a482 8a3d
000000c0: 3139 23be 0e1d 1bbe edfa 5fbe 94a6 6b3e
000000d0: 4360 b5be b02a 0fbe e841 0bbf 7474 2c3d
000000e0: be66 073d 7e4e f7be 4d89 383d 66f2 a1be
000000f0: 24ea 34bf cab3 42be d1ed 6dbe 70ce 38be
00000100: a867 e7bd 01ec bb3d e2e1 bebe b864 c8be
00000110: d7b7 8b3d 61fa fabd ad38 0cbe b09f 10bd
00000120: d931 08bf c7e5 83bc 582a 93be 9674 33bd
00000130: e27a d6bc b912 29be 396a c23d 1da2 06be
00000140: b98f 103e eb18 19bd e59d e2be a004 97be
00000150: 4e34 acbe 0fa8 373e 28b3 db3d 4223 7fbd
00000160: 8fbd 4d3d bc35 a8be 36ae 1d3e 12d5 7dbe
00000170: 95be a0be f792 483d 415c 85be 4f4f a8bd
00000180: 585e d4be 4743 9ebe 73a7 d3bd ec7a 36be
00000190: 5a90 10be 06d4 02bf b895 07bf 9d7f 72be
000001a0: d22b 8dbe b7f1 14be c71f 2fbe 46da 49bf
000001b0: 2592 fabe b655 4dbf 2838 bcbe ab0d 5cbe
000001c0: 4202 e8be abc4 f9be e63e 89be 1ce5 bcbe
000001d0: c6f5 dfbe 55c5 d5be 0192 8bbe b627 eabe
000001e0: 676e c5be 8f05 d9be df44 2dbf b533 22bf
000001f0: a463 70be f179 37bf 4b76 093e a485 fcbe
00000200: 78df ebbe 66f0 73be e2f3 b9be 3756 12bf
00000210: 1516 abbe 5928 afbe 491b 0dbf 76b8 d8be
00000220: 9b81 90be 230a 89be 49e7 36be a594 edbe
00000230: 1506 d1be 0f27 0ebf 1f3e 15bf 0f8d 24bf
00000240: 757f 1dbf 8c7f 20bf 9ca0 32bf 199a e2be
00000250: 6f08 bebe ab58 15bf a493 3bbf ea02 33be
00000260: 9e73 75be 3bab d5be c293 3ebf 0a80 d4be
00000270: fdf5 10bf 19cb fcbe 7aec 01bf 770d 34be
00000280: 73a4 c9be bc54 c13b 19fa e3bd eae8 afbe
00000290: d96b 05bf 4f07 fbbe 525e abbe 019f dfbe
000002a0: 06be 3abf a3fc 87be 211d 81bf 2ee8 82bd
000002b0: 41b9 e73e 6ad7 c4ba e4f1 9fbe 10ae 89be
000002c0: 3de2 d1be 3a7e 22be aa57 00bf 75ae fcbe
000002d0: 591e d9be 4c92 36bf 09e9 bfbe 051e 17be
000002e0: e327 babb 4a58 8abe bdb0 fdbc 4c3f 2abf
000002f0: a9f1 79bd 2096 1bbf 980e e1be 4047 fabe
00000300: 2bdf a0be 5dc5 abbe dc13 1bbf 6bed 52bf
00000310: 0e13 5dbf f88f 1cbe 0c7c a8be 0539 07bf
00000320: 3661 773e 3434 1a3e 9ec4 bb3d f62e 12bc
00000330: 5b2d 56be ea0d 9cbe bcdf bc3c b3ec 5f3e
00000340: 912d ddbd 9255 3e3e 2696 543e f34a 05bc
00000350: e68c 313d b073 b13d 5736 f2bc 0a55 373e
00000360: 94b6 8c3e 268b 49be 7e59 66be 9c8a cf3e
00000370: 92b4 ab3d 9245 18bd ed9e 2b3e c572 c33d
00000380: 0487 513e 31c4 0b3e 258f 43bd 4230 6f3e
00000390: da15 973e d1ff c8be 1724 17be c102 3a3e
000003a0: e78b 813e 1d88 413e 088c 05bd dac4 fb3d
000003b0: 0aa2 09be 7909 61bc 4e64 6b3e 487f 48bd
000003c0: 7341 a5bd adbc 9bbe 1589 633e 71e2 e93d
000003d0: 867f c8bd e9e7 ddbc d625 d3bd 456b a73c
000003e0: b190 b53c 9a61 34be 38cb 313e 08d2 ab3d
000003f0: 0868 a8bd 4380 80be 3655 14be 4af4 e63c

bias_hh_l0 f4 [300]
0.03619114 -0.030072749 -0.2751425 -0.02078685 -0.1949941 -0.2788061 -0.42698085 -0.17222267
-0.6497212 -0.110894985 -0.093909 -0.4360667 -0.1467045 -0.03548392 0.117575094 -0.3298706
-0.16404669 -0.060746767 -0.20455027 -0.27876318 -0.15781449 0.22505401 0.18035048 -0.045281917
-0.141371 0.30041578 0.028177436 -0.12110801 -0.05183679 -0.55082273 -0.073037565 -0.24837291
-0.41947863 -0.3140546 -0.11234915 -0.19682562 -0.080319114 -0.19698098 -0.09722983 -0.103256084
-0.015196189 -0.37317008 -0.26876497 0.2529242 0.4954745 -0.07315559 -0.18330608 0.051454786
-0.16043952 -0.30313838 -0.28644234 0.39151776 -0.42764142 0.015710894 -0.48643607 -0.035364043
0.06629056 -0.38428104 0.038967233 -0.30326432 -0.70992017 -0.1717597 -0.27619246 -0.18613887
-0.10341331 0.08332757 -0.23116006 -0.51960576 -0.035593774 -0.041575186 -0.039982222 0.032451328
-0.5016397 -0.04397602 -0.32804525 -0.0028606679 -0.076713555 0.004038397 0.11044286 -0.16662855
0.17964236 -0.01178865 -0.42126933 -0.26461455 -0.42244405 0.037101876 0.25327173 -0.014942177
-0.055079885 -0.14808129 0.097789474 -0.22663428 -0.30716535 -0.023276398 -0.265852 -0.10699152
-0.41608292 -0.18666461 -0.1109742 -0.2027111 -0.13725305 -0.62308764 -0.63057965 -0.23778923
-0.32649332 -0.14605369 -0.15241556 -0.7207651 -0.45598713 -0.79499376 -0.25147507 -0.09669723
-0.3905834 -0.49832916 -0.2792357 -0.47212216 -0.53357506 -0.48234436 -0.25838637 -0.48693696
-0.36112127 -0.39640346 -0.6544128 -0.6716425 -0.299105 -0.6928136 0.18020272 -0.6070447
-0.6261229 -0.37487343 -0.34424394 -0.593423 -0.2564374 -0.30695143 -0.62102705 -0.3624226
-0.2685291 -0.29510698 -0.14532079 -0.47077838 -0.47229424 -0.4772672 -0.618059 -0.54342693
-0.45678857 -0.5651534 -0.7967657 -0.3073822 -0.3164035 -0.6803946 -0.7907212 -0.30885702
-0.094074674 -0.3761253 -0.61895955 -0.33915585 -0.56870955 -0.44456807 -0.58777046 -0.37001434
-0.37302205 0.0952679 -0.23180017 -0.47734725 -0.518161 -0.3856094 -0.28412658 -0.31622592
-0.69211864 -0.39474824 -0.90452945 -0.011539538 0.38842356 0.005906026 -0.33403313 -0.32416743
-0.32569554 -0.11895232 -0.4830777 -0.46863124 -0.48985407 -0.7021699 -0.34233585 -0.048522852
-0.07188704 -0.18830344 -0.1447026 -0.594458 -0.011781046 -0.51771665 -0.42093545 -0.41496044
-0.45715377 -0.44806066 -0.70853055 -0.7992627 -0.84588015 -0.28217784 -0.43655342 -0.4978714
0.1294656 0.23054196 0.25050408 -0.69389004 -0.18962152 -0.18273216 -0.047325026 -0.20533547
-0.30488843 -0.19998854 0.4269205 -0.23174512 -0.12047875 0.07611586 -0.15055056 0.03406209
0.23684995 -0.48851138 -0.2365781 0.11574595 0.18034132 -0.33497137 0.78734034 -0.3719659
-0.342765 0.1280728 -0.175726 0.51422805 0.18562339 -0.18719026 -0.55458075 0.00445641
-0.16203709 -0.08521546 0.33375528 0.17739765 -0.16196103 0.38754502 -0.09417535 -0.088457614
-0.41285142 -0.2949659 0.32727718 0.21720389 -0.33800352 -0.37966716 -0.25950873 -0.029124266
-0.2355692 -0.6754045 -0.028810365 0.4773669 -0.1612662 -0.4066837 -0.09237052 -0.09235509
00000000: 293d 143d 205b f6bc 7adf 8cbe 2f49 aabc
00000010: 89ac 47be acbf 8ebe 3c9d dabe 245b 30be
00000020: 2154 26bf e91c e3bd 5d53 c0bd 2244 dfbe
00000030: b439 16be 9657 11bd 36cb f03d cde4 a8be
00000040: dbfb 27be 9ad1 78bd a075 51be 0cba 8ebe
00000050: 1f9a 21be 8f74 663e ccad 383e 8879 39bd
00000060: 8fc3 10be 19d0 993e 5ed4 e63c 7a07 f8bd
00000070: d052 54bd b802 0dbf b894 95bd 7855 7ebe
00000080: e7c5 d6be c4cb a0be 5017 e6bd a88c 49be
00000090: 597e a4bd 62b5 49be 6f20 c7bd ed77 d3bd
000000a0: 70f9 78bc 2610 bfbe 909b 89be 487f 813e
000000b0: d5ae fd3e 99d2 95bd 97b4 3bbe 41c2 523d
000000c0: 424a 24be f434 9bbe 92a8 92be 0475 c83e
000000d0: d1f3 dabe 22b4 803c 260e f9be e3d9 10bd
000000e0: 58c3 873d 7cc0 c4be 1b9c 1f3d 7645 9bbe
000000f0: 54bd 35bf c6e1 2fbe 1969 8dbe 309b 3ebe
00000100: 5cca d3bd a5a7 aa3d 39b5 6cbe e204 05bf
00000110: c7ca 11bd be4a 2abd 66c4 23bd afeb 043d
00000120: 766b 00bf 3320 34bd 8cf5 a7be 0b7a 3bbb
00000130: ff1b 9dbd 8854 843b de2f e23d ada0 2abe
00000140: 2bf4 373e 2f25 41bc 9db0 d7be 8f7b 87be
00000150: 964a d8be 23f8 173d d5ac 813e 08d0 74bc
00000160: 729b 61bd 9fa2 17be d945 c83d d112 68be
00000170: c744 9dbe 25ae bebc c11d 88be 5f1e dbbd
00000180: d208 d5be 0225 3fbe 7146 e3bd 8093 4fbe
00000190: 108c 0cbe ac82 1fbf ab6d 21bf 057f 73be
000001a0: 222a a7be 198f 15be d312 1cbe 1084 38bf
000001b0: 2577 e9be b684 4bbf 57c1 80be 3309 c6bd
000001c0: 8cfa c7be 0025 ffbe fbf7 8ebe ffb9 f1be
000001d0: 6098 08bf d7f5 f6be 384b 84be cd4f f9be
000001e0: e3e4 b8be 65f5 cabe 9987 27bf c3f0 2bbf
000001f0: 4a24 99be 3b5c 31bf 1087 383e 4867 1bbf
00000200: 9749 20bf 69ef bfbe be40 b0be 92ea 17bf
00000210: c34b 83be bd28 9dbe a1fb 1ebf 748f b9be
00000220: a57c 89be 4318 97be f9ce 14be dd09 f1be
00000230: 8dd0 f1be 5e5c f4be 1d39 1ebf 071e 0bbf
00000240: 31e0 e9be e5ad 10bf d6f8 4bbf 3361 9dbe
00000250: a4ff a1be 572e 2ebf b46c 4abf 8222 9ebe
00000260: 39aa c0bd 7f93 c0be 2274 1ebf d6a5 adbe
00000270: f396 11bf 6d9e e3be 2078 16bf 8572 bdbe
00000280: bffc bebe d11b c33d 065d 6dbe dc66 f4be
00000290: 33a6 04bf 986e c5be 0a79 91be 5de8 a1be
000002a0: b02e 31bf 711c cabe 3e8f 67bf 5510 3dbc
000002b0: 74df c63e 5687 c13b 6406 abbe 46f9 a5be
000002c0: 91c1 a6be 469d f3bd f655 f7be 6ff0 efbe
000002d0: 27ce fabe 68c1 33bf a546 afbe e6bf 46bd
000002e0: 8339 93bd 9ed2 40be eb2c 14be 662e 18bf
000002f0: 4a05 41bc 1489 04bf da84 d7be b275 d4be
00000300: 0f10 eabe 3568 e5be 4262 35bf 7b9c 4cbf
00000310: 9a8b 58bf 9d79 90be ee83 dfbe 00e9 febe
00000320: a192 043e 3113 6c3e 1242 803e c7a2 31bf
00000330: 252c 42be 241e 3bbe e3d7 41bd 7643 52be
00000340: 561a 9cbe ccc9 4cbe 5395 da3e 984e 6dbe
00000350: 90bd f6bd a2e2 9b3d ed29 1abe b184 0b3d
00000360: cb88 723e 2a1e fabe 8841 72be 360c ed3d
00000370: 65ab 383e 5e81 abbe 238f 493f 5072 bebe
00000380: e57e afbe 8425 033e 84f1 33be 73a4 033f
00000390: 0f14 3e3e ceae 3fbe 01f9 0dbf 1407 923b
000003a0: 0ded 25be 7185 aebd f9e1 aa3e bba7 353e
000003b0: 1dd9 25be 4d6c c63e 02df c0bd 4429 b5bd
000003c0: 4361 d3be c505 97be e090 a73e b26a 5e3e
000003d0: cc0e adbe bc63 c2be 54de 84be 0396 eebc
000003e0: 0d39 71be 4fe7 2cbf b703 ecbc 6f69 f43e
000003f0: f722 25be d938 d0be c12c bdbd aa24 bdbd

weight_ih_l1 f4 [300, 100]
0.33622265 -0.26288 -0.05190324 -0.6175257 0.83646184 -0.3385426 -0.56321377 -0.4951508
0.42666334 0.6387277 0.23366094 0.32741836 0.16467832 -0.30557355 0.6907477 0.09509146
0.14055887 0.19637384 -0.08242183 1.0588998 0.042609386 0.5791805 0.20750171 -0.72401774
0.34171605 0.4152662 0.043821625 0.0054228497 0.08931655 -0.15689081 0.3307324 0.6868301
-0.36332145 0.47720265 -0.49277294 0.3366128 -0.41200846 1.2101492 -0.32725134 0.054405037
0.71149623 -0.5011429 -0.46054304 0.102208346 0.13813788 0.17615172 -0.09969658 -0.60996807
0.013493946 0.24792086 -0.0792679 0.12830882 0.11149169 -0.17038986 0.2350517 -0.27115828
-0.6758238 -0.1876755 0.1093674 -0.6384485 -0.16773498 -0.23753937 -0.20473127 0.7793453
0.27590144 -0.51635313 0.3292736 -0.028246082 -0.32176417 0.5465952 -1.1897694 -0.8827799
0.26400638 0.284551 0.026299655 -0.17018227 0.72760165 -0.44332975 -0.7204274 0.030618211
0.2105731 0.065310925 0.118205816 -0.11332527 0.2924766 -0.15494245 -0.30949703 0.65571386
-0.08777422 0.3274488 0.5069819 -0.3302115 -0.25979006 0.57008284 0.44512615 0.037483253
0.27644756 -0.2345883 -0.22110978 -0.27536845 -0.29362857 -0.17565915 0.77826416 -0.25100222
0.68562067 -0.657519 0.49611995 -0.30485183 -0.34464943 0.55148226 -0.0926529 0.91589504
0.45946273 -0.15367645 -0.14884579 0.8038714 -0.09613147 -1.010761 0.3200324 0.8391548
0.447082 -1.2847158 -0.5086491 -0.8440371 0.11606327 0.5080888 -0.6567466 -0.2882427
0.8901585 0.22694492 -0.34810445 -0.033352453 0.22876635 -0.17412443 -0.1705499 0.17881583
-1.0034294 -0.676249 -0.27946964 -0.38472274 -0.49090695 -0.20337695 -0.6026523 1.2405938
-0.7409455 0.15154889 -0.63259006 -0.18960594 -0.3997713 -1.0356692 0.7752308 0.6479863
-0.56886446 0.054093014 0.036136482 0.7668049 0.8561134 0.26423293 -1.0274383 1.0293143
-0.6794319 0.14054248 -0.16955444 0.6883742 0.21888192 0.49146882 0.17489067 -0.2112172
0.1436505 0.1135348 -0.24145688 0.88129175 0.86303735 0.21884085 -0.488472 -0.184659
0.8858744 0.11707377 -0.5224645 -0.23455647 0.508611 0.27174476 -0.011085939 0.8979536
0.8280082 0.10855604 0.61496735 -0.15767896 -1.4206868 0.3937922 0.26441658 -0.20861328
-0.83292085 0.13495935 0.6570286 0.084840946 0.53384644 0.2167997 -0.4870897 0.2717477
0.60047513 -0.53029907 -0.4801351 -0.35230723 0.9729478 1.0801693 0.36107928 -0.49863794
-0.5486831 0.013220068 -0.8863898 -0.26323408 0.122110665 0.12974623 0.012660162 -0.5169576
-0.2164728 -0.4158394 -0.9510556 -0.4188922 0.8209206 0.795545 -0.42218253 -0.57114047
0.5138011 -1.2691116 -0.83747953 0.10028823 -0.4994224 0.28816536 0.20222074 0.17542742
0.937887 -0.14848696 -0.4465274 0.020395309 -0.5388387 -0.58010125 0.076545976 0.18488394
-0.26985118 -0.4509914 0.88710105 -0.6151413 -1.0141611 1.2482221 0.29263884 0.07411741
0.98692954 0.024242062 0.64343065 0.54691994 -0.1713712 0.33546808 -0.17161462 -0.08510578
00000000: 6025 ac3e 3598 86be 7e98 54bd 2a16 1ebf
00000010: 5d22 563f 7555 adbe c72e 10bf 6884 fdbe
00000020: 9e73 da3e a983 233f d044 6f3e 61a3 a73e
00000030: 6fa1 283e 2374 9cbe d7d4 303f 50bf c23d
00000040: aaee 0f3e 3916 493e c7cc a8bd 078a 873f
00000050: 2e87 2e3d 2c45 143f 547b 543e 3a59 39bf
00000060: 68f5 ae3e c59d d43e 4e7e 333d 29b2 b13b
00000070: 98eb b63d fca7 20be c255 a93e 19d4 2f3f
00000080: 4505 babe e853 f43e bc4c fcbe 8358 ac3e
00000090: c6f2 d2be 2be6 9a3f 7d8d a7be d1d7 5e3d
000000a0: 9e24 363f e74a 00bf 4ccc ebbe 9c52 d13d
000000b0: 0474 0d3e 1e61 343e b82d ccbd de26 1cbf
000000c0: b615 5d3c f7de 7d3e 3557 a2bd 6363 033e
000000d0: c155 e43d ae7a 2ebe 65b1 703e 42d5 8abe
000000e0: ca02 2dbf 022e 40be 04fc df3d 5c71 23bf
000000f0: b8c2 2bbe 853d 73be 13a5 51be 2c83 473f
00000100: f442 8d3e b82f 04bf 8d96 a83e 5464 e7bc
00000110: 46be a4be aaed 0b3f 5d4a 98bf ddfd 61bf
00000120: d82b 873e abb0 913e 6072 d73c 4344 2ebe
00000130: 1a44 3a3f 1efc e2be ee6d 38bf 0bd3 fa3c
00000140: 7aa0 573e bcc1 853d e415 f23d 1417 e8bd
00000150: 7ebf 953e 3ca9 1ebe 6576 9ebe dddc 273f
00000160: f8c2 b3bd 5ea7 a73e 91c9 013f 7b11 a9be
00000170: 3403 85be f3f0 113f 93e7 e33e 0a88 193d
00000180: 898a 8d3e ea37 70be 9a6a 62be 18fd 8cbe
00000190: 7c56 96be fedf 33be 523c 473f 5d83 80be
000001a0: d684 2f3f 2a53 28bf 6f03 fe3e 8a15 9cbe
000001b0: e475 b0be f12d 0d3f cec0 bdbd 1978 6a3f
000001c0: b33e eb3e 5c5d 1dbe 086b 18be 84ca 4d3f
000001d0: 93e0 c4bd 9e60 81bf 49db a33e d9d2 563f
000001e0: efe7 e43e 9171 a4bf d436 02bf d112 58bf
000001f0: 94b2 ed3d 1c12 023f 8c20 28bf 8c94 93be
00000200: 6de1 633f 4064 683e bf3a b2be 959c 08bd
00000210: ba41 6a3e ad4d 32be a2a4 2ebe 7f1b 373e
00000220: 6070 80bf a81e 2dbf a516 8fbe 61fa c4be
00000230: 2858 fbbe 0c42 50be 6c47 1abf c7cb 9e3f
00000240: 9bae 3dbf a22f 1b3e 6cf1 21bf 0f28 42be
00000250: d3ae ccbe cf90 84bf 8775 463f 6ee2 253f
00000260: 1aa1 11bf a390 5d3d d903 143d 534d 443f
00000270: 3f2a 5b3f 8a49 873e 1983 83bf 92c0 833f
00000280: 40ef 2dbf 5eea 0f3e ae9f 2dbe 4b39 303f
00000290: 9522 603e cda1 fb3e 8a16 333e 5249 58be
000002a0: 1e19 133e ef84 e83d 7940 77be 569c 613f
000002b0: 04f0 5c3f d117 603e 0119 fabe 4017 3dbe
000002c0: aac8 623f 5fc4 ef3d 3cc0 05bf 922f 70be
000002d0: 5534 023f 2122 8b3e cca1 35bc 4ae0 653f
000002e0: 58f8 533f a152 de3d 806e 1d3f 9876 21be
000002f0: 11d9 b5bf 229f c93e 9c61 873e b89e 55be
00000300: 4d3a 55bf c932 0a3e 0733 283f 17c1 ad3d
00000310: 29aa 083f be00 5e3e d263 f9be 8422 8b3e
00000320: bdb8 193f aec1 07bf 45d4 f5be 9d61 b4be
00000330: 1b13 793f fd42 8a3f 62df b83e 794d ffbe
00000340: 7f76 0cbf fc98 583c 71ea 62bf 9ec6 86be
00000350: 2815 fa3d 32dc 043e 916c 4f3c 5557 04bf
00000360: 0cab 5dbe e7e8 d4be 6178 73bf 0a79 d6be
00000370: da27 523f d6a8 4b3f 4f28 d8be 4336 12bf
00000380: 7888 033f 4072 a2bf 0f65 56bf ea63 cd3d
00000390: 4bb4 ffbe 698a 933e f412 4f3e 3fa3 333e
000003a0: 5d19 703f f70c 18be 3d9f e4be 1014 a73c
000003b0: 55f1 09bf 8481 14bf 23c4 9c3d 3752 3d3e
000003c0: ef29 8abe 58e8 e6be 0e19 633f e679 1dbf
000003d0: 08d0 81bf bec5 9f3f c2d4 953e deca 973d
000003e0: 6aa7 7c3f 4a97 c63c dfb7 243f f202 0c3f
000003f0: ef7b 2fbe 79c2 ab3e bebb 2fbe f04b aebd

weight_hh_l1 f4 [300, 100]
-0.18305041 -0.13237154 -0.3335529 0.14482401 0.5513125 -0.20489182 0.6178441 0.31068563
0.6192005 0.5827436 -0.57212484 0.35384795 -0.90511936 0.14161587 -0.018247288 -0.08610829
-0.20109111 -0.88437176 -0.09472156 -0.16940333 0.5526293 -0.15229559 -0.24022272 -0.5948507
-0.15351658 -0.06719506 -0.5497554 0.19641629 0.14944406 0.05483103 0.022630336 0.09418813
0.34900472 -0.31546104 0.47531357 -0.26097828 0.004192256 -0.11081502 0.12422969 -0.70401734
0.6183676 0.108187504 -0.24183059 -0.3561782 -0.23452999 0.25792122 0.2284065 0.42462432
0.09386872 -0.15099305 0.19003156 0.20468873 -0.27166727 -0.1928746 -0.3026006 0.05854892
0.20913868 -0.24036662 0.009602959 0.634762 -0.18325521 -0.013693979 0.14369115 0.43557602
-0.4080124 0.06947238 0.29705945 -0.009921403 -0.13596174 0.7131348 0.59292626 0.31603605
-0.21633306 0.6943349 -0.18823606 -0.32007506 -0.33294037 0.35254776 0.13453828 0.09964289
0.3167297 -0.09301894 0.123496555 0.34530655 0.37206173 0.008363126 -0.7232278 0.058743633
-0.76315707 -0.26434383 -0.21340337 -0.477637 0.6363426 -0.042024046 -0.3676213 -0.123009555
0.044739064 -0.013508821 1.0474061 -0.025914019 -0.22451806 0.32692942 -0.071666926 -0.4609572
0.25967246 0.57369596 -0.38760576 0.18962675 -0.25222734 -0.6230555 0.08577725 0.5271895
-0.4790464 0.25798136 0.8772652 0.49499533 0.75811535 0.46135217 0.31777805 -0.43205664
-1.2724348 -0.43541232 0.1838724 0.24863027 -0.4321526 -0.14509755 0.2271206 0.7596339
-0.8069691 -0.20070535 -0.29000148 -0.007450417 0.19847746 0.0774417 -1.0877825 0.119954325
0.29122704 0.24614502 -0.034724038 -0.8035294 0.2860949 0.2529158 0.16844323 -0.47169882
0.07065891 0.2188081 0.41960835 -0.10333739 0.024086509 0.12207846 0.099632464 0.33495542
-0.5410753 0.16581713 0.14080249 0.15827413 -0.3294441 0.017385658 -0.8553209 0.86983186
0.8560083 0.41799435 0.6988374 -0.04050313 -0.5146985 0.28148252 1.2739309 -0.3630142
-0.45107865 0.2963903 -0.513837 0.19464286 -0.43347216 -0.3715803 -0.23776035 -0.8777468
0.6112509 0.6866434 -0.19386427 -0.41388196 -0.23705696 0.4491789 -0.53336555 -0.48224458
-0.510865 0.10029717 -0.59123147 -0.8670175 -0.42234734 -0.22373123 -0.07179237 -1.2177227
-0.002757787 -0.10685754 -0.17893822 -0.1931242 0.66796017 -0.62024426 0.08767328 0.5877214
-0.74727523 -0.13878027 -0.30297908 -1.0554684 -0.6311573 -0.045881275 -1.0050142 0.75734025
-0.16028666 0.27808172 -0.41500723 0.47185788 -0.61785334 -0.008545584 -0.70825285 -0.17888612
0.34119853 0.76906985 0.26808578 0.2605593 0.70622027 1.4634628 -0.56617 1.619854
-0.2085315 -0.32376787 0.0912689 1.0866306 0.7356182 -0.06452089 -0.59579504 0.91617787
0.3282505 -0.10256189 -0.95874053 -0.10750995 0.065275684 -0.11582758 0.48869583 0.41571224
0.08095965 0.2619209 0.6202877 -0.09887738 0.6057092 -0.12116007 -1.1919199 -0.4362033
-0.23000349 0.26470828 0.1888772 -0.2673424 -0.5542704 0.04585234 -0.26807418 0.19933145
00000000: 9171 3bbe 688c 07be 72c7 aabe bf4c 143e
00000010: d122 0d3f 29cf 51be 082b 1e3f 3012 9f3e
00000020: ed83 1e3f af2e 153f c676 12bf 8f2b b53e
00000030: e7b5 67bf c003 113e 567b 95bc 8b59 b0bd
00000040: d4ea 4dbe 3066 62bf 61fd c1bd 1178 2dbe
00000050: 1d79 0d3f 60f3 1bbe f2fc 75be 2348 18bf
00000060: 7333 1dbe 909d 89bd c5bc 0cbf 5a21 493e
00000070: dd07 193e 8196 603d 4163 b93c b5e5 c03d
00000080: bfb0 b23e 1c84 a1be 4d5c f33e f29e 85be
00000090: 315f 893b fcf2 e2bd 236c fe3d 7b3a 34bf
000000a0: 574d 1e3f 6991 dd3d 70a2 77be fd5c b6be
000000b0: a128 70be 400e 843e 65e3 693e 5c68 d93e
000000c0: 3e3e c03d ec9d 1abe a297 423e ec99 513e
000000d0: f917 8bbe eb80 45be 77ee 9abe fed0 6f3d
000000e0: 7328 563e ab22 76be bb55 1d3c c37f 223f
000000f0: 41a7 3bbe b65c 60bc c623 133e d203 df3e
00000100: 00e7 d0be 8947 8e3d 2d18 983e 618d 22bc
00000110: 8e39 0bbe 0190 363f 04ca 173f 7acf a13e
00000120: 6a86 5dbe efbf 313f f4c0 40be e1e0 a3be
00000130: 2977 aabe 2481 b43e 67c4 093e 9211 cc3d
00000140: 652a a23e b780 bebd c3eb fc3d 05cc b03e
00000150: e07e be3e 7e05 093c 7525 39bf 2a9d 703d
00000160: 435e 43bf 1358 87be 6a86 5abe d68c f4be
00000170: 59e7 223f 6821 2cbd dc38 bcbe 6fec fbbd
00000180: 4f40 373d 1a54 5dbc 6711 863f a349 d4bc
00000190: 10e8 65be 4b63 a73e 1cc6 92bd 9502 ecbe
000001a0: caf3 843e bddd 123f 4374 c6be 842d 423e
000001b0: f123 81be 9180 1fbf fcab af3d e4f5 063f
000001c0: 9245 f5be 2216 843e 7494 603f 0770 fd3e
000001d0: d913 423f 5a36 ec3e ceb3 a23e 8736 ddbe
000001e0: 25df a2bf 5dee debe 0c49 3c3e ef98 7e3e
000001f0: 1b43 ddbe 7494 14be 4d92 683e 5e77 423f
00000200: 8795 4ebf b485 4dbe 137b 94be a122 f4bb
00000210: ad3d 4b3e c199 9e3d 753c 8bbf 9daa f53d
00000220: b61b 953e 710d 7c3e cb3a 0ebd 1ab4 4dbf
00000230: 087b 923e 2e7e 813e 627c 2c3e 8282 f1be
00000240: 9eb5 903d 3b0f 603e e8d6 d63e 8ea2 d3bd
00000250: 1251 c53c 4604 fa3d 1b0c cc3d 477f ab3e
00000260: e983 0abf f7cb 293e 872e 103e 9d12 223e
00000270: e6ac a8be 5e6c 8e3c 4ff6 5abf 4dad 5e3f
00000280: 5c23 5b3f 5b03 d63e 02e7 323f 9ce6 25bd
00000290: 48c3 03bf 7a1e 903e 2b10 a33f ffdc b9be
000002a0: c8f3 e6be 78c0 973e d28a 03bf 7550 473e
000002b0: 10f0 ddbe c63f bebe 7377 73be 04b4 60bf
000002c0: f07a 1c3f ddc7 2f3f 5b84 46be 56e8 d3be
000002d0: 0fbf 72be c7fa e53e a58a 08bf c3e8 f6be
000002e0: 0cc8 02bf 9a68 cd3d f25a 17bf dcf4 5dbf
000002f0: e93d d8be cd19 65be e107 93bd 56de 9bbf
00000300: fdbb 34bb 20d8 dabd 953b 37be 5ac2 45be
00000310: 70ff 2a3f 54c8 1ebf 0c8e b33d e974 163f
00000320: 6e4d 3fbf 6a1c 0ebe 1320 9bbe 9719 87bf
00000330: 8693 21bf 01ee 3bbd 4ea4 80bf 0de1 413f
00000340: 3022 24be ba60 8e3e d47b d4be 5b97 f13e
00000350: a32b 1ebf c702 0cbc 0f50 35bf ec2d 37be
00000360: 93b1 ae3e c3e1 443f 8a42 893e 0768 853e
00000370: daca 343f c052 bb3f 84f0 10bf 6057 cf3f
00000380: 4889 55be e7c4 a5be 30eb ba3d b616 8b3f
00000390: 7951 3c3f 8723 84bd 0686 18bf a28a 6a3f
000003a0: 7310 a83e f80b d2bd 0570 75bf 2d2e dcbd
000003b0: 42af 853d 0337 edbd 5736 fa3e 3cd8 d43e
000003c0: 2cce a53d 7f1a 863e 2dcb 1e3f 3980 cabd
000003d0: c20f 1b3f c522 f8bd d590 98bf 0a56 dfbe
000003e0: 0986 6bbe d887 873e 0669 413e 1ae1 88be
000003f0: aae4 0dbf aacf 3b3d 0541 89be 8b1d 4c3e

bias_ih_l1 f4 [300]
-0.05961928 0.41452292 0.34662792 -0.07619944 -0.02583206 -0.093163885 0.037918843 -0.091800906
0.08154337 0.032698765 -0.10379307 0.13053034 0.0315237 0.0607927 0.15481731 0.06719063
0.16208836 -0.11569015 -0.52133477 0.13150214 -0.06740686 0.0022555273 -0.14951822 0.1646436
-0.026884198 0.15988731 -0.07367498 0.010893403 0.36714107 0.36271912 0.024402825 0.18667327
0.36148593 -0.11012009 0.24811853 0.17573662 -0.023326386 -0.042155985 -0.097766005 0.17545444
-0.04267756 -0.088236794 0.11987314 -0.09153882 0.07375309 0.05657852 -0.10139731 0.044856712
-0.025857875 -0.17749538 -0.053299367 -0.20221162 0.095633775 0.23243318 0.22079013 0.06717587
-0.21066853 -0.017427186 0.05967241 0.8075826 -0.16669261 -0.07629741 -0.09488119 -0.168029
-0.2096273 0.25972843 -0.008958136 -0.14338556 0.13814607 -0.018696373 -0.17903168 0.49000186
0.11416163 -0.21457356 -0.07493292 -0.06461942 0.16210689 0.084095106 -0.034416586 -0.1740707
-0.0060034217 -0.039494373 0.08946628 -0.07353056 0.011330166 0.0024508424 0.18934914 0.23745927
0.2486866 -0.09567497 -0.037668966 -0.14339943 -0.094402365 0.07758635 0.34440422 -0.37580016
0.1482392 0.029839903 -0.16137642 0.014378434 0.08471168 -0.5733262 -0.671666 -0.30472168
-0.39950374 -0.30024695 -0.42619053 0.40868464 -0.25983945 -0.39182025 -0.19665478 -0.19821067
-0.69670933 -0.45059234 -0.33111706 -0.165524 -0.13929829 -0.37093768 -0.4077738 -0.38717404
-0.02444123 0.00076678256 -0.09143834 -0.045411162 -0.21418612 -0.26196632 0.0213823 -0.6430126
-0.25377706 0.05419818 -0.09566984 -0.5986265 -0.18706574 0.025439989 -0.52539766 -0.2178549
-0.4528033 0.09380808 -0.25344056 -0.21935306 -0.6055288 0.59162205 -0.124517836 -0.09047388
0.18306984 -0.084430695 -0.16047055 0.012395579 -0.4356931 -0.5936805 -0.7158289 -0.1683533
-0.51049495 -0.06469609 -0.51484233 -1.0242841 0.07050879 -0.22766468 -0.08373791 -0.20080738
-0.10098607 -0.2547679 -0.26110384 -0.38736475 -0.041407164 -0.17308637 -0.111012004 -0.3539967
-0.23584847 -0.088697284 -0.10196994 -0.20101526 -0.3175101 -0.09609375 -0.06425843 -0.74431986
-0.054856423 -0.56213576 -0.11163996 0.06631018 -0.68695265 0.73052907 -0.5532571 -0.4738872
-0.1501904 -1.0262806 0.4579435 -0.1862032 -0.027034381 -0.14828981 -0.22153 -0.31235722
-0.24913394 -0.16987829 -0.34824234 -0.3539028 0.23102558 0.14281926 0.08013631 0.38753045
-0.0687976 -0.24183153 -0.23007298 -0.06934352 -0.21929654 -0.12495766 -0.33993965 0.023698058
0.008901987 -0.3886958 -0.001345188 0.19220056 0.0029290344 -0.12997335 0.23855768 -0.43250927
0.19202992 0.042900328 0.054699454 -0.042501487 0.022010133 -0.030564604 -0.06286172 0.19850123
-0.06239792 0.38171783 0.3431996 -0.22624524 -0.29374886 -0.23693311 -0.40452135 -0.058165178
-0.024502577 -0.22578886 -0.37522656 -0.17052303 -0.1837982 0.119865954 0.34287024 -0.20712276
0.042159565 -0.048261404 0.20340121 0.11096712 0.030137751 -0.011723866 -0.25811815 0.28541094
-0.2519302 0.10806447 0.066606514 -0.089371294 -0.16660224 0.2519198 -0.21908565 0.1330241
00000000: 5933 74bd 593c d43e 3779 b13e 740e 9cbd
00000010: c29d d3bc b5cc bebd ca50 1b3d 1d02 bcbd
00000020: 3600 a73d 24ef 053d 7691 d4bd bfa9 053e
00000030: ff1e 013d c401 793d 6e88 1e3e 3e9b 893d
00000040: 7efa 253e f5ee ecbd 3276 05bf 7fa8 063e
00000050: 9c0c 8abd 78d1 133b 4e1b 19be 5598 283e
00000060: 403c dcbc 80b9 233e e8e2 96bd 3e7a 323c
00000070: eaf9 bb3e 52b6 b93e 6fe8 c73c 4727 3f3e
00000080: af14 b93e a486 e1bd c912 7e3e 4df4 333e
00000090: fa16 bfbc c1ab 2cbd 8b39 c8bd 54aa 333e
000000a0: aace 2ebd 7eb5 b4bd 0c80 f53d b478 bbbd
000000b0: dc0b 973d e1be 673d 65a9 cfbd acbb 373d
000000c0: e5d3 d3bc 59c1 35be 7050 5abd 9010 4fbe
000000d0: a4db c33d f702 6e3e cf16 623e 8193 893d
000000e0: 7eb9 57be 75c3 8ebc 0f6b 743d bcbd 4e3f
000000f0: 78b1 2abe d141 9cbd 1251 c2bd cb0f 2cbe
00000100: 8aa8 56be 20fb 843e 25c5 12bc aad3 12be
00000110: 2a76 0d3e 2329 99bc 1554 37be 86e1 fa3e
00000120: 93cd e93d 2cb9 5bbe 6e76 99bd 3057 84bd
00000130: 59ff 253e 0e3a ac3d 68f8 0cbd 973f 32be
00000140: 5ab8 c4bb dac4 21bd 193a b73d 3197 96bd
00000150: 29a2 393c 509e 203b bee4 413e 8628 733e
00000160: b3a7 7e3e 3df1 c3bd c64a 1abd 4dd7 12be
00000170: 0756 c1bd 98e5 9e3d c055 b03e e168 c0be
00000180: 04cc 173e d072 f43c dc3f 25be 8693 6b3c
00000190: 517d ad3d 81c5 12bf 4ef2 2bbf 7b04 9cbe
000001a0: c18b ccbe f8b9 99be a535 dabe 1d3f d13e
000001b0: ad09 85be aa9c c8be df5f 49be bdf7 4abe
000001c0: 8b5b 32bf 0ab4 e6be 2d88 a9be 207f 29be
000001d0: 36a4 0ebe 8beb bdbe bac7 d0be ad3b c6be
000001e0: f938 c8bc e801 493a 0644 bbbd 0e01 3abd
000001f0: 9b53 5bbe 7320 86be ef29 af3c 799c 24bf
00000200: 11ef 81be e9fe 5d3d 8dee c3bd 963f 19bf
00000210: 298e 3fbe 8667 d03c 7680 06bf 5b15 5fbe
00000220: d6d5 e7be 731e c03d f6c2 81be 179e 60be
00000230: ef03 1bbf 8b74 173f 3503 ffbd 5f4a b9bd
00000240: a976 3b3e 00ea acbd 6452 24be d416 4b3c
00000250: 2a13 dfbe 72fb 17bf 9040 37bf cf64 2cbe
00000260: ccaf 02bf 627f 84bd b5cc 03bf be1b 83bf
00000270: ea66 903d ee20 69be c87e abbd 73a0 4dbe
00000280: c9d1 cebd f070 82be 67af 85be ac54 c6be
00000290: 8f9a 29bd 8e3d 31be 435a e3bd 0e3f b5be
000002a0: 4382 71be eca6 b5bd 9ed5 d0bd f2d6 4dbe
000002b0: af90 a2be cdcc c4bd ec99 83bd bf8b 3ebf
000002c0: 21b1 60bd 21e8 0fbf 7ea3 e4bd a2cd 873d
000002d0: 21dc 2fbf f403 3b3f 42a2 0dbf 58a1 f2be
000002e0: 83cb 19be 2a5d 83bf 9277 ea3e 0dac 3ebe
000002f0: 3577 ddbc 49d9 17be c3d8 62be 49ed 9fbe
00000300: f81c 7fbe 93f4 2dbe d24c b2be bf32 b5be
00000310: f891 6c3e 363f 123e 811e a43d 646a c63e
00000320: c2e5 8cbd afa2 77be 4098 6bbe fa03 8ebd
00000330: 468f 60be cde9 ffbd 920c aebe 6e22 c23c
00000340: a4d9 113c 2303 c7be 0551 b0ba 39d0 443e
00000350: 0bf5 3f3b bc17 05be 7748 743e db71 ddbe
00000360: 7ea3 443e 41b8 2f3d 890c 603d 0a16 2ebd
00000370: 984e b43c 9f62 fabc a5bd 80bd e843 4b3e
00000380: f694 7fbd 8570 c33e dcb7 af3e d5ac 67be
00000390: 4066 96be 989e 72be 6c1d cfbe 9c3e 6ebd
000003a0: a1b9 c8bc 3235 67be b21d c0be 979d 2ebe
000003b0: 9835 3cbe 487c f53d b08c af3e fd17 54be
000003c0: 82af 2c3d c0ad 45bd 6848 503e bb42 e33d
000003d0: 72e3 f63c 7515 40bc 1028 84be 6221 923e
000003e0: fffc 80be e850 dd3d ff68 883d 4c08 b7bd
000003f0: c799 2abe a2fb 803e fd57 60be 7837 083e
