saved_models/chunk_len_200.pt (torch, 570895 bytes, 11 tensors)

weight f4 [100, 100]
000000 91 28 13 bf 1a c6 32 bf 3b 3f ab 3d 70 7f bd 3d
       -0.57483774 -0.6983353 0.0836167 0.092528224
000010 47 4a 12 3f a2 58 95 be 1f 2e 4b 3f 23 d9 18 3f
       0.5714459 -0.29169184 0.7936725 0.59706324
000020 35 77 54 3e cc a8 4d 3f a2 c9 ad 3f e9 d8 8b 3f
       0.20748599 0.8033569 1.3577158 1.0925571
000030 c0 51 91 bf 40 54 3e bf 5e ec 41 bf 8b 22 95 be
       -1.1353073 -0.74347305 -0.7575129 -0.29127917
000040 e0 48 96 3f c4 fc 48 bf 05 62 a8 3e 30 62 45 3f
       1.174099 -0.7851069 0.32887283 0.7710295
000050 37 c6 1a 40 c3 e9 0b 3f 64 de 40 be b8 21 da 3f
       2.418348 0.5465357 -0.18834835 1.704154
000060 e9 2d c0 3e ee dc 11 40 76 cd 0a bf ca 83 2b be
       0.37535027 2.2791095 -0.5421976 -0.16749492
000070 05 8f 07 be 92 ff aa 3d 3b 09 83 bf b1 6d 6c bf
       -0.13238151 0.083495274 -1.0237192 -0.92354876
000080 6a 28 3f 3f c0 da 62 be 27 8a 4c be 97 0a fe 3f
       0.7467104 -0.22153759 -0.19974576 1.9846982
000090 cd 3c 03 3f ca 9d a4 bd 6a 80 77 3e fb 64 a6 bf
       0.5126465 -0.080379084 0.2417008 -1.2999567
0000a0 ee ac aa 3e b6 e8 0b 3f d9 c1 c4 3e 35 9c f0 3f
       0.3333506 0.54651964 0.38429144 1.8797671
0000b0 cb 70 a6 be cd 2c a3 bf 12 b9 01 bf 7e 3c 32 3e
       -0.3250793 -1.2748047 -0.5067302 0.17405888
0000c0 59 de a1 3f bc f9 5f 3f af 14 39 be e4 5c 58 3e
       1.264598 0.8749044 -0.18074296 0.21129185
0000d0 1c 10 46 bf b5 b7 ba 3e c9 88 4b 3f c6 37 27 bf
       -0.7736833 0.36468282 0.7950559 -0.6531948
0000e0 3e 58 c0 3e e3 ee ee 3e 06 0b 7d be ab 9c ef bf
       0.37567323 0.4666663 -0.24711236 -1.8719686
0000f0 6e 33 53 3f e7 2f d1 bf c9 23 2a 3e bc b5 1d 3f
       0.8250035 -1.6342744 0.16615213 0.6160543
000100 63 4e 8a bf 51 bc 71 3f cd c9 82 3e 47 24 98 3f
       -1.0805172 0.94427973 0.25544587 1.1886071
000110 02 82 a5 bf 70 fb b0 3e fe 4e 9c bf 89 d6 92 bf
       -1.29303 0.34566832 -1.2211607 -1.1471721
000120 75 f3 0f 3c 7d 89 7b 3f 5e 50 84 bd f9 89 d6 bb
       0.008786072 0.98256665 -0.06460641 -0.0065472093
000130 4a a1 2e be 73 10 c8 bf d5 76 ba bf 22 8a e5 bf
       -0.17053714 -1.563002 -1.4567515 -1.793278
000140 23 ce ab 3f 5a 4f 69 bf 05 c0 1e bf 32 f4 62 be
       1.3422283 -0.91136706 -0.6201175 -0.22163466
000150 87 8e 18 3f 4d b7 11 bf b9 2f 0b c0 03 08 c4 3f
       0.5959248 -0.5692032 -2.1747878 1.5314945
000160 43 ab dc 3f 1e 40 15 bf 70 99 fd bf 89 82 17 bf
       1.7239765 -0.5830096 -1.981245 -0.59183556
000170 f3 63 74 3f 08 94 4c bf dd 06 57 3f db d7 74 3f
       0.9546501 -0.7991338 0.8399485 0.9564187
000180 df 92 5c bf 53 bb 8f bf 73 5e 58 3f cb e5 94 bf
       -0.8616161 -1.1229042 0.8451912 -1.1632627
000190 a8 13 9c 3e 4e 31 75 3e 10 82 01 c0 f4 d8 2a bf
       0.30483747 0.2394459 -2.0235634 -0.66737294
0001a0 92 f5 b7 be 11 50 8a be 34 1f bd 3d 3a 00 7d 3e
       -0.35929543 -0.2701421 0.09234467 0.24707118
0001b0 9f e4 8e bd f6 4c 8b bf 4d 37 25 be 92 06 c3 3e
       -0.069772 -1.0882862 -0.16134377 0.3809095
0001c0 02 19 03 3f 1d 5d 83 bf 9b c4 6a 3f a2 81 22 40
       0.51210034 -1.0262791 0.91706246 2.5391622
0001d0 e5 50 04 bf fe ce 0d 3f 6d 75 96 3e 58 4b 83 3e
       -0.51685935 0.5539397 0.29386464 0.2564342
0001e0 bf 80 97 bf b5 25 b4 3e 12 0e 85 bf 4c 75 6b 3f
       -1.1836165 0.35185018 -1.0394919 0.91975856
0001f0 5e 8e 64 be cd 29 32 3f a6 60 ea be d3 30 6e bf
       -0.22319934 0.6959503 -0.45776862 -0.9304325
000200 a6 05 7e 3e 00 f1 9c 3f 21 de f4 be cf e4 c1 bf
       0.24806842 1.2261047 -0.4782572 -1.5147952
000210 2b 64 12 bf 57 bb 6d 3e 36 b0 8b be c2 b4 d9 bc
       -0.57184094 0.23215996 -0.27282876 -0.02657545
000220 87 aa a8 3f 8b 7a 25 bf 86 ae 9e bf 13 a6 68 bf
       1.3177041 -0.6464011 -1.239701 -0.9087841
000230 da 32 9b bf d5 22 32 3f 08 13 61 3f 3c cf d7 3e
       -1.2124894 0.695844 0.87919664 0.42150295
000240 78 75 ae 3f 51 93 d8 3e 1b 30 6e bf cb 45 fd be
       1.3629599 0.42299893 -0.93042153 -0.4946731
000250 43 38 07 40 21 cb a1 bf 27 87 43 3f fc 80 12 3f
       2.112809 -1.2640115 0.763781 0.57228065
000260 39 c5 24 bf 0d 24 9b bf 21 e8 0a 3e cb a1 d1 be
       -0.6436344 -1.2120377 0.13565113 -0.4094375
000270 95 ad 2c 40 0e 3d b1 3e 88 64 d9 3d 32 af be bf
       2.6980946 0.34616894 0.10614878 -1.4897215
000280 68 e1 91 3e 9c ca 7a bf 00 8f 51 3e 6d cb d2 bf
       0.28492284 -0.9796541 0.20464706 -1.6468331
000290 95 23 e0 3d 2e 2e 36 3f 37 89 20 bf 02 5d d7 be
       0.10944287 0.71164215 -0.62709373 -0.42063147
0002a0 90 f2 53 bd 48 93 90 3f 5c 88 bf bf f3 af 58 bf
       -0.051744998 1.1294947 -1.4963489 -0.8464348
0002b0 70 6a f9 bf 2d 2c ea 3f f4 f5 a0 3e 7a 97 d9 bf
       -1.9485607 1.8294731 0.31437647 -1.6999352
0002c0 38 b1 6f bf 6e ba ae be ef 88 22 bf 26 b6 f5 bf
       -0.9362979 -0.3412661 -0.63490194 -1.9196212
0002d0 a2 d1 2f 3f 25 1f 59 3e a7 1d 76 3f 7e d9 20 3e
       0.6867925 0.21203287 0.96138996 0.15707967
0002e0 da c7 05 3e e2 e5 96 3e d1 cf f7 3e 35 d5 85 3e
       0.13064519 0.29472262 0.4840074 0.26139227
0002f0 af ca ea be 17 23 e5 be d1 da fd be b4 5f 87 3f
       -0.4585776 -0.44753334 -0.49581006 1.0576081
000300 01 19 11 bf 83 c6 80 3e 01 be 84 bc 48 ac 85 3f
       -0.5667878 0.25151452 -0.016203882 1.0443201
000310 f8 9e 80 3f 8c 40 0a bf 19 3d 3e 3f 55 db 3f 3f
       1.0048513 -0.5400474 0.7431198 0.7494405
000320 f8 ae 33 bf 18 08 ba 3f 7c 72 20 3f 80 1a 9c 3f
       -0.70188856 1.453372 0.6267469 1.2195587
000330 fd a3 47 be da cb 61 bf 88 0f ad 3e 68 79 6f 3e
       -0.1949615 -0.8820168 0.33800912 0.23386157
000340 eb 4d 2c c0 94 36 a4 3f 57 d4 59 bf 0b 98 a0 3d
       -2.6922557 1.2829156 -0.8508963 0.078415
000350 bc 31 81 bf 6b 54 01 40 6f 8a 6b be 7f 4a fa 3d
       -1.0093303 2.0207775 -0.23002027 0.1222124
000360 b9 44 36 be e6 9c 1a bf 9f 03 e9 be d2 9e e1 bf
       -0.17799653 -0.6039566 -0.45510575 -1.7626593
000370 e8 d7 23 3f 20 99 dd be a4 be ea 3f c8 7c b4 bf
       0.6400132 -0.43280888 1.8339429 -1.410058
000380 bc e8 6e 3e f0 5b 2a bf ce 99 32 3f df 71 9a 3f
       0.23330969 -0.66546535 0.6976594 1.2066001
000390 a4 3f 1c bf 64 49 6b bf 17 ca e6 bf a4 67 81 3d
       -0.6103461 -0.9190886 -1.8030423 0.06318596
0003a0 46 b9 e3 3e c0 51 2d 3f 98 ae c8 3f ed b5 17 3f
       0.4447729 0.67702866 1.5678282 0.5926197
0003b0 75 40 36 3f a9 d4 66 bf 6b 5d 96 bf 99 a9 31 bf
       0.71192104 -0.90168244 -1.1747259 -0.6939941
0003c0 33 a7 40 3f 5f 4b f9 bf 08 73 3f bf 1c 0b 35 3f
       0.75255126 -1.9476126 -0.747849 0.70720077
0003d0 c2 05 af bf 24 4d 94 be a0 75 a2 be b1 cd bf bf
       -1.3673632 -0.28965104 -0.31730366 -1.4984647
0003e0 a7 95 18 be 9a 4e eb bf e3 44 4c bf 6e 52 35 bd
       -0.14900838 -1.8383362 -0.7979261 -0.044268064
0003f0 49 fc 63 3f 5a d6 e3 3e 5f b3 f7 bf 69 51 99 bf
       0.8905683 0.44499475 -1.9351615 -1.197797

weight_ih_l0 f4 [300, 100]
000000 06 5a 26 be f7 18 8e be 8f 6a ec 3e f9 5f 16 bf
       -0.16245279 -0.27753422 0.46175048 -0.5874019
000010 69 bb eb be 85 32 7a bf 6e b1 7b 3d 4c 18 c7 be
       -0.4604142 -0.97733337 0.061448507 -0.38885725
000020 f7 f3 36 be 0a 74 fa bd 34 74 8d 3e 80 9d 84 be
       -0.17866503 -0.12229164 0.27627718 -0.25901413
000030 6d 32 17 bf aa 25 0f bf 6d d0 13 bf df 2d 95 3e
       -0.5906132 -0.55916846 -0.5773991 0.2913656
000040 c4 79 2c bf 03 30 8d 3e 9b 78 ff 3d 20 8f a3 3e
       -0.673733 0.27575693 0.124741755 0.31945133
000050 49 8c 7c bd 01 8a 3d bf 91 1b bf 3e 0a 8e f8 bd
       -0.061657224 -0.740387 0.3732572 -0.12136467
000060 ed 9c 17 3f ff d5 27 3d c8 08 b9 3e 35 2f 3e be
       0.59223825 0.040975567 0.36139512 -0.18572696
000070 9d 33 60 3e 4e 80 dd 3e b2 e9 9d 3e b6 07 32 3f
       0.21894689 0.4326195 0.30842358 0.69543016
000080 d6 ea ea be 47 bf 06 bf 0e 6f 8c 3d 07 70 75 3d
       -0.4588229 -0.52635616 0.068571195 0.05992129
000090 d4 a3 13 bf 1a 9d 58 3f 66 79 cc 3e 82 a1 8c bc
       -0.57671857 0.8461472 0.3993637 -0.017166857
0000a0 51 cf f3 3d b7 93 88 3e 98 46 50 3f 06 d1 ab 3e
       0.11904777 0.26675197 0.8135772 0.3355791
0000b0 39 15 5f bf 62 c9 69 3e 73 6a 2b bf 65 55 74 be
       -0.8714176 0.22830728 -0.66959304 -0.238607
0000c0 14 dc d8 3d 9f 7d 11 bd c5 f2 c6 be a9 01 54 3e
       0.105888516 -0.035520192 -0.38857093 0.20703758
0000d0 d4 2a 71 3e 5e 76 5d 3f fb ed 8c 3f 36 0e 27 3e
       0.23551494 0.8650874 1.1010126 0.16314015
0000e0 c2 ca 13 bf c2 6d 7c 3d bb 44 64 bf 2a 82 af be
       -0.5773126 0.06162811 -0.89167374 -0.34278995
0000f0 0c f5 10 bf 4f 86 2b 3e 6a a9 83 be fc e4 77 bf
       -0.5662391 0.16750453 -0.2571519 -0.9683378
000100 e1 f5 f8 bd 2a 46 de 3e 66 a9 93 be 60 aa 84 3e
       -0.12156273 0.43412906 -0.28840178 0.25911236
000110 f1 29 c6 be ce 0b a8 3e b2 6e 32 bd 27 f6 b3 3e
       -0.38703874 0.32821506 -0.0435626 0.35148737
000120 32 dc 1c 3f da 00 f5 3d 58 a5 bf 3e 9f d1 3a 3f
       0.6127349 0.11963053 0.37430835 0.72976106
000130 f1 b9 24 3f c7 79 d7 be 08 37 00 3e 5f 1a a1 3e
       0.64346224 -0.42085096 0.12520993 0.31465432
000140 fe e1 65 3e 89 5e 63 3f 5e f6 85 bd d3 66 3e bf
       0.2244949 0.88816124 -0.065411314 -0.7437565
000150 b5 07 75 be 53 f4 a2 3e 27 8a ad 3e cc 3b 6e 3e
       -0.23928721 0.3182703 0.33894464 0.23264998
000160 54 df 30 bd 2e 4a 3b bf 11 f2 7e 3d f5 95 34 be
       -0.043181732 -0.73160064 0.06224257 -0.17635329
000170 1b 80 ee 3d 01 2e 90 be 06 d8 9d 3d cd 84 76 3e
       0.11645528 -0.28160098 0.07707219 0.24074097
000180 77 3c f3 3e 17 2f 87 be 10 73 b3 bd 9b 6d 92 3e
       0.4750707 -0.26403114 -0.08762181 0.28599247
000190 12 37 d2 3e b2 63 87 3d 44 da 0e 3f 88 6f 06 bf
       0.4105764 0.06610812 0.55801797 -0.52513933
0001a0 bc 3f 6b bf 27 27 b8 bf 2f 3c 8e be c0 6a b8 be
       -0.91894126 -1.4386948 -0.2778029 -0.36018944
0001b0 05 b5 b1 3e a0 f8 20 bf 8f 5b eb 3d 30 74 88 bf
       0.3470842 -0.6287937 0.11492073 -1.0660458
0001c0 cd 93 1e be 02 c3 9f 3d a9 cb a0 be 2d 0f 85 3f
       -0.15486069 0.07800867 -0.3140538 1.0395256
0001d0 83 61 f4 3e 35 2c 31 bd d7 f8 85 3e da 44 11 3e
       0.47730646 -0.04325505 0.26166412 0.14186421
0001e0 68 0f 9c 3d 5a 65 ec 3e ce fa 30 bf eb a4 2b bf
       0.07620126 0.46171075 -0.691327 -0.6704852
0001f0 02 18 e7 3e 2c fa d4 3e a7 40 09 3e ba 16 04 be
       0.45135504 0.41597116 0.13403569 -0.12899294
000200 06 3d df bd cc f8 42 bc 7c c3 35 3e fd 65 4e bf
       -0.10900311 -0.011900138 0.17750353 -0.8062437
000210 26 c4 1d bf 6d 4a 3e 3f 5a e8 f9 3d e1 f4 a3 be
       -0.61627424 0.74332315 0.12202521 -0.32022765
000220 5c 4a 41 be 0a 07 05 3f 32 e7 92 3d 5d 0b 81 be
       -0.18876022 0.51963866 0.07173003 -0.25203982
000230 aa 1d 59 bd 9c 13 c7 be 1d 80 06 3f bf 16 9e 3e
       -0.053006805 -0.38882148 0.52539235 0.3087673
000240 29 79 31 bf 0c 60 63 bf b3 fa 1d be b3 51 b1 3c
       -0.693255 -0.8881843 -0.15427665 0.021645403
000250 fc b0 8e 3e cb 16 30 3e fd d4 07 bf 6e f3 bd 3d
       0.27869403 0.17196195 -0.5305937 0.09274946
000260 86 65 5f bf 20 f9 90 be 10 1a 90 3e e3 1d 06 bf
       -0.8726429 -0.28315067 0.28144884 -0.52389354
000270 88 6f 53 bf b9 0e 58 3f c8 3e 3b bf 91 5c 53 bd
       -0.8259206 0.84397465 -0.7314267 -0.05160195
000280 48 77 9d bd 1b e1 35 3f df 02 3c be 3f e9 44 bf
       -0.07688767 0.7104661 -0.1836047 -0.76918405
000290 6d f3 bd be 04 bf f9 3d a0 91 95 be cb 23 8a 3e
       -0.37099782 0.121946365 -0.29212666 0.26980433
0002a0 62 3b 16 3f 4e 2b 2c 3e cc fc 4a 3e b2 44 51 3f
       0.5868436 0.16813394 0.19822997 0.81745446
0002b0 fd 59 fd 3d 41 54 6d bf ee c1 a8 be ed c4 13 bf
       0.123706795 -0.92706686 -0.32960457 -0.5772236
0002c0 f8 50 5e be 5f 35 e5 3e 38 4b 88 be 0b 26 81 be
       -0.21710575 0.4476728 -0.26619887 -0.25224337
0002d0 0a 40 95 3e eb 42 aa 3d 5d f0 75 3e 5f e3 fd bd
       0.2915042 0.08313545 0.24017473 -0.12396883
0002e0 8b 1f c2 3e 0d 4f 67 bd 73 b1 3d be 9c 04 1b 3f
       0.3791469 -0.056471873 -0.18524723 0.6055391
0002f0 80 3d e9 bd 53 44 78 be e4 59 6b 3e a5 c5 33 be
       -0.11388683 -0.24244814 0.2298351 -0.17555864
000300 ed 7b c6 be 98 e3 80 3e d8 fc 2b be 43 29 d8 3e
       -0.38766423 0.2517364 -0.16795671 0.4221898
000310 1d 25 28 bf ec 00 02 3f f5 73 e4 bd fe 12 21 3f
       -0.6568163 0.50782657 -0.111549295 0.62919605
000320 2e c9 2f 3f 8d 20 8b be 87 95 c7 3d 79 1e 97 3e
       0.6866635 -0.27173272 0.09745317 0.29515436
000330 df 78 f9 be 67 72 b8 bc 24 af 0b 3e c2 1f 89 3d
       -0.4872503 -0.022515489 0.1364103 0.066955104
000340 ce 53 c5 be 81 8e b7 bf 10 c0 f5 be df 0d eb 3d
       -0.385405 -1.4340364 -0.47998095 0.11477255
000350 c1 27 c5 3e 84 4a 0a be 1f f2 54 bf 8c f8 8c be
       0.38506892 -0.13504988 -0.8318195 -0.27533376
000360 39 c4 fc 3e e8 c1 3b bf e7 6f 21 be 0c ad ca be
       0.49368456 -0.7334275 -0.15765344 -0.3958515
000370 57 98 9b bc 2e 1d 7d be 66 f1 b1 3e 6e 0f 05 bf
       -0.01899354 -0.24718162 0.34754485 -0.5197667
000380 3c 1b 23 3e fe 78 bc 3e dc 4e 76 be d5 42 2e be
       0.15928358 0.3681106 -0.2405352 -0.17017682
000390 75 dd 50 3f 44 f9 29 be 4a 3f 1c be f3 48 d5 bc
       0.81587917 -0.16598994 -0.15258518 -0.026035761
0003a0 dd 4e b5 3e 6d dc e1 3e a1 0a ef 3e 07 34 c9 3d
       0.3541173 0.44113484 0.46687797 0.098243766
0003b0 cb b8 6c bf 05 2a 10 bf 7b 29 8f 3e 00 73 e6 be
       -0.9246947 -0.56314117 0.27961335 -0.45009613
0003c0 8b f3 fa be 45 78 17 bf c0 aa 6d 3d 85 9d 95 3e
       -0.49013934 -0.5916789 0.058024168 0.2922174
0003d0 f3 ba 13 bf 10 f4 2a 3f 19 bc 88 be e6 3b 0a be
       -0.57707137 0.6677866 -0.26706007 -0.13499412
0003e0 03 6a c2 bd df cf 8c be a0 38 3d 3d 2f 3d bf 3d
       -0.094928764 -0.27502343 0.04619658 0.09337842
0003f0 77 46 2d 3e 78 67 0d 3c eb ea 05 3e 72 9c ea bd
       0.16921411 0.008630626 0.13077895 -0.11455621

weight_hh_l0 f4 [300, 100]
000000 3f 58 8e be fc 03 90 3d f6 d1 f3 bd fc e2 3e bf
       -0.278017 0.0703201 -0.11905281 -0.745651
000010 60 74 25 bf a4 51 2a bf 3c 8a d9 3e d5 1a 78 bd
       -0.646307 -0.66530824 0.42488277 -0.060572464
000020 62 3c fe 3e 14 42 72 bf a9 25 44 3f b0 34 59 be
       0.49655443 -0.9463208 0.76619965 -0.21211505
000030 fa fb 49 3e 21 22 b2 3d 00 6f 65 bd 9b 1e ab be
       0.19725028 0.08697916 -0.05601406 -0.33421788
000040 53 68 d6 bf 21 42 4c be ed 37 85 be 31 fe 14 3f
       -1.6750587 -0.19947101 -0.2601923 0.58200365
000050 e1 f1 e5 bd b2 6a 05 3f 43 36 01 bf a1 5f 1b bf
       -0.11227775 0.5211593 -0.5047342 -0.60692793
000060 a4 d1 17 3f 0b c1 a8 bf 07 9e e5 be 01 3b 39 3e
       0.5930426 -1.3183912 -0.44847128 0.18088914
000070 59 04 b2 be ae 19 dd bf e2 62 25 3f 12 02 91 3e
       -0.34768942 -1.7273462 0.6460401 0.28321892
000080 85 00 52 bf 8b 21 01 be a2 e9 d6 be cc f1 83 3e
       -0.8203204 -0.12610452 -0.41975123 0.25770414
000090 de d1 23 bf d2 57 b9 3e c6 c5 fe 3e 18 c4 d8 bd
       -0.63992107 0.36199814 0.49760264 -0.10584277
0000a0 88 10 a0 3e 1e 0c 6b 3c 78 01 f4 bf 2c a6 45 be
       0.31262612 0.014346151 -1.9062948 -0.19301671
0000b0 3c 27 22 3f fa ea 37 bf f0 89 05 bf 01 a0 f7 3c
       0.63341117 -0.7184292 -0.521636 0.030227663
0000c0 eb e4 2e 3f ac 80 06 3f 7b 07 80 3f 69 b9 46 be
       0.6831805 0.5254009 1.0002283 -0.19406666
0000d0 28 db 53 3e 91 60 28 bf bb 07 07 3f 3a 7d 17 bf
       0.2068907 -0.6577235 0.5274617 -0.59175456
0000e0 63 01 70 bf e2 eb d4 3e 28 b3 4b 3d e8 be 3c bf
       -0.93752116 0.41586214 0.049731404 -0.737288
0000f0 00 9e e4 3e dc 8b 3d bd e7 a2 5e bf 74 78 7d 3f
       0.44651794 -0.04627596 -0.8696732 0.9901192
000100 e2 50 cc be 19 bf ab 3e b3 79 df be a0 25 34 3f
       -0.3990546 0.33544233 -0.43647537 0.7036991
000110 19 63 28 3f 62 24 77 bf 4e 15 c4 bf 5a a9 a9 bf
       0.6577621 -0.9653989 -1.5319002 -1.3254807
000120 98 ca 43 bd 53 7f 47 3e 0c 2e 7c 3e b3 55 b4 be
       -0.04780063 0.19482164 0.2462694 -0.35221633
000130 a2 b9 60 3f b6 47 8f be 6a e9 7c 3d 45 3c 2f 3f
       0.87783253 -0.279844 0.06174604 0.6845134
000140 90 df 8c 3e 79 c3 81 bd d5 0a 79 3e 31 66 90 3e
       0.27514315 -0.063361116 0.24320538 0.28202966
000150 1b 16 e6 be 29 36 93 be a8 5c bf be 79 97 f6 bd
       -0.4493874 -0.28752258 -0.3737538 -0.1204061
000160 04 47 1f bf b2 d6 c5 3d 93 88 4c bd c9 27 8a be
       -0.62217736 0.096600905 -0.049934935 -0.2698348
000170 08 ed d4 be 1c 10 0a 3f 49 82 34 3f 7d e3 2f be
       -0.4158709 0.5393083 0.705113 -0.17176624
000180 c7 29 c4 be 4a 8f bd 3e 80 fa 95 3e 01 23 55 be
       -0.38313124 0.37023383 0.2929268 -0.20814134
000190 ed f6 ea bc 2a 3a 2e 3f 97 f9 a5 bc e7 a1 ab bd
       -0.028682197 0.680575 -0.020260615 -0.0838049
0001a0 0a 26 80 bd 35 94 b4 be 78 8a 05 bf e8 e5 cb be
       -0.062572554 -0.35269323 -0.5216441 -0.39823842
0001b0 d8 40 99 bb 1a 7c 88 be ac 6a 2f bf 47 65 76 be
       -0.0046769194 -0.26657182 -0.68522143 -0.24062072
0001c0 5b af df be 6d b9 6c 3e 41 10 c8 3e af 48 45 3f
       -0.43688473 0.2311761 0.390749 0.7706403
0001d0 76 ee 66 bd 4e bc 3f bc c0 45 93 bb 11 1c 95 3e
       -0.056379758 -0.01170261 -0.004494399 0.29122975
0001e0 c8 2a 5a 3c 9c ed 0e bf a8 e1 d8 3e 41 9f e2 3e
       0.013315864 -0.55831313 0.42359662 0.44262126
0001f0 05 02 8f 3e 4e 93 a2 be 9a 60 57 bf d5 00 ed bc
       0.27931228 -0.3175301 -0.8413178 -0.02893106
000200 af 7e ae be a9 ed 11 be 04 20 3e bf b5 cf c0 3e
       -0.34081027 -0.14250816 -0.742676 0.37658468
000210 28 20 a2 be 02 3b 4e 3e 4b 0b ad 3e 17 73 9e be
       -0.31665158 0.20139697 0.33797678 -0.30947182
000220 05 1f cf be 11 af e8 3e 51 33 18 3e fe fe dc 3d
       -0.40453354 0.45446065 0.14863326 0.107908234
000230 f8 cb 87 bf e1 e6 0c 3e 4c c5 0c 3f 1e 6f cb 3d
       -1.0609121 0.13759948 0.5498855 0.09933303
000240 9d 3f 25 be 23 ae 19 be 79 b1 8c bd c7 dd 14 bf
       -0.16137548 -0.15007834 -0.06869788 -0.58150905
000250 d0 39 5d 3f 5b 1a d5 be aa 9e f2 be 59 88 06 3f
       0.8641634 -0.4162167 -0.47386676 0.525518
000260 c6 20 51 3e 35 f9 09 bf c2 7e 41 bf 7a fc 13 be
       0.20422658 -0.53895885 -0.7558404 -0.14451781
000270 9f 19 49 3e 01 06 3d 3e 39 f2 a0 bd 97 46 1c bf
       0.1963868 0.18459322 -0.078587 -0.6104521
000280 1f c0 31 3e 5e 6f ac 3c 9e e4 9b bf 9d 7c 96 be
       0.17358445 0.021049198 -1.2179143 -0.29391947
000290 e5 12 1b be 62 99 dc be 3b 3c 43 bf f0 7c 83 3e
       -0.15143926 -0.43085772 -0.7626378 0.25681257
0002a0 bb 7d bc 3d 8b 43 b1 3e e2 cf 93 3e af c4 a4 3e
       0.09203669 0.34621844 0.2886954 0.32181308
0002b0 f6 c5 46 bf 7c bb 51 3e c7 e8 50 be f8 2f 23 3f
       -0.77645814 0.20481676 -0.20401298 0.6374507
0002c0 33 bc 87 bb f0 32 90 be ae 14 30 bf 53 8d f6 3c
       -0.004142308 -0.28163862 -0.68781555 0.030096686
0002d0 2f 5e 2f 3e 74 ae 5e bc ea 5a 2c bd e1 26 39 be
       0.17125772 -0.013591398 -0.04207889 -0.18081237
0002e0 f2 13 9b be bd 92 2d be 39 0d 59 3f a8 3f 54 be
       -0.30288655 -0.16950507 0.847858 -0.20727408
0002f0 8c b0 b3 3e ee 66 72 3f 6e 89 2b 3f 1e 15 e0 be
       0.35095632 0.9468831 0.67006576 -0.4376611
000300 de 99 c0 be 6d da e3 3e 5a aa 77 3f 7f 43 23 3f
       -0.3761739 0.44502583 0.9674431 0.63774866
000310 67 56 93 3e de 6a f3 bd ed 1a 45 3d 98 6d e2 3c
       0.28776857 -0.11885618 0.04812138 0.027640149
000320 7b 50 85 3d 88 9a a9 3c 85 c5 21 be 06 f8 3d be
       0.06509491 0.020703569 -0.15798004 -0.18551645
000330 fc e4 3e bd 73 f5 21 bf 56 85 14 3e ba 90 8f 3e
       -0.046605095 -0.6326515 0.14503989 0.28040105
000340 e1 b4 46 3e 48 d0 fc bd 0a e6 29 bf 39 29 40 3b
       0.19404937 -0.12344414 -0.66366637 0.0029321446
000350 d5 d7 90 bf e8 23 69 bd c3 dd be 3b 18 74 ce be
       -1.1315867 -0.05691901 0.005824776 -0.40322948
000360 d1 28 5c 3d 77 7e f7 3e dc 50 86 bf 22 68 41 3c
       0.053749863 0.48338673 -1.0493426 0.011804612
000370 b2 58 34 be 58 06 28 be c1 96 56 bf f6 4a 9a 3f
       -0.1761196 -0.1640867 -0.8382378 1.2054126
000380 fa 6b 3f 3e bf 8c 4f 3e cc 7f 7e be 17 13 21 3f
       0.18693534 0.20268534 -0.24853438 0.62919754
000390 99 6c 02 be fd 5c 23 be 1d 15 ea be 0b b3 0a be
       -0.12736739 -0.15953441 -0.45719233 -0.13544862
0003a0 3b 80 e5 be ab 41 aa 3e e2 13 00 be d6 0e b7 3e
       -0.44824395 0.33253226 -0.12507585 0.35753506
0003b0 ca 1f 25 3e 78 c1 61 3d 29 98 37 3e 61 63 83 bd
       0.16125408 0.055116147 0.17929138 -0.064154394
0003c0 7a 7d 35 3f 67 51 21 3e 94 f0 06 3e c1 86 bd be
       0.7089459 0.15753709 0.13177711 -0.37016872
0003d0 fd 0f 9c be ad ef c7 3d 7f 9b 9f bd 49 b3 49 be
       -0.30480948 0.097625114 -0.077933304 -0.19697298
0003e0 75 ae 5d 3e f0 7b 8b 3e b1 64 0b 3f a2 db bf bd
       0.21648581 0.27242994 0.5445052 -0.093680635
0003f0 c1 04 5a 3b 58 1f c1 be a8 e4 4c be ae 72 91 3e
       0.0033266994 -0.37719226 -0.200091 0.28407806

bias_ih_l0 f4 [300]
000000 f1 1e 0f bf b4 4c ea be c7 52 4b be b1 51 9d be
       -0.5590659 -0.45761645 -0.19855796 -0.30726388
000010 a6 8a 88 3c 12 48 a2 3e 9b cc e2 be 5e bf 35 be
       0.016667675 0.3169561 -0.44296727 -0.17748782
000020 23 1b c6 bc b8 86 a2 3c 5f da a3 3d 77 04 a9 3d
       -0.024182862 0.01983963 0.08000635 0.08252805
000030 6c bb 87 3d 87 fc b4 be 42 d0 4e be f8 1b 90 bd
       0.06627545 -0.35348913 -0.20196632 -0.070365846
000040 d8 ec 84 be bf e6 f0 be 03 3e 88 bd be 0f c3 be
       -0.25961947 -0.47051045 -0.06652453 -0.38097948
000050 bb 95 e9 be a2 b4 2c bf 46 b4 e5 3c 2b 1d 74 3d
       -0.45622048 -0.67463124 0.028040063 0.05959813
000060 33 64 24 3e c0 9b 60 bb 7a 56 18 bf 77 0b 01 bf
       0.16053848 -0.0034272522 -0.5950695 -0.5040812
000070 b5 b8 ff be 6b 65 e5 bd 6e ec 65 3e 15 dc 93 be
       -0.49945608 -0.112009846 0.22453472 -0.28878847
000080 50 bd ff bd 28 80 f6 bd 1d 55 c5 be 3c b9 91 bd
       -0.1248728 -0.120361626 -0.385415 -0.07115409
000090 64 c0 fc bd 37 66 20 bf 02 33 45 be 12 fd 9f be
       -0.12341383 -0.6265597 -0.19257739 -0.31247765
0000a0 47 94 10 bb 90 ad 3c 3e be 2d 60 be 1d 34 d0 bd
       -0.0022061036 0.18425584 -0.2189245 -0.1016619
0000b0 41 35 a1 be ef cb 53 be a0 0e 1f be 28 07 0c be
       -0.31485942 -0.20683263 -0.15532923 -0.13674605
0000c0 06 64 83 3d 18 9e dd be 46 63 6e bd 42 00 08 be
       0.06415562 -0.43284678 -0.058200143 -0.13281348
0000d0 f1 70 12 bf 7b 0d 10 bf c8 8a 30 bd 74 53 b5 be
       -0.57203585 -0.5627057 -0.043101102 -0.35415232
0000e0 41 46 4f be 57 ce 26 be 6f d7 02 3c a7 10 8b be
       -0.20241643 -0.1628965 0.007985934 -0.27161142
0000f0 2c 06 3d be 43 48 cf be 7a de d8 bd 16 12 c0 bd
       -0.18459386 -0.4048482 -0.10589309 -0.093784496
000100 f0 50 b4 be fb f7 0c be 49 f5 9a be 5e 88 db 3c
       -0.35218 -0.13766472 -0.30265263 0.026798423
000110 90 b8 75 be 13 6f 35 3e ce 5e d9 be 6d a5 e0 3c
       -0.23996186 0.17718153 -0.42455143 0.027422631
000120 8d fe 6f be a0 09 c5 be eb 9f ac 3c 41 83 33 be
       -0.23436947 -0.38483906 0.021072349 -0.17530538
000130 25 0f d2 bd a8 b7 21 3c 05 7c 96 be fe 0d 51 be
       -0.10256795 0.009870447 -0.29391494 -0.20415494
000140 7c c2 f1 3e e7 31 ff 3c 57 e1 bd 3b 11 ce 7d bd
       0.47218692 0.031151725 0.005794685 -0.0619641
000150 f1 52 b0 bd 19 7f ab bd 1f 5b 03 bf 11 42 e2 3d
       -0.0860957 -0.08373851 -0.51310915 0.110477574
000160 11 e2 9c bd 29 d8 b9 bc f1 82 c5 bc e4 d7 14 bf
       -0.07660306 -0.022686081 -0.02411029 -0.5814192
000170 3f 6b 2b be 1a d7 67 be b3 58 37 be e7 19 01 bf
       -0.1674013 -0.22640648 -0.1790493 -0.5043015
000180 6f c7 11 3e 3e cf b5 bc 9f a7 13 be 67 85 ea be
       0.14236234 -0.022193547 -0.14419411 -0.45804903
000190 93 8a 94 be 41 e7 a5 bf 18 9c 50 bf ed 40 08 bf
       -0.29011974 -1.2961198 -0.8148818 -0.5322407
0001a0 05 1c 1f be f4 88 35 bf d6 a0 39 bf 62 68 fd be
       -0.15538032 -0.709121 -0.7251104 -0.494937
0001b0 40 82 14 bf 91 76 15 bf 0b bc 1f bf aa 65 8f be
       -0.58011246 -0.5838404 -0.62396306 -0.2800725
0001c0 01 43 b9 be 63 2f 37 bf 5a 7f 18 bf 94 6c ac bd
       -0.36183932 -0.7155668 -0.59569323 -0.08419147
0001d0 7a 65 10 bf e2 1d 38 bf e7 6a 40 bf c5 36 f0 be
       -0.5640484 -0.719206 -0.7516312 -0.46916786
0001e0 ad 47 0a bf 1d db 2e bf 07 eb c0 bd 1f a5 ea be
       -0.5401562 -0.6830309 -0.09419828 -0.45829102
0001f0 2a 56 da be dc 0d 7c 3c b4 b0 67 bf b7 50 02 bf
       -0.42643863 0.015384164 -0.90504 -0.5090441
000200 69 52 e3 be ca af 35 be 18 fd c2 be 02 96 9d be
       -0.4439881 -0.1774284 -0.3808372 -0.3077851
000210 c9 b1 2e bf 74 c1 3a be 12 d4 1c bf a5 6c 09 bf
       -0.6824003 -0.18237859 -0.61261094 -0.53681403
000220 12 2b 0f bf 0b 0a 4b bf 05 18 88 be 21 2a 3e bf
       -0.55925095 -0.793122 -0.26580825 -0.74283034
000230 47 0e 39 be be f2 af 3d 7b 86 e9 be 03 45 ba be
       -0.18071853 0.08591221 -0.45610413 -0.36380777
000240 bf 1d c6 be 8c a5 7c bf 55 94 04 bf 9f c2 6f be
       -0.3869457 -0.98690104 -0.51788837 -0.23414086
000250 ca 31 f0 be 0f af f8 be c8 c9 41 bf d1 b1 41 bf
       -0.46912986 -0.4857106 -0.7569852 -0.7566195
000260 21 70 09 bf 13 db 88 be c3 64 da be 4c 20 d2 be
       -0.5368672 -0.2672964 -0.42655 -0.41040266
000270 2c 23 ce be 0d dd 20 bf 7d 3a 2c bf b7 2e 97 be
       -0.4026121 -0.62837297 -0.67276746 -0.29527828
000280 c4 23 43 bf 18 9a 00 bf 82 15 d7 bd fd 7d 77 be
       -0.7622645 -0.5023513 -0.10502149 -0.24169154
000290 2d d6 56 be b1 e2 12 bf 62 fe cb be 69 a2 4c 3d
       -0.20980139 -0.57377154 -0.39842516 0.049959574
0002a0 53 b8 b8 be 5c 63 3f be 6b 11 c7 be a0 03 6b be
       -0.36078128 -0.18690246 -0.38880476 -0.22950602
0002b0 02 2c e0 be e4 a9 42 bf cd 35 c8 be 1a c3 a0 be
       -0.43783575 -0.7604048 -0.39103547 -0.3139885
0002c0 d0 68 cb be 9d 39 31 3e ca 88 54 be 8a 28 ae be
       -0.39728403 0.17307134 -0.20755306 -0.34015304
0002d0 a6 ba 07 bf f6 aa cd be 1a 36 2e bf 1b 1f 89 be
       -0.5301918 -0.40169495 -0.680513 -0.26781544
0002e0 82 71 66 be 88 00 81 bf 1a 70 32 bf 9b 14 c0 bd
       -0.22504237 -1.0078287 -0.69702303 -0.0937893
0002f0 91 b8 ef be 18 19 f1 3d 68 4d 9d be 20 e4 d1 be
       -0.468205 0.117723644 -0.3072312 -0.40994358
000300 59 27 b0 be bb f0 cf be 9c 2a fa bd 2d d3 48 bf
       -0.3440502 -0.4061335 -0.12215158 -0.7844723
000310 87 19 ac be a9 cd 98 be a9 c0 09 be cf 96 ee be
       -0.33613226 -0.29844406 -0.134524 -0.46599433
000320 af c0 58 be b8 89 5b be 55 cf 43 be 51 b4 11 be
       -0.21167253 -0.21439254 -0.1912206 -0.14228942
000330 16 9e a1 3e 2b f8 a3 be ec fc 2c be 93 df f0 bd
       0.31565922 -0.32025275 -0.16893357 -0.117613934
000340 1f 36 23 be 93 31 f1 3d 1b 80 13 be ca 72 1a 3e
       -0.15938614 0.11777034 -0.14404337 0.15082851
000350 1b 4b cb 3e 76 f2 9b 3d 76 2f 86 3c fc bd b5 3d
       0.39705738 0.07614605 0.016380053 0.08874127
000360 94 5e 91 3c b5 95 22 bd e6 55 46 be ed 6d 9f bd
       0.017745294 -0.039693553 -0.19368705 -0.077846386
000370 23 66 52 3e a9 eb 11 3e 82 11 e1 3d 5d 55 9b 3e
       0.20546775 0.14250053 0.109896675 0.30338565
000380 e3 45 51 be 28 90 94 be 54 6b 2b be 7d 79 53 3e
       -0.20436816 -0.29016232 -0.16740161 0.20651813
000390 79 47 96 bc 7a 0d 3d 3d 58 d2 7a 3d ac 1e 68 be
       -0.018344628 0.04615543 0.061235756 -0.2266795
0003a0 91 29 bd 3e 68 e6 f1 3d 18 ff 17 be 28 c0 94 be
       0.36945775 0.11811525 -0.14843404 -0.29052854
0003b0 26 0f a8 3d c5 e4 a7 be 17 4c 4c 3e a9 ef dc 3e
       0.08206014 -0.32791725 0.19950901 0.43151596
0003c0 28 61 bc 3d bd 52 72 be 83 87 9e 3e 34 dc 2b be
       0.091982186 -0.23664375 0.30962762 -0.1678322
0003d0 b0 af 87 3d ca e0 0b 3f 29 02 76 3e 8a 79 82 3e
       0.066253066 0.54639876 0.24024262 0.25483352
0003e0 8b 36 02 be 0d 91 55 be fe f5 46 3d a1 d2 ec 3c
       -0.12716119 -0.20856114 0.04857444 0.02890903
0003f0 2e a9 1e 3e 5c ed 82 3e 3b 11 88 bb a6 a4 6e 3d
       0.15494224 0.25571716 -0.0041524447 0.05826249

bias_hh_l0 f4 [300]
000000 34 83 03 bf fe 6f dc be 3b 8f 52 be ff a8 66 be
       -0.51372075 -0.43054193 -0.2056245 -0.22525404
000010 48 70 6a 3d 85 17 50 3e ef 9e d1 be ce 54 7a be
       0.057235986 0.20321472 -0.4094157 -0.24446413
000020 6d d8 01 be e1 2b f6 3d 09 82 fc 3c 03 39 f5 3c
       -0.12680216 0.12020088 0.030823724 0.029934412
000030 e9 22 61 3c ed 12 ed be 4a 86 40 be 19 ed 54 bd
       0.013741233 -0.46303502 -0.18801227 -0.051983926
000040 bf fc 43 be e5 7a cf be eb 55 51 be b3 ae 58 be
       -0.19139384 -0.4052345 -0.20442931 -0.21160392
000050 bb 74 cd be 80 d2 16 bf 25 66 cd 3d 1b a6 24 bd
       -0.4012812 -0.5891495 0.10029248 -0.040197473
000060 7b b9 1a bd 2c d1 7b 3c 92 aa 00 bf c1 77 c3 be
       -0.037774544 0.015369695 -0.5026027 -0.38177302
000070 db 97 f0 be 28 93 53 3d f4 d0 9c 3e d8 3a 5f be
       -0.46990857 0.05165401 0.3062817 -0.21799791
000080 fe 65 32 be ea 93 7a be ff 5b 95 be a8 16 f4 bd
       -0.1742172 -0.24470487 -0.2917175 -0.11918384
000090 1b 4c ae bd 5f 7b 2a bf 5d 1e 8d bd c4 b7 11 be
       -0.0851061 -0.665945 -0.06890557 -0.14230257
0000a0 de 9a 47 be 84 b6 5e 3e c3 a1 6a be e9 39 05 be
       -0.19492671 0.21749312 -0.2291327 -0.13010372
0000b0 8b e8 dc be c2 88 83 be ac 96 a5 be 8d b5 5c be
       -0.43146166 -0.25690275 -0.32341516 -0.21553631
0000c0 8c 51 61 bd 50 f1 eb be e7 11 d4 bd 5a 74 0b be
       -0.05500941 -0.46082544 -0.10354977 -0.13618603
0000d0 8c 2d 05 bf 63 1b 01 bf cc 41 b5 3c 9b 5c c2 be
       -0.52022624 -0.50432414 0.022126101 -0.37961277
0000e0 47 7c 58 be d5 10 9e be 73 5a fe bb fc 5c 32 be
       -0.21141158 -0.30872217 -0.007762247 -0.17418283
0000f0 fe e0 49 be 40 7e 83 be 56 2d 01 be 2c fc a5 bd
       -0.19714734 -0.2568226 -0.1261495 -0.081047386
000100 92 76 aa be 48 95 1f be 41 33 9c be f4 93 2a 3c
       -0.33293587 -0.1558429 -0.30507854 0.010411251
000110 d4 9e 72 be 04 e7 c8 3d c0 ed e4 be a3 5f d2 bc
       -0.236934 0.09809688 -0.4471264 -0.025680369
000120 5d 7b 86 be fc b6 b8 be 61 bb 0e 3e 3d 33 12 be
       -0.26265994 -0.36077106 0.13938667 -0.14277358
000130 79 51 32 3d 98 62 27 3e b1 98 89 be f6 cc 7f be
       0.04353473 0.16346204 -0.26874307 -0.2498053
000140 4c 91 f9 3e f3 dd 83 3d db 93 0b be 7c ba 90 3b
       0.48743665 0.06438818 -0.13630621 0.004416762
000150 57 83 82 bd a9 f4 ae bd 78 19 cb be 6b 8a 8c 3d
       -0.06372707 -0.08542759 -0.3966787 0.06862339
000160 79 4e 48 be 98 91 fd bc dd 4a 05 be bf a8 e0 be
       -0.19561185 -0.030953214 -0.1301684 -0.43878743
000170 75 fe 34 bd c1 e9 fa bd 29 3a 47 be d4 83 bd be
       -0.04418798 -0.12251616 -0.1945578 -0.3701464
000180 44 43 3f 3e 01 b7 6c bd 3d 22 1e be 0b 99 d3 be
       0.18678004 -0.057791714 -0.15442748 -0.413277
000190 3f ab 83 be 87 e0 a7 bf 62 88 3b bf 45 da 15 bf
       -0.25716588 -1.3115395 -0.7325498 -0.5853618
0001a0 53 f3 72 be f4 09 13 bf 2a 9f 27 bf 97 44 08 bf
       -0.23725633 -0.5743706 -0.6547724 -0.5322966
0001b0 46 2b 28 bf b1 9c 21 bf 0b 6d 3f bf d3 55 3b be
       -0.6569103 -0.6312972 -0.7477576 -0.18294458
0001c0 e1 89 a2 be bb d1 4a bf 4e 34 1f bf 08 60 55 bd
       -0.31745818 -0.79226273 -0.62189186 -0.052093536
0001d0 fb 0a ee be a2 55 2b bf f1 0f 35 bf ff d6 e9 be
       -0.46492752 -0.6692754 -0.7072745 -0.45671842
0001e0 f3 ad f3 be c7 10 34 bf 93 f4 ba bd 4d 1d 0c bf
       -0.4759365 -0.703381 -0.0912868 -0.5473221
0001f0 52 9d b8 be 95 2b f5 bd 9a b6 41 bf 2a 14 d4 be
       -0.36057526 -0.11971203 -0.7566925 -0.41421634
000200 6f a8 ad be 0d c3 69 be e4 7a cb be 5b cb e6 be
       -0.33917567 -0.22828312 -0.39742196 -0.45077023
000210 c9 bd 11 bf 14 84 36 be 1d b0 d6 be 03 de 2e bf
       -0.56930214 -0.17823821 -0.4193124 -0.68307513
000220 23 b7 05 bf 7f a3 34 bf 1f a2 c9 be 9f ad 29 bf
       -0.5223257 -0.70561975 -0.393815 -0.6628055
000230 b8 43 a3 be 03 d5 24 3e c3 35 e1 be 43 33 f0 be
       -0.31887603 0.16096883 -0.4398633 -0.4691411
000240 81 83 e5 be 02 01 5f bf c7 b3 25 bf 7b e7 bd bd
       -0.44826892 -0.8711091 -0.64727443 -0.09272667
000250 40 4e e8 be 80 5c 10 bf b2 8e 51 bf 8f ce 3a bf
       -0.453722 -0.56391144 -0.8185836 -0.72971433
000260 34 96 14 bf 89 80 9a be f5 6d eb be 8c 98 c7 be
       -0.5804169 -0.3017619 -0.45982328 -0.38983572
000270 00 c5 c3 be c9 9c 0f bf fc f7 30 bf 01 0b 9a be
       -0.38236237 -0.5609861 -0.69128394 -0.3008652
000280 30 e7 44 bf 9a d3 0d bf cc e9 ec bd a4 b9 ca be
       -0.76915264 -0.55401003 -0.11568031 -0.39594758
000290 08 8b bd be 2b 34 0b bf 82 04 94 be 49 21 1d 3e
       -0.37020135 -0.54376477 -0.2890969 0.15344729
0002a0 33 66 a2 be 02 1a 22 be 87 10 d6 be 74 9f bf bd
       -0.31718597 -0.15830234 -0.41809484 -0.09356585
0002b0 33 3f 0a bf ff 9c 38 bf 37 d2 a4 be 46 d7 d2 be
       -0.54002684 -0.7211456 -0.3219163 -0.41179866
0002c0 fc 70 b6 be 0f 45 cf 3d b2 3f 18 be 20 96 00 bf
       -0.35633075 0.10120594 -0.14868048 -0.5022907
0002d0 87 52 1c bf ba 68 ac be a4 43 57 bf 7a f0 7e be
       -0.61063427 -0.3367365 -0.84087586 -0.24896422
0002e0 f0 48 ce be 3c e7 83 bf 02 68 1a bf a7 f8 9f bd
       -0.40290022 -1.0304942 -0.60314953 -0.078110985
0002f0 11 1a da be 81 61 f4 bb ec aa db be ab 6f 09 bf
       -0.42598012 -0.0074579124 -0.4290384 -0.53686017
000300 a1 c9 ee be 49 e8 b2 be 1d 63 2d be 89 a9 57 bf
       -0.46638206 -0.34942845 -0.1693234 -0.84243065
000310 3d 68 de be 6f 76 86 be fb 4e bb bd 18 b0 0e bf
       -0.43438902 -0.26262233 -0.09145924 -0.5573745
000320 07 e8 22 be 00 bc e4 bc ad 86 7e 3e fd 46 db bd
       -0.15908824 -0.027921677 0.24856062 -0.10706899
000330 77 b7 0c 3f 8c cd ce 3d 90 44 bc b9 45 0f 3f be
       0.54967445 0.10097799 -0.00035909237 -0.18658169
000340 a8 e8 d1 be 3e 26 99 3e ae 4d 3b 3e 53 b5 0e 3f
       -0.40997815 0.2991199 0.18291351 0.5574543
000350 74 66 56 3e 81 46 a7 3e 5e 1c fb 3d fa 22 5b bd
       0.2093752 0.32670978 0.1226127 -0.053500153
000360 8f 35 5a 3e 3c 20 21 3e 22 ce b1 be ce 3b 73 be
       0.21309493 0.15734953 -0.3472758 -0.23753282
000370 e3 04 e3 3e 63 3e 50 3e 7a 4b 92 3e 9d 73 ca 3d
       0.44339666 0.20336299 0.2857321 0.09885333
000380 01 f6 d4 bd 27 4a b3 be fc 35 65 be de 4f f9 bc
       -0.10398484 -0.3501751 -0.22383875 -0.030433591
000390 9e de 0a 3e f4 80 78 3e 1f 04 44 3e 1d 22 83 be
       0.13561484 0.24267942 0.19142197 -0.25611964
0003a0 95 c7 a2 3e 10 a5 ce 3e 20 e6 91 be 19 26 91 be
       0.31792894 0.40360308 -0.28495884 -0.2834938
0003b0 58 ee 6a 3c 16 8b a3 be d1 9f dd bd da 16 70 3e
       0.014339052 -0.31942052 -0.10821498 0.23446217
0003c0 42 d0 83 bd 4e cf 22 be 94 3a 01 3e 0a a9 91 be
       -0.064362064 -0.15899393 0.12620002 -0.2844928
0003d0 61 ce 37 3f c6 ec 6c 3e ed 77 8a 3e 5d 16 0e 3e
       0.71799284 0.23137197 0.2704462 0.13875718
0003e0 e9 87 67 be 93 70 74 be c4 42 ce 3d 41 cf ae be
       -0.2261044 -0.23871069 0.10071328 -0.34142497
0003f0 3a dc d7 be 08 47 82 3e 23 03 2e be 3a 8d 8c be
       -0.42160207 0.25444818 -0.16993384 -0.27451497

weight_ih_l1 f4 [300, 100]
000000 51 d8 8b be 8d cc a2 be 7e c3 04 bf 3e 43 94 3f
       -0.27313474 -0.31796685 -0.518608 1.1583021
000010 0f 09 8f 3d df c0 47 3e 11 04 cf bd 83 cd 01 3f
       0.0698415 0.19507168 -0.101081975 0.5070421
000020 c9 70 2f 3f a7 ed 30 3d cb 15 2f 3f 21 1b 49 3e
       0.6853147 0.043195393 0.6839263 0.19639255
000030 96 22 40 bd 8e 7e 32 3c c2 2f 5d bf 3e 49 b9 bd
       -0.046907984 0.010894431 -0.86401 -0.09047173
000040 df 83 f5 3e 6c fe 05 3f 42 d0 07 3f 5d 7b 41 3f
       0.47952172 0.5234134 0.5305215 0.7557886
000050 86 5b 81 be 81 85 34 3f 2c dd 93 3e 83 a0 24 be
       -0.2526514 0.7051621 0.28879678 -0.16076855
000060 0d 25 73 be 54 30 38 3f c3 97 11 bf 14 f3 db 3e
       -0.23744603 0.7194874 -0.56872195 0.4295889
000070 59 93 5b bf e3 af eb be bd 86 74 3f 99 f9 29 bd
       -0.8577171 -0.46032628 0.95518094 -0.0414978
000080 ff 2d db bd b8 71 ba 3e 89 82 cf 3e d0 3c d4 bd
       -0.107021324 0.36414886 0.40529278 -0.103631616
000090 a6 a1 76 3e 85 67 4e 3f f6 76 02 bf 26 59 45 3e
       0.24085101 0.8062671 -0.5096277 0.19272289
0000a0 b8 c5 f5 3c 31 49 8d 3c 06 ca 28 bf 26 ec 43 be
       0.030001506 0.017246814 -0.65933263 -0.19133052
0000b0 93 a1 8b 3f 4d 07 86 bf a6 95 22 bd 0f e1 0d 3e
       1.0908684 -1.0470978 -0.039693497 0.13855384
0000c0 87 93 fb ba 7f f9 99 bc 0b 47 35 3f d2 7e ac be
       -0.0019193747 -0.018795727 0.7081153 -0.33690506
0000d0 7c 38 9e be 06 50 20 bf 10 32 6d 3f 08 34 9d 3d
       -0.3090247 -0.62622106 0.92654514 0.0767594
0000e0 1a 51 fd bd 1c 89 72 bd 36 10 71 3f b1 1d e1 be
       -0.123689845 -0.05921279 0.9416536 -0.43967965
0000f0 42 6b 1f bd e8 ed 92 3e e4 1f bf 3e 32 62 f1 3e
       -0.03892065 0.28697133 0.37329018 0.4714523
000100 0b 2f 82 3d 9e ba 8f 3c be 99 f1 be 28 e1 41 3f
       0.06356629 0.01754504 -0.47187608 0.75734186
000110 a4 29 99 be 5b af f7 bd aa 74 9f be f8 da 64 3e
       -0.29914582 -0.12093993 -0.31143695 0.22349155
000120 5b fd 8c 3d 34 b6 44 be be cc 33 bf 73 e8 99 3c
       0.06884261 -0.1921013 -0.70234287 0.018787598
000130 d3 72 cc be 11 b8 36 bf 0f ad e5 3e b0 18 47 3e
       -0.39931354 -0.71374613 0.44858596 0.19443011
000140 79 98 5d bf b6 74 66 3b 98 5f 88 3e 8d 2b d5 3d
       -0.8656078 0.003516478 0.26635432 0.10408697
000150 e7 46 96 3e 10 33 ba be d9 4a c5 3e a7 f6 f0 be
       0.2935097 -0.36367083 0.38533667 -0.4706318
000160 6b fa 06 3e 9c 62 fa 3e 68 ee 05 be 8a 65 da bb
       0.13181464 0.48903358 -0.13079226 -0.0066649364
000170 91 8f 55 be 77 e2 b5 3c ca 81 d5 3e ec 5d d7 bd
       -0.20855547 0.022202713 0.41700584 -0.10515961
000180 d4 66 27 bf 90 6b 9e be 9e a2 63 bf 74 c4 48 3f
       -0.6539128 -0.3094144 -0.8892001 0.78424764
000190 fb 1f 5a 3e 2f 10 21 3e a4 34 44 3e fc 38 3a bf
       0.21301262 0.1572883 0.19160706 -0.727432
0001a0 86 57 81 be 46 25 67 bf 02 d4 53 3e db 79 81 be
       -0.25262088 -0.9029125 0.20686343 -0.2528828
0001b0 7d e2 90 be 70 77 90 3e b8 04 6b 3e 7e b6 3f bf
       -0.28297797 0.28216124 0.22951019 -0.74887836
0001c0 31 64 02 3f c5 64 53 bf 8b 60 5c 3f 6b 50 10 3f
       0.5093413 -0.8257564 0.8608481 0.5637271
0001d0 ce ca 2b bf d9 01 83 3e 19 45 ab 3e 96 be 46 be
       -0.6710633 0.25587347 0.33451155 -0.1940864
0001e0 54 99 92 3d 57 df 1e bd 8e 6e 13 3d 99 a2 85 3f
       0.07158151 -0.038787212 0.035994105 1.0440246
0001f0 bf 54 ce be fe fb 93 3c fc cd 85 bd 00 24 cb 3e
       -0.4029903 0.018064495 -0.06533429 0.39675903
000200 1c fa 9b 3e 08 52 80 be 59 ba 56 3d 05 5d 25 3d
       0.30464256 -0.25062585 0.05242381 0.040371913
000210 16 6f 1f 3e e2 e0 5d 3f 01 8b 8a 3e 63 8b 59 bd
       0.1556972 0.8667127 0.27059177 -0.053111445
000220 49 59 59 3e 9e 54 8d be e3 49 0f 3f 6a a8 c5 3d
       0.21225466 -0.2760362 0.5597212 0.09651263
000230 01 06 c1 3e 27 eb fd 3d ba 54 55 3e 0e 63 bd bd
       0.37699893 0.123983674 0.20833102 -0.09247409
000240 5d 92 5b 3e e0 b9 71 be 55 cb 0d bd dc c8 2a bf
       0.21442552 -0.23606062 -0.03461774 -0.6671274
000250 37 d7 eb 3e 3a 36 82 bf a0 37 18 b9 20 13 af 3e
       0.46062633 -1.0172799 -0.00014516572 0.3419428
000260 e7 92 e4 bd 2a 34 8a be 6b 54 20 3e 0e cf dd be
       -0.11160832 -0.26992923 0.15657203 -0.43322033
000270 6d 00 f0 3c fb 65 71 3e d0 5b 34 bf 9f 94 0f 3f
       0.029297078 0.23574059 -0.70452595 0.5608615
000280 b9 bf 82 bd 93 10 95 be a0 30 07 bf 70 60 29 bf
       -0.063842244 -0.29114208 -0.5280857 -0.66162777
000290 45 24 d7 3d de 88 15 3e 1e 14 ad 3e b4 db 41 be
       0.10504965 0.14602992 0.3380441 -0.18931466
0002a0 ac 9e 23 3f db 77 04 3e 72 aa c3 bc 1f 39 a9 bd
       0.6391399 0.12936346 -0.023884986 -0.08262848
0002b0 86 2f af 3e 1d 02 cd be 78 3c 0f bf 4e 08 34 bf
       0.34215945 -0.40040675 -0.55951643 -0.7032517
0002c0 7f 66 16 3f 6b e3 ec 3d d5 ba 1c 3f 68 1f 8f be
       0.58750147 0.11566814 0.61222583 -0.2795365
0002d0 ce bb 83 be 5b 40 24 be 59 14 12 3e 91 0d 78 be
       -0.2572922 -0.16040175 0.14265575 -0.24223925
0002e0 15 3a 3e bc 02 85 1d be 1a c9 7a 3f 26 0c a6 3e
       -0.0116105275 -0.1538277 0.97963107 0.32431144
0002f0 df 67 b3 3e 2b 0a 0e bf 0d 95 6b bd d8 ff 6b bd
       0.35040185 -0.55484265 -0.057515193 -0.05761704
000300 8f 0a 12 3e 78 0c 28 3f b0 bc 6d 3f 1b d9 cd 3c
       0.1426184 0.65644026 0.9286604 0.025127938
000310 5d 40 0d 3e e5 16 28 3f 52 8e 4e bf 15 a2 9e bf
       0.13794084 0.65659934 -0.80685914 -1.2393214
000320 b1 38 20 bc 5f 87 ce 3e 3a 54 35 3f 63 bf 54 bf
       -0.009779141 0.40337655 0.70831645 -0.8310453
000330 f5 1e 11 be cf 41 29 3f 2f 21 89 3d 25 42 3d bf
       -0.14171965 0.6611604 0.066957824 -0.73929054
000340 a6 07 c2 3e 7d 0b bd 3e 37 f6 08 3f e8 64 63 bf
       0.3789646 0.36922827 0.53500694 -0.88825846
000350 41 f2 1c 3f 54 ef 5b 3d 20 90 55 3f 5d 89 9c 3e
       0.6130715 0.053695038 0.8342304 0.3057355
000360 a9 25 da bd 03 82 ad be 16 58 1a 3f a4 9a 9b bd
       -0.10651714 -0.33888254 0.6029066 -0.07597855
000370 ea 2d 11 3e 98 8d ee 3e 24 0e 94 3e 38 b1 a6 bf
       0.14177671 0.46592402 0.28917038 -1.3022833
000380 b4 89 a3 bd 01 e3 bd 3e b0 81 6e 3e a8 66 89 bf
       -0.07985249 0.37087253 0.2329166 -1.0734453
000390 c1 34 35 bf 04 91 24 be b9 69 57 bf 9b b4 25 bd
       -0.7078362 -0.16070944 -0.84145695 -0.040455442
0003a0 c5 f0 1a bf 26 65 51 3d 2d 22 29 3f 3d bd df 3e
       -0.60523635 0.051121853 0.66067773 0.43699065
0003b0 53 30 17 3d 2a 0e ff be bc 2c 4f bf 5f 27 fa bd
       0.03691132 -0.49815494 -0.80927634 -0.12214541
0003c0 ea 3f 7f be 08 b9 9e 3e b7 47 66 bd 01 60 91 3e
       -0.24926725 0.31000543 -0.056220736 0.28393558
0003d0 94 f8 19 bf f6 00 fb be f3 db c4 bd 5e 54 3e bd
       -0.60144925 -0.4902417 -0.096122645 -0.046467178
0003e0 34 53 f3 be ac c8 72 3e 14 2f d5 bd 80 7e fa 3d
       -0.47524416 0.23709363 -0.1040937 0.12231159
0003f0 1e 73 53 3e 2f 12 da be 14 93 bc be 97 51 a3 3d
       0.20649382 -0.42591998 -0.36830962 0.079745464

weight_hh_l1 f4 [300, 100]
000000 b9 b0 19 3e bd 55 6b 3e a0 78 43 3f 9a 13 83 be
       0.1500882 0.22981925 0.76355934 -0.25600892
000010 9e 07 a7 bd 30 20 04 bd f0 5a 07 3f a1 e2 23 be
       -0.0815575 -0.03225726 0.52873135 -0.16004421
000020 1a 3b 81 bf 5d 1a 51 bd fe ee b3 be 53 20 89 bd
       -1.0096161 -0.051050533 -0.35143274 -0.066956185
000030 fa 1b 8e be 8a 74 05 be ba 8f b6 3e fd 59 38 bf
       -0.2775572 -0.13032737 0.3565653 -0.7201231
000040 df 7f 04 bf 28 09 4e 3e bf 6f 3c 3d 1c 79 54 bf
       -0.51757616 0.2012068 0.046005007 -0.829973
000050 29 a8 1b 3d 5a c1 9d be a7 a2 9e 3c 46 4d 4a 3d
       0.038002167 -0.30811578 0.019364668 0.0493901
000060 0b 8c 5a 3e 05 83 9b bd 28 af 0c 3e e5 4e 3e 3e
       0.21342485 -0.07593349 0.13738692 0.18584783
000070 29 8a 6e be 0f c6 89 3e 44 e9 4e 3e 65 e9 a0 3e
       -0.23294891 0.2690892 0.20206171 0.31428066
000080 8f 3f 74 3d 2c c8 b7 be 1c 8b a8 be 5c 5f 19 3e
       0.059630927 -0.35894907 -0.32918632 0.14977783
000090 49 ab 27 3e 77 96 d6 be 9e 0f cb 3e 8d 50 0a 3f
       0.16373934 -0.4191167 0.39660352 0.5402916
0000a0 30 be 86 3f 56 c2 08 3f fe c1 b6 be 45 34 af 3e
       1.0526791 0.53421533 -0.3569488 0.34219566
0000b0 c2 b8 57 3d 5c d8 b8 3d b7 36 8e bf 8b f4 73 3e
       0.052666433 0.09025642 -1.1110448 0.23823754
0000c0 79 56 05 3f d5 f8 80 3e 50 ca d7 3e 84 8c 7e bf
       0.5208507 0.25189844 0.4214654 -0.9943316
0000d0 36 05 ad be df b8 b7 be 75 f1 86 be 7d 92 6c 3f
       -0.33793038 -0.35883233 -0.26356092 0.92411023
0000e0 0c f9 61 be a5 7e 33 be 12 eb 1b be f2 e9 8b 3e
       -0.2206766 -0.1752878 -0.15226391 0.27326924
0000f0 d9 25 be bd bb 56 01 be 73 80 fe be 0f 0b d9 3d
       -0.092845626 -0.12630741 -0.49707374 0.105978124
000100 d7 23 9b bd 0c d9 b5 3e a0 9d c3 3d ac 4d be 3e
       -0.07575195 0.35517156 0.09551549 0.37168634
000110 4e 1a cb 3d 93 60 86 3d 63 a9 16 3d 37 ae 53 be
       0.099171266 0.06561389 0.036782634 -0.20671926
000120 06 a0 bf ba a9 d7 61 3e 39 c3 08 bf 77 70 b7 be
       -0.0014619834 0.22054924 -0.53422886 -0.3582799
000130 ac cd bc be ea c2 15 3f c0 f5 a5 be e7 ed 86 3d
       -0.36875665 0.5850054 -0.32414055 0.06588345
000140 84 57 01 3f ad ad 9a 3f 25 2d 72 3d c6 54 97 be
       0.50524163 1.2084252 0.059125084 -0.29556865
000150 31 6c 96 3e 23 4e 01 3e a0 2f 08 3e 38 e7 84 bf
       0.29379418 0.12627463 0.13299417 -1.0383062
000160 3b d7 b7 3e f9 10 11 be 08 a4 ce be 60 df 1f 3d
       0.35906395 -0.14166631 -0.4035952 0.039031386
000170 d8 44 9e 3e 77 74 08 be 21 ba 85 be 54 1e c0 be
       0.309119 -0.13325678 -0.26118568 -0.3752314
000180 e4 15 41 3e 89 85 0a bf af a3 e2 3c cc a9 e8 bd
       0.18856007 -0.5411001 0.027665941 -0.11360511
000190 f7 56 71 3e 95 6a 13 bf 3d ed e1 3d ad 8d 22 3f
       0.2356833 -0.57584506 0.11031578 0.6349743
0001a0 08 06 58 be 99 f0 85 3f ce 2b 11 bf 81 48 de 3d
       -0.2109605 1.046405 -0.56707466 0.10853673
0001b0 28 58 cc be 75 e0 88 be de fe 97 3e 06 f5 d6 3e
       -0.39911008 -0.26733747 0.29686636 0.41983813
0001c0 84 1d 40 bf 3f eb be 3e 93 fc 37 be 32 48 6f 3e
       -0.7504504 0.37288854 -0.17967443 0.23367384
0001d0 93 75 82 bd 48 d4 0c 3e 07 ff 9c bd 20 3c 33 3e
       -0.06370082 0.13752854 -0.0766583 0.17503405
0001e0 36 5a 69 bd ba 83 27 3e cd b8 da be c6 10 9c 3d
       -0.056970797 0.16358843 -0.42719117 0.07620387
0001f0 ed ff e8 3d ec 4d 25 3e c9 e2 15 be 22 e1 3d be
       0.11376939 0.16143006 -0.14637293 -0.18542913
000200 86 f2 c8 bd b4 e2 95 3e 1f c3 90 3e cc 5a 30 be
       -0.09811883 0.29274523 0.28273866 -0.17222136
000210 ef 39 55 bf 68 21 98 bd d2 26 f9 3e 92 fd 13 3e
       -0.83291525 -0.07428247 0.4866243 0.14452198
000220 1e 26 96 3e bd 3f d6 3e dd 66 4f 3e a2 fc 38 be
       0.29325956 0.41845503 0.20254083 -0.18065122
000230 9e a5 46 3e 96 c6 9a bd 4c 86 78 be 7b 6a 70 3f
       0.19399115 -0.075574085 -0.2426998 0.93912476
000240 c8 8b 49 3d 25 83 f8 bd 8f ce 70 3f 7e 52 e9 3c
       0.04920557 -0.12134389 0.94065183 0.028481718
000250 35 a0 c8 3e 49 7c 2d bf ca bc 5c 3f 3a 20 17 3d
       0.39184728 -0.6776777 0.8622557 0.036895968
000260 1e ec 44 3e 7f 1d f5 3d 1a 7c 42 3f ea 68 4f 3d
       0.19230697 0.119685166 0.75970614 0.050637163
000270 65 02 ca 3e 7e 2c 8b be dd 72 a9 3d e3 f8 88 3e
       0.39454952 -0.27182382 0.082738616 0.26752385
000280 df ee a6 3e 05 4c 1d 3f 90 8f 90 3e ab c5 86 bd
       0.3260412 0.6144412 0.2823453 -0.06580671
000290 04 1c 0b be 22 22 da be b2 f7 86 3e c5 13 79 3d
       -0.13584906 -0.42604166 0.26360852 0.06080987
0002a0 59 2d 71 3e 61 41 e9 3d 35 62 3a 3d f1 cd f8 3e
       0.23552455 0.11389423 0.045503814 0.4859462
0002b0 bd dd f9 bd a5 83 cf 3d ec cf 84 3e 60 76 f4 be
       -0.12200496 0.10132531 0.25939882 -0.47746563
0002c0 11 0c dc 3e 57 39 28 3f fd dd e2 bd ad 15 1d 3d
       0.42977956 0.65712494 -0.11077497 0.03835075
0002d0 de a8 da bd 21 fd 55 be 06 b7 5d bd 03 f7 43 3e
       -0.1067674 -0.20897342 -0.054129623 0.19137196
0002e0 30 12 b0 3d a2 f6 1e bf ea ff 0f 3e b1 ba 17 3d
       0.08597219 -0.6209508 0.14062467 0.037043277
0002f0 4e 5b 45 be e1 e2 14 bf 11 69 c6 3d d5 8b 92 bd
       -0.19273111 -0.5815869 0.096880086 -0.07155577
000300 34 a8 02 bb 23 fd 74 be df ce 45 3f 29 06 9c 3e
       -0.0019936683 -0.23924689 0.77268785 0.3047345
000310 8f 6e 90 3e a4 a9 94 bf 51 87 60 3e 78 af 01 3e
       0.2820935 -1.161427 0.21926619 0.12664592
000320 96 aa 08 bf d9 d9 0a be 6f 64 26 3e b7 b1 82 bf
       -0.53385293 -0.13559665 0.1624925 -1.0210484
000330 d4 6b ce 3c 67 10 8b 3e 92 2e 62 be 42 01 c7 bd
       0.0251979 0.27160951 -0.22088078 -0.09717037
000340 53 1b 58 be a6 43 36 bf 43 c7 d7 3d 13 dc 9b be
       -0.21104173 -0.71196973 0.10536053 -0.3044134
000350 8f de 0b 3e d9 03 39 bf bb ed b0 3e be 3b 4a 3d
       0.13659118 -0.72271496 0.34556374 0.04937338
000360 e7 f2 74 be b2 0c 4f be 1c da 38 3e a9 a1 82 be
       -0.23920785 -0.20219687 0.18051952 -0.25513962
000370 33 ca 37 bf 34 fb c1 3e 63 0c 52 3f ad 80 1e 3d
       -0.71792907 0.37886965 0.8205015 0.038696934
000380 88 7a 35 bf c2 76 f4 3c 9e 3e 6d 3e fd 01 52 3e
       -0.7089009 0.029841784 0.23168418 0.20508571
000390 b6 85 70 be 9e f9 a9 3e 7d 55 c5 be 47 f9 04 bf
       -0.23488507 0.33198255 -0.38541785 -0.5194287
0003a0 06 d0 d7 bd 86 28 b5 3e 69 e9 84 be 9b d5 d7 be
       -0.10537724 0.3538248 -0.25959328 -0.42155156
0003b0 c0 d5 1b be 9d 05 fb be 37 f9 84 3d c1 60 8e 3e
       -0.15218258 -0.4902772 0.064928465 0.27808192
0003c0 88 93 67 3f 05 52 68 3e 21 c2 ff 3e bd e7 97 3d
       0.9045949 0.22687538 0.49952796 0.074172474
0003d0 da 46 a8 bd 56 b5 ce bc 50 2e 37 3f 32 5c 85 be
       -0.08216639 -0.025232952 0.7155504 -0.26046902
0003e0 c8 51 0a bd e4 fe e2 be 2c 39 96 3e 49 b6 de be
       -0.0337694 -0.4433509 0.29340494 -0.43498448
0003f0 53 31 78 3e cb 54 4c bf 78 b8 08 3f 69 1a f1 be
       0.24237566 -0.79816884 0.53406477 -0.47090462
