saved_models/chunk_len_50.pt (torch, 570880 bytes, 11 tensors)

weight f4 [100, 100]
0.021980723 0.125141 0.8025113 0.28667283 -0.5957088 -1.071086 -0.5450531 1.0752248
-1.1656028 -1.591007 -0.8688409 -0.052782144 0.38690805 0.38364658 1.729099 -1.6311474
0.25387397 -0.5822976 -1.2213194 -1.8319633 -0.8417974 0.00947172 -1.016069 -0.331514
-1.4495053 0.6829704 1.359791 -1.0571586 -0.44903064 -0.02502055 0.5304587 -0.6174911
0.3517269 -0.85279226 0.20418736 -0.57866967 1.334817 0.51799196 1.0297016 -0.45206115
-1.579133 0.67863935 1.324093 -0.13624245 -0.7341883 -0.17261152 -0.0031471397 1.8587617
-1.0640526 0.29897586 0.24084881 -1.1567705 -0.3373513 -2.9593608 0.4429754 -1.2086414
-0.74333483 -0.69544744 1.9529623 -0.031291224 0.40212682 -1.3176628 -0.36517972 1.5063255
-0.44702056 1.7157751 -0.643564 1.030222 -0.27658474 -0.7266001 -1.0831848 0.39933988
-1.6744406 -0.16856551 0.2730869 1.1329397 -0.34037068 -0.41974506 0.585982 0.66300464
0.3760713 -0.5459944 1.16344 1.0709559 0.016825583 -2.2377148 -1.4226804 0.585254
-0.34085086 -0.27583677 -0.35262907 0.54305923 0.99976087 0.06705468 -1.1119074 -0.6560901
-1.4287959 0.80843806 -1.0787758 0.14790581 1.1084163 -0.11311017 -2.2212515 -1.6094592
-1.0306723 1.1543108 -0.39622235 -1.2960554 0.27106258 1.0324658 1.2897393 -0.3288517
0.2770663 -0.7162495 -0.54636896 -0.49382308 -0.7633843 0.17090099 -0.018372653 -0.28213802
-0.29736498 0.8472172 0.8016622 0.6201674 0.83626646 -0.5554373 -0.24955629 -0.085017025
-1.401258 -0.5950578 0.9004989 0.82639384 -1.2292577 0.41326654 0.31359872 -1.0060244
1.2109424 1.0038793 0.13207369 0.2981209 -0.07154278 -0.92363757 -0.91017306 -1.4758582
-0.9350292 -0.05073184 -0.33939567 1.2048749 -0.59904546 -0.30346304 -0.31071824 -0.3067479
0.24202111 -2.2767122 0.26639768 -0.6963087 1.2225897 1.0159283 1.050557 0.40579316
1.0190613 -0.31972274 -0.91756666 -0.4733207 0.8555459 -1.0637966 2.0850015 0.3504802
-0.64967203 -1.735585 1.6446179 -0.48537424 -0.08597955 1.4659486 -1.883439 0.64365566
-1.9589229 0.2992371 0.07101921 -1.675238 0.05071327 0.55524796 -1.7511011 -1.9620059
0.81276387 -1.4418511 -0.09395431 0.10253499 1.2327828 1.2489425 -0.99704844 -0.7055741
-1.1178209 -0.90039176 0.30769223 0.22995129 -1.5453166 -0.77058804 -1.56598 0.25295427
-0.7025143 -1.1618912 0.34566793 -0.52858835 0.38965458 -0.52386975 -0.1724707 -0.36995998
0.86442846 -1.673737 -0.12241757 0.37765312 0.80712754 -1.7254621 0.35506973 0.09373671
-0.60001427 -3.4041903 -1.6078838 -0.113957636 1.3319597 -0.5859117 -0.62444377 0.39252985
0.9784635 0.07252543 -0.14642593 0.4791926 0.05610102 -1.6565202 0.8007863 -0.46218452
-1.0588366 0.6264871 -0.6294414 0.03460369 -0.52205586 -0.19261025 -1.75332 0.23081225
1.6817325 -0.9567598 0.22734407 0.28240678 0.56713057 0.65583605 0.10217722 -1.9056486
-0.35065657 1.4327716 -0.76745826 1.2560372 -0.24237731 0.103531234 2.1481814 0.041314628
00000000: eb10 b43c f624 003e 6171 4d3f c8c6 923e
00000010: 5f80 18bf 5919 89bf 9a88 0bbf f7a0 893f
00000020: 7932 95bf 1ea6 cbbf 5b6c 5ebf 1732 58bd
00000030: d018 c63e 536d c43e 1e53 dd3f 70c9 d0bf
00000040: c5fb 813e 7511 15bf 3254 9cbf c67d eabf
00000050: 0980 57bf 462f 1b3c 8d0e 82bf 34bc a9be
00000060: 6489 b9bf 26d7 2e3f a20d ae3f f950 87bf
00000070: 58e7 e5be e5f7 ccbc 24cc 073f e613 1ebf
00000080: 8c15 b43e 9850 5abf 7e16 513e b223 14bf
00000090: 49db aa3f 1f9b 043f 43cd 833f 8f74 e7be
000000a0: 0821 cabf 4fbb 2d3f e17b a93f 2483 0bbe
000000b0: c4f3 3bbf 13c1 30be 3e40 4ebb e7eb ed3f
000000c0: e032 88bf 5d13 993e 12a1 763e 0e11 94bf
000000d0: 4fb9 acbe 2b66 3dc0 accd e23e c3b4 9abf
000000e0: 314b 3ebf d808 32bf abfa f93f 3a2b 00bd
000000f0: 91e3 cd3e 2da9 a8bf d6f8 babe 46cf c03f
00000100: e1df e4be 859e db3f 9cc0 24bf 51de 833f
00000110: 849c 8dbe 7702 3abf cda5 8abf 4776 cc3e
00000120: 1254 d6bf 709c 2cbe 0cd2 8b3e 2b04 913f
00000130: 1145 aebe d3e8 d6be eb02 163f acba 293f
00000140: 6b8c c03e 4ac6 0bbf 9aeb 943f 1515 893f
00000150: ced5 893c b836 0fc0 641a b6bf 35d3 153f
00000160: 0184 aebe 7a3a 8dbe cc8b b4be ee05 0b3f
00000170: 54f0 7f3f f753 893d fb52 8ebf 85f5 27bf
00000180: c9e2 b6bf ccf5 4e3f 5315 8abf 9f74 173e
00000190: 96e0 8d3f 4ea6 e7bd fc28 0ec0 c202 cebf
000001a0: 12ed 83bf 75c0 933f a8dd cabe 25e5 a5bf
000001b0: b7c8 8a3e d727 843f 2d16 a53f 405f a8be
000001c0: a2db 8d3e 215c 37bf d6de 0bbf 61d6 fcbe
000001d0: 276d 43bf ab00 2f3e 3f82 96bc 6574 90be
000001e0: 3940 98be 3ae3 583f bc39 4d3f 4ac3 1e3f
000001f0: 8f15 563f 2431 0ebf af8b 7fbe 681d aebd
00000200: 6c5c b3bf b555 18bf 1987 663f 8c8e 533f
00000210: 5158 9dbf ac97 d33e 0390 a03e 68c5 80bf
00000220: 2900 9b3f 1e7f 803f 533e 073e 4da3 983e
00000230: 0585 92bd 8373 6cbf 1a01 69bf ece8 bcbf
00000240: 135e 6fbf 31cc 4fbd 45c5 adbe 5739 9a3f
00000250: 0b5b 19bf 825f 9bbe 7616 9fbe 100e 9dbe
00000260: 62d4 773e a7b5 11c0 4765 883e 4941 32bf
00000270: d27d 9c3f f009 823f a778 863f 1fc4 cf3e
00000280: 9a70 823f b3b2 a3be a6e5 6abf 1757 f2be
00000290: 0e05 5b3f 7d2a 88bf aa70 0540 2472 b33e
000002a0: e850 26bf a627 debf d782 d23f f982 f8be
000002b0: 0c16 b0bd 34a4 bb3f 8714 f1bf 9ec6 243f
000002c0: fcbd fabf 9b35 993e 8572 913d 336e d6bf
000002d0: b8b8 4f3d bb24 0e3f 1524 e0bf 0223 fbbf
000002e0: 4b11 503f 948e b8bf 1e6b c0bd ddfd d13d
000002f0: d4cb 9d3f 59dd 9f3f 913e 7fbf 81a0 34bf
00000300: c114 8fbf 1380 66bf d689 9d3e 5a78 6b3e
00000310: efcc c5bf 4245 45bf 0872 c8bf 3983 813e
00000320: fad7 33bf dab8 94bf 63fb b03e 9151 07bf
00000330: ce80 c73e 541c 06bf 299c 30be 656b bdbe
00000340: 2f4b 5d3f 043d d6bf 10b6 fabd c05b c13e
00000350: e99f 4e3f f1db dcbf b3cb b53e 08f9 bf3d
00000360: 899a 19bf 41de 59c0 23cf cdbf 9f62 e9bd
00000370: a87d aa3f 4ffe 15bf 8cdb 1fbf acf9 c83e
00000380: 957c 7a3f 3688 943d aef0 15be bc58 f53e
00000390: 2fca 653d db08 d4bf 5500 4d3f 73a3 ecbe
000003a0: f587 87bf 7561 203f 1223 21bf 99bc 0d3d
000003b0: 74a5 05bf 9f3b 45be ca6c e0bf 0c5a 6c3e
000003c0: 0343 d73f 36ee 74bf e2cc 683e 9f97 903e
000003d0: 782f 113f dfe4 273f 4a42 d13d 4bec f3bf
000003e0: 4289 b3be 0f65 b73f 2578 44bf d4c5 a03f
000003f0: c231 78be 2f08 d43d ce7b 0940 8739 293d

weight_ih_l0 f4 [300, 100]
-0.256722 -0.24278292 0.14472522 -0.8016989 0.011419989 -0.36455953 -0.42999402 -0.24602601
-0.13272013 0.82232136 0.2243388 -0.43771365 -0.5966336 0.07895752 0.25238925 0.2747089
0.135625 0.09049718 -0.89237857 0.028715456 -0.021380223 -0.95255506 -0.07312175 -0.38530564
-0.3229356 -0.06946963 -1.0223117 -1.2238783 0.06318837 0.1449673 0.24571759 0.633042
-0.8283063 -0.2348343 0.1141738 -0.45951667 0.37796155 0.3460544 -0.28957322 -0.886676
-0.7515199 0.7080095 -0.24355087 0.6256337 0.44775423 -0.14068457 -0.58669746 0.5770866
-0.8942784 -0.2616196 -0.12540908 -0.262753 -0.12072002 0.6081428 -1.5293111 0.10343797
-0.91081494 1.0252628 -0.12649305 -0.2016648 -0.39976 0.49099702 -0.413981 0.5475648
1.262131 1.0167181 -0.09321452 1.1443253 0.15020768 -0.28932562 0.9368261 0.35579705
0.35934713 0.24152748 0.23390718 0.19643955 -0.008728526 0.3966679 -0.4813324 0.77186406
0.7884017 -0.40996346 0.7385237 -0.9985535 -0.7803454 0.25754225 -0.5333489 0.51561224
0.33165288 0.086666234 0.07595412 0.94554245 0.67897964 -0.7329907 0.40602618 0.31596252
0.037032627 0.5557716 0.72607553 -0.3615711 -0.4921392 -0.2599796 -0.2144423 0.20728622
-0.6670658 0.58899736 -0.3556277 -0.40835273 -0.14699952 0.71818495 -0.777528 -0.31624702
0.24305725 0.49931487 0.47734594 0.24404608 0.24075454 -0.14195032 -0.7863371 0.13869187
0.13329363 -0.41591653 0.14185576 0.4011296 -0.13598104 -0.46076941 -0.03805656 -0.8629508
0.12733686 -0.80846596 0.18096691 0.32979023 -0.11182246 0.12530687 -0.058268916 -0.01757771
-0.057497837 1.0379661 -0.7961368 0.054467216 0.32663548 -0.24073614 -0.073653676 0.24341673
0.41310865 0.5682732 -0.3095971 0.20092185 0.20454046 0.08188045 0.017671408 0.732533
-0.28997198 0.282068 -0.5065115 0.34531683 -0.47069862 0.60914904 0.046206806 -0.5738295
-0.1964021 -0.026631698 -0.3192251 0.18323033 0.887354 -0.21312949 0.077241525 -0.036743145
-0.5055043 0.5114444 0.09428853 0.02047019 -0.24395354 -0.1789716 -0.4122435 1.203945
0.0016283024 -0.96858144 -0.5916146 -0.124459095 0.3571025 -0.07870089 0.23481292 -0.49218076
-0.048824076 0.10744754 -0.60345733 0.11418139 0.7337761 0.6046474 0.3353734 0.49978083
0.039806418 0.43506944 0.24157119 0.44845858 -0.4645416 0.27192032 -0.10249797 -0.35829765
-0.6058159 0.8193275 0.35195455 0.8049122 0.2577757 0.05427477 -0.5499212 -0.029398357
-0.52497023 0.42470425 0.02860169 0.22465965 0.48242792 0.17935525 0.067809515 0.69114876
-0.2758767 -0.14360458 -0.59846705 0.5679955 -0.33218798 -0.511737 0.2108489 -0.87597376
-0.18078029 -0.4077606 0.056691423 -0.6378868 -0.038926143 -0.10119372 0.34408018 0.07162297
-0.4964904 0.7568888 0.615442 0.041426223 -1.2240065 0.3411254 -1.025449 -0.0053805467
0.28938344 0.13832988 -0.22417106 -0.17660744 -0.5809411 -0.5196469 -0.044605605 0.32523322
0.12928349 0.2451711 0.28018758 0.47076356 -0.6943819 -0.3934924 0.5964447 0.42517287
00000000: 1171 83be 169c 78be d932 143e 243c 4dbf
00000010: e81a 3b3c 8ca7 babe 2d28 dcbe 3eee 7bbe
00000020: c9e7 07be a783 523f 12b9 653e 011c e0be
00000030: fbbc 18bf 7bb4 a13d 2a39 813e a5a6 8c3e
00000040: 48e1 0a3e 9656 b93d ec72 64bf ad3c eb3c
00000050: 9425 afbc a6da 73bf dbc0 95bd c846 c5be
00000060: d157 a5be 1846 8ebd 1cdb 82bf 0ba8 9cbf
00000070: e768 813d 4f72 143e 649d 7b3e 0a0f 223f
00000080: e20b 54bf 6778 70be f4d3 e93d c545 ebbe
00000090: 2d84 c13e 0b2e b13e f142 94be 33fd 62bf
000000a0: 9c63 40bf 1c40 353f 6665 79be 8829 203f
000000b0: 0b40 e53e 9e0f 10be ce31 16bf f3bb 133f
000000c0: 6eef 64bf 01f3 85be 3d6b 00be 9087 86be
000000d0: 0f3c f7bd 3faf 1b3f 77c0 c3bf 49d7 d33d
000000e0: 2b2b 69bf d03b 833f 6587 01be 3881 4ebe
000000f0: 58ad ccbe f663 fb3e 51f5 d3be 352d 0c3f
00000100: 828d a13f d223 823f 41e7 bebd 4079 923f
00000110: 0bd0 193e 7d22 94be d6d3 6f3f 082b b63e
00000120: 59fc b73e fb52 773e 5d85 6f3e 7327 493e
00000130: 1702 0fbc 0e18 cb3e 3371 f6be e298 453f
00000140: b2d4 493f bbe6 d1be e40f 3d3f 34a1 7fbf
00000150: b7c4 47bf 94dc 833e 8e89 08bf 2aff 033f
00000160: 68ce a93e 117e b13d d58d 9b3d 120f 723f
00000170: 9cd1 2d3f 47a5 3bbf aae2 cf3e d7c5 a13e
00000180: 86af 173d 0c47 0e3f 16e0 393f d91f b9be
00000190: abf9 fbbe 0c1c 85be c396 5bbe d742 543e
000001a0: d3c4 2abf 88c8 163f d514 b6be 9c13 d1be
000001b0: 0b87 16be f8da 373f 130c 47bf 21eb a1be
000001c0: 00e4 783e 33a6 ff3e b066 f43e 37e7 793e
000001d0: 5c88 763e 6d5b 11be 634d 49bf 3e05 0e3e
000001e0: 207e 083e 03f3 d4be a342 113e dc60 cd3e
000001f0: 9d3e 0bbe f8e9 ebbe 32e1 1bbd 58ea 5cbf
00000200: 9864 023e a0f7 4ebf 644f 393e 44da a83e
00000210: 2d03 e5bd 7250 003e 63ab 6ebd 21ff 8fbc
00000220: da82 6bbd 13dc 843f 9fcf 4bbf 0419 5f3d
00000230: c43c a73e 8983 76be bdd7 96bd 3c42 793e
00000240: fa82 d33e 5a7a 113f 8383 9ebe 75be 4d3e
00000250: 0e73 513e f0b0 a73d a1c3 903c 4887 3b3f
00000260: 3577 94be 386b 903e bdaa 01bf 5ecd b03e
00000270: 69ff f0be 31f1 1b3f 5943 3d3d 7de6 12bf
00000280: a21d 49be b82a dabc 7971 a3be bba0 3b3e
00000290: a229 633f 9e3e 5abe ce30 9e3d fb7f 16bd
000002a0: bb68 01bf 05ee 023f 581a c13d 1ab1 a73c
000002b0: f5ce 79be 5544 37be 9411 d3be df1a 9a3f
000002c0: c36c d53a f4f4 77bf 0e74 17bf 69e4 febd
000002d0: 24d6 b63e ef2d a1bd cc72 703e 1eff fbbe
000002e0: c1fb 47bd 750d dc3d 2e7c 1abf efd7 e93d
000002f0: c0d8 3b3f 2cca 1a3f 10b6 ab3e 46e3 ff3e
00000300: 0e0c 233d 6cc1 de3e 705e 773e 5d9c e53e
00000310: 66d8 edbe 2439 8b3e 75ea d1bd ca72 b7be
00000320: c016 1bbf 72bf 513f 6333 b43e ba0e 4e3f
00000330: 2dfb 833e 394f 5e3d a3c7 0cbf d3d4 f0bc
00000340: 7364 06bf d672 d93e 174e ea3c 2e0d 663e
00000350: cb00 f73e e7a8 373e b7df 8a3d 20ef 303f
00000360: b63f 8dbe 140d 13be 2335 19bf 2768 113f
00000370: 8b14 aabe 3201 03bf c6e8 573e d13f 60bf
00000380: 781e 39be ffc5 d0be 4435 683d 8d4c 23bf
00000390: 0571 1fbd a73e cfbd 472b b03e 10af 923d
000003a0: fd33 febe 77c3 413f 9b8d 1d3f 8bae 293d
000003b0: 3fac 9cbf fda7 ae3e ea41 83bf 4c4f b0bb
000003c0: 112a 943e 59a6 0d3e 198d 65be 95d8 34be
000003d0: 8eb8 14bf 9407 05bf 5eb4 36bd f884 a63e
000003e0: e462 043e 220e 7b3e bf74 8f3e ec07 f13e
000003f0: 03c3 31bf d677 c9be 9ab0 183f 42b0 d93e

weight_hh_l0 f4 [300, 100]
-0.1299359 0.08807206 0.06086459 0.40766966 -0.1149818 0.3092781 -0.10390605 0.24878985
-0.8653706 -0.90585226 0.14892755 0.20782894 -0.41644168 0.7784414 0.29534924 -0.28075033
-0.2973788 0.3169734 -0.32325938 -0.03034849 -0.0429893 0.53459966 0.22133517 0.13725114
0.5845651 0.068516254 0.35040256 0.06814421 0.028853867 -0.07782728 0.80171824 0.03381458
-0.17115267 -0.5719506 -0.293205 -0.20834664 -0.015328651 0.04190627 0.2541078 0.044815812
0.8148823 0.382571 -0.26051444 -0.16561893 0.5604114 0.06821211 0.52642936 0.19734901
-0.37723795 0.042029418 -0.60300124 0.2007516 0.10231924 -0.097778514 0.23745126 0.08260573
0.639167 -0.21004984 0.27751914 -0.06188549 -0.32264906 -0.12346699 0.037073106 -0.69302523
-0.22244215 -0.23995735 0.31511688 0.7527613 0.011493237 0.62889504 0.14862949 0.10114028
-0.056335412 -0.23221229 0.045796145 -0.1767883 0.15509115 0.78697157 -0.24117272 0.23679505
-0.15332693 -0.15834285 0.6072136 -0.23008339 0.17542487 0.066678874 -0.7568704 -0.19075991
0.7078974 0.4760471 -0.4179905 0.24394175 1.4636858 0.41840994 0.43970612 0.24259539
-0.011533229 0.38292027 -0.22412598 0.67289144 -0.526146 -0.519291 -1.1773514 -0.8514364
0.004993972 0.10927742 0.102227494 0.39772305 -0.6007845 0.16198999 0.38142028 0.43154386
0.70129967 0.17025676 0.12552083 -0.22665533 -0.06873245 0.10238804 1.4062685 -0.5097061
-0.18351825 0.29880387 -0.048936248 -0.47343737 0.7663562 0.2453964 -0.37509945 0.16393542
-0.12880917 0.30189422 0.29399508 -0.28040507 0.43410406 -0.21455427 0.52502894 -0.030867511
-0.24297464 0.28880864 0.2666657 -0.83801204 -0.35270494 0.10911711 -0.7083606 -1.2752082
-0.7429383 0.0790354 -0.7739015 0.49802694 -0.6936617 0.48364428 -0.61721355 0.5910681
-0.36992425 -0.06481478 0.42544287 0.25056303 0.19068563 -0.4977475 -0.22359936 0.39510497
-0.37230116 -0.080793455 0.096215256 1.1357661 -0.57901365 -0.5773401 0.66612715 -0.55736226
-0.15185629 -0.01618261 -0.046671912 -0.4676406 0.16159102 0.005484513 -0.8560054 0.43253613
-0.1594164 0.51995677 0.5962784 -0.6307429 -0.34628367 0.07560825 0.34657383 -0.3438359
-0.46446386 -0.45781818 0.110017665 -0.00997684 -0.42681387 0.007308381 0.6358146 0.17532425
-0.54501987 -0.25297806 -1.1373138 0.625093 -0.10134578 0.6938925 0.3256084 -0.26035783
0.42649102 -0.03956095 0.4332204 0.4309392 0.20332736 0.22837858 0.03289686 0.45397443
-0.89179033 1.4326823 0.8950596 0.19828446 -0.23574601 -0.5940299 0.46174857 -0.794061
-0.93638813 -0.24529992 0.05500565 -0.2647497 0.111550935 -0.60664374 -0.10786611 -0.41263142
0.13515274 0.014299911 0.04236987 -0.8402372 0.34797826 -0.4869154 -0.0070203827 -0.027537128
0.35538068 0.12330192 0.4401993 0.520176 -0.12241078 0.55299234 1.0842972 0.5286329
-0.3106246 0.6039294 0.07701072 -0.7617517 1.1296967 0.30765265 0.46959195 0.06996323
-1.2298741 0.3151544 -1.2168607 -0.6141539 -0.5288794 0.76416194 0.28686664 0.52216303
00000000: eb0d 05be 205f b43d 264d 793d 14ba d03e
00000010: 947b ebbd b359 9e3e b2cc d4bd c4c2 7e3e
00000020: ed88 5dbf efe5 67bf 7780 183e 1cd1 543e
00000030: d837 d5be f047 473f 0438 973e 82be 8fbe
00000040: 0942 98be 564a a23e 4182 a5be 669d f8bc
00000050: 8c15 30bd 86db 083f b0a5 623e 908b 0c3e
00000060: 0fa6 153f 4052 8c3d f767 b33e 318f 8b3d
00000070: f25e ec3c e963 9fbd 683d 4d3f 2881 0a3d
00000080: a542 2fbe 5b6b 12bf f71e 96be d258 55be
00000090: 0625 7bbc e9a5 2b3d 6b1a 823e c990 373d
000000a0: 209c 503f 59e0 c33e 2662 85be 0298 29be
000000b0: 1f77 0f3f cab2 8b3d 13c4 063f dc15 4a3e
000000c0: 5525 c1be 0a27 2c3d 4a5e 1abf d491 4d3e
000000d0: c08c d13d 1a40 c8bd 6c26 733e 312d a93d
000000e0: 73a0 233f 4e17 57be fd16 8e3e a47b 7dbd
000000f0: 4232 a5be 43dc fcbd f8d9 173d 1a6a 31bf
00000100: e0c7 63be 61b7 75be 0057 a13e f7b4 403f
00000110: 214e 3c3c 44ff 203f 5432 183e a322 cf3d
00000120: f6bf 66bd 0fc9 6dbe bd94 3b3d fe07 35be
00000130: 37d0 1e3e f876 493f fbf5 76be 677a 723e
00000140: bc01 1dbe a124 22be 5a72 1b3f fb9a 6bbe
00000150: 94a2 333e ef8e 883d 42c2 41bf 9156 43be
00000160: c438 353f 72bc f33e da02 d6be decb 793e
00000170: 0e5a bb3f d439 d63e 2921 e13e ed6a 783e
00000180: def5 3cbc 200e c43e 4881 65be 9d42 2c3f
00000190: 81b1 06bf 41f0 04bf 73b3 96bf bcf7 59bf
000001a0: 79a4 a33b d7cc df3d a65c d13d 5ba2 cb3e
000001b0: 03cd 19bf b4e0 253e 8549 c33e 51f3 dc3e
000001c0: 6088 333f ca57 2e3e 8888 003e 5618 68be
000001d0: 99c3 8cbd d2b0 d13d 9b00 b43f 197c 02bf
000001e0: 35ec 3bbe d2fc 983e 6071 48bd 6266 f2be
000001f0: ec2f 443f 3249 7b3e 090d c0be b0de 273e
00000200: 8de6 03be e191 9a3e 8686 963e 4191 8fbe
00000210: e342 de3e 1db4 5bbe 4c68 063f dddd fcbc
00000220: 58ce 78be bade 933e 6888 883e f587 56bf
00000230: be95 b4be cb78 df3d 1f57 35bf 063a a3bf
00000240: 3431 3ebf 50dd a13d 691e 46bf 63fd fe3e
00000250: d093 31bf 39a0 f73e b501 1ebf 3d50 173f
00000260: b666 bdbe 9dbd 84bd a6d3 d93e cc49 803e
00000270: 1843 433e c3d8 febe 3bf7 64be 334b ca3e
00000280: 429e bebe 0a77 a5bd 810c c53d c960 913f
00000290: 3d3a 14bf 90cc 13bf 4f87 2a3f 4baf 0ebf
000002a0: 3780 1bbe 6591 84bc 0c2b 3fbd 976e efbe
000002b0: 1e78 253e 6eb7 b33b 2b23 5bbf 6075 dd3e
000002c0: 0e3e 23be e31b 053f b4a5 183f 5e78 21bf
000002d0: 184c b1be 80d8 9a3d 2072 b13e 420b b0be
000002e0: 35ce edbe 2567 eabe f150 e13d e675 23bc
000002f0: 5987 dabe 257b ef3b bfc4 223f 3388 333e
00000300: 6c86 0bbf 5786 81be 8093 91bf 1806 203f
00000310: 608e cfbd f0a2 313f 25b6 a63e 9f4d 85be
00000320: 085d da3e aa0a 22bd 10cf dd3e 10a4 dc3e
00000330: 0c35 503e 13dc 693e dcbe 063d 566f e83e
00000340: 5f4c 64bf 2262 b73f a022 653f 150b 4b3e
00000350: 6767 71be 5812 18bf 4f6a ec3e 9547 4bbf
00000360: 22b7 6fbf e72f 7bbe 9b4d 613d 468d 87be
00000370: d174 e43d 014d 1bbf e8e8 dcbd 6d44 d3be
00000380: 7b65 0a3e 2d4a 6a3c 078c 2d3d c919 57bf
00000390: 352a b23e fa4c f9be 3d0b e6bb 8b95 e1bc
000003a0: 75f4 b53e b885 fc3d cd61 e13e 412a 053f
000003b0: 81b2 fabd e890 0d3f 40ca 8a3f 7c54 073f
000003c0: 300a 9fbe 1e9b 1a3f ccb7 9d3d 2902 43bf
000003d0: e799 903f a684 9d3e 5b6e f03e e248 8f3d
000003e0: 846c 9dbf eb5b a13e 17c2 9bbf 3139 1dbf
000003f0: a464 07bf 1ea0 433f 2fe0 923e 7aac 053f

bias_ih_l0 f4 [300]
-0.32718548 -0.375705 0.025578102 -0.32858342 -0.10739895 0.21969895 0.37640032 -0.5927612
-0.5175703 -0.116660446 -0.28442895 0.10660449 -0.13900214 -0.09891571 -0.39155552 -0.18190828
-0.20400143 -0.456358 -0.2869351 0.068519965 0.33609623 -0.4983377 -0.2704212 -0.12810579
-0.004621953 -0.5996508 -0.39165187 -0.44280902 -0.4810185 -0.31506783 -0.6663136 -0.10223732
-0.6387597 -0.15534945 -0.63755286 -0.725661 -0.2719111 0.027713409 -0.27641332 -0.17320924
-0.5097294 -0.31219867 -0.11122825 -0.54968596 -0.40215772 -0.24585806 -0.46059442 -0.54842377
-0.14794147 0.057926398 -0.21674915 -0.43996403 -0.42320356 0.16152304 0.23000674 -0.12096682
-0.14304234 -0.08356785 -0.0021500057 -0.27823558 -0.5538401 -0.38929424 0.12283934 0.24587993
-0.13534594 -0.3808949 -0.3690205 -0.055006 -0.11225642 -0.53382754 -0.4013277 0.086116955
-0.5909776 -0.22202033 -0.033879522 -0.37070397 -0.65989596 -0.22698648 -0.32999346 -0.15591328
-0.84729344 -0.20402807 -0.11927301 -0.32893112 -0.20569967 -0.21330921 -0.09647287 -0.20947391
-0.29724059 -0.3458514 -0.120629855 -0.21324055 -0.20078832 0.22162631 -0.13272884 -0.719225
-0.23625533 -0.58536553 -0.44088715 -0.035616033 -0.40043145 -0.7214841 -0.21789142 -0.20911674
-1.0257567 -0.53379774 -0.75074947 -0.6113868 -0.5016863 -0.058494516 -0.8547017 -0.71652085
-0.78019583 -0.28468922 -0.40048465 -1.1897957 -0.53646004 -0.20641235 -0.87597793 -0.60533416
-0.66651255 -0.6866706 -1.2506609 -1.0781078 -0.4999934 -0.43310916 -0.7263051 -0.51845485
-0.29408684 -0.20620579 -1.0558785 -0.40197638 -0.20236285 -0.7642985 -0.9194478 -0.58232796
-0.6455248 0.08695301 -0.3007451 -0.17947707 -0.508985 -0.92309153 -0.6401483 -0.31537247
-0.5307748 -0.12192355 -0.6021594 -0.5510653 -0.5430804 -0.8558237 -0.64358133 0.38055786
-0.30565807 -0.6462819 -0.5899718 -0.76478773 -0.5177699 -0.12704216 -0.8798772 -0.23354204
-0.25262633 -0.58053535 -0.17118487 -0.762413 -0.45261666 -0.9040999 -0.3438207 -0.82083887
-0.74142396 -0.66873705 -0.65950865 -0.03011278 -0.1484679 -0.25356343 -0.4249365 -0.85267454
0.30385712 -0.7304268 -0.445786 -0.628712 -0.4298317 -0.67811 -0.44684896 -0.7197655
-0.564173 -0.43796736 -0.697188 -0.36523578 -1.0494632 -0.48696163 -0.5472189 -0.32543686
-0.5836179 -0.55951256 -0.41388974 -0.2345497 -1.0396277 -0.54643214 -0.8781092 -0.79828244
0.070808165 0.05150931 0.107756294 -0.08214424 -0.2897774 -0.18044308 -0.13397586 -0.13663994
0.2833421 -0.06489646 -0.24410899 -0.18119662 -0.18667075 -0.2653352 0.37328222 0.376815
0.23398784 -0.16510051 -0.21899307 0.042686794 -0.48195666 -0.20231947 0.32043958 -0.16568246
-0.48199415 0.12065959 0.2415423 0.25783548 0.23375604 0.041047107 -0.13710767 0.25153798
-0.33937383 0.10723627 -0.1827578 -0.26850316 -0.22468391 -0.014942892 -0.29646713 0.27808598
-0.18346788 0.43048686 -0.040748876 -0.0688399 0.017408501 -0.056388866 -0.03762915 -0.30573967
0.35513097 0.13632675 0.14338721 -0.103061326 0.367367 -0.19591366 -0.28727892 -0.37672248
00000000: db84 a7be 685c c0be 2b89 d13c 163c a8be
00000010: fbf3 dbbd c3f8 603e 8bb7 c03e 33bf 17bf
00000020: 7d7f 04bf aceb eebd aca0 91be 7453 da3d
00000030: 9456 0ebe 5294 cabd f779 c8be 2a46 3abe
00000040: c0e5 50be c1a7 e9be 28e9 92be 3254 8c3d
00000050: ce14 ac3e 1e26 ffbe a674 8abe 2a2e 03be
00000060: c073 97bb b782 19bf 9886 c8be ddb7 e2be
00000070: 0f48 f6be 9250 a1be 8793 2abf cd61 d1bd
00000080: c185 23bf ed13 1fbe aa36 23bf ebc4 39bf
00000090: ef37 8bbe 3b07 e33c 0c86 8dbe c35d 31be
000000a0: a07d 02bf 81d8 9fbe a3cb e3bd 38b8 0cbf
000000b0: 9ee7 cdbe 37c2 7bbe 08d3 ebbe 8065 0cbf
000000c0: f87d 17be 3b44 6d3d 7df3 5dbe f742 e1be
000000d0: 23ae d8be 4c66 253e e386 6b3e 74bd f7bd
000000e0: b179 12be 9f25 abbd 1ce7 0cbb e574 8ebe
000000f0: 77c8 0dbf 9351 c7be 3193 fb3d f3c7 7b3e
00000100: 2098 0abe a804 c3be 41f0 bcbe f94d 61bd
00000110: b2e6 e5bd eca8 08bf d37a cdbe 165e b03d
00000120: 4f4a 17bf 4c59 63be 41c5 0abd e9cc bdbe
00000130: f1ee 28bf 256f 68be e7f4 a8be bba7 1fbe
00000140: 39e8 58bf bcec 50be 6845 f4bd a969 a8be
00000150: efa2 52be bb6d 5abe 9193 c5bd 5480 56be
00000160: eb2f 98be 6f13 b1be c90c f7bd bb5b 5abe
00000170: 749b 4dbe 02f2 623e 12ea 07be 211f 38bf
00000180: ebec 71be 84da 15bf f6bb e1be 1ee2 11bd
00000190: 5a05 cdbe 2fb3 38bf ee1e 5fbe b322 56be
000001a0: ff4b 83bf f8a6 08bf 1e31 40bf d883 1cbf
000001b0: 836e 00bf f297 6fbd bbcd 5abf e96d 37bf
000001c0: eaba 47bf c9c2 91be 530c cdbe 3a4b 98bf
000001d0: 7255 09bf c25d 53be 1740 60bf 2ef7 1abf
000001e0: 91a0 2abf a5c9 2fbf a815 a0bf 70ff 89bf
000001f0: 23ff ffbe 7cc0 ddbe 22ef 39bf 75b9 04bf
00000200: 8d92 96be 9c27 53be 0727 87bf d9cf cdbe
00000210: 3538 4fbe 11a9 43bf ee60 6bbf 7213 15bf
00000220: 1d41 25bf 6b14 b23d 43fb 99be d6c8 37be
00000230: d74c 02bf ba4f 6cbf c2e0 23bf 8078 a1be
00000240: dbe0 07bf 0eb3 f9bd 1e27 1abf 9e12 0dbf
00000250: 5107 0bbf 4317 5bbf bfc1 24bf 7bd8 c23e
00000260: 377f 9cbe bb72 25bf 6408 17bf 21c9 43bf
00000270: 918c 04bf 5717 02be a23f 61bf a525 6fbe
00000280: 3d58 81be f79d 14bf 164b 2fbe 802d 43bf
00000290: 5fbd e7be 1773 67bf 4409 b0be 7f22 52bf
000002a0: f6cd 3dbf 5a32 2bbf 8fd5 28bf 14af f6bc
000002b0: f807 18be 11d3 81be 4791 d9be e148 5abf
000002c0: 2993 9b3e 40fd 3abf 103e e4be 45f3 20bf
000002d0: e712 dcbe 9e98 2dbf 63c9 e4be 8d42 38bf
000002e0: a46d 10bf 423d e0be ea7a 32bf 2f00 bbbe
000002f0: cf54 86bf 0953 f9be 8a16 0cbf a99f a6be
00000300: fc67 15bf 373c 0fbf 5be9 d3be cc2d 70be
00000310: 8512 85bf fae2 0bbf c4cb 60bf 3d5c 4cbf
00000320: df03 913d 6dfb 523d 55af dc3d 3d3b a8bd
00000330: b45d 94be 12c6 38be f830 09be 57eb 0bbe
00000340: 3712 913e 6fe8 84bd b5f7 79be 9b8b 39be
00000350: 9e26 3fbe 04da 87be d91e bf3e e5ed c03e
00000360: 829a 6f3e 1c10 29be b83f 60be 59d8 2e3d
00000370: 06c3 f6be d62c 4fbe a810 a43e aaa8 29be
00000380: f0c7 f6be 601c f73d dd56 773e 0303 843e
00000390: be5d 6f3e 0321 283d f465 0cbe 96c9 803e
000003a0: 68c2 adbe b19e db3d dc24 3bbe 3f79 89be
000003b0: 8a13 66be 08d3 74bc 8aca 97be 4961 8e3e
000003c0: 01df 3bbe c668 dc3e 4be8 26bd effb 8cbd
000003d0: 469c 8e3c 03f8 66bd 0621 1abd e989 9cbe
000003e0: bad3 b53e 3d99 0b3e 19d4 123e d111 d3bd
000003f0: 8717 bc3e 979d 48be 3916 93be c5e1 c0be

bias_hh_l0 f4 [300]
-0.48452592 -0.34701896 0.054997653 -0.2967925 -0.2659256 0.09471965 0.43288055 -0.5389299
-0.5264889 -0.18218622 -0.2996174 0.0393181 0.014574744 -0.106590554 -0.33164665 -0.19030567
-0.25635457 -0.4602569 -0.36307812 0.0295597 0.42616135 -0.5347002 -0.30867723 -0.18525861
0.01006775 -0.4974968 -0.35531616 -0.6030851 -0.45788726 -0.31633088 -0.740729 0.012988166
-0.4509707 -0.13999291 -0.7949325 -0.57443017 -0.1545012 -0.04169436 -0.33503476 -0.20121665
-0.43762478 -0.14837022 0.0037634263 -0.6350812 -0.31106687 -0.3999843 -0.40763825 -0.46010953
-0.14172375 0.03640491 -0.3674344 -0.5824115 -0.32670292 0.2032732 0.19800551 -0.027867783
-0.01808382 -0.049527876 -0.119112104 -0.3182639 -0.55912083 -0.33175334 0.16565841 0.3115471
-0.090585545 -0.39601523 -0.33248684 -0.08127521 -0.060547825 -0.46177486 -0.2509655 0.12207337
-0.65997535 -0.201473 -0.03804144 -0.29022214 -0.64199394 -0.17263494 -0.30613214 -0.13369246
-0.6676994 -0.18016234 -0.006197893 -0.24259913 -0.20883848 -0.2571086 -0.1451554 -0.2873152
-0.29857025 -0.31308132 -0.04954131 -0.22275369 -0.1662066 0.1784451 0.010680236 -0.7072694
-0.11619818 -0.57692385 -0.48681813 -0.07985504 -0.48408228 -0.5705986 -0.11577812 -0.02252277
-0.9561844 -0.5284226 -0.5659027 -0.7247834 -0.45808253 -0.12860203 -0.7767791 -0.6890082
-0.69043374 -0.22247514 -0.34203985 -1.0934663 -0.5762924 -0.11010596 -0.8920395 -0.46567336
-0.7107877 -0.63725966 -1.1110246 -1.0772688 -0.5329339 -0.42845201 -0.6479354 -0.45251513
-0.13379082 -0.22818154 -1.2140561 -0.2440574 -0.13118364 -0.9397649 -0.94669056 -0.65983546
-0.50075364 -0.06661559 -0.32609004 -0.36036745 -0.54915124 -0.8932754 -0.5980647 -0.33817023
-0.6246516 -0.1557714 -0.57415736 -0.56548154 -0.700529 -0.76601535 -0.5297922 0.35751465
-0.25494805 -0.712491 -0.5951259 -0.76476496 -0.56866306 -0.2754987 -0.77408457 -0.23693283
-0.34489432 -0.53087175 -0.0066102324 -0.5742189 -0.3606939 -0.96848786 -0.4723776 -0.6818195
-0.5426509 -0.8180893 -0.6547877 0.020111926 -0.1847466 -0.23656908 -0.4111469 -0.8169696
0.14193068 -0.7961457 -0.3767053 -0.7388671 -0.38645968 -0.5388181 -0.5931248 -0.6961772
-0.5907277 -0.3360399 -0.63872516 -0.3491365 -1.0967366 -0.44304386 -0.3924735 -0.31092072
-0.5564012 -0.40748245 -0.43160114 -0.13476978 -0.9602889 -0.48806888 -0.9009172 -0.6718723
0.14877357 0.37352777 0.5056985 -0.07690736 -0.024199672 -0.69583607 0.0022871504 -0.082558684
0.09477808 0.04763311 -0.36405626 -0.08181664 0.061885934 -0.4711944 0.32536942 0.3532653
0.3984838 -0.22983044 -0.3481527 0.19186258 -0.56635326 0.07604454 0.13729173 -0.2162718
-0.55033416 -0.5217379 0.13028398 0.29962742 0.51288134 0.5660698 -0.23573273 0.33168635
-0.19880907 0.27931774 -0.25603348 -0.53945905 0.07301713 -0.046338126 -0.25490105 0.16632181
-0.24403085 0.27631328 0.68614495 0.17010209 -0.3120154 -0.37425795 -0.048881274 -0.20866114
-0.098703645 -0.0032114438 0.20887116 -0.2468551 0.24210128 -0.26291403 0.09523524 -0.20152557
00000000: c813 f8be 78ac b1be 3845 613d 30f5 97be
00000010: 6627 88be 60fc c13d 85a2 dd3e 4ff7 09bf
00000020: fac7 06bf 068f 3abe 7467 99be 040c 213d
00000030: e8ca 6e3c 264c dabd 97cd a9be 7ddf 42be
00000040: e840 83be cba6 ebbe 60e5 b9be 2f27 f23c
00000050: d231 da3e 1de2 08bf f10a 9ebe 6fb4 3dbe
00000060: 34f3 243c e7b7 febe 00ec b5be c963 1abf
00000070: 3370 eabe 1ff6 a1be 6aa0 3dbf 51cc 543c
00000080: a2e5 e6be 4d5a 0fbe b280 4bbf db0d 13bf
00000090: 9035 1ebe b5c7 2abd ad89 abbe bd0b 4ebe
000000a0: 5b10 e0be 5dee 17be d1a3 763b ae94 22bf
000000b0: 2844 9fbe beca ccbe f6b5 d0be 7a93 ebbe
000000c0: 0820 11be 511d 153d 5d20 bcbe ec18 15bf
000000d0: 9b45 a7be da26 503e f5c1 4a3e fa4a e4bc
000000e0: 8524 94bc bedd 4abd 0cf1 f3bd 7cf3 a2be
000000f0: 8b22 0fbf 93db a9be 5ca2 293e 1a83 9f3e
00000100: ea84 b9bd 82c2 cabe b73b aabe 9e73 a6bd
00000110: ff00 78bd c16d ecbe 8d7e 80be 9a01 fa3d
00000120: 25f4 28bf f04e 4ebe 57d1 1bbd ff97 94be
00000130: b759 24bf 37c7 30be 5abd 9cbe ade6 08be
00000140: 59ee 2abf 7a7c 38be b217 cbbb e86b 78be
00000150: c1d9 55be bda3 83be 9ea3 14be fa1a 93be
00000160: 33de 98be 324c a0be d4eb 4abd 8b19 64be
00000170: 1032 2abe 50ba 363e 28fc 2e3c 9b0f 35bf
00000180: 50f9 edbd 48b1 13bf 3a40 f9be 0a8b a3bd
00000190: a2d9 f7be c012 12bf 141d edbd ac81 b8bc
000001a0: 80c8 74bf b446 07bf 00df 10bf 688b 39bf
000001b0: cb89 eabe 40b0 03be ffda 46bf d762 30bf
000001c0: 44c0 30bf 86d0 63be d91f afbe b4f6 8bbf
000001d0: e687 13bf 3c7f e1bd b35c 64bf bd6c eebe
000001e0: 2ff6 35bf 7323 23bf 0e36 8ebf f2e3 89bf
000001f0: 5b6e 08bf 105e dbbe 18df 25bf 10b0 e7be
00000200: 7600 09be 6ca8 69be 3166 9bbf 2fea 79be
00000210: 0155 06be 6f94 70bf 505a 72bf faea 28bf
00000220: 6431 00bf c16d 88bd 46f5 a6be 1582 b8be
00000230: 2d95 0cbf b2ad 64bf c51a 19bf a624 adbe
00000240: 2be9 1fbf 8a82 1fbe fafb 12bf 66c3 10bf
00000250: de55 33bf 9519 44bf 76a0 07bf 290c b73e
00000260: 8d88 82be cf65 36bf 2c5a 18bf a3c7 43bf
00000270: e793 11bf 2a0e 8dbe 682a 46bf 859e 72be
00000280: fd95 b0be 36e7 07bf a69a d8bb 0300 13bf
00000290: dfac b8be d2ee 77bf 7adb f1be b98b 2ebf
000002a0: 2beb 0abf 4d6e 51bf 2ba0 27bf c4c1 a43c
000002b0: 362e 3dbe 2a3f 72be d981 d2be eb24 51bf
000002c0: 4756 113e 34d0 4bbf 84df c0be 6526 3dbf
000002d0: 0bde c5be fcef 09bf 07d7 17bf ab38 32bf
000002e0: ee39 17bf 6c0d acbe 7e83 23bf 05c2 b2be
000002f0: dd61 8cbf a5d6 e2be 49f2 c8be 0031 9fbe
00000300: 4f70 0ebf 8aa1 d0be d3fa dcbe 1701 0abe
00000310: 7ed5 75bf 2ae4 f9be 82a2 66bf d3ff 2bbf
00000320: 1958 183e 083f bf3e 7575 013f 9b81 9dbd
00000330: 643e c6bc 5022 32bf 04e4 153b 8714 a9bd
00000340: 031b c23d f01a 433d 9565 babe 7c8f a7bd
00000350: 1b7c 7d3d 6440 f1be d296 a63e 30df b43e
00000360: 1206 cc3e ac58 6bbe 1241 b2be a077 443e
00000370: 87fc 10bf 3dbd 9b3d 3496 0c3e 5b76 5dbe
00000380: b3e2 0cbf 9d90 05bf 2a69 053e c468 993e
00000390: 314c 033f f3e9 103f ec63 71be cbd2 a93e
000003a0: 9b94 4bbe bc02 8f3e d216 83be fd19 0abf
000003b0: 018a 953d 0ccd 3dbd 6482 82be 4450 2a3e
000003c0: 39e3 79be ef78 8d3e 32a7 2f3f 3e2f 2e3e
000003d0: 7cc0 9fbe bd9e bfbe bb37 48bd 44ab 55be
000003e0: 2325 cabd 1677 52bb 52e2 553e 95c7 7cbe
000003f0: 66e9 773e ab9c 86be b20a c33d b85c 4ebe

weight_ih_l1 f4 [300, 100]
-0.28800634 -0.17665142 1.0085685 0.12582341 0.39465576 -0.15869062 0.37168062 -0.7402582
-0.08473002 0.029226795 0.36683753 0.30879405 0.7766675 -0.63017666 0.18357754 -0.02295676
0.6943994 -0.37580428 0.35272464 0.6407898 0.29653984 0.54524124 0.0031238291 -0.3497835
-0.4648056 -0.27088696 0.07824195 -0.06251265 0.9366454 0.10488989 -0.08888377 -0.04012338
-0.34662208 0.26260394 0.76569897 -0.3031078 -0.34736833 0.44266644 -0.11338118 -0.06472123
-0.1750994 0.2684741 -0.0049442323 -0.17116247 0.6202495 0.2592596 -0.37795123 -0.21919468
0.1416017 0.9540843 0.7857978 -0.43243942 -0.8668457 0.26909158 -0.28807345 -0.057263445
0.081855476 0.016213672 0.13181935 -0.15843071 -0.73157 -0.0050219297 0.045789227 0.09699808
0.2588524 -0.6458784 -0.5027928 -0.14969462 -0.19114067 -0.79840624 0.23530787 0.21216497
0.14486007 0.26930925 -0.18551153 0.34059295 0.2946346 0.11792077 0.57376665 0.4052992
0.37990668 0.78992283 -0.51308805 0.08510072 0.1766201 -0.2739551 0.03867212 0.24019784
0.23814318 -0.10556209 -0.08085435 -0.19973677 0.43778524 -0.17321895 -0.2990168 0.23183264
-0.3498927 -0.44544405 0.4484277 -0.038496517 -0.084558584 0.2843229 -0.19993249 -0.022044627
-0.3993919 -1.0007299 -0.12729137 -0.1326584 -0.20860635 0.3763816 -0.8091759 0.29058924
0.38301843 -0.5927641 0.19002888 0.2957153 0.9296251 -1.0814898 -0.88217694 0.2769064
-0.5542349 -0.9391902 -0.3450018 0.1611421 -0.063787036 -0.28029197 0.47943175 0.19297835
-0.41039872 0.09242067 0.32368866 -0.24674635 0.2828397 -0.21787193 -1.2159978 -0.0052572736
0.04075514 -0.6755235 0.44737285 -0.45768037 -0.23947002 0.09073601 0.16501343 0.09278694
0.65324074 0.8498047 -0.87361264 -1.1916704 -0.8138642 0.2728961 -0.13031156 0.004379506
0.14760469 0.41745684 -0.8530216 -0.20335016 0.3845818 -0.19005807 -0.060469497 0.23800418
-0.012330167 -0.028474765 0.6247949 0.34118885 -0.6865143 -0.5092011 -1.0171818 -0.049205173
0.112678446 -0.30776638 -0.5433807 -0.024649715 0.22772157 -0.046120092 -0.047455177 -0.7755484
1.3230107 -0.3182735 -0.25176305 -0.00671539 0.9585921 1.5887656 0.7384437 0.7423205
-0.07652752 0.51068366 0.026419323 -0.18559648 0.54277474 -0.11366419 1.0758069 0.30312523
-0.6847492 -0.6272747 0.74885607 -0.73716223 0.49301186 -1.0950494 -0.037262835 0.12497002
0.89009 -0.0033212963 0.15047494 -0.22600378 0.06529998 -0.32432902 -0.12199078 0.27115902
0.008117234 0.09361431 -0.3162191 0.2643901 0.12399671 0.9672293 -0.04718616 0.043214414
-0.27613708 0.3748691 0.17735021 0.23867042 -0.062231578 -0.4175466 0.26434678 0.5362395
-0.03341085 0.27552724 -0.02604389 0.00857357 0.11165034 -0.62760544 -0.4777869 0.5057662
-0.13844492 -0.3542543 -0.026260532 -0.17717667 -0.2912785 -0.41718566 -0.24460573 0.2097232
-0.30708718 0.09111862 -0.20417081 -0.16199024 0.103956155 -0.025134062 -0.37723857 -0.46501696
-0.043864407 0.123994485 -0.02308764 0.41335836 -0.04316002 -0.09413154 -0.13283515 -0.3435408
00000000: 9175 93be 1ce4 34be c618 813f dad7 003e
00000010: 5210 ca3e cb7f 22be ec4c be3e 9081 3dbf
00000020: ef86 adbd 086d ef3c 21d2 bb3e 411a 9e3e
00000030: aed3 463f 4253 21bf c0fb 3b3e d10f bcbc
00000040: 29c4 313f 6b69 c0be 5398 b43e cd0a 243f
00000050: 12d4 973e ee94 0b3f 28b9 4c3b d316 b3be
00000060: 00fb edbe b2b1 8abe 513d a03d a206 80bd
00000070: fec7 6f3f 83d0 d63d b208 b6bd 6a58 24bd
00000080: 7378 b1be 0674 863e d904 443f f230 9bbe
00000090: 43da b1be 2da5 e23e 6434 e8bd 908c 84bd
000000a0: 424d 33be 7075 893e 3a03 a2bb 3745 2fbe
000000b0: acc8 1e3f adbd 843e d382 c1be 9274 60be
000000c0: 0900 113e de3e 743f 0b2a 493f b368 ddbe
000000d0: 9ae9 5dbf 5fc6 893e 5d7e 93be 138d 6abd
000000e0: d8a3 a73d 89d2 843c a7fb 063e a93b 22be
000000f0: 2c48 3bbf 008f a4bb 7c8d 3b3d eea6 c63d
00000100: 4d88 843e 4958 25bf 07b7 00bf 8c49 19be
00000110: 61ba 43be 5a64 4cbf 8cf4 703e c641 593e
00000120: 3356 143e e7e2 893e bcf6 3dbe 3362 ae3e
00000130: 59da 963e 7280 f13d 5fe2 123f 6083 cf3e
00000140: 2183 c23e 6238 4a3f bd59 03bf 4949 ae3d
00000150: e6db 343e d843 8cbe a866 1e3d 6cf6 753e
00000160: cedb 733e f030 d8bd f796 a5bd cc87 4cbe
00000170: 6325 e03e 4f60 31be bb18 99be 8965 6d3e
00000180: 2325 b3be 3e11 e4be 5198 e53e 86ae 1dbd
00000190: 0d2d adbd c592 913e 1abb 4cbe ef96 b4bc
000001a0: 187d ccbe eb17 80bf ab58 02be 9bd7 07be
000001b0: e79c 55be 17b5 c03e 2726 4fbf 1dc8 943e
000001c0: fe1a c43e 63bf 17bf ee96 423e ff67 973e
000001d0: e9fb 6d3f 426e 8abf 59d6 61bf adc6 8d3e
000001e0: 57e2 0dbf c56e 70bf 13a4 b0be 6f02 253e
000001f0: c7a2 82bd 6e82 8fbe 1478 f53e 1e9c 453e
00000200: c81f d2be 0c47 bd3d 85ba a53e 13ab 7cbe
00000210: 5dd0 903e d219 5fbe d1a5 9bbf 3545 acbb
00000220: ddee 263d 1cef 2cbf 0e0e e53e 1555 eabe
00000230: a137 75be cdd3 b93d 48f9 283e 1407 be3d
00000240: c93a 273f cd8c 593f 14a5 5fbf a888 98bf
00000250: 6759 50bf 0ab9 8b3e 6570 05be f681 8f3b
00000260: af25 173e e7bc d53e a05f 5abf 063b 50be
00000270: e8e7 c43e 959e 42be ddae 77bd 5eb7 733e
00000280: 7804 4abc e943 e9bc 8ff2 1f3f 4eb0 ae3e
00000290: 67bf 2fbf 015b 02bf 0333 82bf 5d8b 49bd
000002a0: f5c3 e63d 8e93 9dbe ff1a 0bbf 33ee c9bc
000002b0: d82f 693e 6ce8 3cbd 5c60 42bd 578a 46bf
000002c0: 6a58 a93f bff4 a2be 16e7 80be c60c dcbb
000002d0: 4b66 753f ac5c cb3f a50a 3d3f b708 3e3f
000002e0: 76ba 9cbd 2abc 023f 566d d83c 010d 3ebe
000002f0: 49f3 0a3f c5c8 e8bd 0ab4 893f 3b33 9b3e
00000300: b94b 2fbf 1395 20bf 08b5 3f3f aab6 3cbf
00000310: 0d6c fc3e 942a 8cbf eaa0 18bd 48f0 ff3d
00000320: f0dc 633f 1baa 59bb 1a16 1a3e 896d 67be
00000330: ffbb 853d 740e a6be 4dd6 f9bd 5bd5 8a3e
00000340: 26fe 043c dcb8 bf3d 78e7 a1be 245e 873e
00000350: fdf1 fd3d 579c 773f 4646 41bd 9901 313d
00000360: d761 8dbe d8ee bf3e 4b9b 353e 0566 743e
00000370: 8ae6 7ebd abc8 d5be 7658 873e fe46 093f
00000380: d1d9 08bd e811 8d3e ff59 d5bc 2978 0c3c
00000390: efa8 e43d c0aa 20bf 7ca0 f4be e579 013f
000003a0: 81c4 0dbe d260 b5be 5420 d7bc cd6d 35be
000003b0: 7522 95be 5c99 d5be ed79 7abe aec1 563e
000003c0: 883a 9dbe 669c ba3d 2712 51be c5e0 25be
000003d0: f7e6 d43d f3e5 cdbc 6a25 c1be b416 eebe
000003e0: 2aab 33bd d2f0 fd3d 4a22 bdbc b5a3 d33e
000003f0: 90c8 30bd 09c8 c0bd f005 08be 94e4 afbe

weight_hh_l1 f4 [300, 100]
-0.107724115 0.7065624 0.674482 0.11007564 0.44205403 0.12398827 -0.36693674 0.08889992
-0.33277646 0.2922742 0.13742055 -0.062480383 0.039796714 -0.25014743 -0.37688902 -0.11367916
0.3704026 -0.050135717 -0.1275794 0.46436802 -0.22865438 0.43894395 0.0088091465 -0.070318066
-0.056827832 0.36486495 0.2607541 -0.15904361 -1.0904565 -0.02551299 -0.11512188 -0.21065915
-0.091612116 -0.014242266 0.5774936 -0.0417305 0.6721557 0.17675759 0.28458822 -0.55987513
0.49088472 0.19074337 0.45261878 -0.39185143 0.14697367 0.37310132 0.21458086 -0.2958555
0.6527108 0.056441486 -0.15656069 -0.214373 -0.1136178 0.048454452 -0.04435653 0.2591259
-0.54544264 0.28436348 -0.15331788 0.15924332 -0.10412581 -0.06376054 0.14196552 -0.097520344
0.099464566 -0.22497235 -0.053882074 -0.25240427 -0.42034876 -0.20940779 0.46712276 0.14236104
-0.22041015 1.3756697 0.5415265 -0.038665824 0.10414964 -0.7960456 0.1193752 0.09464206
0.064594984 -0.0015382152 -0.21693169 -0.28782916 -0.32148567 0.28973544 0.17471215 -0.015217248
-0.45426533 0.2690705 0.021234315 0.00846393 0.07876445 -0.009455319 2.962899 0.118337035
-0.12741096 0.8454853 -0.3278699 -0.5047169 0.31386244 0.7830079 0.042072646 -0.034842882
-0.029337212 -0.065827645 -0.03347601 0.06410103 -0.817105 -0.38126916 0.39297166 -0.1646964
0.06992567 0.08914799 -0.39218554 -0.25580886 -0.18728372 0.084332615 0.38606066 0.15880089
-0.07158005 0.45402 0.43757915 -0.48057288 0.7900651 -1.3744518 -0.005562908 -0.30346623
-0.04060289 0.4944699 -0.85141176 -0.27201337 0.42287824 0.25158113 -0.27749482 -0.11012297
0.0007178732 0.59183484 0.24391241 -0.11310814 -1.5237073 0.9116198 0.43458754 -0.7834904
-0.7210892 -0.26195002 0.29059973 -0.098216906 0.27502483 0.55376756 0.5278015 -0.7052758
-0.0052779745 0.17425649 -0.5572338 -0.073820926 0.22225162 0.0113021955 -0.26583377 -0.35976315
1.0801034 -0.30385244 -0.95244324 0.29563037 -0.23581538 0.8787701 -0.083285496 0.63789415
-0.56024146 -0.17146446 0.51188284 -0.5874313 -0.6756896 -0.36140758 -0.5030597 0.3874135
-0.45290694 -0.026622351 -0.5591537 -0.42708224 -0.23917232 0.40803525 0.30485913 0.5353683
0.14183195 -0.55936396 -0.6095791 0.41907725 0.8844461 -0.9436778 0.20478983 0.44048625
-0.19059256 -0.24142428 0.3986436 -0.53636736 0.23941338 -0.14282687 -0.10434491 -0.18746369
-0.20249343 0.017450007 -0.44853032 0.018837372 -1.2380998 -0.082528874 -0.27422497 -0.5273158
-0.6865651 -0.2744628 0.3819286 -0.12262589 0.1374117 -0.03243528 0.013179766 -0.73139024
0.103143774 0.5867433 -0.59308654 -0.16022263 -0.07988154 -0.19835663 -0.019097442 0.0026987018
0.49192196 -0.1628364 0.2034167 -0.32021722 0.4769297 0.22497821 0.6064964 0.2135104
1.2716155 0.24365023 -1.0359781 -0.047485616 0.60901946 -0.103442445 0.53311044 0.1292532
-0.0966091 0.24224769 0.30553913 -0.2055905 -0.65169966 0.39171046 0.29969448 -0.018143162
-0.10738656 0.32260752 -0.026297819 0.1818672 -0.049122103 1.0984355 -0.09628748 -0.0750793
00000000: 769e dcbd 46e1 343f daaa 2c3f 566f e13d
00000010: e854 e23e 90ed fd3d 22df bbbe 2911 b63d
00000020: ad61 aabe f7a4 953e f9b7 0c3e 6eeb 7fbd
00000030: e101 233d 5313 80be 99f7 c0be 9fd0 e8bd
00000040: 69a5 bd3e 1c5b 4dbd 2da4 02be a5c1 ed3e
00000050: 6024 6abe 43bd e03e 3d54 103c eb02 90bd
00000060: 4dc4 68bd 94cf ba3e 9081 853e 54dc 22be
00000070: 1494 8bbf 9e00 d1bc 05c5 ebbd 08b7 57be
00000080: 229f bbbd 6558 69bc 9fd6 133f 9aed 2abd
00000090: 6512 2c3f f1ff 343e 8cb5 913e fa53 0fbf
000000a0: 3e55 fb3e 3b52 433e a6bd e73e c0a0 c8be
000000b0: 4480 163e 2307 bf3e 16bb 5b3e 5f7a 97be
000000c0: 0e18 273f 302f 673d 7251 20be 9984 5bbe
000000d0: 73b0 e8bd 2d78 463d 31af 35bd 26ac 843e
000000e0: 21a2 0bbf 1798 913e 5dff 1cbe ae10 233e
000000f0: ea3f d5bd e394 82bd 695f 113e bfb8 c7bd
00000100: 14b4 cb3d 275f 66be 73b3 5cbd 223b 81be
00000110: f437 d7be ff6e 56be b72a ef3e 18c7 113e
00000120: 33b3 61be f215 b03f 7ba1 0a3f 0e60 1ebd
00000130: 684c d53d a5c9 4bbf fc7a f43d b2d3 c13d
00000140: 604a 843d f09d c9ba 5723 5ebe 585e 93be
00000150: c599 a4be 3458 943e bee7 323e c451 79bc
00000160: 7795 e8be 9cc3 893e 96f3 ad3c 4cac 0a3c
00000170: 424f a13d 7bea 1abc 23a0 3d40 b05a f23d
00000180: 0578 02be ba71 583f 90de a7be 2035 01bf
00000190: 94b2 a03e 3573 483f 5e54 2c3d 69b7 0ebd
000001a0: 9854 f0bc a5d0 86bd 241e 09bd 6747 833d
000001b0: cb2d 51bf b635 c3be 9533 c93e 2ca6 28be
000001c0: 3135 8f3d 3993 b63d 8bcc c8be 61f9 82be
000001d0: 4ec7 3fbe 94b6 ac3d bea9 c53e b39c 223e
000001e0: 9098 92bd 4f75 e83e 600a e03e a60d f6be
000001f0: b541 4a3f 09ee afbf 0e49 b6bb ed5f 9bbe
00000200: 374f 26bd 292b fd3e 1ff6 59bf 5645 8bbe
00000210: 7f83 d83e 3ecf 803e cd13 8ebe 2788 e1bd
00000220: a82f 3c3a 7d82 173f 2dc4 793e 3ea5 e7bd
00000230: d708 c3bf ea5f 693f 4282 de3e d492 48bf
00000240: 4d99 38bf 501e 86be 7dc9 943e f225 c9bd
00000250: 0ed0 8c3e b6c3 0d3f 001e 073f f48c 34bf
00000260: dcf2 acbb 4b70 323e e0a6 0ebf 6d2f 97bd
00000270: ee95 633e d82c 393c 5d1b 88be e032 b8be
00000280: d440 8a3f 8c92 9bbe 52d3 73bf dd5c 973e
00000290: 9679 71be 14f7 603f 9691 aabd 084d 233f
000002a0: fc6b 0fbf 6194 2fbe c10a 033f e661 16bf
000002b0: fef9 2cbf 6a0a b9be 85c8 00bf 105b c63e
000002c0: 6be3 e7be 1e17 dabc b224 0fbf 86aa dabe
000002d0: 97e9 74be ffe9 d03e 7f16 9c3e e60d 093f
000002e0: 653c 113e 7a32 0fbf 600d 1cbf 4b91 d63e
000002f0: 0f6b 623f de94 71bf 6db4 513e 6a87 e13e
00000300: b22a 43be ed37 77be 041b cc3e 5f4f 09bf
00000310: c828 753e 3541 12be c9b2 d5bd 7bf6 3fbe
00000320: 705a 4fbe 51f3 8e3c c4a5 e5be d550 9a3c
00000330: 0e7a 9ebf e604 a9bd 3767 8cbe 2bfe 06bf
00000340: bbc2 2fbf 6386 8cbe 258c c33e 4823 fbbd
00000350: a7b5 0c3e dbda 04bd f2ef 573c 643c 3bbf
00000360: 0b3d d33d cf34 163f 85d4 17bf 6711 24be
00000370: ef98 a3bd 001e 4bbe 3d72 9cbc b4dc 303b
00000380: 32dd fb3e 96be 26be 784c 503e 83f3 a3be
00000390: 2130 f43e b060 663e 5943 1b3f 78a2 5a3e
000003a0: 4cc4 a23f 727f 793e ee9a 84bf 4780 42bd
000003b0: b3e8 1b3f a2d9 d3bd ed79 083f f35a 043e
000003c0: feda c5bd c70f 783e a06f 9c3e 5186 52be
000003d0: cad5 26bf 468e c83e 8e71 993e f8a0 94bc
000003e0: 7ced dbbd d02c a53e 866e d7bc 653b 3a3e
000003f0: 4234 49bd 8999 8c3f 5f32 c5bd 2dc3 99bd

bias_ih_l1 f4 [300]
-0.06524621 0.45154917 0.06209214 0.12123832 0.020232055 -0.11869531 -0.4250617 -0.008580012
-0.2710525 -0.13540235 0.07132551 0.15438667 0.036292844 -0.18349129 0.0017943219 0.052170545
-0.26057413 -0.08124919 -0.16569145 0.091769256 -0.15082404 0.15807301 -0.16842699 -0.24089225
0.006365403 0.12098014 -0.19489065 -0.022802487 -0.06376856 -0.24515 -0.12543683 -0.03438646
-0.12773368 -0.13418162 -0.1207153 0.30550382 -0.116726704 0.34697407 -0.069430105 0.21016131
0.22640325 0.20438437 -0.18069844 -0.23469119 -0.18084872 0.027294563 -0.118994765 0.034983512
-0.014897252 -0.28572044 -0.4276621 0.3841852 0.2077995 -0.21099937 0.25424415 -0.0038370602
0.054699615 -0.2238564 0.02423179 -0.12781267 -0.52632153 -0.09475908 0.17303136 -0.31612423
-0.016240418 0.13671356 -0.4453592 -0.026889388 -0.3747294 -0.055575695 -0.21777688 -0.07688259
0.12684113 0.16668631 -0.12922618 -0.089630574 0.119845204 0.014770837 -0.005359931 0.31657627
0.2054529 -0.2240993 -0.25718215 -0.33279333 0.10195184 -0.05342584 0.23858865 -0.10406211
0.031274717 0.16464724 -0.22146653 0.22788458 -0.37614664 0.5790756 -0.022482218 0.1749738
-0.14302638 0.058089145 -0.053184193 -0.18377581 -0.06450597 -0.36852232 -0.3894693 -0.36806753
-0.51401573 -0.4277831 0.23663488 -0.07373273 -0.32665253 -0.14681754 0.15263067 -0.41419208
-0.6525548 -0.15913703 -0.21517819 -0.7569284 -0.42488334 -0.51558757 -0.31718168 -0.8124483
-0.5974356 0.41546565 -0.36336988 -0.6170345 0.016551405 0.1009565 0.09417118 0.53430367
0.30448157 -0.4844883 -0.10403734 -0.3681057 0.2595048 0.16131784 0.0046296893 -0.17717768
-0.42277667 0.3922773 0.3367638 -0.21076925 0.06351362 -0.10982451 -0.4457171 -0.14289851
-0.21960098 -0.68792284 -0.31067616 -0.34328055 -0.38228306 -0.62398064 -0.7098011 -0.54498017
-0.554088 -0.5158796 0.14730841 -0.30614483 0.14921224 -0.14580727 -0.6103743 -0.2784602
-0.22407648 -0.16367556 -0.17660871 -0.15786502 -0.41137347 -0.468242 -0.7694009 -0.018530006
-0.04861385 -0.3258713 -0.3406496 0.15428339 -0.02441472 -0.37836143 -0.29552698 0.30483228
-0.40332174 0.031005101 0.14276966 -0.8112481 -0.7943342 -0.6491054 -0.17904505 -0.34936187
-0.5608731 -0.7350332 0.16380511 -0.5725556 -0.82044744 0.45757744 -0.12630357 -0.20457219
-0.30969912 -0.916944 0.10553609 0.15884091 -0.10540805 0.38292757 -0.4484078 0.42175555
-0.0859639 -0.2928252 -0.24683069 0.16387108 -0.18886279 0.095483944 0.26333308 -0.061987996
0.19671749 0.14271554 -0.13025126 0.24820136 -0.36310318 -0.09574046 -0.054914188 -0.04670588
-0.45020586 0.051918663 0.14869778 -0.37296724 -0.22456877 0.03222576 0.30435622 -0.29789346
0.27343318 -0.12931438 -0.5149821 -0.14797552 0.27938947 -0.18699004 -0.1688782 0.049525343
-0.06279851 0.04713927 0.1053727 0.20883974 -0.06591185 -0.12079166 -0.04418926 0.15970017
-0.15587902 -0.020248123 -0.37029383 -0.08265296 -0.5371449 -0.06090157 0.06043959 0.01223153
-0.17676458 -0.062149245 0.034780163 0.19544543 0.22138749 0.0854475 -0.17170785 0.15147462
00000000: ce9f 85bd 7431 e73e 5454 7e3d cc4b f83d
00000010: b2bd a53c 8716 f3bd b0a1 d9be 2e93 0cbc
00000020: 65c7 8abe eaa6 0abe 1c13 923d 8a17 1e3e
00000030: cea7 143d 24e5 3bbe 742f eb3a c8b0 553d
00000040: f969 85be fa65 a6bd 05ab 29be 85f1 bb3d
00000050: 9e71 1abe e4dd 213e 2078 2cbe 75ac 76be
00000060: df94 d03b 70c4 f73d 6a91 47be 48cc babc
00000070: 1799 82bd 9a08 7bbe 8372 00be d1d8 0cbd
00000080: 9ecc 02be e866 09be 9539 f7bd ff6a 9c3e
00000090: 690e efbd 96a6 b13e 5f31 8ebd 8734 573e
000000a0: 41d6 673e 234a 513e 0309 39be e352 70be
000000b0: 6830 39be d998 df3c 87b3 f3bd df4a 0f3d
000000c0: 9b13 74bc f349 92be 87f6 dabe ecb3 c43e
000000d0: 64c9 543e 3810 58be 4a2c 823e 3077 7bbb
000000e0: b40c 603d 9d3a 65be bf81 c63c 53e1 02be
000000f0: 02bd 06bf 0c11 c2bd 222f 313e 09db a1be
00000100: a00a 85bc a4fe 0b3e 1f06 e4be 2247 dcbc
00000110: 88dc bfbe 57a3 63bd e700 5fbe 9f74 9dbd
00000120: a4e2 013e d1af 2a3e de53 04be 3c90 b7bd
00000130: 6771 f53d 6101 723c 5ca2 afbb 4916 a23e
00000140: 3f62 523e 497a 65be 61ad 83be e363 aabe
00000150: 20cc d03d 0ed5 5abd 9550 743e 841e d5bd
00000160: eb19 003d 4999 283e 1fc8 62be 935a 693e
00000170: 4b96 c0be 4c3e 143f a12c b8bc 552c 333e
00000180: 8275 12be e2ee 6d3d abd7 59bd ba2f 3cbe
00000190: b51b 84bd f5ae bcbe 8568 c7be 5973 bcbe
000001a0: 8996 03bf 6306 dbbe 6a50 723e 2f01 97bd
000001b0: 003f a7be 5657 16be 374b 1c3e fc10 d4be
000001c0: d50d 27bf d1f4 22be ac57 5cbe 0fc6 41bf
000001d0: 4f8a d9be 8cfd 03bf a365 a2be 9dfc 4fbf
000001e0: 8af1 18bf eab7 d43e 9e0b babe f9f5 1dbf
000001f0: d096 873c 48c2 ce3d d2dc c03d 20c8 083f
00000200: 02e5 9b3e da0e f8be 8711 d5bd 5a78 bcbe
00000210: d0dd 843e 8130 253e a6b4 973b 116e 35be
00000220: 2f76 d8be 92d8 c83e 4e6c ac3e e5d3 57be
00000230: 6e13 823d aceb e0bd 0835 e4be fd53 12be
00000240: 14df 60be b61b 30bf f210 9fbe 78c2 afbe
00000250: 9bba c3be 32bd 1fbf 86b5 35bf d283 0bbf
00000260: b6d8 0dbf af10 04bf 04d8 163e 04bf 9cbe
00000270: 18cb 183e 804e 15be 7d41 1cbf 5692 8ebe
00000280: 4e74 65be 919a 27be ead8 34be 5ea7 21be
00000290: 8b9f d2be 6abd efbe 75f7 44bf 3dcc 97bc
000002a0: 511f 47bd 9ad8 a6be a069 aebe 77fc 1d3e
000002b0: 6101 c8bc 97b8 c1be 504f 97be fa12 9c3e
000002c0: 3080 cebe 69fe fd3c 3632 123e f5ad 4fbf
000002d0: 7c59 4bbf c62b 26bf 9657 37be 8fdf b2be
000002e0: 6195 0fbf 232b 3cbf 87bc 273e 0193 12bf
000002f0: d808 52bf 9747 ea3e b955 01be 5f7b 51be
00000300: e290 9ebe d8bc 6abf 4e23 d83d 31a7 223e
00000310: 2de0 d7bd 150f c43e b595 e5be 58f0 d73e
00000320: d70d b0bd 2fed 95be 2fc1 7cbe d2cd 273e
00000330: 3f65 41be 168d c33d 98d3 863e 20e7 7dbd
00000340: 4f70 493e 0624 123e 9660 05be 7f28 7e3e
00000350: a9e8 b9be 9313 c4bd b3ed 60bd aa4e 3fbd
00000360: 6281 e6be aaa8 543d 3b44 183e 90f5 bebe
00000370: 5bf5 65be 29ff 033d 94d4 9b3e 7e85 98be
00000380: 6fff 8b3e fd6a 04be ded5 03bf e586 17be
00000390: 230c 8f3e 517a 3fbe 68ee 2cbe 16db 4a3d
000003a0: 819c 80bd 1b15 413d a4cd d73d 16da 553e
000003b0: cbfc 86bd 9e61 f7bd ccff 34bd 7188 233e
000003c0: c09e 1fbe 64df a5bc 2797 bdbe f545 a9bd
000003d0: 5482 09bf ed73 79bd 818f 773d c166 483c
000003e0: c601 35be 3590 7ebd a575 0e3d d922 483e
000003f0: 67b3 623e 19ff ae3d 2fd4 2fbe 2a1c 1b3e
