saved_models/chunk_len_100.pt (torch, 570895 bytes, 11 tensors)

weight f4 [100, 100]
00000000: c724 6abf abbe 89be 2bf7 a53d 13af a6be
00000010: 6d1e c0be 8ca3 963e fb37 4fbd 63bd 47bf
00000020: f310 42bf 8628 3cbf a292 b73d 7bd3 c23f
00000030: 1dcc d43e d404 5d3f 088e 1a3f b62c efbe
00000040: b02e d3bf e6d0 fe3e c198 713c 10cd af3e
00000050: 444b ac3f 3ef6 a33f df76 803f a753 5d3f
00000060: 9f1d 37bf e161 1f3e 55bd c93e 89f8 44bf
00000070: a604 4b3e 080e 7f3e d7c9 ed3e 85a2 8f3e
00000080: 6da7 21bf 995f e23f 7f45 5fbf df6f 053f
00000090: 5213 1840 2672 84bf d77c e6be daec 843f
000000a0: 5672 303f 2c63 80bf 85ad 13c0 72be d4bd
000000b0: 4a7d ebbd f2e2 27c0 e0d2 81bf 1135 82bf
000000c0: ca2a f4bf d67d 78bd 8a6b 7cbe 52f7 ca3e
000000d0: 99bf ec3e fbdd 15be 1338 2340 e461 fa3e
000000e0: 5211 473f e24e 2b3c 3e37 d9bf 28dd 2f3f
000000f0: 5306 5a3f 4821 813f 8771 7a3f 3ba0 173f
00000100: c4bd 583e 7e1b 19be ba33 973e b8fc 84bf
00000110: 4f56 0840 2f24 08bf 62ce 11bf 13e5 70be
00000120: f774 bf3e 961d 843f a9b9 323e 559c 38bf
00000130: 0df5 eb3e 0133 383f 2cc6 9f3d 8d18 43bf
00000140: 124d bbbf 7815 e1be 3834 db3e c7b2 17be
00000150: 80e8 19be 4d43 a1bd b64f 363e b52b 9d3f
00000160: 5bd4 e73e f1c8 863f 94c2 a93f 4daf dc3f
00000170: dfdb 773e 6783 8abf 0254 313e 835e 3a3e
00000180: 5a93 32be 3c2b 9fbf 3c2f 88be 9b6c 81bf
00000190: 9f42 41bb e11f 33bf 7210 fe3d 6767 813d
000001a0: 807d 9cbd 7c78 383e 63c7 4dbf 8862 aa3d
000001b0: 4acb ddbe 5654 b4bf a5cd f03f 72c1 c33f
000001c0: 2966 b93f 8876 3cbe 6a02 92bf 20d9 603e
000001d0: 9c4f d5bd 75ea 58be 0c6f 853f f102 58bf
000001e0: 6677 68bd 4488 19be 48e6 593e 9be8 0a3f
000001f0: 566c 62bf 6322 1cbe 64f6 e33f 0ed9 0abf
00000200: da3e 23c0 b917 b23e 114e 49be 8e19 01bf
00000210: c268 3fba a04b 073c bb0e b83e eba7 5abf
00000220: 0931 4e3e 8d2b a43d b200 d83f 158d 9b3f
00000230: fb0b 64bd 36ec e4bf abdc 0dbf 1c3a 963e
00000240: 0721 533e 07b2 1a3f 5c3d 733f b383 19be
00000250: 2144 d5be 9de7 7bbe b990 8c3e 7e70 603f
00000260: 2f84 9a3f 4a71 9ebf e131 a23f 02a6 f5be
00000270: 90a9 d93e 898b be3e fce6 bd3f 323b 90be
00000280: c714 e93f 64c2 3e3e 16e4 fc3c b5f9 a2be
00000290: 0fda d23f 5ca2 ebbd 0d1d 96bf 3385 c53f
000002a0: dc2c 4f3e e77e 9c3f 30cf abbe 12f2 12c0
000002b0: a01c 353f 5fe6 04c0 df80 05c0 0025 d13e
000002c0: 7fa3 95bc ccb3 193f 1a48 6c3e 7c12 59be
000002d0: ab59 ea3f 0dc7 43bd f1c2 31bf 5d73 4ebf
000002e0: 9949 9e3e 8dc2 e9be a70c 58be 188d 6e3f
000002f0: f397 33bf 87d8 803f 57fc 2dbf a387 be3f
00000300: 87e3 1d3f 5589 953d d154 2dbe 47eb af3f
00000310: 5027 d13e 5a1f 093f ec75 0fc0 0b74 0640
00000320: 9dcc 8bbb 2195 453e 9157 50bf 2113 3e3f
00000330: a4ed 5fbf 73a7 e63d 0500 76bf bb75 bdbf
00000340: 0faf 3d3f 4263 32bf abe5 023d 55fd 033d
00000350: 7f72 afbf bfe7 653d 22ba 4fbe 17f2 3abf
00000360: 598d 10bf 3f11 8ebf 0040 593d af77 073f
00000370: 198a 3fbe 81db 273f 087b 1ebc 977d f6be
00000380: 2315 83be aa02 2f3f ac75 d7bd 2737 06c0
00000390: 93ad b9bf 3e20 383f 09c7 9dbf 1a25 94bf
000003a0: cda1 7cbf c300 7c3e 434c 00bf b38c 803e
000003b0: 3be5 7cbf b4b5 633f ec36 2a3f 730a 083f
000003c0: efa6 473f 50f7 38bc 3548 cc3f e832 763f
000003d0: f435 02c0 29e5 fabe e3be adbe b064 e1be
000003e0: 6dcb 3b3f 6f3b b03f eaaa fdbe 5326 52bf
000003f0: 9a35 703d f0eb 85bf 0b9e 0a3e d6cf 9bbf
-0.9146237 -0.2690328 0.08103784 -0.32555446 -0.37523213 0.2942165 -0.050590497 -0.78023356
-0.7580711 -0.73499334 0.08963515 1.5220789 0.41561976 0.8633549 0.6037297 -0.467138
-1.6498623 0.49768752 0.014745892 0.34336138 1.3460469 1.2809522 1.0036277 0.8645577
-0.71529573 0.15564682 0.3940226 -0.76941735 0.19825992 0.24907696 0.46443054 0.2805368
-0.63146096 1.7685424 -0.8721542 0.52123827 2.3761792 -1.0347335 -0.4501712 1.0384781
0.6892446 -1.0030265 -2.3074658 -0.10387887 -0.11498506 -2.6232266 -1.0142479 -1.0172445
-1.9075558 -0.06066688 -0.24650398 0.39641815 0.46239927 -0.1463546 2.5502975 0.4890281
0.77760804 0.010455819 -1.6969984 0.6869683 0.851659 1.0088282 0.9782948 0.5922887
0.2116614 -0.14951894 0.29531652 -1.0389624 2.1302679 -0.5318021 -0.5695554 -0.23524885
0.37393925 1.0321529 0.17453636 -0.72113544 0.46085396 0.71952826 0.0780147 -0.76209337
-1.4632895 -0.43961692 0.42813277 -0.14814292 -0.15030098 -0.07874165 0.17803845 1.2278963
0.45279202 1.0530072 1.3262506 1.7240998 0.24204968 -1.0821351 0.17317203 0.18200116
-0.17439023 -1.2435069 -0.26598537 -1.0111269 -0.0029489172 -0.6997052 0.124054804 0.063185506
-0.07641125 0.18014711 -0.80382365 0.083195746 -0.4331916 -1.4088237 1.8812758 1.529341
1.4484302 -0.18404591 -1.1406987 0.21957827 -0.10415575 -0.21183188 1.0424514 -0.8437949
-0.056754492 -0.14993387 0.21279252 0.5426118 -0.8844656 -0.15247492 1.7809567 -0.5423745
-2.5507112 0.34783724 -0.19658686 -0.5042962 -0.0007301682 0.0082577765 0.35948738 -0.8541247
0.20135893 0.08016119 1.6875212 1.215243 -0.055675488 -1.7884586 -0.5541484 0.2934121
0.20618068 0.604279 0.950155 -0.14991646 -0.4165354 -0.24600072 0.27454165 0.8767165
1.2071589 -1.2378323 1.2671472 -0.47978216 0.42512178 0.37215832 1.4836116 -0.28170162
1.8209466 0.18628842 0.030870479 -0.31831136 1.6472796 -0.11505577 -1.1727616 1.5431274
0.20231956 1.2226228 -0.3355651 -2.2960248 0.70746803 -2.0765607 -2.0859907 0.4084854
-0.018266438 0.60039973 0.2307438 -0.21198457 1.8308614 -0.04779725 -0.6943808 -0.8064478
0.30915526 -0.45656243 -0.21098576 0.9318404 -0.7015373 1.0066079 -0.67963165 1.4885143
0.61675304 0.07301585 -0.16926886 1.3743676 0.40850306 0.53563464 -2.2415724 2.1008327
-0.004266335 0.1929517 -0.81383616 0.7424794 -0.87471986 0.11262407 -0.9609378 -1.4801553
0.74095243 -0.69682705 0.03195731 0.032224018 -1.3706816 0.056129213 -0.20285848 -0.7302565
-0.5646568 -1.1099013 0.05303955 0.52917 -0.18705024 0.6556931 -0.009672888 -0.48142692
-0.25602064 0.6836344 -0.10520491 -2.0971162 -1.4506096 0.719242 -1.2326366 -1.1573822
-0.9868439 0.24609666 -0.50116366 0.25107345 -0.9878728 0.8894913 0.66490054 0.53140944
0.77989095 -0.011289433 1.5959536 0.96171427 -2.034543 -0.4900296 -0.33934698 -0.4402213
0.7335728 1.3768138 -0.4954446 -0.8208973 0.05864487 -1.0462627 0.13536851 -1.2172801

weight_ih_l0 f4 [300, 100]
00000000: eb8a d4be a503 17bd 79fa 26be fc63 c9be
00000010: 1d8c 6d3f d1d9 c4be 18de ba3e 2326 e5be
00000020: a344 a93e 58b6 4bbf 9bd6 1d3f cbbe cf3e
00000030: f93c 5b3e 4140 2b3f 7a7d 68bf 0e46 4bbe
00000040: a78e 18bf f91f aabe 888d 8f3e 6a23 0cbf
00000050: b706 9a3e e71a 54be 7028 68bd eba3 2fbf
00000060: d833 e13f 5bd0 a3be e061 47bd 2124 263f
00000070: 3ce7 d2be c5d3 d23c 5912 4cbf da62 7c3f
00000080: 8d68 aabe e1f7 45bf 5681 d63e 3d1f 1ebf
00000090: 6ed1 603f 9d81 13bf 8764 3d3f bc62 8b3f
000000a0: 6461 fdbe 04a0 1fbf a70a 263e 4f60 3e3f
000000b0: 1ef0 ed3e 2723 7bbe b5a6 e1be be5a 453e
000000c0: 1ce7 46be 0a31 14bf f088 11be f025 363f
000000d0: 12b3 02be 2218 00bf ac82 cdbe d588 c83e
000000e0: cbe7 3cbf 317f 5ebf 9bbe 053f edca 013f
000000f0: 4f95 e03d a4a8 f2be 2261 303f 699f bb3f
00000100: 076a 173f 4292 c23f 05e9 0bbf cfb6 a33e
00000110: 3760 69be 07af 113f 4b66 d93e 870f 2bbf
00000120: 9e64 5a3e 2f00 8e3f ec09 323f bee1 cc3c
00000130: 1902 2dbf 1b80 333e f8cf 7c3e 04f6 47bf
00000140: ceef b3be 906f f53d 044a a03d d157 81bd
00000150: 12db 13bf f5a8 183f 7144 b13e 1f32 d6be
00000160: 1842 20bf d806 40be c6cd 9ebe c0f4 91bf
00000170: 980c fcbe 10b4 7f3e b79f 95bf 3bb6 fd3e
00000180: 5a6b 1dbc 4508 0f3f 438c 163e 37e0 c33e
00000190: 7ffc 8f3e b3bb a33e d509 adbe 56ec 833f
000001a0: 6737 593f 549e ffbd 333c 953e 94be 5b3e
000001b0: 476f a33d c55c 97be fe39 7b3f 62e8 5d3f
000001c0: fab0 12bf 7f56 49bf 5893 dc3e effe 32be
000001d0: 46c8 153f 7df9 3b3f a404 1c3f 4bfa ffbc
000001e0: a1ed c1bd 6a5e 713d 82a1 0fbe aa68 c2be
000001f0: 36b8 363f aca2 563f d662 20bd 4048 27bf
00000200: 5d12 0cbe 2863 3f3f a81c a6bd e1fd 093f
00000210: 9d17 383e 7271 1d3f 9fc0 243f 9ed4 a0be
00000220: 8d8c 21be b8d1 27bf 136e 283f 0da9 393e
00000230: 8094 403f b32b 903e f917 1cbe f316 78be
00000240: 6d96 b8bd 3818 333e d137 e03e 4e4c ba3e
00000250: b89d cd3f e64a 23bf 801e e7be d0d9 58be
00000260: ae99 303f ec19 16bf 314f 373f 34dc e4bd
00000270: faca de3c 38b4 653e 23ad 823d 9c6f 27bf
00000280: d4a2 1e3d df41 89bf bbb3 473d 62ad 943d
00000290: 7bb4 e0be eef7 d0be 95b0 22bf 6bc7 a9be
000002a0: 38be 18bf 5e84 a5be d657 0a3f 45d0 ae3e
000002b0: fba7 de3d a21c 20be d105 4b3e 286e 763e
000002c0: fa04 45bf 4c61 79bf b001 c1be f18c 213f
000002d0: 3afc 493e 38fd 38be 705d 27bf b50b 03bd
000002e0: 2fd6 253f 4b3d 19bf 2014 ad3e 58fc edbe
000002f0: 0b74 6a3f 11fe 58be 36ea b63e 6743 edbe
00000300: c933 28bf 3c12 f93e 8590 2c3e f7bc 00bf
00000310: 8d97 da3e 17e3 9dbf 2c3f 7a3f 1704 8ebe
00000320: 53e8 353e d992 d33e 7093 0bbe 2763 24bd
00000330: 7289 86be bb41 33be 9d25 1fbe 169e 41be
00000340: 4c46 84bd 0d8a 0e3f 2ae7 21bf 169a 8d3e
00000350: 95a3 a23e 18ac c23d 4936 2bbf 695c 523e
00000360: 5433 053e 3ab1 133f e312 b83e 8a00 fd3e
00000370: 2e1b dbbe 4195 82be 9f88 a7be f1e7 37bf
00000380: 6ee7 e6bd 7e64 023f 24d0 8d3f 89f7 09bf
00000390: c1bf 04bf 47b7 13bf 6fad 203f 85e3 90bd
000003a0: a701 b5be e39a 6dbe 7ddc 2f3f b8d3 dcbe
000003b0: a2b8 74bc b36d 5fbe bfae 06bf 6cfc 48bf
000003c0: 0469 2b3e cb30 4b3e 04ce 05bf 07bf 84be
000003d0: 97f4 a4be 436b 5d3e e03f 413e 00e3 3cbd
000003e0: 39fe 06be 29d3 0abe 5d6e aa3e ac48 43bf
000003f0: 324a 55bd 8fc6 0a3d a649 6b3f 2417 b3bd
-0.41512236 -0.03686871 -0.16306485 -0.39334095 0.9279192 -0.3844743 0.3649757 -0.44755659
0.33060178 -0.7957511 0.61655587 0.4057525 0.21409978 0.6689492 -0.9081646 -0.19850942
-0.5959267 -0.33227518 0.28037667 -0.5474154 0.30083248 -0.20713387 -0.05667919 -0.68609494
1.7593946 -0.319949 -0.048677325 0.6489888 -0.41192043 0.025735745 -0.79715496 0.98588336
-0.3328289 -0.7733136 0.4189555 -0.61766416 0.87819564 -0.5761965 0.7398152 1.0889506
-0.49488366 -0.6235354 0.16215001 0.74365705 0.46472257 -0.24525128 -0.440725 0.19272897
-0.19424099 -0.5788733 -0.14212394 0.7115164 -0.12763622 -0.50036824 -0.40138757 0.39166895
-0.7379119 -0.8691283 0.52243966 0.50700265 0.10965978 -0.47394288 0.6889821 1.4658023
0.5914616 1.5200884 -0.54652435 0.3197541 -0.2279061 0.56907696 0.42460856 -0.6682057
0.21327445 1.1093806 0.6954639 0.025009986 -0.67581326 0.17529337 0.24688709 -0.78109765
-0.35143894 0.119841695 0.07826617 -0.06315578 -0.5775615 0.5963281 0.3462253 -0.41835114
-0.6260085 -0.1875261 -0.31016368 -1.1402817 -0.49228358 0.24971032 -1.1689366 0.49553093
-0.009608114 0.55871993 0.14701943 0.38257 0.28122327 0.3197914 -0.33796564 1.0306499
0.8485016 -0.124813706 0.2914749 0.21459419 0.07980209 -0.29562965 0.98135364 0.86682713
-0.57301295 -0.7864761 0.43081164 -0.17480062 0.5850872 0.73427564 0.6094458 -0.031247279
-0.09469152 0.05892793 -0.14026454 -0.37970477 0.71374834 0.8384197 -0.039156757 -0.6534462
-0.1367888 0.74760675 -0.081109345 0.53903013 0.17977758 0.6150123 0.64356416 -0.31412214
-0.15776272 -0.6555438 0.6579296 0.18130894 0.75226593 0.2815834 -0.1524352 -0.24227504
-0.090130664 0.17489707 0.43792585 0.3638634 1.6063757 -0.6378616 -0.45140457 -0.21176839
0.68984497 -0.58633304 0.7160521 -0.11174813 0.027196396 0.22432029 0.063806795 -0.6540468
0.038729504 -1.0723227 0.04875539 0.07259633 -0.43887696 -0.40814155 -0.6355069 -0.33159956
-0.5966525 -0.3232755 0.54040277 0.34143272 0.108718835 -0.15635923 0.19826438 0.24065459
-0.7696072 -0.9741409 -0.376966 0.63105685 0.19725123 -0.18065345 -0.6537695 -0.031993587
0.64779943 -0.5985915 0.33804417 -0.46481586 0.9158332 -0.21190669 0.35725564 -0.46340486
-0.6570402 0.48646724 0.16852005 -0.5028834 0.4269375 -1.2334927 0.9775264 -0.27737495
0.17764406 0.41322973 -0.13630462 -0.04013362 -0.26276737 -0.17505543 -0.15541692 -0.18907961
-0.064587206 0.556794 -0.63243353 0.2765662 0.31765428 0.095054805 -0.6687971 0.20543064
0.13007861 0.576923 0.3595191 0.49414474 -0.42794174 -0.25504497 -0.3272142 -0.7183829
-0.112746105 0.5093459 1.1079144 -0.53893334 -0.51855093 -0.57701534 0.6276464 -0.07074646
-0.35352823 -0.23203616 0.68695813 -0.4313028 -0.014936598 -0.2181919 -0.5261039 -0.78510165
0.16739279 0.19842832 -0.5226748 -0.25926992 -0.32217857 0.21622948 0.18872023 -0.04611492
-0.13182916 -0.13557114 0.33287326 -0.76282763 -0.05207271 0.033880766 0.91909254 -0.08744648

weight_hh_l0 f4 [300, 100]
00000000: 27f0 d33e cc30 f8be f49c 063e fa74 e4be
00000010: a51c 653e 4288 b83c 9403 b9be 5f23 7f3e
00000020: 0252 763e b7db f13e 24fb 48bd d1b8 df3e
00000030: e887 31bf 8a7b bb3e ebd2 04be 60d6 49be
00000040: 5e06 49bf 3f59 b03d 5e72 34bc 9c59 683e
00000050: 08a8 183f e5c5 ff3e f058 193f 9aca 003e
00000060: ad15 e53e 695d acbd a4b2 f4bd 83d8 5fbe
00000070: 5a16 c43e e304 193f 4881 09be a7c9 643e
00000080: e42a 013f f9b2 043e d499 0a3f 98df 81bc
00000090: b1aa b9be f431 183f ff9f 9bbc 228f b2be
000000a0: 1491 053e 74dc 4abe fdd1 d4bd cc21 753f
000000b0: 3f84 03be 35d6 c83e 1fd5 0cbe 10fe 4f3f
000000c0: 7bb2 7abe b1e5 f83c e935 0b3f 1c6d e33d
000000d0: 0039 2a3f f0ab 74bf aac1 e7be c32d 1a3f
000000e0: 3cd8 2b3e d765 99bd a68b a4be bbcd cc3e
000000f0: f150 8ebe fd9b 1f3f d067 15bf c7cc 1cbf
00000100: 9b7c fbbe 407b 043d cbf8 213e 9a6b 333f
00000110: 5aab 7a3e 6ba5 843f c624 a23c bc9c 343d
00000120: 6062 10bd abe9 8bbe e701 83be 326e 92bd
00000130: f06d 4ebf a783 853e 7b7c 3d3e e203 263f
00000140: 3d63 13bd 93b1 5bbd 4e3b 333f 615d e43e
00000150: 1a12 0fbe 473e 0b3e 2960 a13d 1633 a3be
00000160: 371d b6be 5194 da3e 273c c0be c389 c0be
00000170: ca83 cbbe 0f25 ce3e ef68 623e dcaa c33c
00000180: 207e af3d e414 40bd 5781 52be b661 3c3f
00000190: 0cd5 95be 6244 91be f922 fdbd 448b 313d
000001a0: 8ef4 d23e b68a 213c ec00 2fbe 4dc2 93be
000001b0: 95f7 11be 573e 943e 8d66 093f 8ec9 0dbf
000001c0: a2fd 713f aa03 8cbe 99b3 5dbe dbd0 753d
000001d0: 39af acbe 9088 193e a4c5 31bf 28b8 053f
000001e0: f69a 5d3f 0ef7 c4be ae24 c5bd 3181 94bd
000001f0: a41e 0a3e 5e20 d1be aa8b 583e 9c8d 143f
00000200: 4105 d93e 4fe7 2e3f b6a7 c3be bb03 b4bd
00000210: f4ff afbd 6708 bf3e 4c17 323d a615 093f
00000220: 52c9 433f 5913 0e3c d29b cc3e 0cf2 44be
00000230: 857d 4abf 2762 f6be 3d06 50bd 2220 2d3e
00000240: 2dee b53e 9486 26bf 2bfe 06bf 8254 0cbf
00000250: 5681 05ba e199 ca3e e0bd 2ebd dff9 8a3f
00000260: d906 5f3e 4fdc 0d3f 910f e3bd babc 183f
00000270: 31e3 dcbe a894 debd 6c30 c3bd 5a0b 483c
00000280: 4a4e cbbe 0eff 443e affc 3e3e 6c03 21be
00000290: 8bd9 2d3e 755e f23d 0b15 dabe bd68 893e
000002a0: b495 15bd 0c57 bfbe c8a5 3e3d cbe9 e63e
000002b0: cefb 073d 0a6e d7bd 2e9e 883e a987 563f
000002c0: 8c04 04bf ad38 67be 906d a4be 28a4 30bf
000002d0: 2182 503e e979 03be af1b d03d 900f 1fbf
000002e0: 59f7 14bf 4cba 1cbe bdeb fb3e 4233 023f
000002f0: 430f 873e 0c03 113f e25c abbe 2cf2 893e
00000300: d58c 8fbe b091 9ebf 4536 ebbd 4212 94bf
00000310: 81c3 8d3e 2775 1ebd bc25 bb3e 7965 58be
00000320: f35f c4be ba08 8f3f b591 2cbd af35 973e
00000330: fa8b 9f3f ea3b f4be 750d fe3d 9f20 0dbf
00000340: 8cbb 663e 9378 0c3f 7cfb 7ebf 2ced 79bf
00000350: 0d5f 33be f554 2c3f 3d77 afbe d148 84be
00000360: 95c0 1ebe b3f5 e8be 24af be3e 35b5 7abe
00000370: e283 99bf 23d5 073f 7937 2fbe d41a 16be
00000380: 0338 b2be f7f7 f93d 0cbd 9abe 3452 70bf
00000390: a3fa 473d 5aca 1abf 1e3e dd3d 788c b83f
000003a0: 3270 563f f0f5 be3f 8d14 9c3f 97c6 11be
000003b0: 7996 2dbf 6e34 b7be ac75 2a3e 674c 873f
000003c0: 23c0 c83e d70e 5c3e 8fb2 8a3d 79a5 da3e
000003d0: cc24 9f3f 88ee e6be 51e3 693f d7d9 71be
000003e0: 7d51 23bf f50b 07bf 0116 e5be d7f4 80be
000003f0: 3bec 19bf d7e1 0b3f 6d9f 77bd abf9 61be
0.4139416 -0.4847473 0.1314581 -0.44620496 0.22374208 0.02252591 -0.36135542 0.24915837
0.24054721 0.47237942 -0.04906763 0.4369569 -0.69348 0.3661769 -0.12971084 -0.19710684
-0.7852534 0.08610772 -0.011013595 0.22690433 0.59631395 0.4995567 0.5990133 0.12577286
0.447431 -0.08416254 -0.119481355 -0.21859936 0.38298303 0.5977308 -0.13428223 0.2234255
0.5045607 0.12958898 0.54140973 -0.015853688 -0.3626304 0.5945122 -0.01899719 -0.34874827
0.13043624 -0.19810659 -0.103916146 0.95754695 -0.12843417 0.39225927 -0.13753174 0.81247044
-0.24482147 0.030382963 0.54379135 0.11104795 0.66493225 -0.95574856 -0.4526494 0.60226077
0.16781706 -0.074901275 -0.32137793 0.4000071 -0.27796128 0.62347394 -0.5836153 -0.61249965
-0.49118504 0.032344103 0.15817563 0.7008606 0.24479428 1.0362982 0.019792926 0.044094786
-0.035250068 -0.27326712 -0.2558739 -0.07149924 -0.806365 0.26077005 0.18504517 0.64849675
-0.035983313 -0.053636145 0.70012367 0.44602492 -0.13971749 0.13597976 0.07879669 -0.31874913
-0.35569164 0.4269128 -0.37545893 -0.37605104 -0.39748985 0.40262648 0.22110341 0.023885183
0.08568978 -0.046894923 -0.20557152 0.73586595 -0.29264104 -0.28372484 -0.12360186 0.043345705
0.41202205 0.009859731 -0.17090195 -0.28859177 -0.14254601 0.28953812 0.53672105 -0.55385673
0.9452764 -0.27346545 -0.21650542 0.060013633 -0.33727434 0.149935 -0.694422 0.52234125
0.86564577 -0.38469738 -0.09626137 -0.07251204 0.13488251 -0.40845007 0.21147028 0.5802858
0.4238682 0.683217 -0.3821389 -0.08789774 -0.08593741 0.37311098 0.04347925 0.5354866
0.76479065 0.008671605 0.3996263 -0.19232959 -0.7909778 -0.4812176 -0.0507872 0.16906789
0.35533276 -0.650491 -0.5273158 -0.5481645 -0.000509282 0.39570525 -0.042661548 1.0857505
0.21779956 0.5541429 -0.110869534 0.59662974 -0.43142083 -0.10868198 -0.0953072 0.012209738
-0.39708167 0.1923792 0.18651079 -0.15723962 0.16977517 0.118344225 -0.4259418 0.2683772
-0.03651972 -0.373711 0.04654482 0.45100245 0.033199124 -0.10519035 0.26683182 0.8380075
-0.5156944 -0.22580214 -0.3211484 -0.6900048 0.2036214 -0.12839474 0.1016153 -0.6213312
-0.5818992 -0.15305442 0.49203292 0.50859463 0.2637883 0.56645274 -0.334693 0.26942575
-0.28037134 -1.238821 -0.114849605 -1.1568072 0.2768822 -0.038685944 0.36552227 -0.21132459
-0.38354453 1.1174538 -0.042131145 0.29533145 1.2464592 -0.4770196 0.124049105 -0.551279
0.22532481 0.5487148 -0.99602485 -0.9762752 -0.17516728 0.67317134 -0.3427066 -0.25836805
-0.15503152 -0.45499954 0.37242997 -0.24483187 -1.1993372 0.53059596 -0.17111005 -0.14658672
-0.3480836 0.12205499 -0.30222356 -0.9387543 0.04882301 -0.60465014 0.108028635 1.4417868
0.83764946 1.4918804 1.2193772 -0.14235912 -0.6780773 -0.35782188 0.16646451 1.0570191
0.3920909 0.21490036 0.067723386 0.4270437 1.2433105 -0.4510386 0.9136248 -0.23618256
-0.63796216 -0.5275262 -0.4474335 -0.25186798 -0.60126084 0.5464148 -0.060454775 -0.22067897

bias_ih_l0 f4 [300]
00000000: 9188 02bf 3a07 25be ed65 6ebf c68b 34be
00000010: fd06 7ebe 2a19 37be 3fc3 53be 7a73 debe
00000020: 2073 4bbe 60cd 14bf 80e7 69bd e77a 71be
00000030: 6311 27bd 922b 3c3e 70b0 8d3d 25fd 8bbe
00000040: 7fc5 1fbf 0df5 8ebe af3c 40be d21c 283d
00000050: 8d60 a1be 99a4 5ebe 5d6b ecbe c0ec 62bd
00000060: 91cb 8dbe a7dc 99be 8145 babe a46f e4be
00000070: 8f47 d4be 0452 60be eefc 79be 1501 d1be
00000080: f694 0bbe c203 65be 1ad0 eabd 9fd4 09bf
00000090: 7a92 d1be 2b87 553e d77f 023d add9 24be
000000a0: 3131 5ebc 50c5 8c3e 622c 72be 094c 7a3e
000000b0: 664c 853d 7eea 453e 723c 533e 5045 80be
000000c0: b0a1 bd3d 4ef6 243e 4d0d 56bd c307 c0be
000000d0: ff4a 32bd b3d4 d5bd 3245 8abe a3cb 8dbe
000000e0: a903 09be 59f8 35be dec3 0abe 634d 503e
000000f0: 860c 92bd 3d1d a3be 644e 90be 90cb 36be
00000100: 74de 6cbe 8939 b7bc 481f 9dbd 1360 c93d
00000110: aa25 e3bb cb78 dcbe 0c61 25bf ed11 39be
00000120: bb12 86be a1a8 92be 2219 dcbe c1ba 43bd
00000130: 742a 86bd 9638 eb3c b447 b33c 6f0a 2abe
00000140: 2967 b9be 5263 debd 8b34 1bbe 6f68 4ebe
00000150: 2937 16bf f1ae 75be 01f9 7abe d933 c63d
00000160: 2f7c b4be 914b 62be 679e 04bf b194 23be
00000170: f2ed 20be 176b 36be e26e 26be 15ef 15be
00000180: 33fd a03d 4c24 cebd 4919 ebbe 5bfe 60bf
00000190: aefe 73bf 9a28 3fbf 825f 58bf 3d6e c7be
000001a0: f79c 50bf 7ea2 8a3d 80a8 20bf 99f3 39bf
000001b0: 2c5b 2dbf 02f0 653d b0b0 3abf 388e b3be
000001c0: d421 093c 710e d9be 2965 5bbf a00a 873b
000001d0: c751 4cbf 553f 8ebf 0a19 0cbf 5293 54bf
000001e0: 4c7c dcbe b6f1 83be 0318 c7be ae73 b23d
000001f0: 85e8 0fbf 16d7 acbe 75b1 19bf d640 4abf
00000200: d998 0cbf 27d4 3bbf b16c 76bf 6195 c1be
00000210: ac55 ebbe 9941 93be 45f8 20bf 1723 ecbe
00000220: 6628 26bf db07 c1be e0ec 41be 1bde f13d
00000230: b410 c4be e594 eebe a949 b3be 079e 54bf
00000240: 64ac 84be e8a8 20bf e10d 27be c11b 2dbf
00000250: fdc7 06bf 08c3 26bf 2506 b1be 9855 a5be
00000260: 3217 f7be 047e cebe 7598 9dbe 8f46 29bf
00000270: bb4a ddbe d768 4fbf e2d6 30bf ceee 7fbf
00000280: 2aa4 a6be 871c 14be b1d3 4abf 6742 44bf
00000290: 9dd8 6abf 5d6d 0f3d 7017 21bf 43a5 0bbf
000002a0: 433b 13be 409f 1bbf c610 21bf 8ed1 f1be
000002b0: dc3d a5be cfe7 85bf 8d45 20bf a59a 19bf
000002c0: aba4 ffbe 9182 84be 4be9 07be 5021 1abf
000002d0: f5c7 adbe c97b 6abe a750 e8be 76e1 efbe
000002e0: b393 f7be b7ac 03bf f570 01bf 6864 98be
000002f0: 1cfd 64bf 0086 28bf 6ecb f9be 1eb9 c23e
00000300: a676 cfbe 70de b9be 2437 0abf f837 e4be
00000310: d144 90be b3ee 06bd e870 2bbe 8798 40bf
00000320: b5d6 f43d 156b 8e3e 7d52 023d 830b 65be
00000330: b826 f8bd 32b3 093f ed07 96be 46a0 fe3d
00000340: 855c 4cbe 0c09 a33d 3f97 fabd d3be 69bc
00000350: c519 3bbe 41c7 ccbd 602b 0abe db41 3abe
00000360: 41bf 893e a86f 963d 7c0a b83e 0d50 b9be
00000370: 76b3 263e 7585 92be 65ff c0be 667a 733e
00000380: 5ffa 54be 7b22 03be acc5 643d 4ecd a43e
00000390: b80c f23d 185d fc3c 13a0 04be 5c99 83be
000003a0: 3869 ddbe 697d 28bd 9eee 4ebd d990 a1bc
000003b0: 0e8f 24be 4351 133e 2cad acbe 9707 c13e
000003c0: cf58 e2bd 6dcb 3e3e ecfa c13d ecfa 5f3d
000003d0: c7a4 81bd d60b a53d 16d2 b7bd 9cb2 8d3e
000003e0: f881 e43e b2b3 c1be 0391 08be 1639 2dbd
000003f0: 8aad 75bd 0369 5e3e 34b9 8a3e 275a 713d
-0.50989634 -0.16116038 -0.93124276 -0.17631444 -0.24807353 -0.17880693 -0.20679949 -0.43447477
-0.19868135 -0.5812588 -0.05710554 -0.2358204 -0.040788066 0.18375996 0.069184184 -0.2734157
-0.6241073 -0.27921334 -0.18773149 0.04104311 -0.31518975 -0.21742477 -0.46175662 -0.055401564
-0.2769437 -0.30051157 -0.36381152 -0.44616425 -0.41460845 -0.21906286 -0.24412891 -0.40821138
-0.13631043 -0.22364715 -0.114654735 -0.5384006 -0.40932065 0.20852344 0.0318602 -0.16098662
-0.013561533 0.27494287 -0.23649743 0.24443068 0.065087125 0.19327733 0.20628527 -0.2505288
0.09259355 0.16109583 -0.05225878 -0.37505922 -0.043528553 -0.1044096 -0.27005917 -0.27694425
-0.13380302 -0.17770518 -0.1355128 0.2034202 -0.07131295 -0.31858245 -0.28184807 -0.1785109
-0.23131734 -0.022366302 -0.07671982 0.09832778 -0.00693198 -0.43060908 -0.64601207 -0.18073244
-0.26186165 -0.2864428 -0.42987925 -0.047785524 -0.06551066 0.028713506 0.021884777 -0.16605543
-0.36211517 -0.108587876 -0.15156762 -0.20157026 -0.5867792 -0.23992516 -0.2450905 0.09677858
-0.35250995 -0.22099139 -0.518042 -0.1597469 -0.15715769 -0.17814289 -0.16253236 -0.14641984
0.07860794 -0.10065517 -0.4591773 -0.87888116 -0.95310485 -0.7467133 -0.84520733 -0.38951293
-0.8148951 0.06769274 -0.6275711 -0.72637326 -0.6771724 0.056137092 -0.72925854 -0.35069442
0.008369882 -0.4239383 -0.85701233 0.0041211396 -0.7981228 -1.1113077 -0.54725707 -0.8303729
-0.4306358 -0.25770348 -0.38885507 0.087134704 -0.5621417 -0.33757848 -0.600364 -0.7900518
-0.54920727 -0.73370594 -0.962596 -0.3780928 -0.459638 -0.28760985 -0.6287883 -0.4612052
-0.64905393 -0.37701306 -0.18938017 0.118099414 -0.38293993 -0.46597973 -0.35017136 -0.8305363
-0.25912774 -0.6275773 -0.16313888 -0.67620474 -0.5264891 -0.65141344 -0.34575 -0.32291865
-0.48259884 -0.40330517 -0.30780378 -0.6612329 -0.43221077 -0.8101935 -0.69077885 -0.9997376
-0.32547122 -0.14464007 -0.79229265 -0.7666382 -0.91736776 0.035016406 -0.6292639 -0.54549044
-0.14378075 -0.6078987 -0.6291622 -0.4723019 -0.32273757 -1.0461367 -0.62606126 -0.60001594
-0.4993032 -0.25880864 -0.13272588 -0.6020708 -0.33941618 -0.22898783 -0.45374033 -0.468517
-0.48354873 -0.51435417 -0.50562984 -0.29764104 -0.89448714 -0.6582947 -0.48788017 0.38031858
-0.4052021 -0.3630252 -0.5399039 -0.4457395 -0.28177503 -0.032942485 -0.16742289 -0.7523274
0.119550146 0.27816072 0.03181695 -0.22367673 -0.1211676 0.53789055 -0.29302922 0.124329135
-0.19957168 0.0796071 -0.12235879 -0.014266687 -0.18271549 -0.09998942 -0.13493109 -0.18189184
0.26903728 0.073455155 0.359455 -0.36193886 0.16279396 -0.28617445 -0.3769485 0.2377716
-0.20798634 -0.12806122 0.055852577 0.32187885 0.11818832 0.03080611 -0.12951688 -0.2570294
-0.43244338 -0.041135225 -0.05052053 -0.019722389 -0.16070196 0.14386468 -0.3372587 0.37701103
-0.11052095 0.18632288 0.09471688 0.054682657 -0.06330257 0.08058898 -0.089756176 0.2767533
0.44630408 -0.3783241 -0.13336568 -0.04229077 -0.059979953 0.21719746 0.27094424 0.058923867

bias_hh_l0 f4 [300]
00000000: b084 f9be bb92 53be 4166 58bf ac63 3dbe
00000010: 108a 84be 07af d0bd e7da 4bbe 6020 f2be
00000020: 4f84 5dbe 3958 13bf f811 f8bd 03ed 06be
00000030: 1dac 3ebd 923b a13d c428 62bb 9a54 8dbe
00000040: 77b0 1abf a535 92be b1d2 a1be e82e 9b3d
00000050: d477 d6be 2fa9 c9bc 98a1 dbbe bdd3 8d3c
00000060: 0535 e1be e55b 32be 6175 7bbe deff eabe
00000070: 430c c1be 7160 84be eb65 52be 9617 16bf
00000080: e0d7 8bbe 8af1 62be 62da 80bd ac1f 13bf
00000090: ae43 c2be 0512 673e 0bfc 283e a78b 1abe
000000a0: be74 2c3d 3c9a 453e bed8 91be 10bb 543e
000000b0: 6b2d fcbc a861 773e 0ed1 bb3e 60e0 a5be
000000c0: 1002 313e 6a77 0d3e 3384 52bd 3dfe aebe
000000d0: 5b45 a3bc d148 dcbd 8c7a a8be f37f 66be
000000e0: fb8e 5abe 54da 34bd ff52 dc3b 0d30 6d3e
000000f0: 4ddc 4ebe 9b82 22be f84a 95be 8b4a a7be
00000100: efa5 9fbe bc35 bb3c 27d8 03be fdaf b73d
00000110: 1d04 17bd d934 cebe 1afa 0ebf 09ba 10be
00000120: 95f2 6cbe 28a1 83be 9ad3 cdbe f5dd 633d
00000130: 1cce a4bd 99ff 19bd 9248 9d3d 83d3 b3ba
00000140: 2e29 89be 04e4 38bd 53f5 04be 209c 8cbe
00000150: ac68 cfbe 2967 a6be 37ae 29be 98e3 713d
00000160: e7bf 9bbe d78a babe 6004 fabe ec4e d6bd
00000170: 24bc 75be a368 7dbd 4f25 a8be f657 25bd
00000180: bc1f 003e 3a96 e4bd 3f66 d9be bfc0 76bf
00000190: 8aaf 57bf e479 40bf cebd 41bf 0917 e3be
000001a0: 1965 62bf f010 67b9 7f33 1cbf c1db 52bf
000001b0: 63cf 30bf 106f d53d 58be 40bf ef1d 9dbe
000001c0: 0267 363e 9cb6 89be 7161 3abf 65b2 31bd
000001d0: 511c 65bf 2175 92bf 6221 d6be e2ec 26bf
000001e0: f291 02bf 1d2c 7abe beab 14bf 30ba 843d
000001f0: b1d9 1ebf 627a a8be 71d3 07bf 953b 2fbf
00000200: 6d49 09bf 878f 1abf 8147 65bf fa5f 8ebe
00000210: e004 edbe a3c3 83be ff07 37bf 125d c9be
00000220: 75ae 06bf 5d66 bfbe a0f5 5fbe 4165 453e
00000230: 309f 90be 1510 10bf 3549 ecbe 3d36 39bf
00000240: a331 4bbe 0871 26bf 961e 3abe 1972 2dbf
00000250: e152 fdbe 6286 fabe 63b7 b5be 4209 a8be
00000260: f548 c1be 2e3b 82be e507 b6be 5b75 52bf
00000270: 744a 0cbf 0169 49bf 60d6 04bf 8dce 7dbf
00000280: 5054 8dbe 5e6b e9bd c344 43bf c12f 31bf
00000290: 775a 58bf bfe6 49bd 2296 0abf e123 0dbf
000002a0: 7822 5fbe 6864 30bf 46dc 09bf e48f f8be
000002b0: 36f7 dabe efbb 8cbf 77fd 27bf 4d08 21bf
000002c0: 9b52 03bf 2c82 9bbe e536 0bbe 7a92 3cbf
000002d0: 0092 3ebe 5cd1 8dbe be41 17bf 0c9c 18bf
000002e0: 07df e2be 2cc0 e8be dd72 eebe 979f 5bbe
000002f0: db65 40bf 06e7 39bf 8914 11bf c379 883e
00000300: c283 cfbe 94db b3be f830 24bf 55cf ffbe
00000310: dc31 a2be a531 ac3c 6e9a 1cbe a7f7 52bf
00000320: f428 4f3e f9b5 ca3d 944a b93e 687a f3bd
00000330: ed2d 11bf ec5f ad3e 08cd 203d 226d 2b3c
00000340: 845c 293f d705 ff3d a238 ac3e e4a5 65bd
00000350: 9829 0bbe dd1b b0bd b403 323e 2723 13be
00000360: b62f 373e d600 3dbe 0a37 03be 0010 46be
00000370: 9b2c a53e f48a 39be 8851 cdbe 0656 8b3e
00000380: a36b 50be 1263 ffbe aa45 063e dd72 54bd
00000390: 2fe7 213e c5bc 343e 4924 5ebc 5bac 4b3e
000003a0: 8314 52be c0d7 f9bd 38b7 b33c 1497 363e
000003b0: 24ee 4bba 4e65 f83d 9dfe 37bf e10c c93e
000003c0: 8d26 cabe c08e dcbe f565 cebe e45c 11bd
000003d0: 3f22 5cbd b341 62be f694 f9be 145f f73d
000003e0: a529 263f 9d7d 9cbe e0d2 3c3f 5bb2 30bd
000003f0: ac24 4e3c e678 04bf 062a c13e ca7f ae3e
-0.48734045 -0.20661442 -0.8453103 -0.18495053 -0.25886583 -0.10189634 -0.19907723 -0.47290325
-0.21632503 -0.5755649 -0.12112802 -0.1317635 -0.04655086 0.0787269 -0.0034509161 -0.27603608
-0.60425514 -0.28556553 -0.31606057 0.07577306 -0.41888297 -0.024616806 -0.42896724 0.017312879
-0.43985763 -0.17417867 -0.24556495 -0.45898336 -0.37704667 -0.2585483 -0.20546691 -0.5862974
-0.27313137 -0.22162452 -0.06291653 -0.574702 -0.3794226 0.22565468 0.16502397 -0.15092336
0.04210352 0.19297117 -0.28485674 0.20774484 -0.030783376 0.24158347 0.36682934 -0.32397747
0.17285943 0.13815084 -0.051395606 -0.34178343 -0.019930532 -0.10756076 -0.32905996 -0.22509746
-0.21343605 -0.044153526 0.006723761 0.23162861 -0.20201226 -0.15870135 -0.2915876 -0.3267406
-0.31181285 0.022852771 -0.12875424 0.08969114 -0.036869157 -0.40274695 -0.55850375 -0.14133467
-0.23139413 -0.2570889 -0.40200502 0.055631597 -0.08047125 -0.037597273 0.07679857 -0.0013719652
-0.2678923 -0.045139328 -0.12984209 -0.27462864 -0.40509546 -0.3250058 -0.16570364 0.05905494
-0.30419847 -0.3643405 -0.48831463 -0.10464272 -0.23997551 -0.061867367 -0.32840964 -0.04036709
0.12512106 -0.11161466 -0.4246082 -0.9638786 -0.84252226 -0.7518599 -0.75680244 -0.44353512
-0.8843551 -0.00022036186 -0.61016077 -0.8236657 -0.69066447 0.10421574 -0.7529044 -0.306869
0.17812732 -0.26897132 -0.72804934 -0.04338302 -0.8949633 -1.1441995 -0.41822344 -0.65205204
-0.51003945 -0.2443089 -0.5807456 0.06480825 -0.6205092 -0.3290587 -0.5305701 -0.6845029
-0.53627664 -0.60375255 -0.8956223 -0.278076 -0.46292782 -0.25735196 -0.71496576 -0.3932882
-0.5260995 -0.37382784 -0.21871042 0.19276907 -0.2824645 -0.5627454 -0.46149603 -0.72348386
-0.19843154 -0.6501622 -0.1817573 -0.67752224 -0.49477294 -0.4893065 -0.35491475 -0.32819563
-0.37750974 -0.25435776 -0.35552898 -0.8221032 -0.54801106 -0.7867585 -0.5188961 -0.99143296
-0.27603388 -0.11397432 -0.762768 -0.6921349 -0.8451304 -0.049292322 -0.54135334 -0.5513287
-0.21790493 -0.6890321 -0.53851736 -0.4854728 -0.42766732 -1.0994853 -0.6562113 -0.6290329
-0.5129792 -0.3037275 -0.1359516 -0.73661005 -0.18610382 -0.2769879 -0.5908469 -0.5961311
-0.4431078 -0.45459116 -0.4657201 -0.21447597 -0.7515542 -0.7261814 -0.5667196 0.26655397
-0.4053021 -0.35128462 -0.6413722 -0.4996287 -0.31678665 0.021019766 -0.15293285 -0.8240914
0.20230466 0.0989799 0.3618971 -0.118885815 -0.567107 0.33862245 0.039258033 0.010463031
0.6615679 0.12452286 0.33636957 -0.05606641 -0.13590086 -0.085990645 0.17384225 -0.14368878
0.17889294 -0.1845735 -0.12813964 -0.19342041 0.32260594 -0.18119413 -0.40101266 0.27214068
-0.2035356 -0.49880272 0.13112512 -0.051867355 0.15810846 0.17650135 -0.013558456 0.19889967
-0.20515637 -0.12199354 0.021937951 0.17831069 -0.0007779321 0.12128697 -0.71872884 0.39267638
-0.39482537 -0.4307766 -0.40312162 -0.035488978 -0.053743597 -0.22095375 -0.4874646 0.120786816
0.64907295 -0.30564585 0.7375927 -0.043138843 0.012581985 -0.51746976 0.37727374 0.3408187

weight_ih_l1 f4 [300, 100]
00000000: 7b41 163f 1a91 86bd 4108 073f 51bd 50bd
00000010: 9b32 003f aa09 ce3e 6a10 55be d862 673f
00000020: 4d16 ce3e c070 b8bd 9630 bb3e 3d48 603e
00000030: 6e4e bf3c 7002 813e a2aa 30bf 51f4 86bf
00000040: c3a8 79bf 8da0 433f a6ec 733d ae77 7b3e
00000050: c583 823e f9d9 943e 491b 0fbf 5af3 30bf
00000060: 3d55 3abf d3d2 003f f5b5 9ebe 03b4 80bf
00000070: f961 273f 3a49 8cbe 3577 b0be e010 903d
00000080: f267 17bf 14cf 483f c1da 63be ac7f cbbd
00000090: 7220 d6bf 0b40 81bc 7dcd 8bbe 313f c7bd
000000a0: dcdb e83e dccd d5be 983c 23bf 11f8 af3e
000000b0: 1848 47be 6fe5 e93c bb66 1ebf 7783 64be
000000c0: 836d a0be 9825 5d3e 7f71 eebe 77c6 043e
000000d0: 01df 41bf 5979 973e 0c07 3b3f 8d7b 95bf
000000e0: 6b10 e3bc 62e4 be3e f0d4 d5bf 3e55 483f
000000f0: d9bc c9be 6cb4 9ebe d84b a33d a4e0 063f
00000100: 9503 343e 8fb5 a63e 23b8 3c3f 7427 b33e
00000110: 10e3 673e d735 21be b6a2 a03f 354a 2abf
00000120: dd11 593e 000f e83e 3340 c13e 03f0 a9be
00000130: caac 53be f3ae 55bf b16d 40bf a56f ff3e
00000140: 7e1e 84bf 7b4a 573d 7375 bd3d 2ed7 3a3f
00000150: a6cd f73c 78bf e13e a5df b8be 2499 a9bd
00000160: ac22 ac3e f7ab ba3e feb6 0ebe ebd0 a8be
00000170: c6cd 3d3f d9f9 a33e 1e35 3abf 5864 63be
00000180: ad5c b03e b368 ed3e cc1c 27be 7e83 083f
00000190: 3b77 023e 45b0 1a3f 362d 73bf 587a ddbe
000001a0: 4c91 45be de9a bb3c a8f6 8abe 7b5c 4dbf
000001b0: 2d66 463f f77c f53e bcbb 3f3e 90aa 25bc
000001c0: 8f5a bebe 7b44 d3be 5bba 1f3e f09d 70be
000001d0: 77c6 69bf 3fc5 0a3d 6cd5 bb3c f423 07be
000001e0: 7195 54bf 5188 6abe fda2 dbbd a3a9 4cbf
000001f0: 7d3e 26bf 8231 14bf 11f1 ccbd 0454 f8bc
00000200: 3e26 2d3f 6c07 7b3e b7db e63e d4cd 54bc
00000210: 35cd d8bd 2e62 29bf 6f99 a53e 1b04 343e
00000220: deb4 a03e 5eda 9dbe 1217 c93d e39e 3ebf
00000230: 363b aebd 0deb 143e 82da 67bd 19a3 463d
00000240: 6f90 a3be df9a 23bf 5cf3 163f 0215 473e
00000250: 643b 9a3e 3d95 8e3e 7212 833e 10f8 4abe
00000260: 2d07 0abf 242a 30bc be9e f8bd ca48 13be
00000270: 993a 173e 7d48 1fbf 67a3 c33c 9fe3 303f
00000280: 72a1 e73e 6e5d 863e 3dd2 ea3d e049 b7be
00000290: 650e 7dbe 7671 493f d5ae 48bf 6705 033f
000002a0: d218 27be 5cdc 513f a5d3 8b3f 9a0a 25bf
000002b0: 5431 fe3e 4b78 863e ac0f e2be ee54 c83d
000002c0: f466 c8bd 932b ba3e 10e3 a9be 6d2e a33e
000002d0: 857c e43e bd60 98bf 92f3 dfbd 8765 16bf
000002e0: 1d4f af3f 3b7c 2abf ea40 32bf f0fa 193f
000002f0: e153 ffbe 6e72 20bf 0467 41bd eee6 313e
00000300: 7bb6 94bf 4727 253f 5755 6c3e e20c 023f
00000310: b6a1 103f 9688 cc3e 1b51 87be 5c6f 15be
00000320: dc45 bb3e f9b3 f6be 87a0 10bf 6a3e 52be
00000330: 7f67 b9be 5caa 863d 9e7e 96be 0b19 26bf
00000340: 5101 abbf afbb 683e cb44 3e3e 5895 933e
00000350: 2924 bc3e c144 75bd 4ca8 423e e29b 0ebe
00000360: 17af a93e 8917 f6be f5e1 0ebe f792 90bd
00000370: 173d 19bf 38ac 0bbf e932 e63b f951 803d
00000380: 037d 153f 1eac dc3e eeff d23e 4a5b e6be
00000390: cbff c6be aa7d 39be 2c92 4fbf 8476 14bf
000003a0: b127 7bbe 28e8 3f3c 926a 9d3f f24f 233d
000003b0: 96e3 103e 7a76 31bf 29b7 b9be a60e 6cbf
000003c0: 80bc ad3e 746b 893e 24b1 0b3e 86cb 46be
000003d0: 519a cb3e f2ed 363e 9d94 d8be 6216 243e
000003e0: a671 dfbd ce9a 92be fd94 88be 6e02 423e
000003f0: 2269 a53e 48e9 f9bd d179 073f e0f3 093f
0.58693665 -0.06570645 0.5274697 -0.050961796 0.5007722 0.40241748 -0.20807043 0.903852
0.4025139 -0.0900588 0.36560506 0.21902557 0.023352828 0.25197172 -0.69010365 -1.054331
-0.97523135 0.76416856 0.059551857 0.24557373 0.25491157 0.2907255 -0.5590101 -0.69121325
-0.72786313 0.5032169 -0.30998197 -1.0054935 0.6538387 -0.27399617 -0.34465948 0.07034469
-0.5914298 0.78440976 -0.22251417 -0.09936461 -1.6728652 -0.015777608 -0.27305213 -0.0972885
0.4548024 -0.4175862 -0.63764334 0.34368947 -0.19461095 0.028551785 -0.61875504 -0.22315775
-0.3133355 0.21596372 -0.46570966 0.12966333 -0.757309 0.29584768 0.7305763 -1.167833
-0.02771779 0.37283617 -1.6705608 0.7825507 -0.39401892 -0.30997026 0.079734504 0.52686524
0.17579491 0.32560393 0.7371847 0.34991038 0.22645211 -0.15743195 1.2549655 -0.6651948
0.2119822 0.45323944 0.37744293 -0.33190927 -0.20671383 -0.83470076 -0.75167376 0.49889866
-1.0321805 0.052561264 0.09250917 0.7298459 0.030249428 0.44091392 -0.36108127 -0.082811624
0.33620203 0.36459324 -0.13936993 -0.32971892 0.7414211 0.32026556 -0.727373 -0.22206247
0.34445706 0.46368942 -0.16319579 0.5332564 0.12740795 0.60425216 -0.9499086 -0.43257403
-0.19293708 0.022900995 -0.2714131 -0.8021924 0.7749966 0.47946903 0.18723959 -0.010111466
-0.37178466 -0.41263184 0.15598433 -0.23497748 -0.9131846 0.033879515 0.022928916 -0.13197309
-0.8304053 -0.22903563 -0.10724447 -0.79946345 -0.649391 -0.5788804 -0.10006917 -0.0303135
0.6763648 0.2451455 0.45089504 -0.012988526 -0.10586015 -0.66165435 0.32343623 0.17579691
0.3138799 -0.30830663 0.098188534 -0.7446119 -0.08507387 0.1454279 -0.05660487 0.048495386
-0.31946132 -0.6390819 0.58965087 0.19441608 0.30123436 0.27848235 0.2560001 -0.19821191
-0.539172 -0.010752235 -0.12139653 -0.14383236 0.14768447 -0.62219983 0.023881627 0.6909732
0.4524036 0.26243156 0.11465881 -0.3579855 -0.24712522 0.7868875 -0.7839177 0.5118012
-0.16318062 0.81976867 1.0923964 -0.644693 0.4964701 0.2626365 -0.44152582 0.09781824
-0.09785262 0.3636137 -0.33181047 0.31871358 0.4462625 -1.1904522 -0.10935129 -0.5874867
1.3696018 -0.6659581 -0.696303 0.60148525 -0.49868682 -0.62674606 -0.047217384 0.17373249
-1.1618189 0.6451306 0.2307943 0.5080091 0.5649675 0.39947957 -0.26429066 -0.14593261
0.36576736 -0.48184183 -0.56494945 -0.20531622 -0.36211774 0.06575462 -0.29393476 -0.6488196
-1.3359777 0.22727846 0.1858093 0.28824878 0.36746338 -0.059880022 0.19009513 -0.13926652
0.33141395 -0.4806483 -0.13953383 -0.07059281 -0.5985884 -0.5455966 0.007025112 0.06265635
0.5839388 0.43100065 0.41210884 -0.44991523 -0.3886703 -0.18114343 -0.81082416 -0.5799334
-0.2452686 0.011713065 1.2298148 0.039871164 0.14149317 -0.69321406 -0.36272553 -0.9220985
0.33932877 0.26839793 0.13641793 -0.19413576 0.39766172 0.17864206 -0.42300883 0.16024163
-0.109103486 -0.28633732 -0.2667617 0.1894624 0.32306772 -0.12202698 0.5292025 0.5388775

weight_hh_l1 f4 [300, 100]
00000000: c412 373e a7c1 20be 9a63 57bd 735c 903e
00000010: ca4c b9be 7a7c 893e 0925 46bf 6019 20be
00000020: 96c6 f33c 9dc1 db3d bd55 afbe f656 22be
00000030: 5c26 e63e 4232 5fbe 125b ecbe 3b54 833e
00000040: e5bb 25bf 169a 2b3f 8c90 1b3f 9eff 3c3e
00000050: 20e5 773e 022a 91be 008a 103f 3780 77be
00000060: d2b0 d93d 4aaf 8dbc e298 b9bd dc8c 9bbe
00000070: aa85 d53e 8b20 97bd a3bf 67be 2d82 81be
00000080: 72d1 c23e 3c6b e63d f2d9 7a3e e3c1 0ebe
00000090: da61 0b3f 39ac 2ebd aeb7 693d a9c4 a4bd
000000a0: f54a 123f e521 13be 4042 73be f62b c3be
000000b0: f54e 4dbe c34c 293e 1f98 efbc 9c53 0dbf
000000c0: 9f45 f93d 158a e7be 13ed 87bf 814e 813e
000000d0: 0755 2cbf e9eb 22bd 529d 213f d17a a73e
000000e0: 0e86 5abe 6736 093f bbaf 913e 6077 8f3f
000000f0: d1a1 29bf 4452 24bf f6f9 6b3f 69a6 9cbe
00000100: dac8 01be 04ef 443f 43fe 303e 678e 9c3e
00000110: 2c71 003e 32e6 d73b 358f 883e 27a3 cfbe
00000120: 7b26 3fbf 8f94 423f c842 79be d9c2 0c3e
00000130: a9b1 733e 9e05 103e a145 90bc 0c49 213e
00000140: a394 673f 16f9 acbd 2def 0e3d a59e a73e
00000150: 4715 a73e 90c7 213d 193e 803e 1fe2 2ebe
00000160: da25 adbd 8fcf 113f 1224 02bf ee51 e2be
00000170: 5f70 a13e a778 27bf 71e7 40be 6f56 34bd
00000180: 7cbb 313e 92eb 013d 23c2 663e 3934 79be
00000190: fa39 973e 4547 ed3e 1192 2e3f c980 aebe
000001a0: 897d 89be e6b8 da3e ddd3 173f dbdd a03d
000001b0: ddb5 52bf 10b3 1d3e 5876 143e 80af 8dbe
000001c0: 2b83 513f 59f9 873e 7843 2bbf 7cdd f73e
000001d0: 9014 703e cbd2 763e d292 da3e 1bfc b5be
000001e0: 57a5 6d3d 6942 57be 5a59 8bbd 1ff1 b83e
000001f0: 01ac 313e fdd7 4d3f 2035 ac3e 04eb 663e
00000200: 95ec 48be 2fba 933e b2ff ffbe c248 12be
00000210: 04a6 043e 0cea 443f 6223 8f3d c978 4c3f
00000220: 0af7 a9be 6f36 12bf 5c75 ee3e 15c4 0dbd
00000230: 590a d83e de24 74be db6b 42be da83 ebbe
00000240: f444 7ebc e765 63bd a7ad 50be b89b 5dbe
00000250: 8840 58bf 138b 11bb cb02 00bf e220 d5be
00000260: 8f99 c43e df59 adbe 19e1 13be 1693 dabe
00000270: 8b42 7b3e 3f28 0b3f 8a0c 973e c4f5 e13c
00000280: d3ec 8cbe fed8 113f 0940 9bbe bafe d9bd
00000290: efa0 e13e d71c 933e b90a 10bf c33d 48bd
000002a0: dda9 1abd 53cb 843d e40a 30bf 4ed8 c33e
000002b0: a993 373e 1167 233f 8d8a aebe 68ce a6be
000002c0: b078 ed3e 9cc3 d13e b760 ebbd 5fd8 843e
000002d0: 59bb 5cbd 3920 b63d a74a 7f3e 701c 03bf
000002e0: c8c5 233f c579 3bbe c377 8a3e 5fcb 0b3d
000002f0: cb53 09bf 274e 9bbd 9f33 9cbe 9eb9 f7bc
00000300: 12e0 29bf 2439 af3e a63e 4abf 858f 343e
00000310: 9be2 68be 3f48 f73e c563 c23d 563f 9b3e
00000320: fd9a f3bc bfd1 af3e b30b aa3f ed67 0ebf
00000330: 3bbc 453e 10a0 533e 1d2d c2bc 497c 6cbe
00000340: c2d3 1fbf d6c8 de3d 81e4 5c3e c4e8 723e
00000350: 6a1c dbbe 8810 4f3e bad8 9abe 84cc bf3d
00000360: 0856 053e 3cb1 283e f01e 71bc ad4f 253e
00000370: 6c01 f73d d68e a1be a23a 0abf 1768 f7be
00000380: 9e88 48bd d196 903e 54a9 e6be 43b1 f73e
00000390: 0fd1 fabd ef18 97be fb2b 24be 7f8a 493e
000003a0: e82a 863d 5158 d73e 1160 1abe 1fd8 3ebe
000003b0: daa8 b1bd 9ee1 adbd a110 f23c e452 e5be
000003c0: 9e9a d6be cd66 e3be 5f46 0fbd 2841 71be
000003d0: 6429 3b3e d294 003f c66c 10be 4cc2 97be
000003e0: 88c8 86bf 9106 38bf 5eb8 023e 4465 2d3e
000003f0: 3113 79bd 665f 19bf 3a8c 6ebd 7e09 1f3f
0.17878252 -0.15698873 -0.05258522 0.28195533 -0.36191398 0.2685278 -0.7740026 -0.1563468
0.02975778 0.10730288 -0.342451 -0.15853485 0.4495114 -0.21796516 -0.4616323 0.256502
-0.6473983 0.6703199 0.60767436 0.18456885 0.24208498 -0.28352362 0.5646057 -0.24170004
0.10629429 -0.017295498 -0.09062363 -0.30380905 0.4170354 -0.07379254 -0.22631697 -0.2529463
0.3805042 0.11250922 0.24497202 -0.1394115 0.54446185 -0.042644713 0.057059936 -0.080453224
0.57145625 -0.14368398 -0.23755741 -0.38119477 -0.20049651 0.16533189 -0.029247342 -0.552057
0.12171482 -0.45222536 -1.0619224 0.25255206 -0.6731724 -0.039775763 0.63130677 0.3271089
-0.213402 0.53598636 0.28454384 1.1208305 -0.6626254 -0.6418803 0.92178285 -0.3059571
-0.12674275 0.7692721 0.17284493 0.30577394 0.12543172 0.0065887207 0.26671758 -0.40554163
-0.7466809 0.7600793 -0.24341881 0.13746203 0.2379824 0.14064643 -0.017611327 0.15750521
0.90461177 -0.08445947 0.034896065 0.32738224 0.3263342 0.03949696 0.25047377 -0.17078446
-0.08454485 0.56957334 -0.5083629 -0.44203132 0.31531045 -0.65418476 -0.18838288 -0.044027742
0.17356676 0.031718798 0.22534995 -0.24336328 0.2953642 0.46343437 0.6819163 -0.3408263
-0.26853588 0.4271919 0.5930765 0.078548156 -0.8230875 0.15400338 0.1449827 -0.27672958
0.8184077 0.26557425 -0.66899824 0.48411167 0.23445344 0.24103849 0.4269014 -0.35543904
0.05801901 -0.21021427 -0.06804152 0.3612146 0.1735077 0.80407697 0.3363428 0.22550589
-0.19621499 0.28852984 -0.49999768 -0.14285567 0.12953955 0.7691963 0.069891706 0.79871804
-0.33196288 -0.5711431 0.46573913 -0.034610827 0.42195395 -0.23842189 -0.18986456 -0.45999032
-0.015519369 -0.055517104 -0.20378743 -0.21641433 -0.84473467 -0.0022208139 -0.5000426 -0.4162665
0.38398406 -0.3385763 -0.14441337 -0.42690343 0.24537103 0.54358286 0.29501754 0.02758301
-0.27524433 0.5697173 -0.30322292 -0.10644288 0.44068095 0.2873294 -0.5626636 -0.048887026
-0.03775965 0.064840935 -0.6876662 0.38250965 0.17927422 0.6382914 -0.3409008 -0.3257935
0.4638114 0.4096955 -0.11493056 0.25946328 -0.053889606 0.08892865 0.24930821 -0.5121527
0.63973665 -0.1830817 0.27044496 0.034129497 -0.5364348 -0.07583266 -0.30508134 -0.030239876
-0.6635753 0.34223282 -0.79001844 0.17632873 -0.22742693 0.48297307 0.09491686 0.3032176
-0.02973699 0.3433971 1.328482 -0.5562733 0.19310085 0.20666528 -0.023703152 -0.23094286
-0.6243249 0.1087815 0.21571542 0.23721606 -0.42795116 0.2022115 -0.30243474 0.0936518
0.130211 0.1647386 -0.014716849 0.16143675 0.12060818 -0.31554288 -0.53995717 -0.48321602
-0.048958413 0.28240064 -0.45051062 0.48377427 -0.12246906 -0.2951121 -0.16032402 0.19681738
0.065511525 0.42059568 -0.15075709 -0.18637131 -0.08674784 -0.08490299 0.029548945 -0.44789803
-0.4191484 -0.44414368 -0.03497922 -0.23560011 0.18277508 0.5022708 -0.14103994 -0.29640424
-1.0529947 -0.7188502 0.12765643 0.16933161 -0.060809318 -0.5991119 -0.0582392 0.6212386

bias_ih_l1 f4 [300]
00000000: 3aca d23e e93c 923e 20ee 163e adcc 373e
00000010: 07ba 75be e9f0 07be 4d1d 2abe f00d 2abe
00000020: 8277 5a3b c6cb 3a3b 38a6 60be 53d9 15be
00000030: ad87 b83e 0c63 27be ed15 0d3e 1b15 da3d
00000040: 802e 9e3c 058a d03d 7814 f7bd 8517 2ebe
00000050: e3e6 323e 2e5e a1be 197f dfbd 236a 093c
00000060: 9091 683e 3b35 dabd e3d8 47bd cc24 87ba
00000070: 4006 26be 76d9 7d3e b074 f0be a28e 54bd
00000080: 5a77 d2bd f3f5 0fbe e2f3 0e3e f858 95bc
00000090: 765e 443e f495 9dbe 251f 28be cf95 203e
000000a0: 2ba7 21be 084d 2ebe 83e5 773e adb4 c03d
000000b0: f63a 053d 9d96 61be 17cf ae3e 77a2 a43d
000000c0: 07ca 6d3d 7ac0 11be 7ca0 1f3e 3e32 1cbe
000000d0: 5b76 be3e 7edd 8e3d 89fd 80be cb0b dcbc
000000e0: 275d 7fbe 8c02 3bbe a936 6cbc 3ed2 c53d
000000f0: 1026 1fbc 542d 93be 0406 7e3e 4c59 c13d
00000100: 06fb 9b3e 946e 053e b535 a0bd 631f a2bd
00000110: 58a3 e83d db4b 4d3e 26ad b1bc 4823 c0bc
00000120: 36db eebd 1b53 293e 6dd4 dc3e f6dd 613e
00000130: 750b b6be dcfe ba3d eee6 353e 31b3 403e
00000140: 09f7 323e aea3 2a3e 621b 473d 06bb 193e
00000150: 7e26 f2bd 011d f13e 5dac c63e 7774 473e
00000160: a014 64be ec6a b1be c44b eebc ca7a 4bbe
00000170: af29 6bbe 036c 75be 2925 533e 5bf2 da3e
00000180: ae49 1d3d 84e7 c4be ac9b 95bc 218a 133e
00000190: ab40 0f3e 9b54 64be 4c03 1bbf 25d7 a7be
000001a0: 9072 c4be deb5 eabd 3d94 87be f41c 763c
000001b0: cdeb 88be f8a0 a53d 1f2d b9ba 27d9 efbe
000001c0: a48c 5dbe fdf6 0bbf 2125 98be 1594 93bb
000001d0: de7a 13bf d241 bbbe ceb5 48bf b185 20be
000001e0: f9ac 6dbe 10c9 6b3d e724 c6be 8bfe d3be
000001f0: ac5f 133d f6b4 7fbe f2d5 a9be 211d acbe
00000200: 49dc 40bf 6a3a 0bbf 28df 21bf 94fa 1cbf
00000210: 2881 86be 572f 75bf 9191 99be 1598 a0be
00000220: 9810 f7bd 287e c5be a9bd d4be 4987 79be
00000230: 61ab 6f3e 809c ffbb 7f94 11bf 58fd a6be
00000240: da95 e03d bd42 d8be cdca 7ebe 0a66 97be
00000250: 1048 2ebf 3f03 8abd fd2a 1cbe bae9 8dbc
00000260: 5832 83be 55f2 c8be 87bb a9be 6220 b1be
00000270: ead1 0ebf 070d eabe c0c3 20bf 50b8 c5be
00000280: 22bc 9dbe bae8 e8be 74a0 a9be 9ea8 63be
00000290: cdeb 54bc 2f08 dbbe 75f0 b73d e98f b9be
000002a0: 6635 b5bd 76e1 2cbf df88 66bd 1315 f8be
000002b0: 6118 933d 7f64 05bf 55d0 8bbe 5ac2 c63e
000002c0: feeb 2bbe fc15 97be 7747 ebbd 39c1 63be
000002d0: b63a e9be 994a 36bf 2d7c bcbe 2d9e 92be
000002e0: e0d2 43be 9fc3 01bf 25e6 45bd 554f 1ebf
000002f0: e8a2 d0bd 3a74 99bd ae7a b5be 7e6d a9bb
00000300: 54ed e2bd 937c f1be ae12 2ebe 728f 21be
00000310: 04f2 37bf 020f 19bf c30a 04bf 3761 b63d
00000320: 6d02 023f 3ae1 07be 40d0 adbd 30c5 093f
00000330: 56f3 193e cbba 3abd 969f b83d ea72 463c
00000340: ad08 4b3d e6d5 ddbd 2c7f e4bd 8b78 31be
00000350: af99 533d 084b aebe ac6e a43e 4e3d 9abd
00000360: 5f79 fabd 9381 f63e 8493 3f3e a4a9 973e
00000370: ed0e 11be a524 97bc b025 26be 4373 3fbe
00000380: 21d7 f83e 7279 683c 86a0 ccbc 2cbd 4ebe
00000390: 2ada 32bd a8ef 6abe 79e4 883d 5ca2 1b3e
000003a0: 609d a3be a408 cebe 4a07 9b3e 69cd d73d
000003b0: a91e 66be b06b 17be 775b 9cba dd44 ba3e
000003c0: 667b b6bd ce01 b43c aa07 efbe 1814 7e3d
000003d0: 4063 ecbd d20b 1a3e 2a7e 36be c041 35be
000003e0: 90a0 443e 8cce b5bd 2300 a33e d53b 563c
000003f0: 43e0 82be 6f5f 26be 10cd 103d 9a1b b7be
0.41169912 0.28562096 0.14739275 0.17949171 -0.23996745 -0.13275494 -0.1661274 -0.16606879
0.0033335392 0.0028502806 -0.21938407 -0.14633684 0.36041012 -0.16346377 0.13777895 0.10648557
0.019309282 0.10182575 -0.12064451 -0.1700116 0.17470889 -0.31517166 -0.10912914 0.008387121
0.22711778 -0.10654684 -0.048790824 -0.0010310649 -0.16213322 0.24789986 -0.46964025 -0.051893838
-0.10276671 -0.14058666 0.13960221 -0.0182309 0.19176659 -0.30778468 -0.1641813 0.15682147
-0.15786426 -0.17021573 0.24208646 0.09409461 0.032526933 -0.2203011 0.34142372 0.080388
0.058053996 -0.1423358 0.15588564 -0.15253541 0.37199673 0.0697584 -0.25193432 -0.026861092
-0.24937879 -0.1826269 -0.014417329 0.09659241 -0.009713665 -0.2874552 0.24806982 0.0944086
0.30464953 0.13030463 -0.07822744 -0.07916143 0.1135928 0.20048468 -0.021689009 -0.023454323
-0.11662905 0.16535608 0.43130818 0.22057328 -0.35555616 0.09130642 0.17763874 0.18818356
0.17477049 0.16664001 0.0486101 0.1501275 -0.11823748 0.4709244 0.38803378 0.19478022
-0.22273493 -0.34651887 -0.029088862 -0.19871059 -0.2296512 -0.23966984 0.20619644 0.42763028
0.038400345 -0.38457882 -0.018262707 0.14408161 0.13989513 -0.222979 -0.60551906 -0.3278133
-0.38368654 -0.1146047 -0.26480284 0.015021551 -0.26742402 0.08087343 -0.0014127827 -0.46845362
-0.21635681 -0.5467375 -0.29715827 -0.0045037367 -0.57609355 -0.36573654 -0.7840241 -0.15675999
-0.23210515 0.057564795 -0.3870003 -0.41405138 0.03597991 -0.24971375 -0.3317104 -0.33615974
-0.7533613 -0.5438601 -0.63231134 -0.6131985 -0.26270413 -0.9577536 -0.2999387 -0.3136603
-0.12063712 -0.38572812 -0.4155095 -0.24368013 0.2340522 -0.0078006387 -0.5686721 -0.3261516
0.10966082 -0.42238417 -0.2488205 -0.29570037 -0.6807871 -0.067389004 -0.15250774 -0.017323364
-0.25624347 -0.39247385 -0.33150885 -0.3459502 -0.55789053 -0.45713064 -0.6279869 -0.38617182
-0.30807596 -0.45490056 -0.3313023 -0.22232291 -0.012995672 -0.4277968 0.089814104 -0.36242607
-0.088480756 -0.67531526 -0.056282874 -0.48453578 0.07182384 -0.5210647 -0.27307382 0.38820153
-0.16789243 -0.2950896 -0.1148824 -0.22241677 -0.45552605 -0.71207577 -0.3681349 -0.28636304
-0.19123411 -0.5068912 -0.048315186 -0.618398 -0.10187322 -0.074928716 -0.3544516 -0.005170523
-0.11080423 -0.47165355 -0.16999313 -0.15777376 -0.7185366 -0.59788525 -0.5157892 0.08905261
0.5078495 -0.13269511 -0.08486986 0.5381651 0.15034232 -0.045588296 0.090148136 0.012112359
0.04956882 -0.108318135 -0.111570686 -0.1733114 0.051660236 -0.3404162 0.32115686 -0.07531224
-0.12230181 0.48145732 0.18708616 0.29621613 -0.1416585 -0.01845009 -0.16225314 -0.18696313
0.4860163 0.014189111 -0.024978887 -0.20189351 -0.04366509 -0.22942984 0.06684203 0.15198654
-0.31956005 -0.40240967 0.30279 0.10537226 -0.22472633 -0.14787173 -0.0011929114 0.36380664
-0.08910255 0.021973517 -0.46685535 0.06203088 -0.11542368 0.15043572 -0.17821565 -0.17700863
0.19201875 -0.08877286 0.31836042 0.0130757885 -0.25561723 -0.16247343 0.035351813 -0.35763246
