saved_models/hidden_size_100.pt (torch, 570925 bytes, 11 tensors)

weight f4 [100, 100]
0.553689 -0.78806174 -1.1317457 0.22628695 1.1155589 1.2376626 0.09303229 -0.8786063
-0.41983876 0.43088064 0.24495584 -1.4671494 0.97508305 0.43744284 1.0380478 -0.89034796
-0.14737022 0.15651238 -0.17994602 -0.30234635 -0.5091335 1.1788425 -1.8061842 0.6496464
-1.4580925 -0.25526634 0.97080123 0.6060732 -1.1391441 -0.78213054 0.70141006 -0.6306834
0.09626519 -1.3098668 1.7994288 -0.88345116 0.9633428 1.1927147 0.644739 -1.4010979
0.33690488 1.142799 -1.3466057 0.8080913 -0.983283 1.295675 -0.060918085 -1.5132456
0.7190795 0.9602162 -0.028344406 -1.5139865 0.59103364 1.555938 0.7279011 -0.8324427
0.36271262 -0.88955367 -1.1243112 1.154498 -0.4628139 0.7665855 -0.2083412 -0.36928985
1.2863463 1.2615474 -2.3273883 -0.33221954 0.017910963 2.580691 -1.559715 -0.025478503
1.7005007 -0.56468236 -0.7976497 -0.57893574 -0.19699927 -2.0002978 1.1623609 0.7136068
-0.08359096 0.92761225 -0.25628367 -1.2845926 0.46215442 -1.0673158 0.20927985 -1.8241676
-0.043262344 1.2956765 -0.13703796 -0.35345665 -1.4993984 -0.52421594 0.19184054 -0.5959538
3.6080544 0.21282607 0.19027874 -0.7556819 1.0663631 0.48149365 1.2934468 1.2291763
0.19543035 0.072004326 0.5070455 0.023088153 -0.5614806 -0.8011006 -0.86275834 -1.3580593
0.33063787 -0.09879118 0.8404713 -1.3451113 -0.97616726 -0.25428393 -0.473147 -0.34426665
-0.47210175 -1.8004978 0.85499597 1.9110627 -0.0820543 1.6745735 1.1658325 -1.2366173
-0.4781156 0.13932535 -2.7979078 -0.19303189 -0.5507869 0.06854402 -0.7368758 0.7541831
0.54490596 3.306477 1.7725757 0.037351362 0.18869421 0.28704348 -0.21087743 1.1760031
-0.5608258 2.6372423 -0.5392096 0.5026337 0.75020623 -1.7471688 0.2887371 -2.2673676
-1.5476174 1.0150882 0.17407712 0.84251285 0.21427616 -1.1409605 -0.46102387 -0.6528976
0.38684714 -0.6919648 -1.8748598 -2.2015386 2.3832107 0.8409259 0.77510285 0.4045921
-0.3359558 1.4895743 -1.0355724 -0.03429913 -0.37932846 0.43995944 0.108187735 0.996269
-0.31937844 -0.05956978 1.400143 -0.5865409 -0.21802917 1.4833751 -0.265629 -1.0695436
-0.04358208 0.66815054 0.057617553 0.68326163 -2.1628463 -0.26034093 1.0202982 -0.12739372
0.014900934 -1.1523438 0.45365605 -0.24723923 -1.1314222 -0.604995 0.59373116 1.9249147
-0.28863105 -0.00026330183 -0.49790928 0.80054635 -0.88698584 -0.5167409 0.9842737 0.12312248
0.33840698 0.19642861 -1.4315344 -1.8684933 1.3639235 0.5866046 -0.08109778 0.7638392
-0.0638459 0.06385681 -0.18580471 0.10757354 1.1091287 -0.6067396 -0.95786107 0.09522923
0.14244385 0.23664165 -1.6404365 -0.3880469 0.7887895 -0.21769208 -0.172863 -1.5341611
-1.8711995 1.0762693 -0.90795445 -1.5172938 0.05408763 -0.6505655 0.868315 0.08596501
-0.89845616 2.4913802 -0.66908294 -0.056656677 -0.7548104 0.90515566 1.7943119 0.72430944
-1.4542421 0.22447424 0.91209 -1.7671207 -0.52180105 0.76456565 -1.0003643 0.9035753
00000000: 90be 0d3f 6abe 49bf 0bdd 90bf c4b7 673e
00000010: a2ca 8e3f ba6b 9e3f b787 be3d 58ec 60bf
00000020: 1bf5 d6be 639c dc3e b4d5 7a3e 8dcb bbbf
00000030: 0b9f 793f 82f8 df3e c0de 843f d8ed 63bf
00000040: 38e8 16be c844 203e c543 38be 24cd 9abe
00000050: 9356 02bf 50e4 963f 0b31 e7bf 3a4f 263f
00000060: c6a2 babf 45b2 82be 6e86 783f 9d27 1b3f
00000070: 79cf 91bf b539 48bf 9c8f 333f 7874 21bf
00000080: af26 c53d b7a9 a7bf af53 e63f db29 62bf
00000090: a29d 763f e0aa 983f 9d0d 253f 2d57 b3bf
000000a0: cc7e ac3e 3d47 923f 935d acbf 12df 4e3f
000000b0: 6fb8 7bbf aed8 a53f 3e85 79bd 08b2 c1bf
000000c0: 9815 383f bbd0 753f 8732 e8bc 4fca c1bf
000000d0: fb4d 173f fa28 c73f ba57 3a3f f71a 55bf
000000e0: 78b5 b93e cab9 63bf 6ee9 8fbf 97c6 933f
000000f0: f2f5 ecbe f33e 443f 6557 55be 8f13 bdbe
00000100: ffa6 a43f 637a a13f eef3 14c0 ae18 aabe
00000110: 03ba 923c 0b2a 2540 bea4 c7bf 4bb8 d0bc
00000120: 02aa d93f 068f 10bf c532 4cbf 2235 14bf
00000130: 2dba 49be e104 00c0 3ec8 943f efae 363f
00000140: bd31 abbd ff77 6d3f 9d37 83be 886d a4bf
00000150: 819f ec3e ce9d 88bf 754d 563e 537e e9bf
00000160: db33 31bd bad8 a53f ae53 0cbe 45f8 b4be
00000170: 49ec bfbf 0433 06bf d971 443e 6e90 18bf
00000180: 5dea 6640 14ef 593e 6ed8 423e 5e74 41bf
00000190: 967e 883f 5686 f63e aa8f a53f a655 9d3f
000001a0: e51e 483e 0177 933d bccd 013f 5e23 bd3c
000001b0: 31bd 0fbf ee14 4dbf bbdd 5cbf e3d4 adbf
000001c0: 5e49 a93e 0853 cabd 2129 573f 9b2c acbf
000001d0: 19e6 79bf 8131 82be 5340 f2be b843 b0be
000001e0: 52b7 f1be b676 e6bf 04e1 5a3f b49d f43f
000001f0: 160c a8bd 6d58 d63f 003a 953f 7a49 9ebf
00000200: 91cb f4be 4eab 0e3e ec10 33c0 27aa 45be
00000210: 5f00 0dbf cf60 8c3d e4a3 3cbf 2512 413f
00000220: f57e 0b3f 529d 5340 c3e3 e23f befd 183d
00000230: 0e39 413e 5df7 923e 41f0 57be 4587 963f
00000240: 4892 0fbf 94c8 2840 a409 0abf 9aac 003f
00000250: 840d 403f 3aa3 dfbf 59d5 933e 8d1c 11c0
00000260: 5418 c6bf 69ee 813f 4641 323e ecae 573f
00000270: 366b 5b3e fe0a 92bf 520b ecbe 4c24 27bf
00000280: d410 c63e 9b24 31bf 68fb efbf 02e6 0cc0
00000290: 8686 1840 eb46 573f 246d 463f b226 cf3e
000002a0: 6602 acbe 5faa be3f a38d 84bf 3f7d 0cbd
000002b0: 5737 c2be 5d42 e13e 8891 dd3d 7c0b 7f3f
000002c0: 9285 a3be 71ff 73bd e337 b33f 8b27 16bf
000002d0: 0a43 5fbe 3cdf bd3f 8600 88be cee6 88bf
000002e0: 2083 32bd ea0b 2b3f 6200 6c3d 3cea 2e3f
000002f0: 136c 0ac0 684b 85be 2299 823f 8073 02be
00000300: 0c23 743c 0080 93bf 9b45 e83e 482c 7dbe
00000310: 71d2 90bf f4e0 1abf c4fe 173f 9b63 f63f
00000320: 73c7 93be c60b 8ab9 f7ed febe 9bf0 4c3f
00000330: 8111 63bf 2249 04bf 5cf9 7b3f a427 fc3d
00000340: ae43 ad3e 9524 493e 853c b7bf ca2a efbf
00000350: 0c95 ae3f b82b 163f 9816 a6bd f78a 433f
00000360: a4c1 82bd 5cc7 823d 9743 3ebe 844f dc3d
00000370: eef7 8d3f 4953 1bbf 6236 75bf 8b07 c33d
00000380: cddc 113e 3052 723e d3f9 d1bf 15ae c6be
00000390: 1cee 493f acea 5ebe 0003 31be 645f c4bf
000003a0: 7783 efbf 31c3 893f b46f 68bf af36 c2bf
000003b0: fe8a 5d3d 768b 26bf e449 5e3f 6c0e b03d
000003c0: 3901 66bf c672 1f40 0549 2bbf d510 68bd
000003d0: 413b 41bf 48b8 673f 03ac e53f 586c 393f
000003e0: 9b24 babf 93dc 653e bb7e 693f 0331 e2bf
000003f0: c194 05bf 93ba 433f f00b 80bf b650 673f

weight_ih_l0 f4 [300, 100]
0.23610824 -0.58443135 0.22006772 0.27562717 -0.2028248 0.108320236 0.0450388 -0.18460014
0.14601178 -0.03398199 -0.24149746 -0.11483758 -0.4794547 -0.24894074 0.08837332 -0.08254463
-0.32889217 0.28298813 -0.30972144 -0.362588 -0.8018544 -0.018558202 -0.092326626 -0.68691427
0.36084205 0.055690728 0.24693099 -0.42099038 -0.13283625 0.19526905 -0.48916793 0.23886725
0.14699571 -0.013629154 0.056554586 0.0003863331 -0.410274 0.02163456 0.3486709 0.054004043
-0.46103305 -0.53326577 0.036296852 0.13257176 -0.031026786 -0.55353624 -0.1969044 -0.23815396
-0.20671842 0.48694235 -0.035591014 -0.025937492 -0.10707995 -0.1442511 0.3824364 -0.15980867
-0.63738954 -0.14899991 -0.30644593 0.12552534 0.38668817 0.29977575 0.23836383 0.04566886
0.2712358 0.06627361 -0.11493054 0.5249147 -0.30016226 -0.10386277 0.20637609 -0.37613088
-0.6177556 0.36522096 -0.2767981 -0.08811243 -0.46646106 -0.1893074 -0.17413141 -0.010229719
-0.46200413 0.009495719 0.08830038 0.060226012 -0.28669357 0.03155637 0.050284628 -0.22688022
-0.28953826 -0.5534517 -0.76765513 0.107247874 0.35866538 -0.36598083 0.1366584 -0.54678273
-0.07328811 -0.15406659 -0.012426602 -0.5054111 0.5191327 -0.66349477 0.12271774 0.16592318
-0.25649193 0.05556267 -0.31862724 -0.08564408 0.16496287 -0.04121452 -0.15324761 0.103299715
-0.08804352 0.6399267 0.26407862 1.107142 -0.25371417 0.005404874 -0.26282588 -0.9726483
-0.44744223 -0.44688484 -0.065956146 -0.13361315 -0.17568818 -0.0260586 0.24818602 -0.21327266
0.48612365 0.16469431 0.15584372 0.4136801 0.006281275 -0.4819542 0.4758537 0.20540528
-0.22621411 -0.11873345 -0.30232933 -0.22566551 -0.38463232 -0.2342956 0.31651562 0.17631544
-0.32236132 -0.21410854 -0.48880124 0.83011943 -0.32702142 -0.34514388 0.36279097 -0.6485358
-0.5840327 -0.07688744 0.18881832 -0.24910763 0.07022747 0.3286722 -0.60001904 0.6075006
0.711694 0.12540235 0.13948658 0.03290761 0.10985057 0.015360633 -0.18975608 0.21875916
0.0063064974 -0.440998 0.4484919 0.24568963 -0.18769611 0.24928716 0.016466985 -0.31671768
0.098175846 -0.1900429 0.26091787 0.6352603 -0.3562957 0.35504735 -0.7090807 -0.05141601
-0.25208715 -0.16498856 0.9962551 -0.70337397 -0.299417 -0.5715841 0.69943136 -0.15247063
0.09513806 0.004075708 -0.28900197 0.203678 -0.04617892 -0.001843292 0.28713545 -1.1084833
0.5456972 -0.43964073 -0.5831106 0.70853126 -0.3893297 0.16720262 -0.20241535 -0.070049606
-0.69607294 0.1250781 -0.17948955 -0.8082901 0.67271715 0.17499502 0.2226826 -0.23222212
0.41882712 -0.10514377 -0.17342527 -0.09815174 -0.92751324 -0.33595723 0.7152295 -0.5856905
-0.40272552 0.41228282 -0.2601944 0.051305067 -0.3082587 0.23740019 0.49882388 1.0273607
-0.9664969 0.09888129 -0.46163774 0.18081443 0.38096797 -0.7751201 -0.25692764 0.46822205
0.17679726 -0.47901252 0.7153839 0.7194393 0.16946462 0.16789019 -0.027816582 0.047097325
0.8040505 -0.09575121 0.05719424 0.4752567 -0.33469003 0.11831391 -0.4182699 0.08081198
00000000: 5cc6 713e 4b9d 15bf 6f59 613e 011f 8d3e
00000010: 4eb1 4fbe 00d7 dd3d 9b7a 383d d207 3dbe
00000020: 1d84 153e b330 0bbd 1c4b 77be f72f ebbd
00000030: 167b f5be 52ea 7ebe 12fd b43d 290d a9bd
00000040: 8e64 a8be d2e3 903e cf93 9ebe 22a5 b9be
00000050: 5446 4dbf 5f07 98bc be15 bdbd 9dd9 2fbf
00000060: 4ac0 b83e f61b 643d 7adb 7c3e 0d8c d7be
00000070: 3a06 08be 9cf4 473e 3874 fabe 9e99 743e
00000080: 0b86 163e d14c 5fbc c8a5 673d c08c ca39
00000090: 6f0f d2be f63a b13c fe84 b23e 5833 5d3d
000000a0: 860c ecbe 1b84 08bf 02ac 143d e4c0 073e
000000b0: e32b febc 8db4 0dbf 4fa1 49be a2de 73be
000000c0: fead 53be 8250 f93e e2c7 11bd dd7a d4bc
000000d0: bc4c dbbd 8fb6 13be b4ce c33e e2a4 23be
000000e0: f62b 23bf 6f93 18be 7be6 9cbe b789 003e
000000f0: fefb c53e 357c 993e a615 743e 450f 3b3d
00000100: 6bdf 8a3e 75ba 873d b460 ebbd cf60 063f
00000110: deae 99be 01b6 d4bd 4154 533e 3a94 c0be
00000120: 3b25 1ebf 3efe ba3e 7bb8 8dbe 4a74 b4bd
00000130: fcd3 eebe cdd9 41be 814f 32be 8d9a 27bc
00000140: ce8b ecbe ef93 1b3c d4d6 b43d 8daf 763d
00000150: 80c9 92be 4141 013d 41f7 4d3d 4a53 68be
00000160: 5c3e 94be 03af 0dbf 0c85 44bf c6a4 db3d
00000170: fda2 b73e d761 bbbe 2ef0 0b3e f4f9 0bbf
00000180: 1418 96bd a2c3 1dbe f298 4bbc 9f62 01bf
00000190: e1e5 043f cbda 29bf 7053 fb3d c4e7 293e
000001a0: e952 83be af95 633d 1c23 a3be 2a66 afbd
000001b0: 07ec 283e 8ed0 28bd f1ec 1cbe cd8e d33d
000001c0: 2950 b4bd 3cd2 233f 5035 873e d4b6 8d3f
000001d0: d3e6 81be 5f1b b13b 1d91 86be 7bff 78bf
000001e0: 2617 e5be 17ce e4be 0414 87bd e3d1 08be
000001f0: 9ae7 33be d878 d5bc 7a24 7e3e 2664 5abe
00000200: 33e5 f83e a0a5 283e 7f95 1f3e e1cd d33e
00000210: 27d3 cd3b b3c2 f6be 19a3 f33e c355 523e
00000220: aca4 67be 862a f3bd e9ca 9abe dc14 67be
00000230: 87ee c4be 30eb 6fbe 560e a23e 098c 343e
00000240: 8b0c a5be 453f 5bbe 2844 fabe b582 543f
00000250: 5a6f a7be b3b6 b0be bdbf b93e 7106 26bf
00000260: 2b83 15bf 2a77 9dbd 9759 413e 1216 7fbe
00000270: 6bd3 8f3d b947 a83e d99a 19bf 2985 1b3f
00000280: 9431 363f 7969 003e 92d5 0e3e 21ca 063d
00000290: 56f9 e03d 2aab 7b3c 6b4f 42be 6702 603e
000002a0: bca6 ce3b 7dca e1be bba0 e53e 1096 7b3e
000002b0: 6933 40be 2245 7f3e c5e5 863c d228 a2be
000002c0: 6b10 c93d 9b9a 42be 0797 853e 6ba0 223f
000002d0: 646c b6be c4c8 b53e 5086 35bf 9899 52bd
000002e0: 9111 81be c3f2 28be 930a 7f3f 5110 34bf
000002f0: 2f4d 99be 5653 12bf ef0d 333f 4321 1cbe
00000300: bed7 c23d 848d 853b 11f8 93be f790 503e
00000310: 1b26 3dbd 9e9a f1ba 6b03 933e c8e2 8dbf
00000320: d0b2 0b3f 9718 e1be bc46 15bf 4e62 353f
00000330: 3956 c7be 2a37 2b3e f845 4fbe 2b76 8fbd
00000340: d631 32bf 7914 003e 1ccc 37be 1aec 4ebf
00000350: 3137 2c3f e531 333e e806 643e a3cb 6dbe
00000360: 8270 d63e 9e55 d7bd 6596 31be c803 c9bd
00000370: 8271 6dbf 9602 acbe 4819 373f d0ef 15bf
00000380: 0a32 cebe bc16 d33e 3338 85be 4325 523d
00000390: 16d4 9dbe 0919 733e d865 ff3e 8e80 833f
000003a0: 576c 77bf 4682 ca3d c85b ecbe 6b27 393e
000003b0: 3c0e c33e 456e 46bf 058c 83be cdba ef3e
000003c0: 570a 353e 2141 f5be 6623 373f 2d2d 383f
000003d0: 2288 2d3e 68eb 2b3e 9adf e3bc 20e9 403d
000003e0: 41d6 4d3f 3619 c4bd 8244 6a3d d954 f33e
000003f0: 7e5c abbe 904e f23d 7927 d6be c080 a53d

weight_hh_l0 f4 [300, 100]
0.4994623 -0.5135476 0.7716228 -0.78732926 -0.5638201 0.12555228 -0.6108457 0.25414672
-0.25779325 0.3692616 -0.6184346 -0.14135776 1.4210048 -0.05273895 -0.34445018 -0.092887335
1.0228899 -0.6739095 0.7002117 0.1496309 0.52602994 0.32357267 -0.67871535 -0.42870086
0.62620944 0.1016881 -0.57000077 0.22373827 0.5342343 -0.6557034 -0.68709916 0.6772393
0.1021391 -0.5023794 -0.8937426 -0.16374518 -0.19939744 0.021878349 -0.014765726 0.7119407
0.4657867 0.8955807 -0.09640193 -0.5560355 0.25736898 0.9131358 -0.11371888 0.57516134
0.25885263 0.0025677867 0.86840034 0.12706657 -0.028500356 -0.4612151 -0.39103314 -0.97305053
-0.40754142 -0.7756449 0.90144366 -0.006201091 -0.23957239 0.10947947 0.053363487 -0.6605075
-0.39813206 0.027708417 -0.14108853 0.09596741 0.40761232 0.11771265 -0.969753 -0.06060491
-0.49915287 -0.55017155 0.0316706 0.58072525 -0.020824652 -0.23901011 0.30270028 -0.41573995
-0.15173693 0.03738836 -0.25424635 0.7257107 0.6454735 -0.14033344 0.031696793 0.26852503
-0.1505636 -0.3655671 0.6486322 -0.56304824 0.387812 0.15431447 -0.18705408 0.83307415
-1.1371502 0.43890676 -0.3074948 -0.40771204 0.052992098 -0.8398476 -0.66250515 -0.84341794
-0.0027351703 -0.7691601 0.3427308 -0.05098651 0.82171994 -0.26215106 0.51485884 -0.5251636
0.13321555 -0.8482356 0.26294184 0.09847273 0.23780382 0.9040517 -0.25388563 -0.27332523
-0.17711347 0.268484 -0.046590213 -0.1638171 0.21433169 -0.3740124 0.685558 -0.29378122
-0.0712018 -0.3582294 -0.058213312 0.09174782 -0.13611796 -0.96937007 -0.2656926 0.59701604
-0.4288823 -0.49328637 -0.98697317 -0.171354 -0.15144074 -0.64218 0.59283245 -0.26361874
-0.53250116 -0.13359699 -0.18945621 0.8204224 0.12598814 -0.21170676 -0.15821691 -0.9139735
-0.6758709 -0.07728639 -0.075146325 0.027541421 0.14177379 0.41123396 0.89451426 -0.28231013
-0.17613016 -0.56835705 0.055633005 -0.6226648 -0.12410571 -0.52835315 0.16333038 0.1839431
-0.83164465 -0.3245837 -0.07795215 0.06140549 1.2620801 0.47399616 0.6589755 0.12923077
0.038208235 0.52894264 0.8159276 0.057713315 -0.36695537 0.6047214 0.6602172 -0.58543634
0.118930206 0.15021327 -0.31310126 -0.36294368 -0.38892692 0.0849797 0.27162352 0.49541804
0.5291188 -0.35383946 -0.22845988 -0.3715971 -0.41498205 0.43007872 0.30934003 -0.08140454
-0.08037434 0.3660188 -0.32467607 0.5759457 0.100234635 -0.33892187 0.3645328 0.08729853
-0.9365515 0.4189504 0.1834271 -0.004379888 0.4755429 0.051349062 -0.2845005 0.17926629
-0.5972093 -0.8270763 -0.28088334 -0.31126264 -0.98379916 0.021126011 0.78629434 0.34772325
-0.09900666 0.11656098 -0.26739463 0.21105242 -0.48229545 -0.7604648 -0.10833724 0.32318518
-1.1062115 -0.6002363 -0.5502831 -1.5366635 0.51618654 0.62887704 -0.17063129 0.4234319
-0.1763336 1.0065305 -0.23268317 -0.5189003 0.18111779 0.75445265 -0.2585281 0.5424954
0.8408103 -0.11615878 0.52209395 -0.52841526 1.1168566 -0.0351126 0.40738237 0.49277195
00000000: 86b9 ff3e db77 03bf 1289 453f 698e 49bf
00000010: 8456 10bf c790 003e 6260 1cbf 851f 823e
00000020: 7afd 83be db0f bd3e bb51 1ebf 17c0 10be
00000030: 7ce3 b53f cc04 58bd c65b b0be b73b bebd
00000040: 0eee 823f 5585 2cbf 1341 333f d838 193e
00000050: e6a9 063f 51ab a53e 4ac0 2dbf ae7e dbbe
00000060: 434f 203f da41 d03d 92eb 11bf a51b 653e
00000070: 94c3 083f 2edc 27bf bbe5 2fbf 8e5f 2d3f
00000080: 4e2e d13d f09b 00bf 51cc 64bf d1ac 27be
00000090: d82e 4cbe 393a b33c f2eb 71bc bf41 363f
000000a0: 987b ee3e c744 653f 606e c5bd 5858 0ebf
000000b0: dec5 833e 45c3 693f 72e5 e8bd c63d 133f
000000c0: 5588 843e 5048 283b 7c4f 5e3f bd1d 023e
000000d0: 9479 e9bc 6324 ecbe 7f35 c8be d719 79bf
000000e0: 45a9 d0be aa90 46bf 03c5 663f 8632 cbbb
000000f0: 7752 75be c636 e03d ac93 5a3d 0517 29bf
00000100: f7d7 cbbe c3fc e23c 8379 10be 908a c43d
00000110: 90b2 d03e 5413 f13d bc41 78bf db3c 78bd
00000120: f790 ffbe 0bd8 0cbf 08b9 013d 69aa 143f
00000130: 7698 aabc 11bf 74be 88fb 9a3e dedb d4be
00000140: ed60 1bbe 8924 193d 942c 82be 2dc8 393f
00000150: c03d 253f 92b3 0fbe 7fd4 013d 1d7c 893e
00000160: 582d 1abe 9c2b bbbe c30c 263f ee23 10bf
00000170: 4b8f c63e 9d04 1e3e 1b8b 3fbe 5944 553f
00000180: 238e 91bf 63b8 e03e f56f 9dbe a2bf d0be
00000190: 3e0e 593d 4100 57bf f099 29bf 3dea 57bf
000001a0: 8b40 33bb ade7 44bf 697a af3e 3bd7 50bd
000001b0: 3d5c 523f aa38 86be cacd 033f 1f71 06bf
000001c0: a869 083e f825 59bf 50a0 863e 12ac c93d
000001d0: d882 733e ef6f 673f 4cfd 81be 49f1 8bbe
000001e0: 3c5d 35be bc76 893e 61d5 3ebd abbf 27be
000001f0: c479 5b3e 8e7e bfbe bb80 2f3f 7e6a 96be
00000200: 40d2 91bd d869 b7be 1571 6ebd 48e6 bb3d
00000210: 8262 0bbe a328 78bf dc08 88be 0bd6 183f
00000220: 7696 dbbe 0890 fcbe 46aa 7cbf 6c77 2fbe
00000230: 4813 1bbe e965 24bf dec3 173f 09f9 86be
00000240: ff51 08bf a6cd 08be cf00 42be 3407 523f
00000250: 0903 013e a8c9 58be 9d03 22be 2bfa 69bf
00000260: e005 2dbf 5448 9ebd 51e6 99bd 8c9e e13c
00000270: 262d 113e 428d d23e e3fe 643f f48a 90be
00000280: 775b 34be d97f 11bf 6fdf 633d f666 1fbf
00000290: 222b febd 2742 07bf 1440 273e 945b 3c3e
000002a0: aae6 54bf d62f a6be 60a5 9fbd 5384 7b3d
000002b0: d78b a13f a0af f23e 9eb2 283f 1255 043e
000002c0: 3d80 1c3d c968 073f a2e0 503f cc64 6c3d
000002d0: 93e1 bbbe 06cf 1a3f ff03 293f 28df 15bf
000002e0: ae91 f33d 82d1 193e cf4e a0be c1d3 b9be
000002f0: 6e21 c7be d609 ae3d 3d12 8b3e 6fa7 fd3e
00000300: 5474 073f 722a b5be 63f1 69be fa41 bebe
00000310: 8778 d4be 4733 dc3e d161 9e3e 6cb7 a6bd
00000320: 4d9b a4bd d166 bb3e f13b a6be 2d71 133f
00000330: d147 cd3d 2b87 adbe 0ba4 ba3e 92c9 b23d
00000340: d7c1 6fbf ab80 d63e 50d4 3b3e 2a85 8fbb
00000350: 5c7a f33e 6553 523d 0daa 91be 9591 373e
00000360: b5e2 18bf 46bb 53bf f1cf 8fbe d15d 9fbe
00000370: 43da 7bbf 7510 ad3c 964a 493f c808 b23e
00000380: 01c4 cabd 86b7 ee3d f3e7 88be 201e 583e
00000390: 6eef f6be d2ad 42bf eadf ddbd 8778 a53e
000003a0: 5798 8dbf 16a9 19bf 5adf 0cbf 64b1 c4bf
000003b0: cd24 043f 16fe 203f f8b9 2ebe 11cc d83e
000003c0: cc90 34be fed5 803f 7f44 6ebe a6d6 04bf
000003d0: f176 393e cf23 413f cc5d 84be fbe0 0a3f
000003e0: 583f 573f a8e4 edbd f3a7 053f 3946 07bf
000003f0: 28f5 8e3f 3bd2 0fbd 6c94 d03e 9b4c fc3e

bias_ih_l0 f4 [300]
0.17955236 -0.24321948 -0.22852767 -0.21233633 -0.28842816 -0.2068577 0.012574795 0.23698233
-0.18426836 -0.13158709 -0.42404497 0.0047668763 -0.018945877 -0.6131236 -0.28815854 -0.15976088
0.024672842 -0.24399792 0.011832988 0.19895172 -0.1607218 -0.005132564 -0.04499118 -0.2606174
-0.0136719495 0.41544247 -0.2125324 -0.17873214 -0.30457208 -0.23634197 -0.30498543 0.013697663
-0.0067869984 -0.031248512 -0.2673569 -0.44604358 -0.40144315 -0.21047713 -0.39738187 -0.11709747
0.061178017 0.20213813 0.02372906 -0.1707863 0.16515167 0.41600662 -0.07379631 -0.051907156
-0.009425916 0.23361552 -0.15994093 0.060373332 0.19085579 -0.2723276 0.17748407 -0.074512996
-0.24142133 -0.20259213 -0.07846692 -0.33757043 0.15429166 -0.31659558 -0.058198173 -0.07053527
-0.34683475 -0.22733384 -0.41524336 -0.31342936 0.0013247177 -0.16727696 0.20931277 -0.09284947
-0.1570215 -0.15706056 -0.21227145 -0.20800833 0.2131951 -0.48389766 -0.33283976 0.18299492
-0.13163877 0.20385689 0.0047484087 -0.21073928 -0.071132876 -0.07047896 0.20300943 0.21583441
-0.23979309 -0.246305 -0.22344187 0.054139562 -0.44495705 -0.2696581 -0.3742381 -0.26780942
-0.20828582 -0.33965945 0.044202443 0.011896016 -0.21968184 -0.6614637 -0.039213628 -0.49437958
-0.21136437 -0.62174296 -0.2048128 0.08053592 -0.5436479 -0.4401951 -1.0469468 -0.5028694
-0.3464909 -0.59499305 -0.48832324 -0.35384834 -0.4400988 -0.5455754 -0.5442679 -0.78243786
-0.224796 -0.41655985 -0.44538504 -0.48470676 -0.18474954 -0.58736277 -0.8111329 0.20083082
-0.49903774 -0.5678091 -0.120198846 -0.54943204 -0.3313439 -0.009650392 -0.3576387 -0.8795636
-0.3789977 -0.44643077 -0.65785784 -0.42792332 -0.13066064 -0.6150244 -0.27508238 -0.18658103
-0.016624272 -0.013412621 -0.6211304 -0.52142173 -0.8748262 -0.9706312 -0.42826974 -0.43703443
-0.66799444 -0.20140511 -0.25811696 0.07537339 -0.36689255 -0.6336714 -0.31706148 -0.24468246
-0.7057557 -0.7406807 -0.30677688 -0.24607854 -0.575455 -0.37444976 -0.25875583 -0.35503212
-0.4272315 -0.30180407 -1.043314 -0.21421525 -0.5603628 -0.4145809 -0.054272447 -0.4094964
-0.046678428 -0.7375959 -0.3094329 -0.29169694 -0.14974822 -0.38138828 -0.87814426 -0.5201404
-0.51160735 -1.4773757 -0.54451233 -0.854166 -0.18470256 -0.56145936 -0.55588436 -0.5236556
-0.2787547 -0.687101 -0.12871815 -0.097010344 -0.22335868 -0.49486268 -0.95048165 0.28736326
-0.4430903 0.1284777 -0.16836442 0.04188147 -0.28429443 0.20405535 -0.055436928 0.3919101
0.35702065 0.13760936 -0.07503637 -0.4984512 0.015703075 0.09055744 0.383625 -0.1568928
0.36467513 -0.03758309 0.103518255 0.2856844 -0.03276085 0.20909055 -0.28751823 0.23899525
0.18263398 0.11434968 -0.5131897 0.02703311 0.32468528 0.091048956 0.11093998 -0.30930015
-0.24266529 0.01641603 0.12853506 -0.114922225 0.10079193 0.1724665 -0.28237668 0.0396264
0.21888274 0.14448352 -0.03454217 0.19634074 -0.011924332 0.2013417 0.14145449 -0.1036754
0.075699985 0.48962995 0.1255893 -0.1995777 -0.0043558697 0.1933661 -0.114942536 -0.01952378
00000000: 93dc 373e 870e 79be 2803 6abe b26e 59be
00000010: dbac 93be 81d2 53be 8306 4e3c 7fab 723e
00000020: d8b0 3cbe c4be 06be 6c1c d9be 7533 9c3b
00000030: 6234 9bbc abf5 1cbf 8489 93be 5b98 23be
00000040: b31e ca3c 97da 79be 26df 413c 00ba 4b3e
00000050: 4194 24be 112f a8bb ac48 38bd a56f 85be
00000060: 5000 60bc e0b4 d43e 18a2 59be 8f05 37be
00000070: dff0 9bbe a103 72be 0d27 9cbe 2a6c 603c
00000080: 7865 debb e1fc ffbc 01e3 88be d35f e4be
00000090: f589 cdbe 5187 57be a375 cbbe ccd0 efbd
000000a0: cd95 7a3d 4cfd 4e3e 7263 c23c 9be2 2ebe
000000b0: 851d 293e d2fe d43e 8522 97bd 999c 54bd
000000c0: 286f 1abc e838 6f3e 8ec7 23be 074a 773d
000000d0: b36f 433e 866e 8bbe 62be 353e 459a 98bd
000000e0: 2737 77be 5074 4fbe 44b3 a0bd 08d6 acbe
000000f0: a2fe 1d3e d118 a2be 3561 6ebd cc74 90bd
00000100: 5394 b1be 34ca 68be c79a d4be d079 a0be
00000110: 26a2 ad3a a74a 2bbe 1656 563e dd27 bebd
00000120: 3eca 20be 7cd4 20be b05d 59be 2300 55be
00000130: d14f 5a3e 6fc1 f7be f969 aabe 0563 3b3e
00000140: 50cc 06be dcbf 503e 8a98 9b3b 0acc 57be
00000150: 1dae 91bd 4657 90bd b4e1 4f3e b203 5d3e
00000160: 528c 75be 6137 7cbe f2cd 64be 72c1 5d3d
00000170: 69d1 e3be a010 8abe 239c bfbe 511e 89be
00000180: e148 55be d8e7 adbe 9f0d 353d 82e7 423c
00000190: 47f4 60be af55 29bf 789e 20bd 521f fdbe
000001a0: e76f 58be 8c2a 1fbf 72ba 51be 04f0 a43d
000001b0: 822c 0bbf 4161 e1be 5a02 86bf 0dbc 00bf
000001c0: 4167 b1be 7751 18bf 8105 fabe 9c2b b5be
000001d0: a154 e1be d4aa 0bbf 2455 0bbf d94d 48bf
000001e0: ec30 66be 5547 d5be 8209 e4be 7c2b f8be
000001f0: fc2e 3dbe 685d 16bf 68a6 4fbf 98a6 4d3e
00000200: e081 ffbe f05b 11bf d02a f6bd 94a7 0cbf
00000210: e8a5 a9be ae1c 1ebc 6b1c b7be 152b 61bf
00000220: fd0b c2be 9392 e4be 5f69 28bf c418 dbbe
00000230: e7cb 05be 3d72 1dbf 99d7 8cbe 190f 3fbe
00000240: a02f 88bc 9cc0 5bbc 6702 1fbf e57b 05bf
00000250: 9cf4 5fbf 497b 78bf 2c46 dbbe fac2 dfbe
00000260: af01 2bbf 243d 4ebe e827 84be 5d5d 9a3d
00000270: 57d9 bbbe 4a38 22bf e255 a2be 0a8e 7abe
00000280: 68ac 34bf 409d 3dbf dc11 9dbe 03fc 7bbe
00000290: 0551 13bf e1b7 bfbe a57b 84be c5c6 b5be
000002a0: 16be dabe 1086 9abe 508b 85bf 3e5b 5bbe
000002b0: f073 0fbf f343 d4be c94c 5ebd 83a9 d1be
000002c0: e131 3fbd 16d3 3cbf fd6d 9ebe 4d59 95be
000002d0: 9957 19be 5345 c3be 10ce 60bf ec27 05bf
000002e0: b3f8 02bf a61a bdbf 2965 0bbf 9faa 5abf
000002f0: ab22 3dbe cdbb 0fbf 704e 0ebf 4b0e 06bf
00000300: f0b8 8ebe dae5 2fbf b1ce 03be 5cad c6bd
00000310: 23b8 64be a45e fdbe c452 73bf 4721 933e
00000320: bbdc e2be a88f 033e b967 2cbe e78b 2b3d
00000330: 0a8f 91be e3f3 503e d511 63bd 71a8 c83e
00000340: 69cb b63e 78e9 0c3e abac 99bd ff34 ffbe
00000350: bca3 803c 2e76 b93d 7f6a c43e 82a8 20be
00000360: b3b6 ba3e baf0 19bd 6101 d43d 3a45 923e
00000370: 3e30 06bd d51b 563e 9735 93be 2cbb 743e
00000380: 6704 3b3e 2a30 ea3d 6660 03bf 8a74 dd3c
00000390: 263d a63e e077 ba3d 8034 e33d 975c 9ebe
000003a0: 407d 78be e97a 863c b29e 033e 585c ebbd
000003b0: 006c ce3d 0f9b 303e ad93 90be 4b4f 223d
000003c0: cc22 603e 7df3 133e 177c 0dbd 8c0d 493e
000003d0: 465e 43bc 852c 4e3e 72d9 103e c553 d4bd
000003e0: 9808 9b3d c7b0 fa3e 7b9a 003e 195e 4cbe
000003f0: afbb 8ebb c301 463e fe66 ebbd 56f0 9fbc

bias_hh_l0 f4 [300]
0.19053902 -0.0958829 -0.23984143 -0.32235345 -0.29923987 -0.24909414 0.037213646 0.117208846
-0.2564543 -0.08107912 -0.3384264 -0.07188535 -0.06185457 -0.58762676 -0.27361256 -0.15539636
-0.055068344 -0.18772276 -0.07844191 0.17883055 -0.14555125 0.038980365 0.053005733 -0.32781678
-0.1629961 0.36107326 -0.25751725 -0.117141426 -0.22872798 -0.31840336 -0.31518623 -0.051950093
-0.04129863 0.017311482 -0.21297851 -0.36415884 -0.3911015 -0.1074176 -0.4433516 -0.21474954
0.035599202 0.22076637 0.013156297 -0.22556163 0.30296278 0.36657178 -0.18429899 0.10575786
0.04015476 0.18835595 -0.025729466 0.15864012 0.2850146 -0.4199558 0.13602918 -0.12924
-0.2111293 -0.16805834 -0.23969905 -0.41600215 0.061725583 -0.16199866 -0.173805 -0.12887731
-0.29004753 -0.38625908 -0.42406818 -0.2870645 -0.01962349 -0.13319573 0.2525604 -0.03909211
-0.15314308 -0.025526192 -0.12813468 -0.21689631 0.33431825 -0.43926504 -0.34859487 0.17932872
-0.17972903 0.18615133 0.023020104 -0.21044368 0.0027463962 -0.09040591 0.18375283 0.14293467
-0.26126888 -0.18750124 -0.25004977 -0.024336612 -0.45257393 -0.34104538 -0.2564666 -0.18777025
-0.092550054 -0.3807668 0.10243113 0.05135699 -0.17507072 -0.54019105 -0.045718733 -0.6529784
-0.17164375 -0.7130958 -0.20941076 0.23795813 -0.72109795 -0.44357106 -0.95314175 -0.49426875
-0.2668478 -0.70478433 -0.54502666 -0.29971728 -0.47921064 -0.46548226 -0.57580924 -0.61863893
-0.10811281 -0.5599881 -0.301789 -0.490685 -0.2471508 -0.48990187 -0.6181339 0.16353849
-0.49094605 -0.4748283 -0.20203288 -0.54744995 -0.49150288 0.081720434 -0.48051903 -0.86863583
-0.37232193 -0.35012987 -0.7300295 -0.4432885 -0.08317123 -0.52856225 -0.1838277 -0.033560637
0.15788954 -0.024248306 -0.54815745 -0.4783673 -0.82268536 -0.93569034 -0.33343446 -0.3740551
-0.6099377 -0.24237558 -0.18092719 -0.038640108 -0.1707408 -0.5945789 -0.28616148 -0.15663114
-0.6976092 -0.734049 -0.2591691 -0.18814738 -0.7050862 -0.4416791 -0.14631315 -0.35553387
-0.38243663 -0.29470348 -0.9700895 -0.25697166 -0.5170766 -0.59296083 -0.007278834 -0.49006647
-0.014468951 -0.77296793 -0.2398823 -0.2125126 -0.14334919 -0.34514764 -0.95633566 -0.5779073
-0.51866776 -1.3857726 -0.5008063 -0.86150473 -0.20913042 -0.4413976 -0.4623047 -0.5584129
-0.28190118 -0.6254052 -0.1688988 -0.22710645 -0.26250646 -0.3453228 -0.9298073 0.11174356
0.16425553 0.14575996 0.028906597 0.15735008 -0.42600244 -0.34648967 0.38475722 0.21389192
0.4674759 -0.00040179212 -0.3426992 -0.25055838 -0.035700727 -0.109686315 0.048835807 -0.05028651
0.22670971 -0.30292234 0.40068567 0.66474384 0.11175342 -0.109918214 -0.27059475 -0.1069941
0.25763074 0.35802498 -0.50018287 0.36170682 0.65097624 -0.109092824 0.005163115 -0.13484724
-0.19721225 0.64881444 -0.17912927 0.051445942 0.2293674 -0.07045053 0.06557177 -0.116611816
-0.035168413 0.033040825 -0.27417144 -0.34125456 0.65729874 0.22856884 0.2855372 -0.22045302
0.26127362 0.72419494 -0.023502242 0.14353046 0.51499337 0.10112772 -0.39627343 0.25596663
00000000: a91c 433e 415e c4bd fe98 75be 830b a5be
00000010: f835 99be 8912 7fbe 566d 183d 310b f03d
00000020: fa4d 83be cf0c a6bd 3a46 adbe a038 93bd
00000030: 385b 7dbd b56e 16bf f216 8cbe 3920 1fbe
00000040: 588f 61bd 653a 40be 27a6 a0bd 5b1f 373e
00000050: 630b 15be e0a9 1f3d 8a1c 593d 9ad7 a7be
00000060: 73e8 26be 98de b83e 4dd9 83be d8e7 efbd
00000070: ab37 6abe c405 a3be 1760 a1be 9fc9 54bd
00000080: c128 29bd cfd0 8d3c 0a17 5abe 0773 babe
00000090: 753e c8be c2fd dbbd fbfe e2be 4ee7 5bbe
000000a0: 78d0 113d 9410 623e 828d 573c a1f9 66be
000000b0: f01d 9b3e 4caf bb3e e0b8 3cbe 9497 d83d
000000c0: 5179 243d 62e0 403e 9ac6 d2bc 8e72 223e
000000d0: 6fed 913e 7204 d7be 3c4b 0b3e 7e57 04be
000000e0: 4732 58be 7c17 2cbe ab73 75be 3cfe d4be
000000f0: f7d3 7c3d fae2 25be f0f9 31be 6af8 03be
00000100: 1c81 94be c0c3 c5be 771f d9be 1efa 92be
00000110: 71c1 a0bc 7664 08be 994f 813e 0c1f 20bd
00000120: 8ad1 1cbe 4e1c d1bc bd35 03be 111a 5ebe
00000130: c32b ab3e 59e7 e0be 077b b2be f3a1 373e
00000140: e30a 38be 749e 3e3e a894 bc3c 8c7e 57be
00000150: e2fc 333b bc26 b9bd b429 3c3e 775d 123e
00000160: 09c5 85be 5300 40be 8606 80be 935d c7bc
00000170: c5b7 e7be 809d aebe 974f 83be d846 40be
00000180: e28a bdbd def3 c2be 6ac7 d13d b55b 523d
00000190: bd45 33be f649 0abf 9143 3bbd 9829 27bf
000001a0: 61c3 2fbe 728d 36bf c66f 56be 4cab 733e
000001b0: e099 38bf bf1b e3be 1901 74bf cb10 fdbe
000001c0: 46a0 88be bf6c 34bf de86 0bbf 8b74 99be
000001d0: 195b f5be b153 eebe 3c68 13bf 1f5f 1ebf
000001e0: 406a ddbd 615b 0fbf 1684 9abe 103b fbbe
000001f0: 1915 7dbe 6bd4 fabe 063e 1ebf a276 273e
00000200: 485d fbbe b21c f3be b5e1 4ebe ae25 0cbf
00000210: 44a6 fbbe 0b5d a73d 9706 f6be eb5e 5ebf
00000220: fba0 bebe 3944 b3be 37e3 3abf b6f6 e2be
00000230: ae55 aabd db4f 07bf 543d 3cbe e176 09bd
00000240: ccad 213e 62a4 c6bc 0c54 0cbf 8fec f4be
00000250: 829b 52bf 6789 6fbf ecb7 aabe 2684 bfbe
00000260: e124 1cbf 4e31 78be fa44 39be 1745 1ebd
00000270: add6 2ebe 5336 18bf c283 92be ea63 20be
00000280: 8496 32bf a3ea 3bbf d0b1 84be b5a9 40be
00000290: 8780 34bf c323 e2be 1dd3 15be 8908 b6be
000002a0: bcce c3be 60e3 96be c957 78bf ca91 83be
000002b0: 225f 04bf 48cc 17bf 4983 eebb fee9 fabe
000002c0: 2e0f 6dbc 3ae1 45bf b5a3 75be e79c 59be
000002d0: 21ca 12be 31b7 b0be 6ad2 74bf bcf1 13bf
000002e0: 69c7 04bf ff60 b1bf d734 00bf 938b 5cbf
000002f0: 4926 56be defe e1be 34b3 ecbe 26f4 0ebf
00000300: 5a55 90be 8e1a 20bf cff3 2cbe 988e 68be
00000310: 3f67 86be 26ce b0be da07 6ebf cfd9 e43d
00000320: 9a32 283e 1942 153e 87cd ec3c 6120 213e
00000330: fe1c dabe 1867 b1be e6fe c43e 7c06 5b3e
00000340: 0059 ef3e a0a7 d2b9 4576 afbe 3049 80be
00000350: ed3a 12bd 38a3 e0bd 0e08 483d 3af9 4dbd
00000360: 9726 683e a318 9bbe ac26 cd3e a72c 2a3f
00000370: fade e43d cd1c e1bd 658b 8abe b91f dbbd
00000380: 2de8 833e 0d4f b73e fc0b 00bf a331 b93e
00000390: 61a6 263f 0f6c dfbd 592f a93b 6515 0abe
000003a0: 02f2 49be b418 263f aa6d 37be fbb8 523d
000003b0: 4adf 6a3e 5e48 90bd 7e4a 863d 2dd2 eebd
000003c0: c10c 10bd d155 073d 3360 8cbe ebb8 aebe
000003d0: bb44 283f f30d 6a3e ef31 923e 70be 61be
000003e0: a8c5 853e d764 393f c687 c0bc a6f9 123e
000003f0: 9bd6 033f 0d1c cf3d 5ae4 cabe 0f0e 833e

weight_ih_l1 f4 [300, 100]
-0.67352 0.50951815 -0.075055644 0.07236822 0.07332592 0.5251917 -0.19678503 -0.30291682
0.39166278 0.21215184 -0.38622427 0.047303557 -0.18731582 0.58273894 0.2192859 0.17249426
-0.06799322 -1.0823957 -0.50420195 0.0121164 0.3200159 -0.43805906 0.43246543 -0.5080027
0.6573162 -0.18005583 0.59652483 -0.015012981 -0.52875555 0.33641264 -1.3667419 -0.61233807
-0.35016578 0.016144793 0.02976675 0.04466153 0.5698471 -0.77792776 0.66866785 0.85118806
-0.35973993 0.3822601 0.6904484 -1.0893449 0.37824702 0.04275859 -0.33806643 1.2584664
-0.79917556 -0.468326 0.43215668 0.0055791126 -0.38830575 -0.30237958 -0.38233095 0.46359655
0.30559582 0.33986565 1.2415318 0.097756624 -0.4860141 0.11565002 -0.19520962 -0.054998484
-0.7126842 0.6109507 0.21658175 0.78989685 -0.25134292 -0.13595437 0.6703084 0.11468143
0.093749136 0.28559184 0.26144347 -0.30421162 0.06019998 -0.0033233385 -0.76802826 0.5177744
0.20830868 -0.47304854 -0.4632351 0.39186862 0.076428816 0.24117859 -0.5073412 -0.03667879
-0.25400275 0.7309392 0.037041962 0.10577923 0.32308593 -0.05202266 0.24654607 0.15038
0.0033667376 -0.34970263 0.4190897 -0.41732562 -0.041395318 -0.6897803 0.15055038 -0.74297225
-0.23061067 0.14165892 0.09184768 0.3484189 -0.15445133 -0.7674578 -0.15768367 0.2529385
0.25600502 0.4985487 0.12301497 -0.75964284 0.10098029 -0.35324177 -0.004523443 -0.031717762
0.23004164 0.3940472 0.72488004 0.25327235 -0.619283 0.4330739 -0.01557585 0.38331565
0.44758445 -0.34585565 0.53665036 0.6152984 -0.6134757 0.5218777 0.05730477 -0.24852374
-0.7495015 -0.21846755 -0.48062155 1.5206956 -0.10221387 -0.028677303 -0.6351596 0.3459602
1.3168563 -0.107317716 0.7151789 0.09284089 -0.6734849 -0.41011855 0.9638231 0.6448652
-0.46158963 -0.252165 0.12269507 -0.3537039 -0.7414889 0.5058953 0.9453023 0.2374123
0.081517406 0.33359963 0.49753088 -0.021845425 -0.32480684 -0.030202845 0.060025554 -0.26742968
1.3338857 -0.10981733 -0.21250123 -0.2653972 0.29382712 0.9737519 0.31155145 -0.10238901
0.06848977 0.9874953 -0.5454152 -0.31976125 0.38795245 0.2656821 -0.6592978 -0.1980774
0.9229827 0.042167537 -0.0036963024 -0.025766265 -0.5808823 0.29808313 -0.33554012 -0.14682761
1.0682515 -0.6529723 0.47501358 -0.6895244 0.18618035 -0.301568 0.26774707 -0.0011093798
-0.6351017 -0.025391666 -0.130872 -0.0640406 0.104548804 -0.9014435 -0.19645424 -0.12391446
-0.12448144 0.3812646 -0.14739591 0.28804076 -0.0023897523 0.11424457 0.17526218 0.24333662
0.22406766 0.45474362 0.2524036 -0.0054228674 0.64895165 0.3238594 -0.5015742 0.3892209
-0.5993329 0.08530877 -0.18087566 0.25147933 0.119957305 -0.13139746 1.2098795 0.35161644
0.51459694 -0.18256122 -0.3891357 -0.23612177 -0.73457706 -0.211534 0.024986308 0.63641405
-0.29128718 -0.24026112 0.12512974 -0.033384908 0.5191318 -0.18015862 -0.39209956 0.8603412
-0.014419437 0.14362654 0.824063 -0.21442612 0.22358893 -0.9808805 -0.005139414 0.17842524
00000000: cf6b 2cbf c86f 023f c6b6 99bd ca35 943d
00000010: e62b 963d f772 063f 0482 49be ea17 9bbe
00000020: 0688 c83e 553e 593e 30bf c5be 60c1 413d
00000030: b8cf 3fbe 612e 153f 7c8c 603e 56a2 303e
00000040: 0840 8bbd f18b 8abf 6113 01bf dd83 463c
00000050: 20d9 a33e 4749 e0be 1c6c dd3e 770c 02bf
00000060: e045 283f 8e60 38be dab5 183f 02f9 75bc
00000070: 865c 07bf 473e ac3e 66f1 aebf 30c2 1cbf
00000080: ee48 b3be 1642 843c 66d9 f33c 02ef 363d
00000090: 80e1 113f 4626 47bf d12d 2b3f 76e7 593f
000000a0: d52f b8be 99b7 c33e 3ac1 303f a76f 8bbf
000000b0: 98a9 c13e a223 2f3d 0b17 adbe 6d15 a13f
000000c0: c596 4cbf 6dc8 efbe a443 dd3e fdd0 b63b
000000d0: 03d0 c6be 7fd1 9abe e2c0 c3be 875c ed3e
000000e0: 0e77 9c3e df02 ae3e 84ea 9e3f a034 c83d
000000f0: d7d6 f8be ebd9 ec3d 08e5 47be 1746 61bd
00000100: 7972 36bf 4467 1c3f 9bc7 5d3e ae36 4a3f
00000110: 05b0 80be 9f37 0bbe 5599 2b3f 19de ea3d
00000120: 8cff bf3d 1839 923e ebdb 853e a0c1 9bbe
00000130: 4194 763d 5ecc 59bb 809d 44bf dd8c 043f
00000140: df4e 553e 6b33 f2be 272d edbe 01a3 c83e
00000150: b686 9c3d 85f7 763e 1de1 01bf 803c 16bd
00000160: a60c 82be d51e 3b3f 50b9 173d c8a2 d83d
00000170: 856b a53e b615 55bd 9376 7c3e 37fd 193e
00000180: 7ca4 5c3b 390c b3be ed92 d63e b4ab d5be
00000190: 238e 29bd 7195 30bf e129 1a3e 6e33 3ebf
000001a0: 3425 6cbe 090f 113e a31a bc3d f663 b23e
000001b0: 7d28 1ebe 1d78 44bf d477 21be 2881 813e
000001c0: 1713 833e c641 ff3e 46ef fb3d f477 42bf
000001d0: c1ce ce3d 1bdc b4be 6439 94bb 7cea 01bd
000001e0: 0990 6b3e 8ec0 c93e bd91 393f eaac 813e
000001f0: 5589 1ebf ddbb dd3e da31 7fbc f341 c43e
00000200: ca29 e53e fe13 b1be eb61 093f 3284 1d3f
00000210: be0c 1dbf c799 053f 68b8 6a3d 027d 7ebe
00000220: 55df 3fbf f5b5 5fbe 0714 f6be 27a6 c23f
00000230: 8155 d1bd aaec eabc d299 22bf b221 b13e
00000240: bf8e a83f 64c9 dbbd f715 373f 5d23 be3d
00000250: 8269 2cbf 0ffb d1be 1cbd 763f e315 253f
00000260: 7a55 ecbe c51b 81be 8e47 fb3d ad18 b5be
00000270: 37d2 3dbf 5b82 013f 55ff 713f 361c 733e
00000280: 99f2 a63d 92cd aa3e 5ebc fe3e 2df5 b2bc
00000290: 154d a6be f56b f7bc 5bdd 753d 8bec 88be
000002a0: c4bc aa3f e9e7 e0bd ec99 59be 24e2 87be
000002b0: 8270 963e ce47 793f ac83 9f3e 54b1 d1bd
000002c0: 5d44 8c3d 7ecc 7c3f 55a0 0bbf bfb7 a3be
000002d0: b4a1 c63e 7c07 883e bec7 28bf cdd4 4abe
000002e0: 9848 6c3f deb7 2c3d aa3d 72bb c613 d3bc
000002f0: b4b4 14bf 5a9e 983e eacb abbe fa59 16be
00000300: 77bc 883f 3129 27bf fb34 f33e ac84 30bf
00000310: 10a6 3e3e 1f67 9abe 2516 893e 9c68 91ba
00000320: 0696 22bf 2f02 d0bc 4f03 06be b827 83bd
00000330: af1d d63d 00c5 66bf 4d2b 49be ddc6 fdbd
00000340: 20f0 febd 1d35 c33e f4ee 16be 147a 933e
00000350: 649d 1cbb 0ff9 e93d ee77 333e 3c2d 793e
00000360: fe71 653e 28d4 e83e 0b3b 813e 4fb2 b1bb
00000370: b221 263f e6d0 a53e 2b67 00bf f647 c73e
00000380: e26d 19bf 5db6 ae3d 7837 39be e6c1 803e
00000390: 2dac f53d 0e8d 06be 55dd 9a3f 1207 b43e
000003a0: a0bc 033f 54f1 3abe cb3c c7be e8c9 71be
000003b0: 3e0d 3cbf 5e9c 58be 16b0 cc3c 08ec 223f
000003c0: 9823 95be 0307 76be 0322 003e 9dbe 08bd
000003d0: d2e5 043f 807b 38be 46c1 c8be 523f 5c3f
000003e0: 813f 6cbc d612 133e cbf5 523f 8592 5bbe
000003f0: 7ff4 643e fc1a 7bbf 8868 a8bb 1bb5 363e

weight_hh_l1 f4 [300, 100]
-0.5170144 -0.45969093 -0.5069339 -0.18935628 0.2809519 -0.31369883 -0.33964172 -1.0530702
0.33158278 0.0715635 -0.28393474 -0.02878855 -0.0035276928 0.062007993 0.19464026 -0.18899
-0.014798656 0.18751355 -0.55654687 -0.34889135 0.01825952 -0.43548855 -1.1571847 0.12652281
0.27575448 0.24435373 0.4385746 -0.47782204 0.36433214 -0.112118065 -0.4308863 -0.017941693
-0.41168803 -0.74728954 -0.5219128 -0.05530137 -0.64876246 1.1616247 -0.06532918 -0.26952347
0.031579755 -0.120435715 -0.2033507 0.26935926 -0.11512212 0.29154462 -0.7039473 -0.18380412
-0.262181 0.12158028 -0.57405007 0.2547536 -0.5209424 -0.51914465 0.18152408 0.16757868
0.402009 0.717884 -0.09638997 -0.051129337 0.18518947 0.59802365 -0.36736175 -0.25081798
1.363424 -0.17756774 -0.6045776 0.42234224 -0.55352086 0.12384222 1.0940756 0.20632789
0.44920146 0.7988048 -0.11063537 0.59699094 -0.12326483 0.14671397 -0.09841092 -0.36568898
-0.25754297 -0.051046252 0.18454602 -0.80101436 0.015081686 -0.077961504 -0.09498573 0.069433145
-0.13622794 -0.7287766 -0.14705624 -0.46310326 0.64201385 0.14273304 -0.16849178 -0.49641448
-0.15496892 0.01898319 -0.24577387 -0.19509503 0.09430777 -0.037747547 -0.4892677 0.056167737
-0.14355077 -0.5684651 -0.20443259 -0.5784205 0.069244236 -0.583207 0.42648366 -0.20766655
0.09918023 0.87450194 0.20197323 0.6438157 -0.20858473 0.2843976 -0.49527925 -0.32618842
0.28316867 -0.20160685 -0.31855205 -0.2259397 0.21500073 -0.22092932 0.36446682 -0.1368147
-0.081022926 0.16262697 0.041560113 0.26369378 0.5849397 1.0061893 0.5336108 -0.13612273
-0.5188651 0.13447402 -0.48462018 0.44681248 0.07071137 0.1842415 -0.5382891 0.056956362
0.40232062 0.7519112 0.09120682 -0.22985125 0.41734967 0.068529405 0.25741 0.104477175
-0.31243935 -0.16204698 0.20973425 0.47284856 -0.17566411 -0.16723144 0.61971194 0.12201412
0.287761 0.20443636 -0.48862723 -0.13429724 0.2721414 0.02286072 0.7089078 -0.56213427
-0.14155103 -0.51869607 0.035533562 -0.3116325 0.4841329 0.655032 -0.6848195 -0.054318726
0.9002392 0.84372675 -0.17919457 -0.17826715 -0.309936 -0.14715889 -0.20676118 -0.08823375
-0.31300315 -0.65068007 -0.3912828 -0.12858573 -0.034902163 -0.3671225 -0.4979118 0.107292466
0.18486339 -0.35323775 -0.36799565 0.06219161 -0.08262363 0.37394753 0.4405534 -0.12900603
0.19021079 -0.27896017 0.12283226 -0.10805815 0.051302277 -0.049752563 0.6532564 0.38742015
0.44660637 -0.11419556 -1.0095247 -0.15015666 -0.18586993 -0.23613855 0.17508474 -0.513023
-0.013463602 -0.13644116 -0.26526845 0.034301993 0.31841844 -0.41486776 -0.33438852 -0.22646593
0.33484092 0.23464939 0.08624712 -0.29201135 -0.48996687 0.02235658 -0.27358186 -0.14069276
-0.726197 0.30117983 0.48362407 -0.14499147 -0.11172481 -0.18894768 0.03840749 -0.012906473
0.16732651 0.2195019 -0.49795806 -0.23632495 0.12477331 0.21175382 0.17561173 0.43429118
-0.18520044 -0.052171197 0.62179506 -0.22564234 -0.08552243 -0.06618313 0.5224259 -0.062750325
00000000: 0e5b 04bf 9c5c ebbe 6cc6 01bf 9de6 41be
00000010: edd8 8f3e 229d a0be 85e5 adbe 01cb 86bf
00000020: 38c5 a93e e28f 923d e55f 91be f7d5 ebbc
00000030: dd30 67bb 18fc 7d3d c74f 473e 9886 41be
00000040: 1076 72bc 8d03 403e db79 0ebf e3a1 b2be
00000050: fd94 953c 5bf8 debe a11e 94bf 328f 013e
00000060: b12f 8d3e dd37 7a3e da8c e03e 17a5 f4be
00000070: be89 ba3e 289e e5bd 219d dcbe 75fa 92bc
00000080: c6c8 d2be 5e4e 3fbf 149c 05bf b083 62bd
00000090: 4c15 26bf 1eb0 943f 4ecb 85bd fbfe 89be
000000a0: c659 013d 00a7 f6bd 2a3b 50be 75e9 893e
000000b0: 25c5 ebbd 5645 953e e435 34bf 2637 3cbe
000000c0: 973c 86be 15ff f83d f2f4 12bf 106f 823e
000000d0: 7b5c 05bf aae6 04bf 73e1 393e bf99 2b3e
000000e0: 20d4 cd3e 3fc7 373f 1b68 c5bd ff6c 51bd
000000f0: 4fa2 3d3e 1418 193f d716 bcbe 376b 80be
00000100: ad84 ae3f 51d4 35be 99c5 1abf 3e3d d83e
00000110: 8bb3 0dbf fda0 fd3d ab0a 8c3f 9e47 533e
00000120: bcfd e53e 797e 4c3f cc94 e2bd 66d4 183f
00000130: 4572 fcbd 303c 163e aa8b c9bd 963b bbbe
00000140: acdc 83be e015 51bd a2f9 3c3e 470f 4dbf
00000150: 2d19 773c 48aa 9fbd e187 c2bd f732 8e3d
00000160: 567f 0bbe 1a91 3abf e995 16be df1b edbe
00000170: 055b 243f 9c28 123e 1c89 2cbe 0a2a febe
00000180: 2cb0 1ebe a382 9b3c 25ac 7bbe fec6 47be
00000190: 6f24 c13d 2c9d 1abd 4c81 fabe 2410 663d
000001a0: f9fe 12be ee86 11bf c756 51be 5e13 14bf
000001b0: eccf 8d3d 0e4d 15bf 115c da3e 8aa6 54be
000001c0: 011f cb3d 5cdf 5f3f 12d2 4e3e 1bd1 243f
000001d0: 3c97 55be 909c 913e 3e95 fdbe 2b02 a7be
000001e0: 7cfb 903e 0772 4ebe 4119 a3be bd5c 67be
000001f0: 2729 5c3e 4c3b 62be 659b ba3e 2719 0cbe
00000200: 59ef a5bd af87 263e f03a 2a3d df02 873e
00000210: 9cbe 153f d0ca 803f b89a 083f c263 0bbe
00000220: 58d4 04bf 8fb3 093e 2320 f8be 9bc4 e43e
00000230: 1fd1 903d cea9 3c3e 51cd 09bf 134b 693d
00000240: f8fc cd3e 417d 403f a4ca ba3d 205e 6bbe
00000250: dbae d53e 2559 8c3d 3ecb 833e 21f8 d53d
00000260: 0df8 9fbe a5ef 25be 93c4 563e 3519 f23e
00000270: 4be1 33be b83e 2bbe 71a5 1e3f 8ae2 f93d
00000280: 6955 933e c457 513e 592d fabe 3785 09be
00000290: 1e56 8b3e 6846 bb3c fb7a 353f 08e8 0fbf
000002a0: c1f2 10be 44c9 04bf a48b 113d 4c8e 9fbe
000002b0: 44e0 f73e 2db0 273f 5550 2fbf 507d 5ebd
000002c0: 1476 663f 7afe 573f c87e 37be aa8b 36be
000002d0: eeaf 9ebe d2b0 16be 34b9 53be e5b3 b4bd
000002e0: f341 a0be f892 26bf 3856 c8be faab 03be
000002f0: 92f5 0ebd 7bf7 bbbe 4cee febe 27bc db3d
00000300: d44c 3d3e 94db b4be ed69 bcbe a1bc 7e3d
00000310: 9436 a9bd 0d76 bf3e 3790 e13e 281a 04be
00000320: 9ec6 423e ded3 8ebe 7b8f fb3d 974d ddbd
00000330: 5622 523d 58c9 4bbd d03b 273f ef5b c63e
00000340: 97a9 e43e 5ddf e9bd 1b38 81bf abc2 19be
00000350: b054 3ebe 4ece 71be 6a49 333e 7a55 03bf
00000360: 7196 5cbc 3bb7 0bbe 44d1 87be 3f80 0c3d
00000370: be07 a33e 8c69 d4be f934 abbe afe6 67be
00000380: 4570 ab3e ee47 703e 54a2 b03d 8382 95be
00000390: f0dc fabe 2525 b73c ec12 8cbe c311 10be
000003a0: 0ce8 39bf 3e34 9a3e 939d f73e a578 14be
000003b0: facf e4bd 807b 41be 2c51 1d3d ac75 53bc
000003c0: a457 2b3e 1bc5 603e 5cf4 febe 2bff 71be
000003d0: 2689 ff3d fed5 583e 90d3 333e 6a5b de3e
000003e0: 2fa5 3dbe 77b1 55bd f62d 1f3f c90e 67be
000003f0: 6226 afbd 058b 87bd b4bd 053f 3e83 80bd

bias_ih_l1 f4 [300]
-0.0786966 -0.07787763 0.005404092 -0.25057432 -0.30260524 0.029666385 -0.18377268 -0.031704236
-0.09112716 -0.041600782 -0.1292744 -0.022739109 -0.021445967 -0.06476604 0.07760991 -0.1083526
0.19815476 0.12637706 -0.24392958 0.04624474 -0.2636284 0.054290727 -0.29173994 0.017298227
-0.09899178 0.27905115 -0.25106463 0.20314914 -0.2565118 0.52885205 0.04685097 0.34934598
-0.07079855 -0.20270446 -0.10427638 -0.0068701366 0.011854243 0.1344957 0.12043311 -0.38972268
0.012691516 0.35215163 -0.18619235 0.07194786 0.27210134 0.29691166 0.42434293 0.37457642
0.024010614 0.3918717 0.08796794 -0.024810342 0.16721652 0.06670631 -0.08660021 0.07072255
-0.093226984 0.01875628 0.078827 0.0926211 0.29528928 0.054920305 0.1747633 0.04777933
-0.046106294 -0.14904206 -0.15268227 -0.15931696 -0.019942444 0.0698159 0.11185077 -0.0077797174
0.0937775 0.18797062 -0.25284407 -0.09508084 0.06905433 -0.21306378 0.034866616 0.25143912
-0.040555436 0.10422965 -0.16958469 0.096504 -0.10044424 -0.10639419 0.20457302 0.3521835
-0.21814543 -0.20196117 -0.06586501 -0.042113204 -0.252912 0.18321443 0.32881737 0.090424724
0.1714888 -0.24917127 -0.20300065 0.07255202 0.06445601 -0.014063046 -0.19417101 -0.43011057
-0.10426209 -0.034740333 0.11954021 -0.008028883 -0.34584463 -0.3383818 -0.11513634 -0.67498636
-0.3782647 -0.116015375 0.27907753 -0.28917894 -0.5104698 -0.20600598 -0.046819285 0.33557072
-0.26932192 -0.19669814 -0.42783976 -0.15745607 -0.58542204 -0.024204051 -0.5128201 0.05616952
-0.10386611 -0.17345838 -0.38837495 -0.10807239 -0.14157669 0.050391737 -0.34897512 -0.5081036
0.17075652 -0.24584323 -0.17144106 -0.427308 -0.69300026 -0.27220377 -0.34374875 -0.27280852
-0.42154905 0.16835223 -0.3342101 -0.19863038 -0.38248444 -0.25888863 0.08162921 0.3958055
-0.48267072 0.20236222 -0.20521311 -0.17862552 -0.44872832 -0.5161097 -0.37367892 0.10965023
0.3705473 -0.13577113 -0.66882765 -0.1588135 -1.1886388 -0.24146429 -0.064612396 0.10105212
0.11533685 -0.1669268 -0.5907946 -0.6526175 -0.23402822 -0.15774125 -0.22789577 -0.36942208
-0.1127574 0.34071532 1.5461724 0.044918623 -0.3110993 -0.3825636 -0.052642293 -0.36027908
-0.17400388 0.026953328 -0.7230291 -0.30220196 -0.050345097 -0.5205635 -0.50913477 0.6286984
0.13995142 -0.17848805 -0.16546498 0.0029518362 0.25087765 0.21612133 -0.24279523 -0.4849034
0.052509695 -0.09941873 0.015225833 -0.19066314 0.24643455 0.037553757 -0.06811705 0.02398617
-0.0208238 0.20139052 0.15106763 0.025526788 -0.0957744 0.06409716 -0.10386771 -0.12753789
0.26239377 -0.20758936 0.06490965 -0.086275265 -0.041931663 -0.093178116 0.06699076 0.4491774
-0.06504028 -0.29629382 -0.059183702 0.2439533 0.20844388 -0.26728508 0.03685402 0.22684835
-0.15125294 -0.004522596 0.0045403545 0.22231705 0.14386274 0.039548095 0.09170362 0.15803787
-0.34912515 0.08498565 -0.083695896 -0.19487858 -0.40255466 -0.1204264 0.17735194 0.38287535
0.16161859 -0.21876326 0.042447012 -0.029113779 0.07711529 0.098987676 -0.018743908 -0.0933398
00000000: af2b a1bd 4f7e 9fbd cf14 b13b 474b 80be
00000010: 13ef 9abe eb06 f33c e82e 3cbe 4ddc 01bd
00000020: e0a0 babd 9565 2abd 8260 04be 5e47 babc
00000030: 74af afbc 0fa4 84bd f2f1 9e3d f8e7 ddbd
00000040: 15e9 4a3e fd68 013e adc8 79be 206b 3d3d
00000050: 4dfa 86be f45f 5e3d f05e 95be 03b5 8d3c
00000060: 34bc cabd cbdf 8e3e 8b8b 80be 5406 503e
00000070: 8455 83be d962 073f cde6 3f3d 7add b23e
00000080: d5fe 90bd c291 4fbe db8e d5bd e21e e1bb
00000090: 4d38 423c 3eb9 093e a2a5 f63d bb89 c7be
000000a0: 14f0 4f3c 384d b43e 35a9 3ebe 6659 933d
000000b0: de50 8b3e ce04 983e 7a43 d93e 7bc8 bf3e
000000c0: e8b1 c43c 68a3 c83e 8928 b43d 0f3f cbbc
000000d0: cf3a 2b3e 519d 883d 735b b1bd fcd6 903d
000000e0: caed bebd c5a6 993c 0d70 a13d 22b0 bd3d
000000f0: 2830 973e 1df4 603d 27f5 323e 42b4 433d
00000100: f4d9 3cbd 7b9e 18be be58 1cbe fc23 23be
00000110: 565e a3bc a3fb 8e3d 0412 e53d 00ed febb
00000120: 6b0e c03d 5f7b 403e c774 81be beb9 c2bd
00000130: 5b6c 8d3d 642d 5abe 4cd0 0e3d a1bc 803e
00000140: 751d 26bd 5b76 d53d 9ca7 2dbe e4a3 c53d
00000150: b6b5 cdbd 32e5 d9bd 977b 513e 6551 b43e
00000160: 8461 5fbe e9ce 4ebe 3ce4 86bd e57e 2cbd
00000170: af7d 81be 909c 3b3e c05a a83e 9930 b93d
00000180: c39a 2f3e c126 7fbe 67df 4fbe 2796 943d
00000190: 8301 843d b168 66bc c4d4 46be 7437 dcbe
000001a0: 5d87 d5bd e14b 0ebd 7fd1 f43d 938b 03bc
000001b0: 8c12 b1be 6140 adbe 9acc ebbd e8cb 2cbf
000001c0: e9ab c1be 7899 edbd 40e3 8e3e 430f 94be
000001d0: 26ae 02bf 3bf3 52be 94c5 3fbd edcf ab3e
000001e0: 90e4 89be 3d6b 49be d00d dbbe 2a3c 21be
000001f0: 38de 15bf 9347 c6bc 2e48 03bf 0312 663d
00000200: c1b7 d4bd 139f 31be 15d9 c6be 0f55 ddbd
00000210: 7bf9 10be 9167 4e3d deac b2be 1413 02bf
00000220: ccda 2e3e 54be 7bbe 3f8e 2fbe 1dc8 dabe
00000230: 7768 31bf 4b5e 8bbe d6ff afbe 8fad 8bbe
00000240: 47d5 d7be 8764 2c3e 961d abbe c365 4bbe
00000250: 00d5 c3be 0d8d 84be 372d a73d 05a7 ca3e
00000260: 9e20 f7be 0b38 4f3e 6323 52be 9ce9 36be
00000270: b8bf e5be c41f 04bf d852 bfbe 4d90 e03d
00000280: 60b8 bd3e 9607 0bbe 4a38 2bbf 02a0 22be
00000290: 5125 98bf 6a42 77be 8153 84bd 6af4 ce3d
000002a0: ba35 ec3d dcee 2abe 513e 17bf f111 27bf
000002b0: 18a5 6fbe ec86 21be 825d 69be e424 bdbe
000002c0: 5aed e6bd 3d72 ae3e fae8 c53f 97fc 373d
000002d0: 6848 9fbe 60df c3be 729f 57bd 8076 b8be
000002e0: 132e 32be 3acd dc3c 6f18 39bf 37ba 9abe
000002f0: a936 4ebd a643 05bf a856 02bf 61f2 203f
00000300: 6d4f 0f3e 92c5 36be a76f 29be 9873 413b
00000310: 0973 803e e94e 5d3e 509f 78be 4245 f8be
00000320: 6814 573d 0c9c cbbd c675 793c 333d 43be
00000330: 5759 7c3e f8d1 193d f480 8bbd a57e c43c
00000340: ac96 aabc 5139 4e3e 79b1 1a3e 8e1d d13c
00000350: 5e25 c4bd 5f45 833d 98b8 d4bd 4b99 02be
00000360: 7a58 863e 4e92 54be 5aef 843d 16b1 b0bd
00000370: 89c0 2bbd 2bd4 bebd 7432 893d 95fa e53e
00000380: d733 85bd d3b3 97be 9c6a 72bd e5ce 793e
00000390: 5072 553e 97d9 88be 3ef4 163d ef4a 683e
000003a0: 0de2 1abe 4932 94bb 41c7 943b 15a7 633e
000003b0: c150 133e 2ffd 213d 1ccf bb3d aed4 213e
000003c0: 88c0 b2be f50c ae3d c168 abbd 408e 47be
000003d0: a51b cebe 1ea2 f6bd bf9b 353e 3d08 c43e
000003e0: 587f 253e 7a03 60be ebdc 2d3d 0580 eebc
000003f0: 9fee 9d3d 0dba ca3d d38c 99bc f028 bfbd
