saved_models/hidden_size_50.pt (torch, 168286 bytes, 11 tensors)

weight f4 [100, 50]
00000000: 6e74 d33e 49bf aebe c48e 49bf f37e 5a3f
00000010: 16ea 4cbf 77d2 473e 8497 f9be 5e32 d93e
00000020: 5c06 5a3f a612 ae3e e704 5b3f 0a9f 8ebe
00000030: 7167 7d3e 9e4a 613f d11e f5be 6dd5 1fbe
00000040: 6509 213e 02e8 a73e a23c 9cbe 37d8 7abd
00000050: a361 2e3f 0493 87be ce10 9f3f 9db9 96bf
00000060: 1414 6c3f 412d d7be ae86 57bf c448 ad3c
00000070: 15d1 c93c 5121 283f 9b1b ebbe d519 f1bf
00000080: 6587 d73e 5522 c2bf 19f7 ab3c a680 9cbe
00000090: 298f 1dbf 7c2d 0abf 4052 48bf 19b8 ab3e
000000a0: ea2e ccbd 7713 87bf f671 2e3f 1428 9cbe
000000b0: 8489 293f f029 27bf 1ad4 513e 6962 c7be
000000c0: f24b 163f f18b 8cbc 46e6 033f 1089 39bf
000000d0: 61f7 ccbe bad3 e53f 4da1 96bc 6ac6 a6be
000000e0: f9e7 213c 3953 11c0 a196 1dbd ec77 953f
000000f0: 177f ef3d d634 38be c29a d6be e376 0040
00000100: 5cc1 dd3e c29d 643e aca2 723f 1280 05bd
00000110: 284e 62bf a98c 46be 2a17 d43e 443b 373f
00000120: 90db cbbf ee51 643e 0a18 fcbe 3393 33bf
00000130: 91cf bdbb 48d3 b03d 3a34 f83f 4663 db3f
00000140: d434 3abe 2892 f63e 816d 213f 9119 adbf
00000150: 46bf 8b3f 5c8d 323f f73a d5bf 035b 51bf
00000160: feb5 c7bf 4c36 3abf 918f 98bf db4f c13e
00000170: af95 8abd e7c7 c7bf 2c72 b23f 6937 d2bd
00000180: 8f0f 1e40 8413 1b3f cd20 9bbe 52a0 323f
00000190: 637b 423e 4585 ef3f 3103 ba3f bd89 cdbf
000001a0: 3337 95bd 28a8 b0be 2188 473e 8043 103f
000001b0: 3c59 bf3e bf14 5ebe 5c07 26be 059e 17c0
000001c0: 2006 8d3f 0910 913e c6fe e03e 018a aebf
000001d0: bad5 54be 0b0c 3ebf 5480 b5be e472 22bf
000001e0: 88fa ca3e 1ca9 bc3e df3b 36bf 8484 edbd
000001f0: bf90 cdbd 6e66 cc3e 7fd1 18be b8d1 38be
00000200: 26e1 093e 7dd6 883f f09e 863c e65a 1f3f
00000210: 60f8 b0bd bc67 0a3f 57ad 043f 8e08 3b3f
00000220: 36a3 723e 2503 8cbf 4c89 203f 4f51 a53e
00000230: 59c5 3cbe fee1 01bf e331 bcbf 8d2e 20be
00000240: 5541 f73d 7742 4e3f 94bb 9a3f 1157 08be
00000250: 7d88 7e3f 6176 8c3f 50cb 9b3f ab4b 3c40
00000260: 4fd7 70be 6725 d93c 5b0c 193c 534c 1bc0
00000270: e1c8 713d d9de a63e 78a4 b0bf 4c18 40be
00000280: ffc8 b2be 9d20 96bf ae64 bfbf df59 bebf
00000290: de17 aa3f 92f9 843f a310 f93f 37d6 d2bf
000002a0: c94a a83e 368b d83e aec4 49bf 0021 113f
000002b0: e272 3fbf 87e4 483f d216 06c0 f039 61bf
000002c0: df49 4e3e 57e8 d73f b7f2 9e3e 8951 733f
000002d0: 3b35 103f 207d b83f 0eb5 1540 3554 06bf
000002e0: 2a60 6f40 6c73 9fbf 15d7 13c0 8efe 59bf
000002f0: 0b50 e5be 482f 0e40 341c c53e a5dd 463f
00000300: 515a 9fbf f7c0 1140 3668 afbf 4777 aebf
00000310: 49be a840 2d13 973e ebe3 00bf 6233 273f
00000320: 8599 913f 0a0b 6b3f a0f2 aa3f 434f 6ebc
00000330: 9f56 21c0 7e0a 663e 1122 46bf fe70 4d3e
00000340: 8664 37bf b7f6 aebc ddea 4c3f 449f f13e
00000350: 916a 3a3f 2314 7dbe e5d6 7ebc 35d0 4e3f
00000360: 8c19 c73f 30bf cabf f840 0cc0 e600 18c0
00000370: 5c45 463f 9cc3 f73e a195 89bf 89d2 a43d
00000380: b991 e6be 0224 32bf 0074 0f40 c8a5 983e
00000390: 2496 883e 0635 42bf 8ec7 50be 662b a2be
000003a0: 336e 2dbf c242 233f 1223 933f be36 663e
000003b0: 636a 81bf b48c d33e 67c6 41bf 89f6 d3be
000003c0: 827e 483f 932b 283f 6b24 873e 20a5 13bf
000003d0: 6d9b 4a3f 20ab d03d f905 96bf 0105 8abf
000003e0: 9470 3ebf 35b7 82bf 89af cf3f f50e e53e
000003f0: a5ae 50bf 6e03 ecbf 39f4 a0bf a17b 78bf
0.41299766 -0.34130314 -0.7873347 0.8534996 -0.80044687 0.1951388 -0.4874841 0.4242124
0.85165954 0.33998603 0.85554355 -0.27855712 0.24746491 0.8800448 -0.47875074 -0.15608759
0.1572624 0.32794195 -0.3051501 -0.061241355 0.6811773 -0.26479352 1.2427003 -1.1775395
0.92218137 -0.42026713 -0.8418988 0.021152861 0.02463583 0.65675837 -0.459195 -1.8836008
0.42095485 -1.5166727 0.020991849 -0.305669 -0.6154657 -0.53975654 -0.78250504 0.33538893
-0.09969886 -1.0552815 0.6814264 -0.30499327 0.6622546 -0.65298367 0.20491067 -0.38942268
0.58709633 -0.017156573 0.51523244 -0.72474766 -0.40032485 1.7955239 -0.018387461 -0.32573253
0.009881967 -2.2707045 -0.03847373 1.1677222 0.11694162 -0.17988905 -0.41914946 2.0072563
0.43311584 0.22325805 0.9477947 -0.03259284 -0.88400507 -0.19389595 0.41423923 0.7157481
-1.592638 0.22296879 -0.4923709 -0.70146483 -0.005792566 0.08634049 1.9390938 1.7139671
-0.18184215 0.48158383 0.63057715 -1.3523427 1.0917747 0.6974695 -1.665862 -0.817795
-1.5602415 -0.727391 -1.1918813 0.37756237 -0.06766831 -1.560788 1.3941092 -0.10264475
2.4696996 0.60576653 -0.30298463 0.6977588 0.18992381 1.8712546 1.4532224 -1.6057659
-0.07285919 -0.34503293 0.19485523 0.56352997 0.37372768 -0.21687602 -0.16213745 -2.3690197
1.1017494 0.28332546 0.43944377 -1.3635865 -0.20784655 -0.74237126 -0.3544947 -0.6345656
0.39644265 0.3684777 -0.71185106 -0.11597541 -0.10037374 0.39921898 -0.14923666 -0.18048751
0.13464794 1.0690457 0.01643321 0.62248075 -0.08641124 0.54064536 0.51826996 0.7305993
0.23695073 -1.093846 0.627095 0.32288596 -0.18434657 -0.5073546 -1.4702724 -0.15642758
0.12073008 0.8057017 1.2088494 -0.13314463 0.99427015 1.0973626 1.2171421 2.9421184
-0.23519634 0.026507093 0.009341325 -2.4265335 0.059029464 0.32591894 -1.3800192 -0.18759269
-0.34918973 -1.1728703 -1.49526 -1.4871176 1.3288534 1.0388663 1.9458202 -1.6471623
0.32869557 0.4229371 -0.78815734 0.5669098 -0.7478467 0.78473705 -2.0951428 -0.8797903
0.20145367 1.686778 0.31044552 0.9504629 0.56331223 1.4413185 2.3391757 -0.5247224
3.7402444 -1.2457099 -2.3100026 -0.85154045 -0.4478763 2.2216358 0.3849808 0.7768195
-1.2449437 2.2774026 -1.3703678 -1.363015 5.273228 0.29506817 -0.50347775 0.6531278
1.1374975 0.9181372 1.3355293 -0.014545265 -2.520912 0.2246494 -0.7739573 0.20062634
-0.7163776 -0.021357877 0.8004587 0.47191823 0.7281886 -0.24714713 -0.015554165 0.8078645
1.5554671 -1.5839596 -2.1914654 -2.3750548 0.77449584 0.48391426 -1.0748788 0.08047969
-0.45033053 -0.69586194 2.241455 0.2981398 0.26677048 -0.7586216 -0.20388624 -0.31673735
-0.67746276 0.6377374 1.1495078 0.2248182 -1.0110592 0.41318285 -0.7569336 -0.4139903
0.78318036 0.6569149 0.26394972 -0.57673836 0.7914341 0.101888895 -1.1720573 -1.0782777
-0.7439053 -1.021216 1.6225444 0.44737974 -0.81516486 -1.8438547 -1.2574531 -0.9706364

weight_ih_l0 f4 [150, 50]
00000000: 310a cbbb e769 72bd a5e3 04bd 245b c63e
00000010: 72bc 43bf 0239 f3be d19b aabc 3650 253e
00000020: 37f8 d03e 1001 213f a64d ab3d 3f86 223f
00000030: 8381 4bbf 5d40 53bf 4c7b 263f b9d3 533e
00000040: 147d 0fbe 3185 88bd 70aa b93e 8743 b5be
00000050: 9824 1a3f a528 27be e3f3 373e 7a82 6d3e
00000060: 3887 263f 5ed7 8fbe 4117 d0bc bd78 33be
00000070: 0a7c 643e 8af1 353e fe92 40bf de42 29be
00000080: aa55 b5bd 6412 aabe 10d5 52bf b124 aa3f
00000090: f1be 3d3f 4fb5 4ebf f11d c43e 3f13 e33e
000000a0: 79ea e2be 3c31 00bf d610 5e3f 93d9 3b3e
000000b0: 71e0 bd3b 9a44 953e d991 963f 9bbf 52bd
000000c0: baf7 f8be 02cb 013f bb42 cfbd e68d 82bf
000000d0: a257 c03e 4a48 89be 8068 163f de5f 013e
000000e0: b817 c33f 52ec 933c a496 eb3e 5fcd 9f3e
000000f0: 0dd9 283f 52df 013e cd8d b5be 7d95 9ebf
00000100: e23c f4bd 05bb b8be 9c9d f7bd 9542 9dbe
00000110: 9f50 f8bd d809 42bf 60b4 823d 04a5 e4be
00000120: 1e2f 693d bf46 d23e 460b a9be e4ee 043f
00000130: 74bc 223f e3c8 56bd 21c2 98bd b328 653f
00000140: 8be0 0e3f 51a9 55bf c888 45be a297 aebe
00000150: 97b5 f0be 5c00 4a3f e4b8 a7bb 1e6b 003f
00000160: a3e0 52be 7fd0 c4be c79a 123e fe45 53bf
00000170: 10f3 003f 1ddc b5bf 8b0e f9be 4e6e 79bf
00000180: b832 a1be b7eb b23e 5e44 c8be 9719 43bf
00000190: c5b0 98bd bef3 223f eef3 143f 9c5c 5bbf
000001a0: 9929 1d3f 6a55 12bf 6e17 f2be a739 6fbe
000001b0: 3b5f 503d 30e3 a9be 38c1 c9be a053 76bd
000001c0: c100 3d3f 4aab d2be 82f1 45bf 6147 823d
000001d0: 9c55 05bc ac73 90be 3444 acbe 666c 72bc
000001e0: ce85 9a3e 617a 77be 7343 a73e 0c87 ed3b
000001f0: 7228 cf3e d62f 033e f564 1ebe 3ec2 afbe
00000200: 97bd f93d fa81 4abe bb11 aebe b3ce 443e
00000210: c8db aabd ff4d febe 3988 41bc d5e6 2e3f
00000220: 1fa9 623f f23d dcbe 190c 103f 3185 83be
00000230: 078a 353d a4b6 283e da52 88bf 0d49 b63e
00000240: 69ea 81bf 8a1e 173e 0584 c5bd c19c d63d
00000250: dbac 503d 7b7b 2f3f 6920 3d3c 27eb b4be
00000260: 9683 64be 702c a83e d10d 76be 6380 40be
00000270: 1a92 8ebe d1a2 86be 9bd3 ba3e dfec 193f
00000280: a334 523e 85e3 b3be 6002 083e c93f 693f
00000290: 408a 933d a34a bb3e 5833 fbbe b8d6 463f
000002a0: d15d 0f3e 793a 363e b18a 39bf 50aa 07bf
000002b0: 7c82 8f3e a676 f23e 1728 0d3f 8e8a 66bf
000002c0: 7e9f a7be cd4f 823c 3150 353f 7a50 dc3e
000002d0: 5731 6dbe d80f f83e 0430 7f3e e1b0 843f
000002e0: 5ee6 803e 402b 3abe 7302 183f 656a a63e
000002f0: 7b73 d33e d24d 95be 587a 4f3c 77e3 f2bd
00000300: 92da 8bbe bd24 b73e 154a 22bf eff3 96be
00000310: 6106 913d ee24 763f e2f7 90bf 58cf 9c3e
00000320: aab6 98be 5e4c a3bf 9bfc 8e3c 3c20 4b3d
00000330: b251 89bf a1eb ea3e 5e1f d4bc 75e8 74bf
00000340: c844 3ebf dfce 813f d73b d93c 3ed9 d23d
00000350: d9e6 a2bf 15ea 91bf a1e2 f8be 0a28 2abc
00000360: 65f7 0bbf 5f2d 263f 071b 76be 9e9e 903e
00000370: 4b82 b03e 2610 bb3d ac16 743e 4560 a13e
00000380: 9083 953e fd24 273f df17 933d f116 473f
00000390: 6094 723f b095 443f a501 913e 2712 16bf
000003a0: afc2 ab3d 3a0b fabe 98f4 d8be 6f62 bb3e
000003b0: b89c 49be 9886 e73e 3a7c 0ebe 2ac6 75bf
000003c0: 8ea9 cdbe 28be 793d bc10 b23f eae1 c7be
000003d0: 2e82 0abf 37db 90be 50e9 16bf bcc9 2cbe
000003e0: db29 2dbf 35ba b8be da6e 71be 2826 a3be
000003f0: 859d ed3e 3763 5fbe b641 b8be 212c 0e3f
-0.0061962833 -0.059183028 -0.03244366 0.3874141 -0.7645942 -0.4750443 -0.020826252 0.1614388
0.40814373 0.62892246 0.0836442 0.63486093 -0.79494494 -0.82520086 0.65031886 0.20686235
-0.14012557 -0.06666029 0.36262846 -0.35403082 0.6021209 -0.16324098 0.17964129 0.23194304
0.6505008 -0.28094 -0.025401713 -0.17526527 0.22312942 0.17767921 -0.7522429 -0.16529414
-0.0885423 -0.33217156 -0.8235636 1.3292447 0.7411948 -0.80745405 0.38304093 0.4435062
-0.44319513 -0.50075126 0.8674444 0.18344717 0.0057945778 0.291539 1.1763259 -0.05145226
-0.486265 0.5070039 -0.1012015 -1.0199554 0.3756686 -0.26812965 0.58753204 0.12634227
1.5241613 0.018057022 0.46013367 0.31211373 0.65956193 0.12682846 -0.35459748 -1.238937
-0.11925675 -0.36080185 -0.120906085 -0.3071486 -0.12124752 -0.7579627 0.0638206 -0.44657147
0.0569297 0.410696 -0.33016413 0.5192702 0.63568807 -0.052437674 -0.07458902 0.8951523
0.55811375 -0.8346148 -0.19290459 -0.34100062 -0.47013542 0.789068 -0.005118476 0.5016345
-0.20593505 -0.3844032 0.14316855 -0.82528675 0.50370884 -1.4207798 -0.48643908 -0.97433937
-0.31484008 0.3494546 -0.3911466 -0.7621092 -0.07455591 0.6365317 0.5818471 -0.85688186
0.613916 -0.5716158 -0.472835 -0.23361836 0.05087207 -0.33181143 -0.39405227 -0.060138345
0.73829275 -0.41146308 -0.77321637 0.06361271 -0.008138087 -0.2821325 -0.33645785 -0.014796352
0.3018021 -0.24167778 0.32668647 0.007248765 0.40460545 0.12811217 -0.154682 -0.34327883
0.121943645 -0.19776145 -0.33997902 0.19219474 -0.08342701 -0.4966888 -0.011812263 0.6832097
0.8853931 -0.4301601 0.5626846 -0.25687554 0.044321086 0.16475922 -1.0650284 0.35602608
-1.0149661 0.14757743 -0.09644321 0.10479117 0.050946098 0.6854779 0.011543372 -0.35335657
-0.22315821 0.32846403 -0.24028708 -0.18798976 -0.27845842 -0.26296094 0.36489567 0.6012706
0.20527892 -0.3513452 0.13282156 0.91112953 0.072041035 0.3658038 -0.4906261 0.77671385
0.14000632 0.17795743 -0.7247725 -0.5299425 0.2802924 0.47356147 0.551393 -0.9005517
-0.3273887 0.015907193 0.7082549 0.4303015 -0.23163353 0.48449588 0.2492066 1.0366479
0.25175756 -0.18180561 0.5937874 0.32503048 0.41299042 -0.29160935 0.012663446 -0.11859792
-0.27315193 0.35770217 -0.6339429 -0.29482982 0.07081295 0.961501 -1.1325648 0.3062694
-0.29826862 -1.275768 0.017454436 0.049591288 -1.0728056 0.45882896 -0.025893863 -0.956672
-0.743237 1.0141257 0.026517792 0.10295342 -1.2726699 -1.1399561 -0.48610404 -0.010385523
-0.5467437 0.6491298 -0.24033748 0.28246015 0.34474406 0.091339394 0.23836774 0.3151876
0.29201937 0.65290815 0.071822874 0.7776938 0.9475765 0.76790905 0.28321567 -0.5862145
0.08386742 -0.4883669 -0.4237411 0.36598536 -0.1968869 0.45219874 -0.13914576 -0.960055
-0.40168422 0.060972363 1.3911357 -0.39039546 -0.5410489 -0.28292248 -0.58949757 -0.1687383
-0.6764199 -0.36079565 -0.23577443 -0.31865048 0.4640924 -0.21815191 -0.35987633 0.55536085

weight_hh_l0 f4 [150, 50]
00000000: 0ea8 023f c34d 6dbf 9cbd acbd 7de4 4abf
00000010: e569 91be df7f 7fbe 1e2f a63e 6751 883d
00000020: bd5c f73e 6526 0d3f 567d fcbe 2df4 10be
00000030: c1c6 b43c 45c5 89bd fa2d 893f 4312 cdbe
00000040: 5d2d 8f3e ffbd 3ebf c522 f23e 0dc2 92bf
00000050: b06e b8be b821 87bf 3fa0 8bbd fc81 953f
00000060: 57bc 963e 40b4 70bf c2e3 f9be b08c c8bb
00000070: 931d 053f a5bc 5c3f 9c2d 70be b4b2 02be
00000080: dd9e 16be 8dcb 2e3f 3451 0abf 5d71 8d3d
00000090: cd80 67be 07b0 ca3e 1110 c33e b257 78bf
000000a0: 5ca2 ea3e b47d 1abe b9fc 6c3f c9cc 853e
000000b0: e1fe 003f 8d1e fa3e c126 dc3e 8065 38bf
000000c0: acd8 793f 03fe 38bf d721 28bf 01d8 eebd
000000d0: 42c4 923f 6d8e 49bf 2c81 033f fd54 2ebd
000000e0: c440 9fbf 7710 7bbe 1079 3b3f 5ef7 c03f
000000f0: 4349 5b3d 8506 553f ffdd c8bb 850e 6d3c
00000100: 40ef afbf 936a 9cbf 83d0 373f 595f 5dbe
00000110: bd15 7d3d 6cd9 c7be b880 99be dc41 6c3a
00000120: 08db a0bc cf4b 37bf a0b5 bebc 2b42 8bbe
00000130: 719f 9ebd 686e 26bf 245a ee3e 534d 3fbe
00000140: bb60 aabe e9ab 2ebf 326f b43d 8ddd 043f
00000150: abac 91bf 8cbb b83e 0fa4 a1bf 9cf2 923f
00000160: 82ab bb3d ce82 cd3f 432b 3abe 30d7 c1bf
00000170: 65a0 81bd 52c5 323e ccdd 253e 5505 883c
00000180: 253c 70bf e888 173f 2f92 5c3e 454d a8be
00000190: 433a 85bf 1887 ee3d 1a85 ee3d 65c2 673f
000001a0: 2876 00bb b570 1cbe 2b98 bcbe 4dbb 5f3e
000001b0: a1fe 363f 97ff 9b3e bf40 7dbf 1aa3 67be
000001c0: 75b9 4fbe b1c8 e1be c7ad 5d3e 798f 433e
000001d0: 52ac 37bf 3c4a e83d d200 a0bc 86eb 43be
000001e0: 6af8 1a3f e7fe 803d 4107 763e 844f 7abf
000001f0: b282 d1be 98d3 223f 5f54 653f b6c2 a5be
00000200: 205c c0be c913 ac3e bce0 323f 64e3 41bf
00000210: cc21 c83e 5021 d73e 6054 7ebf a795 1c3f
00000220: 8669 01be 1cb2 f6bd 725e 1ebe c091 f03d
00000230: c043 b1bd c5c7 18bf f372 b5be 65ef 223f
00000240: bd9f 4ebd 015a 033e 1090 d8be b5cc 81bf
00000250: 9f4d 18bf da15 c4be ee04 5b3e bda8 20be
00000260: aede b2be b154 5f3f d24e 233e 83fa 17bf
00000270: 956a 8ebf 9e0a d2bd 3514 3c3e ca06 dabe
00000280: 4c7e b3bd 47ce 553f 2303 27be 9e90 6f3d
00000290: f04b 05bf 43f3 a53f 79e1 973f 761b 69bf
000002a0: 3012 823e a80d eabc fee8 fabe 9265 acbe
000002b0: a75e 593f 0b9a aa3f 6ccc 8e3d dbfc a93e
000002c0: 5ad9 093a cec4 01be 948c 4c3d a0f0 61be
000002d0: fdc5 ec3e 0e3b b33f 4033 5b3d a824 d2be
000002e0: 7403 a93d 9449 343f a139 70be 00c9 773e
000002f0: a395 e73d 4662 6f3c 5f0d fe3e 31d8 f03e
00000300: 098c fcbe b440 a1be 799d cbbd 3cfc 9dbe
00000310: 7e1f cebd de3f babe f0da 513e aafa 2cbf
00000320: 0068 45be 8579 5cbf 0f25 ad3e e45e 493e
00000330: ef73 3dbe 7767 e7be 0d68 1dbf 084a dcbe
00000340: 35c9 ee3e c6f3 b33d 73d2 133d 4cfa 4d3f
00000350: efc5 553f ebf6 eb3e 11e2 7a3f b727 a9be
00000360: 14c1 05bf 2686 093f 0585 9c3e f10f 31be
00000370: 9ba7 863f f6f5 0ebf a09c b0bb aff8 953f
00000380: 81ad 863e 336b a2bf 1e6d c23e 0c62 ad3f
00000390: c84b 4e3f 02d5 523f 2525 8bbf 6a55 243e
000003a0: 71dc 34be 7db7 873f 71e7 da3e 13ca 063e
000003b0: 953b a1bc 1932 5bbd 1bd9 3d3f ba14 d6be
000003c0: 7998 c43e 940a 7e3e 6c1d 94bf f7e6 df3d
000003d0: 9f70 ad3d 1563 c8bd c902 38bd 3d48 cabe
000003e0: b8f7 2d3f da4f 32be 0d71 d5be d718 a6be
000003f0: 1d75 923e 279e 1dbf cb4f 27be 2ddc 493e
0.5103768 -0.9269678 -0.084346026 -0.79254895 -0.28401104 -0.24951123 0.32457823 0.06656151
0.4831294 0.5513671 -0.49314374 -0.14155646 0.02206743 -0.06727079 1.0717156 -0.40052995
0.27964297 -0.7450866 0.47292152 -1.146547 -0.36021948 -1.0557165 -0.06817674 1.1680293
0.29440567 -0.9402504 -0.48806578 -0.006120287 0.5199825 0.8622535 -0.23454899 -0.12763482
-0.14709039 0.68279344 -0.54030156 0.06906388 -0.22607727 0.39587423 0.38098195 -0.9700881
0.45826995 -0.15087014 0.92573124 0.261328 0.50388914 0.48851433 0.42998317 -0.72029877
0.9759624 -0.7226259 -0.65676636 -0.11662293 1.1466143 -0.7873295 0.51368976 -0.04256152
-1.244164 -0.24518 0.732316 1.507549 0.053536665 0.83213073 -0.0061299796 0.014468794
-1.3744888 -1.2220024 0.7180254 -0.21618403 0.06178831 -0.39033067 -0.29981017 0.00090124994
-0.019635692 -0.7160005 -0.023279965 -0.2719892 -0.07745255 -0.65012217 0.46553147 -0.1868184
-0.33276924 -0.68231064 0.08810271 0.5190056 -1.1380819 0.36080587 -1.2628192 1.1480289
0.09163572 1.6055543 -0.18180566 -1.5143795 -0.06329421 0.17458084 0.1619789 0.016604105
-0.93841773 0.5919328 0.2154014 -0.32871452 -1.0408405 0.11646861 0.11646481 0.90531
-0.0019601677 -0.1527737 -0.36834845 0.21848793 0.7148228 0.30468437 -0.9892692 -0.22620812
-0.2028559 -0.44098428 0.21648322 0.19097699 -0.71747315 0.11342284 -0.019531641 -0.19132814
0.605353 0.06298619 0.24026205 -0.9777758 -0.40920025 0.63604116 0.89581865 -0.32375115
-0.37570286 0.33608845 0.6987417 -0.75737596 0.39088285 0.42017603 -0.99347496 0.6116585
-0.1263791 -0.120456904 -0.15465716 0.117465496 -0.086555004 -0.59679824 -0.35439262 0.6364654
-0.050445307 0.12827303 -0.4229741 -1.0140597 -0.5949344 -0.3829792 0.213886 -0.15689369
-0.34935516 0.87238604 0.15948036 -0.59366626 -1.1126276 -0.10255931 0.18367083 -0.42583305
-0.087643236 0.8351788 -0.1630979 0.058487527 -0.52068996 1.2964863 1.1865684 -0.9105753
0.254045 -0.028570965 -0.49005884 -0.33671242 0.84910053 1.332826 0.06972584 0.33200726
0.0005258523 -0.12672731 0.049938753 -0.22064447 0.46244803 1.4002397 0.053515673 -0.41043591
0.08252612 0.7042477 -0.23459484 0.24197769 0.11307838 0.014610833 0.49619576 0.4703994
-0.49325588 -0.31494677 -0.09942145 -0.30856502 -0.100646004 -0.36376852 0.20493674 -0.67569983
-0.19277954 -0.86122924 0.33817336 0.19665104 -0.18501256 -0.45196125 -0.61486894 -0.4302523
0.46637884 0.087867305 0.036089372 0.8046005 0.8350515 0.4608682 0.980012 -0.33038113
-0.5224774 0.5372032 0.30570236 -0.17291237 1.0519899 -0.55844057 -0.005389765 1.1716517
0.26304248 -1.2688965 0.37973875 1.3545547 0.80584383 0.82356274 -1.0870711 0.16048208
-0.17662217 1.0602871 0.427547 0.13163023 -0.019681731 -0.053514574 0.741594 -0.41812688
0.38397577 0.24808723 -1.1571479 0.10932725 0.084687464 -0.097845234 -0.04492453 -0.39508238
0.67956114 -0.17413273 -0.41687813 -0.32440826 0.28604975 -0.61569446 -0.16339032 0.19712897

bias_ih_l0 f4 [150]
00000000: cddf acbe badb a13e 942f 063b 6191 b4bd
00000010: 0d16 a2be 1a81 48be 83c1 a8be 1358 723e
00000020: 6771 12bf 2dc7 9d3e 5b9b 053f 7ae6 afbd
00000030: 25c1 adbe 8fc4 20be 674b a7be fba8 c03d
00000040: 7c2b 5fbe a8a3 e1bc 0a01 e43e 9ca7 bfbe
00000050: 5831 b2bd 099a 65be f636 1d3c 0a14 cfbe
00000060: 6e0d 963e 3cd7 50be 2f03 a8be 4d87 b9be
00000070: b704 3abe a3d8 6cbe 810d acbd 2663 083f
00000080: 3284 3bbe 0d70 c83e 509e 35bf 1745 773d
00000090: b35d ca3d 45a2 b83e a4a0 ea3e cd24 64be
000000a0: fbbd b3be 1baf d63c 290b e83d 1f41 83be
000000b0: 2f97 16bf a79d 523d 89b3 02bf 9537 bd3e
000000c0: 33c8 86be 5a87 22be 42ed edbe 5f0c 0cbf
000000d0: fea0 72bf 649b 16be 92d5 8ebf b4a3 74bf
000000e0: 98a2 8abf e5d2 3fbf d1ad a9bf 592c e5be
000000f0: 46c5 12bf 3bcb 4cbf 3bcb 4ebf 7858 7bbf
00000100: ca74 9bbe db2a 15bf 8ebb c0be 0aaa 7bbf
00000110: 90af a7be d3e1 04bf 1014 2bbf afbb 10bf
00000120: 699e 3fbf f7c6 2dbf d165 78bf de1a 6dbf
00000130: 59c0 c6be 851c a3bf 7a0f 33bf 185b c5be
00000140: 25b5 e1be 7687 a6be 343c c1be b8f3 1ebe
00000150: 0182 5ebf 6a93 64bf afa3 68bf ec42 87bf
00000160: 7b93 fcbe 8597 f0be 8cba 53bf 400d 37bf
00000170: bd37 3bbf e59e 2cbf 5f8e 35bf 505e 94bf
00000180: 973a 4ebf a5ca e6be faf1 d8be fd31 8dbf
00000190: a618 a43e da1e 1e3e 3164 063d 6ba6 5dbd
000001a0: dc30 e83e e9e8 8f3e 7feb ae3e a47a 95be
000001b0: 095b 17be 8597 85be ea47 85bd c7df 7abe
000001c0: 4183 c83d ebca f43d 5f6a 05be 2e22 c93d
000001d0: 035d 233e 5240 f6bd 63a5 6fbe 5e8e 4abe
000001e0: 1547 813c ae6c d0be 356c a63e 29d6 6abe
000001f0: 31bd 093e 6837 473e 06a0 b4bd e835 843d
00000200: a179 91be 7c69 9e3d 8060 1c3e 6ff6 233e
00000210: b2f9 d53d 223a 8e3d b55f 183e 105e 0d3d
00000220: e27f a13d 4e13 a4be 173a a6bd 5dad 603e
00000230: 5a1f cabd 800c 4abb 5451 8e3e e754 2f3e
00000240: 090b c0bd 0ab8 49be ff18 b43e 2d95 b63d
00000250: f173 e7bb cc37 aa3d
-0.33764496 0.3161295 0.0020475136 -0.08816791 -0.31657448 -0.19580498 -0.32960138 0.2366641
-0.5720429 0.30816022 0.5219018 -0.08588882 -0.3393642 -0.15699981 -0.32674715 0.094072305
-0.21793932 -0.027543858 0.44532043 -0.37432563 -0.08700818 -0.22422041 0.009595623 -0.40444976
0.2930712 -0.20394605 -0.3281493 -0.3623604 -0.18165861 -0.23129515 -0.08401013 0.5327629
-0.18312147 0.39147988 -0.7094469 0.060368624 0.09881153 0.36061302 0.45825684 -0.22279663
-0.3510588 0.026206544 0.11330254 -0.2563562 -0.5882444 0.05141988 -0.510552 0.36956468
-0.26324615 -0.15871945 -0.46470076 -0.54706377 -0.94776905 -0.14707714 -1.1158926 -0.9556229
-1.083087 -0.74931175 -1.325617 -0.44760397 -0.57332265 -0.79997605 -0.80778855 -0.9818187
-0.3036254 -0.5826852 -0.37643093 -0.98306334 -0.3275113 -0.5190708 -0.6682749 -0.5653638
-0.7485109 -0.6788172 -0.9703036 -0.9261912 -0.38818625 -1.2743078 -0.6994549 -0.38546062
-0.44083515 -0.32525223 -0.37741244 -0.15522659 -0.8691712 -0.89287436 -0.9087476 -1.0567298
-0.4933127 -0.469906 -0.8270652 -0.7150459 -0.73131925 -0.67429954 -0.70920366 -1.1591282
-0.8055815 -0.4507648 -0.42372113 -1.103088 0.32050055 0.15441456 0.032810394 -0.054113787
0.45349777 0.28107384 0.34164044 -0.2919513 -0.14780821 -0.26092163 -0.06507857 -0.24499427
0.0979066 0.11952766 -0.13028859 0.098209724 0.1595345 -0.12023987 -0.23402934 -0.19780871
0.015780965 -0.40707916 0.3250443 -0.22933258 0.13451077 0.1945473 -0.088195845 0.06455594
-0.28413108 0.07734963 0.15271187 0.16011976 0.10448016 0.06944682 0.1488026 0.034513533
0.0788572 -0.32045978 -0.081165485 0.21941133 -0.09869261 -0.0030830204 0.27796423 0.17122231
-0.09377105 -0.19699112 0.3517532 0.08915172 -0.007063382 0.08311424

bias_hh_l0 f4 [150]
00000000: df54 84be 3e8a aa3e 94f4 8abd 6f0a 66be
00000010: 5598 57be 3392 773d 2c37 10be fdad ad3e
00000020: 5b53 a9be 3a86 973e 75e9 923e 1c29 3abe
00000030: 25a2 2dbe 9b3a d03c 8ead a9be bed9 95bb
00000040: 14fc 8dbe 76da fabd 708c b33e cf80 36be
00000050: 7a5e 023e c1c0 dcbe 710e c9bd 3b29 16bf
00000060: 840d c03e 5e8a 87be 5ff8 b9be 3dce 9ebe
00000070: 0bdd e0be a9c3 38be f7bc b5bd 82e6 db3e
00000080: c4c5 c6bd b961 1a3f 8cf9 3bbf ca7e 1f3e
00000090: fac4 0b3d 8cd2 313e 294c bd3e 1152 8dbe
000000a0: b180 b8bd 4bb6 263e 8ff4 3b3e 41aa 98be
000000b0: cbcd efbe 3dc2 0a3d 8fd8 a4be f79a b43e
000000c0: 0e7e a6be fcd3 86be c898 a3be 6b9d 11bf
000000d0: 9cc2 8bbf f073 58be c0c7 9fbf a44e 62bf
000000e0: a030 8dbf ffc0 4ebf 3fb1 9bbf 65f3 b4be
000000f0: 20e1 19bf 8f6b 63bf 69e6 73bf 6874 6ebf
00000100: 4772 65be 259d 0ebf c825 8abe 8f80 65bf
00000110: 008a 95be c677 dabe 7656 30bf 68c9 cbbe
00000120: 85fd 4dbf c3ae 33bf 098e 46bf 42d3 85bf
00000130: dfa6 fabe fb36 8abf 7e41 39bf de84 a2be
00000140: d760 bbbe 663f debe 502e 3abe 2df6 81bd
00000150: af5b 80bf b687 45bf a559 70bf cd53 9dbf
00000160: aa65 0bbf 91c3 e1be e65e 58bf a02c 23bf
00000170: a176 4dbf 639b 08bf d95a 5ebf db19 79bf
00000180: 6d39 44bf 97d5 d2be 600c dbbe 0ffa a7bf
00000190: 83fb 583e 2dd7 843f ff28 19bd 6bbc b73e
000001a0: d86d 193e 2c66 4d3e 3e54 39bf e89e 27bf
000001b0: 3e20 00be efb1 ad3e 62b0 223f f47c 063e
000001c0: 8532 613f c2d6 ba3e 93de 783e fa33 013e
000001d0: 386a 89bf 9ead 343f 4ea2 12bf 2a27 243e
000001e0: 5083 a43e c639 a7be 431a 443d 0232 e9bd
000001f0: be1d fb3e f221 933e a373 ccbe 23b3 9bbe
00000200: e1f9 5fbe 614f 7fbd 03d7 233e f751 6e3d
00000210: 5773 283f e26e 1d3f 0cd4 ddbe 0144 0f3f
00000220: 6689 003f e830 41bb 9462 efbe 0c36 993e
00000230: d883 c9be d076 f73d 5b42 0e3e fa14 043f
00000240: 45c9 923e 676d 42bd 8b2b db3d 1efb 123f
00000250: 34a2 83be 8957 1d3e
-0.25846002 0.33308595 -0.06784931 -0.22464918 -0.21054204 0.06044216 -0.14083546 0.33921805
-0.33071408 0.29594594 0.2869374 -0.18179744 -0.16956384 0.02541857 -0.33140224 -0.004573076
-0.27731383 -0.12248699 0.35068083 -0.17822574 0.12731352 -0.4311581 -0.098172076 -0.5865666
0.37510312 -0.26472753 -0.36322305 -0.31016722 -0.43918642 -0.18043388 -0.08873933 0.429493
-0.097056895 0.6030536 -0.73427653 0.1557571 0.0341234 0.17365474 0.36972168 -0.27601674
-0.09008921 0.16280477 0.1835501 -0.29817393 -0.46836695 0.033876646 -0.3219647 0.3527448
-0.32518047 -0.26333606 -0.319525 -0.56880826 -1.0918765 -0.21137977 -1.2482834 -0.88401246
-1.1030464 -0.8076324 -1.2163466 -0.35341945 -0.6010914 -0.88835996 -0.95273453 -0.9314637
-0.22406875 -0.55708534 -0.2698195 -0.8964929 -0.29206848 -0.42669505 -0.6888193 -0.39802098
-0.80464965 -0.7018854 -0.7756048 -1.0455096 -0.48955438 -1.0798029 -0.7236556 -0.31741995
-0.3659732 -0.43407744 -0.1818173 -0.063457824 -1.002798 -0.77160203 -0.93886787 -1.2291199
-0.54452 -0.44094518 -0.84519804 -0.6373997 -0.8025914 -0.533621 -0.8685737 -0.9730508
-0.76650125 -0.4117858 -0.4278288 -1.3123187 0.21189694 1.0378166 -0.037392613 0.3588594
0.14983308 0.20058507 -0.7239417 -0.65476847 -0.125123 0.33924815 0.6355039 0.13133603
0.8796771 0.36491972 0.24303655 0.12617484 -1.073554 0.7057742 -0.5727891 0.16030565
0.32131433 -0.32661265 0.047876608 -0.11386491 0.4904613 0.28736836 -0.39931974 -0.30410108
-0.21872665 -0.06233156 0.15999989 0.058183637 0.65800995 0.6149732 -0.4332584 0.5596314
0.50209653 -0.0029478613 -0.46754897 0.29924047 -0.393584 0.120832086 0.138925 0.5159451
0.2866918 -0.047467615 0.107016645 0.57414424 -0.2570969 0.15365423

weight_ih_l1 f4 [150, 50]
00000000: 28bf f7bd 5006 c6be bf16 7f3e a08b be3f
00000010: 0be7 913d 4abd 8bbf be09 82be cf21 ab3e
00000020: bb56 b7be 93fc fabe 86ea ed3e 2ab9 ca3b
00000030: 19ae ee3e 7e1f 253f 909b 7d3f d389 283f
00000040: 7092 8e3e d4b7 97be 7ae8 033f 2d1b eabe
00000050: efc9 bdbf 62e8 a33e 14d0 9d3e 715f babf
00000060: 2d2c 2d3f 004e 403f ca5b a6be 6775 b2bd
00000070: a028 e1bd 7036 c9be eafa 853f df30 f83e
00000080: cfed 41be 5238 253f 50a0 abbe a2ea 803f
00000090: 2ed3 1d3f 1d1c 243f 7f19 1bbf ccf7 4abf
000000a0: bc9e 883f babc 08be ab8c a23f 6349 f33e
000000b0: 08dd c33f 88df 90be 7f39 043f 14e5 e2be
000000c0: 173d 123f 198e 673e 877a d9bd e71b 9bbf
000000d0: 7185 1b3f ca6d 783f ce30 39bf 5e03 2abe
000000e0: 6103 3bbf 8ae7 78be a62d 3e3f 76a4 abbd
000000f0: b8ab 66be 0e74 d73f 4e52 82bf 1df1 0abe
00000100: b2ec 623f 842e 9b3e d985 24bf ae5a 993e
00000110: 0583 153f c9dd 143f 053e 84bf c623 9bbf
00000120: 2c57 21bf fc0d e0bd 312c e73e 5944 99bf
00000130: 9573 85be 6bee 5cbe d795 64be 0429 06bf
00000140: 5b91 993e 7282 ac3e 99a3 ef3e 4042 35be
00000150: 1bf2 03bd df35 04bb b386 803d 77c8 d73e
00000160: 763a 113e e3de 3c3f d503 bbbd 5ea6 9a3f
00000170: 9e0d b73d f962 7d3e fc75 cf3e eb1e 89bf
00000180: 3c62 503f 5b49 003e 700f bc3f 4998 77be
00000190: a99a 74bd 2e44 223e 6e6c 5a3f f553 393e
000001a0: bfec c9bd 50bf bfbf 58bf e9be 86e8 91be
000001b0: 9cf0 363e a9d3 84bf 3e6e 4f3f 6b80 a93e
000001c0: 3f55 77bf f7ce d93d e150 3abf 455a 3c3f
000001d0: d812 a9be 8556 9ebe b0d9 20bf ec99 3abe
000001e0: cce1 9cbe 00eb 653f 7f93 403f a8e5 a2bf
000001f0: 1173 423e 1a19 bcbf 04be d2bd 65c8 6fbf
00000200: e015 043e 7915 613e 3e58 9a3e 279d 5abe
00000210: 0333 bdbe 9490 113d c9cb 663e a217 f53e
00000220: d8aa 003f 5a18 1e3f f452 d83d 4e25 383f
00000230: 1a9c 083f 94c7 a7be 5139 bf3e 1e58 50bf
00000240: da48 8e3e 9c3a 4a3f f967 94bf 1e86 c1be
00000250: a4b3 35be 2406 debd 98d1 3abf 3047 e53f
00000260: 06bf 47bf 26ef 5d3f a7e1 533f e0aa 74bf
00000270: 77bf 133d 72a2 8a3f 3c18 9cbf 187a 013d
00000280: c091 45bf 536c 1c3f 676a bebe be4d 1b3e
00000290: cd09 133e 1189 d23e c757 64bf a408 05bf
000002a0: 359c a9be abf3 863d b7e7 8abe c80a dc3d
000002b0: 14a0 503f 36a4 2a3e 9f74 c0bd 952d 1b3f
000002c0: 73f7 2c3f f1c6 23bf 1f8f 33bf 40ec efbe
000002d0: d897 393f 5d31 4bbe 0bc8 7b3e 4c78 e0be
000002e0: c532 043f 4044 4f3f c739 70bf dc65 b7bd
000002f0: ab90 6bbf 6d6f c7be de10 1f3f c8b5 04bd
00000300: a765 88be f09b 6c3e be2b 003e 10ee 1a3f
00000310: 30dc f33e daad 523e 397d ba3f 9d79 2f3f
00000320: cb21 17be fed4 ed3e dedd 263e 2ca1 883e
00000330: e9e8 e23e 2f4c 0b3f c11b 12be a425 7c3e
00000340: ef21 273f dd17 173f 455d 51bf 8575 d4be
00000350: 54a6 1d3f 6998 af3e 32fd a6bb c13a 0cbf
00000360: edd4 8b3e e28a 3bbf 063b 973e 3d44 853e
00000370: 2112 313f 16c9 91be 2d2a 64bd 2f86 01be
00000380: eb02 043e 09b5 273f bafe a03e f698 6b3e
00000390: d0ff 09be 0830 8e3f dbcc 5c3e ca55 b2be
000003a0: fd89 2dbe 05f5 3ebf 6bea 89be 1a09 6d3c
000003b0: a770 e4be 88b0 3d3f 604a 06bd 7f5c 893e
000003c0: 67a3 23bf 22d6 80be 09c7 87be c078 1b3e
000003d0: 4736 f33e d904 c13d 028c b2bc def7 82be
000003e0: 72e6 f8be 99f8 78bd 33e9 e53e 18bd 143f
000003f0: 19f3 273f d504 22bf f33d 603d 0519 eb3e
-0.12097007 -0.3867669 0.2491102 1.488636 0.07124146 -1.0917141 -0.25398058 0.3342423
-0.35808358 -0.49020824 0.4646799 0.006186624 0.466172 0.6450118 0.99065495 0.65835303
0.27846098 -0.29632437 0.51526606 -0.45723858 -1.482725 0.32013232 0.30822814 -1.4560376
0.6764553 0.7511902 -0.32491904 -0.08713799 -0.10994077 -0.39299345 1.0467198 0.48474786
-0.18938373 0.6453906 -0.33520746 1.0071604 0.6165036 0.641054 -0.6058578 -0.7928436
1.0673442 -0.13353243 1.2699178 0.47516927 1.5301828 -0.2829554 0.5165023 -0.44315398
0.57124466 0.226128 -0.10619073 -1.211789 0.6075049 0.97042525 -0.72340095 -0.16602847
-0.7305203 -0.24307075 0.74288404 -0.08380978 -0.22526443 1.6832292 -1.0181367 -0.1356854
0.8864242 0.30308926 -0.64266735 0.29951996 0.58403045 0.5815092 -1.0331427 -1.2120292
-0.6302364 -0.10940167 0.45150903 -1.1973983 -0.26064745 -0.21575324 -0.22322784 -0.52406335
0.2999371 0.33693272 0.46804503 -0.17701054 -0.03221331 -0.0020173711 0.06275692 0.4214513
0.14182457 0.737776 -0.0913159 1.2082021 0.08938144 0.24744786 0.40519702 -1.071256
0.81399894 0.12527983 1.4692211 -0.24179186 -0.059717808 0.15846321 0.853217 0.18098433
-0.09859609 -1.4980259 -0.45653796 -0.28497714 0.17865223 -1.0377094 0.8102759 0.33105788
-0.9661445 0.106351785 -0.7277966 0.7357524 -0.3302219 -0.30925384 -0.62832165 -0.18222779
-0.3064102 0.89811707 0.7522506 -1.2726336 0.18989207 -1.469516 -0.10290149 -0.9366515
0.1289897 0.21980847 0.30145448 -0.21349011 -0.3695298 0.03553827 0.22538675 0.47869593
0.50260687 0.6175591 0.10562697 0.7193192 0.5336319 -0.32769454 0.37348416 -0.81384456
0.27789956 0.7899568 -1.159423 -0.37797636 -0.17744309 -0.10841015 -0.72976065 1.791235
-0.78025854 0.86693037 0.82766193 -0.95573235 0.036071267 1.0830824 -1.2194896 0.03161058
-0.7717552 0.6110279 -0.37190554 0.15166375 0.14359207 0.41120198 -0.8919644 -0.5196631
-0.3312699 0.06589445 -0.2712991 0.10744244 0.8149426 0.16664204 -0.09397244 0.6061643
0.6756508 -0.63975435 -0.7014026 -0.46859932 0.7249732 -0.1984305 0.24588029 -0.4384178
0.5163997 0.80963516 -0.9383816 -0.08954975 -0.9201762 -0.389522 0.6213511 -0.032399923
-0.26640055 0.2310636 0.12516686 0.60519505 0.47628927 0.20574132 1.4569465 0.6854494
-0.14758985 0.46451563 0.16295573 0.26685464 0.4431832 0.5441312 -0.142684 0.24623734
0.65286154 0.5902079 -0.81782943 -0.4149591 0.6158192 0.34295967 -0.005096101 -0.5477715
0.27310887 -0.73258793 0.2953722 0.26028624 0.6916829 -0.2847373 -0.055704284 -0.12648843
0.12891738 0.6551061 0.3144434 0.23007569 -0.13476491 1.1108408 0.21562521 -0.34831077
-0.1694717 -0.7459262 -0.2693666 0.014467502 -0.44617197 0.7409749 -0.032785773 0.2682838
-0.6392121 -0.2516337 -0.2651904 0.15182781 0.47502348 0.09424753 -0.021795277 -0.25579733
-0.48613316 -0.060783956 0.4490448 0.58101034 0.6560531 -0.63288623 0.05474658 0.45917526

weight_hh_l1 f4 [150, 50]
00000000: f5bd 983d b4e9 4b3f 3ad6 4fbf 1bd8 2cbf
00000010: f447 983f 0c78 67bf bd53 68be 89a1 b33d
00000020: 0df7 fc3d 9c7d acbd 5d2b e13d aad3 77bf
00000030: c635 933e 386b 513d 3f13 d7be 6522 18bf
00000040: 9ab6 e03d faf2 e3be 38b0 01be f9a8 253d
00000050: e314 293e 623e d43e 1059 153f 8118 bdbd
00000060: aa88 ee3d ad50 8b3e dbc8 b33e 04c4 91be
00000070: 0e1d 6dbe 1207 40be e6b4 ffbe 876f 233f
00000080: 0561 2b3f 1130 00be 6d98 863e 3277 003f
00000090: 8f84 a73e aa07 a7bf 44c6 f9bd 3599 1dbf
000000a0: a11b 09bf 5c7a aa3f d076 7b3e 5deb 543e
000000b0: 5b4d e6be 7985 79be 2f07 2bbf 2648 53bf
000000c0: 898d cf3d 4afd 473e 60b4 013f 0b3b a5be
000000d0: e61e b73d ffe8 b8bd c220 3ebe 48ab 3fbf
000000e0: 85fd d0bd 7ab4 a2be 69ce f7be 1af1 98be
000000f0: 97c6 ad3d 268c 393c 6424 7c3e f466 a1be
00000100: 1c1f b0be 4a6a cebd d090 cfbd dbb4 6abd
00000110: c60f 103f cbec a5be df03 e9bd d30a 2cbf
00000120: 805b 08be 6363 98be 07f3 6b3e ff14 c9be
00000130: 62f5 6cbd 257f adbe 1091 523f 53ca 643d
00000140: a700 f1be c321 ce3d 53c8 973d 7a84 573c
00000150: fd02 603f bfb2 9a3d 3a4f 933e c753 8bbf
00000160: 9c60 82be d53f eabd d770 d5be 452b ddbe
00000170: b9f1 963e f087 c6be 6a11 643e 590c fc3e
00000180: eb07 af3e 85e7 1fbf f7c8 463e 4095 e4be
00000190: 20e3 7c3a 80ae 463f f622 4ebf 59e0 003f
000001a0: 6b9f 283e aa7e afbd 7a80 d4be 9d38 ae3e
000001b0: a7b7 573d 8fe1 afbe bd15 e8be 2213 57be
000001c0: 3fd3 3c3e 15b9 08be 8744 18bd f1b9 1abf
000001d0: 3978 663e 814c 293e bc3e 8b3e ed60 48be
000001e0: 2623 fdbe 4089 383d e493 89bd 4c51 293f
000001f0: da71 1abe 0b03 43be 0e4b 4abf 5b52 d6be
00000200: b1f8 193f 3141 4c3e a97a 21be 408c 26be
00000210: b1e0 823e 9cc7 253e 57cc 2fbe b5b5 10bd
00000220: ca38 1a3e 8cfd 36be c4d0 d8bd d5b2 77be
00000230: 4ff1 843e 3802 bf3e df63 62be 3f27 52bd
00000240: fdb8 283e f646 01bf ac4e cebe 4459 9f3d
00000250: 6640 373e aee0 863e 2177 ebbd 9a98 1b3f
00000260: 829b f63e d345 debd 714b 7e3f 1860 b0be
00000270: e809 893f f9ba c3be e416 7c3d 088c 573e
00000280: b38a 6abf 04b8 883e 76d0 54bf eca7 2a3f
00000290: 0b4a 983f bd86 c4be 48fa ec3f f9d0 4d3f
000002a0: eba6 47bf 89e6 863e 4868 803e 12e1 08bf
000002b0: fb52 27bd 8d60 bf3b c724 a23e 7940 8dbd
000002c0: 9d9b f1bd ee4b 4fbe 07d4 acbf 2d13 f73e
000002d0: 499d 153f 08d0 713e f12f f53e 38bd 8d3d
000002e0: efd9 44be ea75 a7be d6c9 283e b640 b73d
000002f0: 5ef9 da3c c54f 6e3d d097 87bf 6cca 45be
00000300: 8cc1 b9be 6875 d73e 28e7 973d ad4d e1be
00000310: 51de 533e 9666 c53e eaf6 663e 7dc4 e1bd
00000320: f9ab 8cbe ab91 82be 6abd 0a3e b430 7c3c
00000330: 5328 563e f803 043f 3ac0 39be a426 153e
00000340: 8d80 12bf a4e7 73be 7e22 e7be 71c7 6bbe
00000350: 44e6 293c f9d0 853e 38a0 76bd 27c7 963c
00000360: 747d 713e df33 0e3f dd04 013f 6ee1 233e
00000370: 2d17 acbe 926d 23be 1cad 11bf 1191 0dbe
00000380: 7302 793e a4ca 413e 0b76 3b3e 97b1 d43d
00000390: b06d bcbe ba15 2b3e 0d25 69bd 6a53 ce3d
000003a0: ec49 cdbc a013 23be cf38 4e3d 59dc 0cbf
000003b0: 209b 9c3d df9c 533e 329c 953c 5592 9fbd
000003c0: a174 d33e 8391 35be 3122 96be 7e13 083c
000003d0: d8fc 5e3e 9ab4 00bf cdaf 9f3e 5ef1 5f3e
000003e0: 9402 b33e aff7 8a3e 31d6 813e c1f8 833e
000003f0: 7525 6c3f 7fb2 803e 020e 0c3f 3451 11bf
0.074581064 0.7965348 -0.8118626 -0.6751725 1.1896958 -0.9041755 -0.22688194 0.08771045
0.12351809 -0.084223956 0.10994599 -0.9680735 0.28751963 0.051127642 -0.4200687 -0.5942748
0.109723285 -0.44521314 -0.12664878 0.040444348 0.16511874 0.41453844 0.58339024 -0.092331894
0.1164716 0.27209988 0.35114178 -0.2846986 -0.23155615 -0.18752697 -0.49942702 0.6384205
0.66944915 -0.12518336 0.26288167 0.5018188 0.32718322 -1.3049214 -0.12196019 -0.615619
-0.53557783 1.3318591 0.24557042 0.20792909 -0.44980893 -0.24367322 -0.66807836 -0.82531965
0.101344176 0.19530216 0.50665855 -0.3227161 0.0894144 -0.090288155 -0.18567184 -0.7487073
-0.10204605 -0.31778318 -0.48399666 -0.29871446 0.08485144 0.011324918 0.24623257 -0.3152386
-0.34398735 -0.10078867 -0.10135043 -0.057301383 0.5627407 -0.3240722 -0.113776915 -0.67204016
-0.13316154 -0.29763326 0.23041926 -0.3927383 -0.057851203 -0.33886066 0.822526 0.055857014
-0.4707081 0.10065033 0.07411256 0.0131541435 0.8750456 0.07553624 0.28771383 -1.0884942
-0.25464332 -0.11437956 -0.41687652 -0.43197075 0.29481295 -0.38775587 0.22272268 0.4922817
0.34185728 -0.62462646 0.194126 -0.4464512 0.00096468814 0.77610016 -0.80522096 0.5034233
0.16467063 -0.08569081 -0.4150427 0.34027568 0.05266538 -0.34351775 -0.45329085 -0.21003392
0.18439959 -0.13351853 -0.037174728 -0.60439974 0.22506799 0.1653309 0.271963 -0.19568224
-0.4944088 0.045052767 -0.06717661 0.66139674 -0.15082493 -0.1904413 -0.79020774 -0.41859707
0.601451 0.19946744 -0.15769447 -0.16264439 0.2556205 0.16189426 -0.17167793 -0.03532954
0.15060726 -0.17870158 -0.10586694 -0.24189313 0.25965354 0.3730638 -0.2210841 -0.05130696
0.16476817 -0.504989 -0.40294397 0.07780698 0.1789566 0.26343292 -0.114973314 0.60779727
0.48165518 -0.10853162 0.99333864 -0.34448314 1.0706148 -0.38228586 0.061545268 0.21049511
-0.9161789 0.26702893 -0.83130586 0.6666248 1.1897596 -0.38384047 1.851388 0.8039699
-0.7798907 0.2634776 0.2507956 -0.5346843 -0.04085062 0.005840367 0.31668684 -0.06897063
-0.11797259 -0.20243809 -1.3502206 0.48256817 0.58443123 0.23614514 0.4788814 0.06920856
-0.1922376 -0.3270715 0.16483244 0.089478895 0.026730236 0.058181543 -1.0593204 -0.19315499
-0.36280477 0.4208176 0.074171364 -0.44004574 0.20690276 0.3855483 0.22555128 -0.11023805
-0.27474955 -0.2550176 0.13548818 0.015392471 0.2091382 0.51568556 -0.18139735 0.14565521
-0.572274 -0.23818833 -0.45143503 -0.230253 0.010369841 0.26135996 -0.06021139 0.01840551
0.23583013 0.555479 0.50398046 0.16003963 -0.33611432 -0.15959767 -0.5690477 -0.1382487
0.2431734 0.18924958 0.18306749 0.10385435 -0.36802435 0.16707507 -0.0569201 0.10074504
-0.025059663 -0.15925455 0.050347146 -0.55023724 0.07646775 0.2066531 0.018262956 -0.077915825
0.41299918 -0.1773129 -0.2932296 0.008305429 0.2177614 -0.50275576 0.31188813 0.21869418
0.34962904 0.27142093 0.25358728 0.25775722 0.92244655 0.25136182 0.54708874 -0.5676453

bias_ih_l1 f4 [150]
00000000: d2ee 13be b537 5f3c 0414 77be 5c03 c53e
00000010: 75c7 c13d bf31 953e d50f 2f3e 4b25 953e
00000020: 9a37 5e3e cd59 00bb 0f05 8c3e 7fe7 b53d
00000030: 5557 c33e 3717 bebe 2cb1 0b3f 1646 84bc
00000040: 8ff9 e5bd 8c54 02be ca7b c83d 33a6 9e3e
00000050: ff05 733e 90ee 11be affb f63d 9a8c a63b
00000060: a0b9 173e bef8 b8be 8562 a0be e470 36be
00000070: 69e1 2fbe b8c8 27be 142e 35bd 556b af3e
00000080: fa14 333e 8c27 2c3f 5bff b23e eff4 8f3e
00000090: da47 a33e 4229 713e 287b 673e 75d4 d63e
000000a0: cabd d53b 9877 d7bd ebea a73e fa6b 5b3d
000000b0: 627b 6f3e 3666 06bd 44d5 6bbe 171d b13e
000000c0: d7dd 783e e4bb 823e 4c9e 2bbf 58ad 83bd
000000d0: 9326 46bf 753e 463e 1392 963e f402 8a3d
000000e0: d2f1 11bf 03b8 52bf 5cd9 8fbe a247 0dbf
000000f0: 174f 5a3e 6d8f 13bf 6b8b 88be 81ad 51be
00000100: 845e 9abf 6327 83be 8440 1abf dbb5 7abe
00000110: 5598 3cbf 2e27 1cbf 0c85 8ebd 7625 33bf
00000120: e2b1 b4be ebc5 20bf 5885 00bd 7b6b a4be
00000130: b42d 3bbe a6c9 2cbf 3703 cbbe 1d4f 083f
00000140: d1e4 04bf 5522 0bbf 44d8 dbbe 08d0 e9be
00000150: 2958 94bf c3c5 e2be b6f2 f43e 4006 87bf
00000160: 25d4 a4bd 5a12 00bf 80b1 20bf 72f6 68bf
00000170: e5fb 51bf b908 63be 47ed 0abf cf85 86bf
00000180: 21bf 05bf 8931 3a3e 1ba3 6ebd 25f2 9fbe
00000190: 6f49 69be b6fe 3f3b d643 eebd 70e1 93be
000001a0: 4093 233e 29f6 9f3e 0569 35bc baa5 b5be
000001b0: b558 c83e 082a 10be a020 333e 7a3e 8c3e
000001c0: 1dde 18bf d445 6a3e ecb1 8f3f f3b1 843e
000001d0: 213e 5a3c 8ea1 553a c9f4 7abc 5fc5 af3e
000001e0: 23c0 d6bd e052 7a3e 824e 013f 9134 febc
000001f0: 379e a63e 3ffb 37bd edb6 08be 6c33 8abe
00000200: c558 8dbe d7ba 01be e91d 243e a540 b2bd
00000210: 01cc 00be ff26 d6bd fdee a5bd 8b1e 4e3e
00000220: 09b5 1cbd 1b6f 793d 269a 3a3f d709 ca3e
00000230: f16e 653e e9a4 983e 4654 e7be 02d2 b53d
00000240: 3f2b 1c3d b48b ffbc e9a2 0a3f 5253 893e
00000250: a7a8 5c3e 6d89 59be
-0.14446571 0.013624121 -0.24128729 0.38479125 0.094618715 0.29139516 0.17095883 0.29130015
0.21700898 -0.0019584775 0.2734761 0.08882045 0.38152567 -0.37127087 0.5456722 -0.0161467
-0.1122924 -0.12727565 0.09789236 0.30986175 0.23732756 -0.1425116 0.120597236 0.005082679
0.14816904 -0.36127275 -0.31325164 -0.17816502 -0.17175831 -0.16385162 -0.044233397 0.34261575
0.1748847 0.67247844 0.34960446 0.28116557 0.31890756 0.23550895 0.22605574 0.41958967
0.0065228688 -0.105208576 0.32796416 0.05356977 0.2338691 -0.03281232 -0.23030573 0.34592506
0.24303375 0.25533974 -0.67038417 -0.06429547 -0.7740261 0.19359763 0.2940832 0.067388445
-0.57009614 -0.8231203 -0.2809552 -0.5518743 0.21319233 -0.57640725 -0.26668867 -0.20476343
-1.2060094 -0.25615987 -0.60254693 -0.24483435 -0.7366994 -0.60997283 -0.069589704 -0.69979036
-0.35291964 -0.62802 -0.031377167 -0.3211325 -0.18279153 -0.6749519 -0.3965089 0.5324572
-0.51911646 -0.5434926 -0.42938435 -0.45666528 -1.1589404 -0.44291505 0.47841424 -1.0548782
-0.08048276 -0.50028 -0.62770844 -0.91001046 -0.82024986 -0.22171296 -0.54268306 -1.0509585
-0.52244765 0.18182959 -0.05826102 -0.3123943 -0.22781919 0.0029296107 -0.116340324 -0.28882933
0.1597414 0.31242493 -0.011072402 -0.35478002 0.39130178 -0.14078534 0.17492914 0.27391416
-0.5971392 0.228782 1.1226172 0.25917014 0.013320477 0.00081493787 -0.01531715 0.3433027
-0.10485866 0.24445677 0.5051042 -0.031030925 0.32542583 -0.04491734 -0.1335103 -0.26992357
-0.27606788 -0.1266893 0.16027035 -0.08703736 -0.12577821 -0.10456657 -0.08102224 0.20128839
-0.038258586 0.060896974 0.7289146 0.39460632 0.22405602 0.29813316 -0.45181483 0.088779464
0.03812718 -0.031194545 0.5415483 0.2682138 0.21548711 -0.2124383

bias_hh_l1 f4 [150]
00000000: 4e7c 663d e57d cc3c c3d3 17be a65e f83e
00000010: 4e42 5fbd f182 b23e 9e59 973e a127 c63e
00000020: cd4a 923e 50f6 8cbe 4d5d 9b3e 5e16 5d3d
00000030: 8d2e 093f 3f38 c7be 3cb2 183f 581d a73d
00000040: 0599 e4bc d213 10be 66be 6f3e dd16 aa3e
00000050: 0b97 993d 33b8 84be f74c 333e ef70 c3bd
00000060: 2070 993d 144e e7be 527b 33be bb8f 0dbe
00000070: e546 1bbe 64a9 a8be 7823 0dbc d206 ef3d
00000080: a544 813d adfc ee3e 4317 023f 2d37 953e
00000090: 48a6 b33e b1f2 9e3e b852 293e 2fa3 853e
000000a0: e3ef dbbc 2c49 cebd 1925 be3e 06f0 273d
000000b0: 1661 9f3e e266 00be 921b 19be 1da4 e83e
000000c0: 2dc9 223d 0a2b 813e 3b2a 53bf 9041 9fbd
000000d0: d1d1 32bf 7129 b13e 172c d63e db02 933d
000000e0: a216 30bf f705 33bf 3656 8bbe 34ee 01bf
000000f0: 3db8 453e b78a 09bf d6ab 48be 7fc5 49be
00000100: 7c95 8ebf b4dd 20be d2c5 4dbf 2632 f7be
00000110: 6b6e 48bf 3829 34bf 3d7b c0bd f089 40bf
00000120: b0d9 b2be 9f2e c8be 129e 12bd c7b2 d8be
00000130: a20b 82bd 0448 61bf 5bf3 cbbe 51ca 253f
00000140: 85c7 01bf 69a5 0cbf 3862 b0be ea43 e3be
00000150: 0f1e 95bf 65bf d3be 1af2 d23e a4af 6cbf
00000160: 2fac bd3d 538e 40bf 4c17 15bf 42d4 57bf
00000170: a502 5abf d6bb 46be 166f b0be 8e9c 84bf
00000180: 4f63 47bf 0408 a43e 0598 8abd 4216 acbe
00000190: 8bbe 0dbf 1ea8 2d3f b148 023f fd30 55bf
000001a0: b8ea 84be 54b0 7b3f bfee 073f d34f d9be
000001b0: d76f 4e3f 3ca0 6c3e 4349 503f 1636 863e
000001c0: 60e8 87bf 368a 5fbe 36d6 9f3f 217d 3cbf
000001d0: dd93 ed3e 402b 6a3f cd29 16bf 03dd 5d3e
000001e0: d261 64bf e7b6 163f bce9 bc3e ca9f f93e
000001f0: 66f4 413f a411 fa3e b749 a0be b74a ee3e
00000200: babc 9dbe 2e99 943d c22a 91be 83a7 e3be
00000210: dc58 28bf 9d79 12bf f708 eebe 63bb 753f
00000220: 5bef 043f 1252 7d3e 1221 4f3f 620a 473f
00000230: 86d3 02bc d576 263f 384e 46bf 12d7 c93e
00000240: 6547 f6be 2de3 3abf 4995 4b3e e808 f63e
00000250: 4846 5e3f 99e8 46be
0.05627089 0.024962375 -0.14826874 0.4850971 -0.054506592 0.34865525 0.2956056 0.3870211
0.28572693 -0.27531672 0.3034462 0.05397641 0.53586656 -0.389101 0.59646964 0.08159894
-0.027904997 -0.14070061 0.23412475 0.33220568 0.07499512 -0.25921783 0.17509829 -0.09543025
0.07492089 -0.45176756 -0.17527512 -0.1382436 -0.15163763 -0.32941735 -0.008614413 0.11671223
0.06311921 0.4667715 0.50816745 0.29143658 0.350878 0.31044534 0.16535461 0.26101062
-0.026847785 -0.1007255 0.37137678 0.04100039 0.31128758 -0.12539247 -0.14951923 0.45437708
0.039742637 0.2522815 -0.82486314 -0.07776177 -0.69851404 0.3460193 0.41830513 0.07178279
-0.68784535 -0.69930977 -0.2721421 -0.50754094 0.19308563 -0.5372729 -0.195968 -0.19704245
-1.1139369 -0.15709573 -0.80379975 -0.48280448 -0.78293484 -0.70375395 -0.09398506 -0.75210476
-0.34931707 -0.3909807 -0.03579528 -0.42323896 -0.06349875 -0.8800051 -0.39834103 0.64761835
-0.5069507 -0.54939896 -0.34449935 -0.44387752 -1.1649798 -0.4135696 0.41200334 -0.92455506
0.09261357 -0.7521717 -0.58238673 -0.84308255 -0.85160285 -0.19407591 -0.34459752 -1.0360277
-0.7788591 0.32037365 -0.06767277 -0.3361073 -0.5536887 0.6783465 0.5089217 -0.83277875
-0.25960326 0.9831593 0.5309867 -0.42443714 0.80639404 0.23108 0.8136179 0.2621314
-1.061779 -0.21830067 1.2487247 -0.7362843 0.46401873 0.91472244 -0.5865753 0.2166634
-0.8921176 0.58872837 0.36897075 0.48754722 0.7576355 0.48841584 -0.3130624 0.46541378
-0.3080805 0.07255779 -0.28352934 -0.4446374 -0.6576059 -0.5721682 -0.46491215 0.95989054
0.5192773 0.24738339 0.80909836 0.7775022 -0.007985001 0.65025073 -0.774631 0.39421898
-0.48101345 -0.7300289 0.19881167 0.4805367 0.8682599 -0.19424666
