saved_models/learning_rate_0.1.pt (torch, 570955 bytes, 11 tensors)

weight f4 [100, 100]
00000000: 0a6c 66bf 432f 3b3f 34e9 d93f 6f36 8abf
00000010: 123a 7a3e 5806 063f 4869 483f 5c83 8d3f
00000020: 6d40 f03d b6cc 2a3f 35af f2bf b0a8 b6bf
00000030: 54f8 713f 6a6c 8fbe 433b 32bf 0254 c3bd
00000040: 2a6e 51bf ca7d 593f 805f 45bf 2d59 a7be
00000050: 62a9 613f 07e8 05bf 6624 a7bf 6722 a5bf
00000060: 7af0 063e 8159 74be 2d9b 393f bdd4 8e3f
00000070: 8019 573e 0f33 2b3e 1105 88be 3176 66bd
00000080: b26f 943f 2706 e5bd 742d 053f 1da1 7abf
00000090: 7d08 5abf 765d 0e40 34f6 053f d4a8 833f
000000a0: 57e5 94bf aa55 bdbd a3b8 843f 35bb 27bf
000000b0: b9d1 903f 3321 d83c 0acd 103e e81d 463f
000000c0: 538d 9ebe f8eb 533f 93ae 08bf 8d3a 06bf
000000d0: db3e a43f f0f0 d63e 17b1 9bbe 28d8 a53f
000000e0: 0c89 903f 943f fbbf 5078 d7be 73ea 92be
000000f0: 98d5 f93e 77a7 c33e 43cd 28bd 2965 2740
00000100: ff6d d13f 2e4b bbbd 4028 1ebf 779e febf
00000110: 9718 56bf 42ac 4d3f 8d35 bf3e f729 003f
00000120: bd4a 373f 6c8e 1b3f 78a4 803f 2db9 c23e
00000130: c9f6 00bf 44bd 073f 4f81 5a3f 9ec9 2c3f
00000140: 1da6 353f d676 27be abe1 b43e ed7b afbe
00000150: ffbc 3fbf 0006 9c3e 7d4b aebf 16de d8bf
00000160: 7095 bd3f 1dd6 a63e 85bd a3bc 7e55 913f
00000170: 0d2c 5e3f 4075 1fc0 95ad 24bf 084d 8e3f
00000180: bc4d 913f dfe9 c9bf ae79 0f3f 8afd 593f
00000190: b48a 923d a69b 73bf a3b3 3abf 4a14 04bf
000001a0: b067 9fbf 195b 363f 6e2e 68bd f0d2 3ebf
000001b0: 068e 013f 64f6 aebf 903b c3bf e7e3 4c3f
000001c0: 197c 913e 343f a7bf d646 76be 5f4d 07c0
000001d0: dfe8 fe3f b4ce a63f 0164 c8be 0258 a2bf
000001e0: 98c1 613f 2cf6 c43f ccbc 2ebf d276 ba3e
000001f0: 3085 cbbe e27b f0bf a368 cc3e 3bfc 24bf
00000200: 61d4 a73e 1d0b ecbf abcc a93e 46e8 1c40
00000210: f6a9 323f fc91 9abf 8518 c7be 68f2 cb3f
00000220: ab29 eebe 5782 b33e 4b00 583b e713 ad3f
00000230: 1f36 d33e 7473 723c f3e2 423f 1a87 443f
00000240: 1f59 cbbf f980 b3bf b854 27bd 8407 563e
00000250: 09ab b6bf 973a b2bf a931 c6bf 6464 633f
00000260: 11cf 41bf 8bb1 dc3f dc07 203f 7cfb 333f
00000270: e9b5 0abf 84e7 9ebe b837 b73f 153d 863e
00000280: e68e a7bf 71f6 81bf b2ba 8f3f d3b7 ac3f
00000290: ad12 0540 c508 7c3f 0070 873f ae3b f53d
000002a0: 3b45 4cc0 10df 333f 9e43 ec3e 7495 0fbf
000002b0: f49a 343f 0c74 5cbe a702 5c3f fbeb 06c0
000002c0: 4770 91bf 13ff 76bf 8fcb 59bf bcb4 abbe
000002d0: 0f76 613e 646c bbbf f5de 793f 86c3 acbe
000002e0: e584 0dbf 0e2e a8bf 0ce2 803f b7fb a7be
000002f0: 7015 efbd 395d 643e bf7d db3e 7678 943e
00000300: 9336 e1be 209a 66bf 3132 db3e fc6e 103e
00000310: 7527 11bf dbea 85bd 3873 1d3d a315 5a3f
00000320: d2e6 25bf 1bd0 a3be e819 803f fe93 033f
00000330: dba7 553f adc1 0040 c432 33bf f6f0 66bf
00000340: dddf aebf 05bc 923f 2d63 8b3f 805c 0040
00000350: e366 c2be 30e1 793e 5849 d6be eee8 683f
00000360: 43b8 ca3f a224 933f 2fe8 363f 2184 50bf
00000370: 8bb9 e83f 0f62 84bf e113 cd3d 7969 c4bf
00000380: 014f c83f db82 9d3d 6493 2abf 7978 dfbf
00000390: 22e8 973d b40e 97be 69c2 e83f 9fe2 1540
000003a0: ac71 f73f cbe3 6a3e 9e42 eb3d c414 143f
000003b0: cfec 28bf 8cf6 50bb ba2e 8a3f 5c09 8ebf
000003c0: f336 25bf 5cbb a8bf e9e5 01c0 6e0a 6d3e
000003d0: ec2b bbbf 1ac2 81be a53c e73f 2457 123e
000003e0: 2fe7 0e3f 7cd0 a4bd 1863 78be 4a89 5a3f
000003f0: 80d3 a9bd 07db 1abf b7e6 adbf 54e9 943d
-0.90008605 0.7311899 1.7024293 -1.0797862 0.24436215 0.5235343 0.78285646 1.1055713
0.11731038 0.66718614 -1.8959719 -1.4270229 0.94519544 -0.280124 -0.69621676 -0.095375076
-0.8180872 0.84957564 -0.77098846 -0.32685223 0.8814908 -0.5230717 -1.3057983 -1.2901124
0.13177672 -0.23862268 0.72502404 1.1158673 0.21005821 0.16718696 -0.26566365 -0.05626506
1.1596587 -0.11182814 0.5202248 -0.9790209 -0.851692 2.2244544 0.523288 1.0285897
-1.1632489 -0.09244855 1.0368847 -0.6552003 1.1314002 0.026383018 0.14140716 0.77389383
-0.30967197 0.82781935 -0.5339138 -0.5243309 1.2831682 0.41980696 -0.30408546 1.2956591
1.1291823 -1.9628778 -0.4208398 -0.28694496 0.48795772 0.38213703 -0.041211378 2.6155493
1.6361693 -0.09145199 -0.61780167 -1.989211 -0.8363127 0.8034097 0.37345544 0.50064033
0.71598417 0.60764194 1.0050192 0.38031903 -0.50376564 0.5302317 0.8535356 0.67495143
0.70956594 -0.16353926 0.3532842 -0.34274235 -0.7489776 0.30473328 -1.3616787 -1.6942775
1.481123 0.3258523 -0.01998783 1.1354215 0.86785966 -2.4915314 -0.64327365 1.1117258
1.1351848 -1.5774497 0.56045043 0.85152495 0.07155362 -0.95159376 -0.72930354 -0.5159346
-1.2453518 0.71232754 -0.056684904 -0.74540615 0.50607336 -1.3668942 -1.5252552 0.8003525
0.28414991 -1.3066163 -0.2405046 -2.1140974 1.9914817 1.3031831 -0.39138797 -1.2683108
0.88186026 1.5387626 -0.6825683 0.36418778 -0.39750051 -1.8787806 0.3992358 -0.64447373
0.3277922 -1.8440892 0.33163962 2.4516768 0.6979059 -1.2075801 -0.38885894 1.5933352
-0.46516165 0.3506038 0.003295916 1.3521699 0.4125223 0.014798034 0.7612755 0.7676865
-1.5886573 -1.4023734 -0.04085228 0.20901304 -1.4270946 -1.392413 -1.5483905 0.8882506
-0.75706583 1.7241682 0.6251199 0.7030561 -0.5418382 -0.31036007 1.4313879 0.26218477
-1.3090484 -1.0153333 1.122885 1.3493599 2.0792649 0.9845088 1.0581055 0.119742736
-3.1917255 0.7026224 0.46145338 -0.5608742 0.7054894 -0.21528643 0.8594155 -2.108153
-1.1362389 -0.9648296 -0.8507623 -0.33536327 0.22017692 -1.4642453 0.9760583 -0.33742923
-0.55280906 -1.3139055 1.0068984 -0.3280923 -0.11674011 0.22301187 0.42869374 0.28998154
-0.4398695 -0.90078926 0.4281173 0.14104837 -0.5670083 -0.06538936 0.03843996 0.85189265
-0.6480533 -0.3199471 1.0007906 0.51397693 0.8345925 2.011821 -0.6999934 -0.9021143
-1.3662068 1.1463629 1.0889641 2.0056458 -0.3796912 0.24402308 -0.41852832 0.9098042
1.5837482 1.1495554 0.71448034 -0.8145161 1.8181623 -1.0342425 0.10013557 -1.5344688
1.564911 0.07690974 -0.6663115 -1.745864 0.07417323 -0.29503405 1.8184329 2.3419569
1.9331565 0.22938459 0.114873156 0.57844186 -0.6598634 -0.0031885235 1.079551 -1.1096606
-0.6453697 -1.3182178 -2.0296576 0.2314851 -1.4622779 -0.253434 1.8065382 0.14291054
0.5582151 -0.08047578 -0.24256551 0.85365736 -0.082922935 -0.6049046 -1.3586034 0.07271066

weight_ih_l0 f4 [300, 100]
00000000: 96b5 473f 204b 59bf acab 41c0 c95f 0a3f
00000010: 6a38 d83f e0ee 6340 fad6 a4bf 63c9 21c0
00000020: 957f 88bd 0d5b 44c0 662b fabf 9517 773f
00000030: 66c5 793f 142e aabf b1ce 1040 453b 4740
00000040: 34a4 d13e 6e06 a5bf 4a35 1d40 a654 ac3e
00000050: a6c8 4cbd 3cc9 17c0 f02c e83f dca0 63be
00000060: 8f2d cd3f 9f3c 543f 6712 d33f e05f 1340
00000070: f5c6 d3be dd60 15bf 11d1 1a40 b5d6 3c3f
00000080: 54cb ff3e cdd1 ce40 3696 1bc0 9e0d 28bf
00000090: 4d08 163f 95bd b53c a05f dd3d 3656 cfbf
000000a0: 75a6 5840 cec6 323e cfa3 9a3f 38c1 0dbd
000000b0: 1b1c e9bf 231f c6be 2186 96bf bc4c fbbf
000000c0: 4d36 df3e 685d 2d40 7091 e53f b522 8f3f
000000d0: 8468 05bb 3adc 78bf dfd0 36bf 44fc 4fbf
000000e0: 9295 2a40 6a5a 6ebf e4de be3e 158d bbbf
000000f0: 7344 0940 400d 1540 6e33 c5bd 20ea 4fc0
00000100: 470e 7b40 62c1 733f e32a 8e3f e265 6640
00000110: 306f 46c0 ca07 20bf 6628 66c0 564c 683f
00000120: a9c7 dbbf d4c1 2940 6b53 973e 249b 943f
00000130: f969 a6bf 24ac 2f3e 5941 b43e c025 43c0
00000140: 064b 3abd 25dd a5bf c87c 3abf 854f f93f
00000150: a2df 10bf 86ad 1840 8329 28c0 3823 083e
00000160: a151 8fbf 7b00 80bf 586c a13f 2dcd 1e3e
00000170: 87f6 29bf ae50 a3bf 4701 2a40 7fbe 1b40
00000180: c4fc 22c0 c782 833b 5a1c c2bf 3998 ef3f
00000190: 3bd4 5940 7c91 e63f 2194 963f f3c2 50bf
000001a0: c0ce 0c3f 4d29 a6bf bb71 6ebf d72c 89c0
000001b0: a986 89be 65f1 8b3e 1098 9f3f c509 2740
000001c0: f8d3 4e40 c11f 423f 9bd8 8f3e 39e4 9dbf
000001d0: e4ac a0bf 6e25 293f d06e f43f cf1c bb3f
000001e0: ed25 3840 2e32 e5be 9506 01be cf2e 70c0
000001f0: c743 d03f edfd d93e 651f ccbe aa21 d6c0
00000200: b953 02c0 eaae f5bf 05b3 70c0 acf7 413e
00000210: b576 a63f 4fee 863f 9d1f 4cbf 0f94 49c0
00000220: 9c23 70bf 9179 b33f 6394 a93f 5465 cf3e
00000230: d2fc 2dc0 4955 373f 69e2 4340 c617 d1bf
00000240: 4204 a240 9102 ad40 6ba2 bdbf 4d57 923f
00000250: 232f 86bf bed4 5bbb b0ea 08c0 86de 6fc0
00000260: 5ae5 b5bf f347 3840 ce8b 0e40 f78a c83f
00000270: 4ca2 46c0 756f f3bf 1ac9 243f f15b 36bf
00000280: f0ee 263e 95e8 55bf 3f98 04c0 e9da 36c0
00000290: cfdd 76be 3fcc 8140 92bf 1540 5a63 9d40
000002a0: c26c 9fbf 4b06 8c3d 5a40 da3f c756 0ebf
000002b0: 1509 57c0 1903 e0be 4b96 4340 8835 7540
000002c0: a6b0 b140 0358 df3f 617d 203f ae3d 23c0
000002d0: 6067 6cbe fbcd bc40 c241 03c0 e741 7d40
000002e0: e312 92be 069a 8ebe 57d1 183f 67cc 3d40
000002f0: af31 31be 7469 58c0 8dfe 8b3e e544 c6be
00000300: 404b 91c0 d77f b1c0 3920 213f 80ed 1c40
00000310: dedc c33e cb52 07c0 c5aa 81bd 6b1c 3a40
00000320: 93ec 66bf b078 e5bc 6b0d 9cbc e1cb 7140
00000330: 4855 e6bf 8636 3ec0 6152 2cbe f54c 4dbd
00000340: 746f 3cbf 13b5 9f3f 54ef 423f 55b3 4a3d
00000350: 0fd6 1440 43dd a63d bea6 d6be 0b3e a53e
00000360: ed9a 803f 1732 47bf 7c33 c4c0 1ba7 673f
00000370: 73b0 5740 3df4 8b40 4776 0cc0 6491 ac3f
00000380: dfe8 02c0 043f a4bf 58b3 2a40 faa4 913f
00000390: 8813 c73b f28c 8340 dcd7 d93e 9c3f dabe
000003a0: aaad dbbe eb1f 47c0 d6e1 7c40 cbb3 7440
000003b0: ae30 843f c67d 00bf 83cb b53f 6a67 8dbf
000003c0: bf1b fc3e d2b2 4140 1013 8f3e e5d1 033f
000003d0: dba8 4cbe e64a 96bf 14df 5640 3c32 9b40
000003e0: 9d70 12c0 a454 923f b9e6 033f af99 10c0
000003f0: 54e1 ffbf 69f7 9f40 5b2c d6bf 27b0 19bf
0.78011453 -0.84880257 -3.026103 0.54052407 1.6892216 3.5614548 -1.2878106 -2.5279167
-0.06664959 -3.0680573 -1.9544494 0.9652036 0.9756683 -1.3295312 2.2626154 3.1129925
0.4094559 -1.2892587 2.4563775 0.33658332 -0.04999604 -2.3716574 1.8138714 -0.22229332
1.6029528 0.82905 1.6489991 2.3027267 -0.4136273 -0.58350927 2.4190104 0.73765117
0.49959815 6.4631104 -2.4310431 -0.6564578 0.58606416 0.022185126 0.10809255 -1.6198184
3.3851597 0.1745865 1.208124 -0.034608096 -1.8211702 -0.3869563 -1.1759683 -1.9632792
0.43596116 2.708826 1.7935009 1.1182467 -0.0020356486 -0.9721104 -0.7141246 -0.812443
2.665379 -0.9310671 0.37279427 -1.465243 2.1448028 2.3289337 -0.0962895 -3.2486649
3.9227464 0.95216954 1.1106838 3.5999684 -3.1005363 -0.62511885 -3.5962157 0.9074148
-1.7170306 2.6524553 0.2955583 1.1609845 -1.300109 0.1715551 0.35206106 -3.049179
-0.045481704 -1.2958113 -0.7284665 1.9477392 -0.56591237 2.385591 -2.6275337 0.13294685
-1.1196786 -1.0000147 1.2611189 0.15507956 -0.66391796 -1.2758996 2.656328 2.433502
-2.5466776 0.0040133926 -1.5164902 1.871833 3.4035785 1.8013148 1.1763955 -0.8154747
0.55002975 -1.2981354 -0.9314229 -4.2867236 -0.2686055 0.27332607 1.2468281 2.6099713
3.2316875 0.758297 0.28094944 -1.2335273 -1.2552762 0.6607274 1.9096317 1.4618167
2.8773148 -0.44764847 -0.12600167 -3.752857 1.6270684 0.42576542 -0.39867702 -6.6916094
-2.03636 -1.9194005 -3.7609265 0.18942136 1.3004977 1.0541476 -0.7973574 -3.1496618
-0.93804336 1.4021474 1.3248409 0.40506995 -2.718556 0.7161451 3.060694 -1.633538
5.0630198 5.4065633 -1.4815191 1.1432892 -1.0483135 -0.0033543552 -2.1393242 -3.7479568
-1.4210618 2.8793914 2.227283 1.5667409 -3.1036558 -1.9018389 0.64369357 -0.7123404
0.16302085 -0.83558017 -2.0717924 -2.8571112 -0.24108051 4.0561824 2.3398175 4.918378
-1.2455065 0.06837138 1.7050889 -0.5560116 -3.3599293 -0.43752363 3.0560482 3.8313923
5.5528135 1.7448734 0.62691313 -2.5506396 -0.2308631 5.900144 -2.0508885 3.9571474
-0.28530034 -0.27851886 0.5969443 2.9656007 -0.17304109 -3.3814363 0.27342644 -0.38724437
-4.540436 -5.5468554 0.6293979 2.4519958 0.38254446 -2.1144283 -0.063314 2.9079845
-0.90204734 -0.02801165 -0.019049367 3.7780688 -1.7994776 -2.9720778 -0.168283 -0.05012222
-0.73607564 1.2477134 0.76146436 0.04948743 2.325565 0.08147671 -0.4192409 0.32273898
1.004728 -0.77810806 -6.1312847 0.9048936 3.3701446 4.3735642 -2.194719 1.348187
-2.0454633 -1.2831731 2.6671963 1.1378472 0.0060753264 4.110955 0.425475 -0.42626655
-0.42905933 -3.111323 3.951284 3.8234737 1.0327356 -0.50191915 1.4202732 -1.1047184
0.4923992 3.0265393 0.2794423 0.5149215 -0.19986288 -1.1741607 3.3573656 4.849882
-2.2881234 1.143208 0.5152393 -2.25938 -1.999064 4.9989514 -1.6732286 -0.6003441

weight_hh_l0 f4 [300, 100]
00000000: a821 1e3f d3dd 92c0 bb60 a5be 91b0 563e
00000010: d3ee b83d 0f1e f53e 0ee6 b53e aeb1 ce3e
00000020: 617e 51c0 b375 5e3e d331 543f fbc8 c6be
00000030: d1c7 283e 80a9 813f 36fc 2b3d 9e31 003e
00000040: 13d8 0a3f 75da 503f 3c1f 31be fd3e 443f
00000050: ee18 c13f 4a2e aebf 2f67 82bf dac3 86bd
00000060: 9253 61bf 5bdf 0fc0 84fd 43bf d175 8cbc
00000070: d47a b5bf 4be3 053c 9639 553e 9c02 e33f
00000080: 7a6b c1bd e418 aa3d 5e87 483f 864d 44be
00000090: 4e19 0a3f f8dd 39be 8b0d 8d3f 22f5 703c
000000a0: 7fb5 0dc0 e741 17bf 5ae4 523e 5678 6abf
000000b0: 8a7e 353f ff37 5f3e 2dc6 b53f b1fc 29be
000000c0: 199b c73e 67b8 06c0 de4a 73bd 8852 18be
000000d0: f06f afbf 34ce d5be b4cb 1ebd fbdd 9a3f
000000e0: d8a1 b93d 6b31 3a3d bf42 943f 092d 533e
000000f0: 942c 30bc 1971 d43f 72ba 083f c487 5cbf
00000100: 8966 a0bf 5da5 2dbe 4200 e33d cc2a 583f
00000110: f494 483f 468d 3b3f c299 503f 7010 ee3b
00000120: 1224 1a40 ccef cbbe 1e63 c63e f8ed 5dbf
00000130: 745b cabe d444 cb3d c08c 48c0 91aa 40c0
00000140: c6bc 533f 3c0f 1240 e0ba 11bf 8487 ae3f
00000150: 7ed5 243f 619c 0b3f d3c4 44bf 5f89 4cbe
00000160: a647 02bf b02b 11bf 6417 7a3f 21cb 9dbe
00000170: 2e20 a73b 63e2 bf3e c906 98be ec05 173e
00000180: 3b50 dbbf 84f8 98be 4b36 253f eda1 fdbe
00000190: dfea 223f 56dd 263f b809 a13e 3ec1 1f3f
000001a0: 3d78 fe3e 144a 843f 0ec7 843c 7d2f 07c0
000001b0: c34d 723f fc9e 77bf 2084 a53f 8591 b53f
000001c0: e3b6 dd3e 54ce 82be 4458 41bd a58b 8abf
000001d0: 8aca 1cc0 eae9 a93e f3c3 d6bf 55d7 5fbf
000001e0: dae0 14bf aa55 acbe dc1f b3bf 3af6 553f
000001f0: 2a28 7abf 4459 353e cd11 c83f ddcc 0bbe
00000200: 4840 243f eda7 76be 9912 b3be f6e6 2e3e
00000210: 4c54 3dbf 9869 03bf c20c d23f 58f7 adbf
00000220: 9d79 2cbf cd44 bb3c 94e3 2d40 3c1b 493f
00000230: ea9f 58c0 4ef6 2d3f de5c 813f 0fe0 44bf
00000240: b9ce d83f 7b49 b1be db06 473f 1015 533f
00000250: 9227 2c3e 9433 313f 094b 1540 754e 5a3b
00000260: e68f a83e cda4 0a3f e5c5 3e3f 81b0 1dc0
00000270: bcf3 ffbf 8d6b 22bf 2bb4 87bf fbe8 a43e
00000280: aaad 263f 03d0 56be 2881 80bf 5b3a 02bf
00000290: f117 ac3e c52c 983e 5619 543f 4b46 1dbd
000002a0: 250b 6f3f c009 113e c0e1 9b3f 2fbd 433d
000002b0: f267 f1be 38b1 a03f ff1f 7abf 15b1 b0bf
000002c0: c8f9 67bf 817e b23e d880 1b3f 1e19 d9bd
000002d0: 407b 803f d8a5 4e3d 6a1d acbe de2b 34bf
000002e0: 20cd ad3f 82f1 eebe e984 47bf 4118 14bf
000002f0: 1ec4 6ebf 1d28 bbbe a2b8 b13e 8f8a 303e
00000300: 8bf7 d73f 9369 b2bf 6474 7b3f 0136 ea3f
00000310: 28a5 c33e 8864 b13e ba35 e1bf e04c f63e
00000320: fa72 c040 51f4 38bf 038c 053f 5632 a9bf
00000330: 58fc c83d cf5f 36c0 454b cebf 5946 e140
00000340: 3267 8f40 ee10 9a3f 78ea 64c0 f564 72c0
00000350: b62c febf 7730 a93e ba6c 52c0 4b9e 513f
00000360: 8aa8 473f 8f43 4bc0 c519 453f a8d7 27c0
00000370: e604 40c0 3be2 1fc0 b069 1740 ba66 33c0
00000380: 8c68 4b40 72e7 c23f 4ddc 2cbf 1d5d 53c0
00000390: 0e53 86bf fcb8 d13f 5c85 733e e971 e9c0
000003a0: d102 fb3e e8e7 77bf 3c0e 94bf 9a64 2b3f
000003b0: 1795 bcbf b58b 2440 9d40 94bf 5bdc 583e
000003c0: b8e6 3c40 e88c 82c0 edcc 3cc0 507a 2dc0
000003d0: 5f7c a1bf 226b 21c0 efc1 4640 9059 f9bf
000003e0: 3f5d a0bf ebcd 0ebf 6ba0 86c0 6763 0140
000003f0: a2b4 973f 876d 80bd b414 f7bf 5ab7 17be
0.61770105 -4.589578 -0.32300362 0.20965792 0.09029927 0.47874495 0.3552708 0.40369934
-3.2733386 0.21724586 0.82888526 -0.3882521 0.16482474 1.0129852 0.041988574 0.12518927
0.54235953 0.8158334 -0.17297071 0.7665861 1.5085733 -1.3607876 -1.0187739 -0.065803245
-0.88018143 -2.2480075 -0.7655871 -0.017146023 -1.4178109 0.008171867 0.20822749 1.7735171
-0.09444328 0.08305529 0.78331554 -0.19170198 0.5394486 -0.1815108 1.1019758 0.014706882
-2.2142026 -0.59084934 0.20594922 -0.9158987 0.7089621 0.21798705 1.4201103 -0.166003
0.38985518 -2.105005 -0.05939757 -0.14875233 -1.3706036 -0.41758883 -0.038768485 1.2098993
0.09064072 0.045457285 1.1582869 0.20622648 -0.010752816 1.6597015 0.5340949 -0.8614466
-1.2531291 -0.16957612 0.110840335 0.844403 0.78352284 0.7326244 0.81484616 0.007265143
2.4084516 -0.39831388 0.38747495 -0.86691236 -0.39522898 0.09925237 -3.1335907 -3.0104105
0.8270992 2.2821798 -0.56925774 1.3635106 0.64388263 0.5453549 -0.7686283 -0.19974278
-0.50890577 -0.56707287 0.9769194 -0.30819038 0.0051002717 0.37477407 -0.29692677 0.14748353
-1.7133859 -0.29877102 0.6453597 -0.49537602 0.63639635 0.6518148 0.31452727 0.6240424
0.4970111 1.0335107 0.016208198 -2.1122735 0.94649905 -0.96726966 1.2930946 1.4185034
0.43303594 -0.2554804 -0.047203317 -1.0823866 -2.449862 0.33186275 -1.6778549 -0.87437946
-0.58155596 -0.33659106 -1.3994098 0.83578837 -0.97717535 0.17709833 1.5630432 -0.13652368
0.64160585 -0.24087496 -0.34975126 0.17080292 -0.7395675 -0.51333 1.6410143 -1.3591108
-0.6737307 0.022859955 2.7170153 0.7855718 -3.3847604 0.67953956 1.0106466 -0.76904386
1.6938087 -0.34626374 0.77744836 0.82454014 0.1681197 0.69219327 2.3327048 0.0033310924
0.32922286 0.54157716 0.74520713 -2.463898 -1.9996257 -0.6344536 -1.0601858 0.32209
0.6510874 -0.20977788 -1.0039415 -0.50870293 0.33612016 0.29721656 0.8285116 -0.038397115
0.9337638 0.14163876 1.2178268 0.04778784 -0.47149616 1.2554083 -0.9770507 -1.3804041
-0.9061551 0.3486214 0.60743475 -0.10600494 1.0037613 0.05045113 -0.3361619 -0.70379436
1.3578224 -0.4666863 -0.7793718 -0.5784951 -0.93268 -0.36554042 0.34711176 0.17240356
1.6872419 -1.3938469 0.98224473 1.8297731 0.38211942 0.34647012 -1.7594521 0.48105526
6.014035 -0.722478 0.52166766 -1.3218486 0.09813756 -2.8495977 -1.611672 7.0398374
4.481347 1.2036417 -3.5768108 -3.787412 -1.9857395 0.33044788 -3.2878861 0.8188216
0.77991545 -3.1759984 0.76992446 -2.6225376 -3.000299 -2.498183 2.3658257 -2.803145
3.178256 1.5226882 -0.6752365 -3.3025582 -1.0494096 1.6384578 0.23781341 -7.295155
0.49025586 -0.96838236 -1.1566844 0.6695038 -1.4732999 2.571027 -1.1582218 0.21177809
2.951582 -4.0797005 -2.9500077 -2.7105904 -1.261608 -2.5221639 3.1055868 -1.9480457
-1.2528456 -0.55782956 -4.2070823 2.021692 1.1852 -0.06270891 -1.9303193 -0.14816037

bias_ih_l0 f4 [300]
00000000: dd64 12be aaa9 7fbf 6d70 2c3d 385d ed3e
00000010: e1c7 53bf f6e1 ce3f afd8 8ebe f529 b5bf
00000020: dccc f7be b0d9 0d40 9f9e 0cbf d543 15bf
00000030: cce8 713f 5c98 27bf e4cb b43f ea94 27be
00000040: 6678 86c0 7554 1e3f dfad 2640 5120 e5bf
00000050: 15d2 8fbf b36b 443f acd4 4ebf a238 543e
00000060: 8681 46bf de0b 2ac0 e088 83c0 6912 363f
00000070: a2db 983e 3aee c4be cc4a 09bf ca06 5b3f
00000080: 03ea e8bf d751 aebf 8b8d 08c0 410e 24bf
00000090: f051 85bf 9865 50be 472f 2cc0 001a a0bf
000000a0: fc54 f4bf 6497 5cbf 3a24 a5bf 5b14 c43e
000000b0: 11f1 8f3f 23f1 b140 4010 3bbf 7d33 683f
000000c0: 2940 03bf 77f7 c6bf e18e 6cc0 ff70 1fc0
000000d0: ad12 30bf a605 07c0 8746 17bf 3f1a 9dbe
000000e0: 8a9e 0abe f98b 3abf d213 5ebf 10ac 55bf
000000f0: 2752 e23e e04b 8abf 09eb 2b3f d894 48bf
00000100: 233c 87bd b20e ddbb 224f a73f 98ad ee3d
00000110: 8973 0c3e e0db f2be 64cc bebf f316 59bd
00000120: 750a b4c0 d981 aa3f c808 873f a86c b93e
00000130: d223 00be 2be4 af3d c543 9fbe e17e 7dbf
00000140: 2f36 88bf 99b3 8fbf 1331 c43f 560a c5be
00000150: baaa b83d b052 f03f 7be2 473e 3790 a2bf
00000160: d501 c43d 0565 d6be dc2e 35bf 0495 49bf
00000170: a46a 4fbf 74e6 c93d c097 99be 6cf9 09c0
00000180: 9428 7dc0 1f67 1d3e 61bb 323f ee51 f4be
00000190: 0725 763f 4ddf 6e3e 0b1e a1bf c9b2 17c0
000001a0: f2cc a1bf d949 debf a35c 81bf d0f2 01c1
000001b0: 9654 2dc0 6557 24c0 ebe8 dabf c7e5 3dc0
000001c0: 4569 e23b 4610 2dc0 3f92 1abf 0e35 9ebf
000001d0: 4a49 93c0 bf20 d13d 22e8 16c0 a66c 3abf
000001e0: 948c 23c0 8a56 fc3f b246 553f 4a5b 20bf
000001f0: 0799 9bbf ed00 5bbe 6064 db3e 324f eabf
00000200: 33c6 acbf 2b85 b8bf 7aa8 b8bf 2fac 4cc0
00000210: f306 70c0 466b 4dc0 b18f 72bf a789 3cbf
00000220: 9f34 15c0 57e0 3ec0 2ab7 43c0 9eee ddc0
00000230: 1121 47c0 8dc7 8abf fe01 7dbf 51f0 75bf
00000240: 4188 63be 3699 81c0 2fe1 efc0 d19b 5e3f
00000250: 7b26 1fc0 ca15 04c0 57c3 17c1 1f85 f03e
00000260: 074c b53e 1ea8 0ebf e7db b33f 63c2 65bf
00000270: 80a9 04c0 dbc7 94bf f760 61c0 b0a4 683f
00000280: 2f38 8abf 3b29 ebbf b625 33be 5963 16c0
00000290: 51a8 33c0 2288 7f3f c90d 11bf 8753 fa3f
000002a0: b1ba 95c0 cdd0 78bf 1628 5ec0 7f82 7ec0
000002b0: c370 483e e8d4 01c0 3475 92bf c869 aabf
000002c0: 500d 61c0 bac9 be3f b216 2dc0 d32f 04c0
000002d0: f184 1bbf 10fa cdbf f836 c03e 3920 babf
000002e0: 82b7 c8bf e9b7 55c0 a831 9f3f 0811 2dbf
000002f0: 6770 51c0 b5c3 ad3e 1d54 4bbc 0c78 cc3f
00000300: 3528 b7bf 23ab 0dc0 8423 25c0 1a9a e8be
00000310: cc8a 503f 0a07 cabf af0e a4bf cd0f 33c0
00000320: 1e8e 1c40 e632 493c d7cd a5bf 88d2 d5be
00000330: a183 6cbf 68a9 373f e035 303f 67b4 343f
00000340: b142 cfbe 9fe2 2f3f 96f2 a2bd 951d c1bf
00000350: 871c cebe 4fcb b6bf 1211 a6bf 1df8 633f
00000360: 0c24 49be edc9 953d 0be4 b93f a699 d4bf
00000370: 7518 7bbf 2432 c4be b49e 4d3f 2567 58c0
00000380: f041 473f c25c 673f 939c d6be 7bde 8bbe
00000390: 258c dbbe 82a2 0440 f238 593e f990 ae3f
000003a0: d2a3 c53f 9fae adbf 1bfd 5dbe b6bf 9e3f
000003b0: 4275 303e cd0c 3dc0 d223 da3e 082b 34bf
000003c0: 88cc de3f 1f00 cebf 02b7 70c0 ce67 51bc
000003d0: 63dd 00c0 f9a9 acbf 5df4 30bf 5b77 22bf
000003e0: dffd c7be 9cdd 1b40 2ef3 3bc0 51b4 51c0
000003f0: 1ff4 b33f 31a4 0ac0 f482 57bf df4e c83f
-0.14296289 -0.9986826 0.042099405 0.46360183 -0.82726866 1.6162708 -0.2789969 -1.4153429
-0.48398483 2.2164116 -0.54929537 -0.5830663 0.94495845 -0.65466857 1.4124722 -0.163654
-4.202197 0.6184762 2.6043622 -1.7900487 -1.1235987 0.76726836 -0.8079326 0.20724729
-0.7754139 -2.6569743 -4.1104584 0.7112184 0.29855067 -0.38463002 -0.53629756 0.85557234
-1.8196415 -1.3618726 -2.133639 -0.6408425 -1.041563 -0.20351255 -2.6903856 -1.2507935
-1.9088435 -0.86168504 -1.290168 0.3829678 1.1245443 5.5606856 -0.7307167 0.90703565
-0.51269776 -1.554427 -3.6962206 -2.4912717 -0.68778497 -2.1097198 -0.5909199 -0.30684087
-0.1353704 -0.7286983 -0.86748993 -0.8346567 0.44203302 -1.0804405 0.6715551 -0.7835212
-0.06603267 -0.0067461366 1.3071024 0.11654204 0.13715948 -0.47433376 -1.4906125 -0.0530004
-5.6262765 1.3320876 1.0549555 0.3621571 -0.12513664 0.085884415 -0.31106392 -0.99021727
-1.0641536 -1.1226684 1.5327476 -0.38484448 0.090169385 1.8775234 0.19519989 -1.2700261
0.09570662 -0.41873947 -0.70774627 -0.78743005 -0.81022096 0.098584086 -0.2999859 -2.1558485
-3.9556017 0.15371369 0.6981717 -0.47718757 0.9615025 0.2332737 -1.2587293 -2.3702872
-1.2640669 -1.7366287 -1.0106395 -8.12178 -2.7082877 -2.5678341 -1.7102331 -2.9671495
0.0069095218 -2.7041183 -0.60379404 -1.2359941 -4.6026964 0.10211324 -2.3579183 -0.72822034
-2.5554552 1.971391 0.83311 -0.62639296 -1.2156075 -0.21387072 0.42850018 -1.8305418
-1.3497986 -1.441564 -1.4426415 -3.1980093 -3.7504241 -3.2096725 -0.94750506 -0.7364754
-2.3313367 -2.9824426 -3.0580544 -6.935378 -3.1113932 -1.0842148 -0.98831165 -0.9606982
-0.22219945 -4.0499525 -7.496238 0.86956507 -2.4867237 -2.06383 -9.48519 0.46976563
0.35409567 -0.55725276 1.4051484 -0.89749736 -2.0728455 -1.1623491 -3.5215433 0.90876293
-1.0798396 -1.8371958 -0.17494854 -2.3498137 -2.8071482 0.998171 -0.5666166 1.955674
-4.6790395 -0.97193605 -3.4711967 -3.9767148 0.19574265 -2.0286198 -1.1442018 -1.3313532
-3.5164375 1.4905312 -2.7045102 -2.065419 -0.6074973 -1.6091938 0.37541938 -1.4541084
-1.5681002 -3.33935 1.2437029 -0.6760411 -3.2724855 0.33938375 -0.012410191 1.5974135
-1.4309145 -2.2135704 -2.5802927 -0.4543007 0.8146179 -1.5783398 -1.2816981 -2.7978394
2.4461741 0.012280202 -1.2953442 -0.41762185 -0.9238835 0.7174287 0.68832207 0.7058777
-0.4048057 0.6870517 -0.07956426 -1.5087153 -0.4025614 -1.4280795 -1.297396 0.89050466
-0.19642657 0.07313905 1.4522718 -1.660939 -0.98084193 -0.38319504 0.80320287 -3.3812954
0.7783499 0.9037591 -0.41916332 -0.27318177 -0.4288036 2.0724187 0.21213129 1.3637992
1.5440619 -1.3568915 -0.21678583 1.2402256 0.1723223 -2.9539063 0.42605454 -0.7037816
1.7406168 -1.6093787 -3.76117 -0.012781097 -2.0135124 -1.3489372 -0.6912287 -0.6346337
-0.39060876 2.435401 -2.9367175 -3.2766306 1.4058875 -2.1662714 -0.84184194 1.564907

bias_hh_l0 f4 [300]
00000000: 7b9a 21be 22fd 80bf f09c be3c 5d34 013f
00000010: 2b81 5cbf 40dc df3f 293f dbbe 2540 bdbf
00000020: afec e6be 1e6d 0740 3332 f9be 7132 00bf
00000030: 9e32 4f3f 5c14 3abf 894b a13f 13e1 50be
00000040: 1049 85c0 7808 403f f299 2340 4bf5 e3bf
00000050: 67ce 9bbf c023 393f 1cc4 76bf de8b 1c3e
00000060: dc07 57bf a8bc 2ec0 f0a8 80c0 7805 173f
00000070: 74c7 da3e 3430 99be 1817 19bf 2e24 6d3f
00000080: 39d4 efbf 8df0 aebf 6997 07c0 22e2 44bf
00000090: 4c10 92bf d0d1 4fbe 5178 26c0 1107 8bbf
000000a0: aa74 f6bf c4f6 60bf 49e0 9ebf 5dff ef3e
000000b0: 57af 883f c670 af40 1ec7 42bf a397 683f
000000c0: 8317 b6be 0afe bebf 4bef 64c0 6554 1fc0
000000d0: f5b4 27bf cfaa 03c0 2d49 2ebf 13cc aebe
000000e0: ae26 e6bd b741 54bf acc5 6dbf c2c3 6dbf
000000f0: 1037 003f 14d4 91bf 53c7 233f c2e0 43bf
00000100: 05ce 7cbd 59d7 c93d b054 9f3f d73e 643c
00000110: 2ae2 063e 9bc4 13bf 3e7e bdbf a269 b93c
00000120: f367 b4c0 a32e ac3f 650a 993f 3c05 d93e
00000130: 4060 03be 0f8e f63d 85e8 bebe 8541 53bf
00000140: afbc 89bf fbd4 98bf 1bdf d23f 5184 bcbe
00000150: 2e39 a0bd 58f6 e33f c367 073e e16e a9bf
00000160: 851e 153e 9337 d3be 34bb 36bf 8c64 58bf
00000170: fb5a 31bf 4fe9 263d 0d97 c8be c9ef 08c0
00000180: e7a3 81c0 625d 6bbc 4b16 313f eb64 0cbf
00000190: 197a 493f d30a 343e b9a7 9dbf 28b5 22c0
000001a0: ff88 a1bf 455b ddbf f107 6fbf 10cf 02c1
000001b0: 2068 31c0 bb13 1fc0 be32 dfbf e5c4 36c0
000001c0: 385f 033d 88c9 2cc0 67fa 21bf d7a0 98bf
000001d0: 7cfe 95c0 8872 f53d 7b25 0ec0 61d2 3fbf
000001e0: ac72 1fc0 e8cb 0040 705a 7b3f 25aa ecbe
000001f0: f3e4 9ebf 0eb0 28be ed44 d23e 3615 e0bf
00000200: fb17 9cbf 4d18 cbbf 4629 b8bf 2dfa 57c0
00000210: c56d 6ec0 829a 4bc0 10fb 5ebf 75fb 43bf
00000220: 8674 1bc0 83a4 49c0 3ac8 3dc0 c914 ddc0
00000230: 4617 42c0 f07b 73bf c746 84bf 3dbb 79bf
00000240: 4cd6 dfbd f0ab 81c0 7dac efc0 314e 383f
00000250: 5689 23c0 1e35 09c0 5df5 15c1 f58a 163f
00000260: 04aa c33e 1694 ddbe c39e b33f 6560 7ebf
00000270: 0251 fbbf af8f 96bf af4d 62c0 4ad5 5a3f
00000280: 9915 80bf e743 e2bf 7af0 09be bfaa 13c0
00000290: 0c9d 37c0 5678 5e3f e00a d4be 81cc 0340
000002a0: 79a3 94c0 a94b 7dbf 62fd 65c0 0f5f 7bc0
000002b0: e77d 5f3e 05f9 06c0 68e5 98bf 4a62 aabf
000002c0: 630c 69c0 309c ae3f b814 2ac0 3442 02c0
000002d0: 253a 2cbf b473 cbbf 4270 da3e d5f2 c3bf
000002e0: 4e2a cdbf 2544 5bc0 ac2c a93f 0045 2fbf
000002f0: 0ab8 58c0 d371 823e e662 e9bd a494 d43f
00000300: 088b c3bf 1a77 0cc0 12ab 27c0 4b16 08bf
00000310: 863d 323f 4ae4 c7bf 11a6 95bf bfc0 3ac0
00000320: e959 8d3f 040c 3f40 da6c 54bf 711a 84bf
00000330: 8fbb e9bd 1398 603f 8b06 6c3e b881 7a3f
00000340: 69ee b7bf 850a 563f b40b bcbf 43ea 0bc0
00000350: d890 4dbf bc0f 2ebf 94ab cebf 17f7 b63f
00000360: 0d89 17c0 5380 583f 5154 b83f 65f2 b6bf
00000370: a1a0 cfbd 53b3 bc3e 8784 eb3e 523c 11c0
00000380: 9c7e 963f 1342 aa3f ae8b 9f3f 3664 9e3e
00000390: d636 adbf b4b3 c43f 54f5 563d d854 9c3f
000003a0: 889e 913f 9070 49be d17f 8dbe b8af d73f
000003b0: cf19 313f fb84 1fbf 07cd 3a3f e38d b8bf
000003c0: 673f ce3e 27d2 edbf c059 e9be 91db 91bf
000003d0: d6a3 4bc0 583c f2bf 4587 9ebf 0e22 6cbf
000003e0: c159 74bf adb9 a93e 3c9b 9f3f 4fc5 b7bf
000003f0: 59c0 36bf 21a6 dbbe 58c7 66be ba63 e83d
-0.15781586 -1.007725 0.023268193 0.50470525 -0.86134595 1.748909 -0.42821625 -1.47852
-0.4510245 2.116035 -0.4867111 -0.5007697 0.8093661 -0.72687316 1.2601177 -0.20398359
-4.165169 0.7501292 2.556271 -1.7809232 -1.2172364 0.72320175 -0.9639299 0.1528773
-0.8399637 -2.7302647 -4.0206223 0.5899272 0.42730296 -0.2991959 -0.59800863 0.9263333
-1.873664 -1.366716 -2.1186163 -0.7690755 -1.1411223 -0.20294881 -2.6010935 -1.0861531
-1.9254353 -0.87876534 -1.2412196 0.46874514 1.067851 5.4825163 -0.7608508 0.9085638
-0.35564813 -1.4921277 -3.5771053 -2.489526 -0.65510494 -2.0573003 -0.6808041 -0.3414007
-0.11237846 -0.8291277 -0.9287975 -0.9287683 0.5008402 -1.1392846 0.6397602 -0.7651483
-0.061719913 0.098555274 1.244772 0.013930998 0.13172212 -0.5772187 -1.4804151 0.022633377
-5.637689 1.3451732 1.1956297 0.42386806 -0.12829685 0.12038814 -0.37286773 -0.8252185
-1.0760707 -1.1939996 1.6474336 -0.368197 -0.07823406 1.7809553 0.13223176 -1.3236963
0.14562424 -0.41253337 -0.713794 -0.8452842 -0.6927945 0.040749844 -0.39177743 -2.1396353
-4.0512576 -0.014365526 0.6917464 -0.5484149 0.7870193 0.17582254 -1.231681 -2.542307
-1.2619933 -1.7293478 -0.9337149 -8.175552 -2.7719803 -2.4855793 -1.743736 -2.8557675
0.03207323 -2.6998005 -0.6327271 -1.1924084 -4.687315 0.11984736 -2.2210376 -0.7493039
-2.491374 2.0124454 0.9818487 -0.4622356 -1.241362 -0.1647341 0.4106821 -1.7506473
-1.2194818 -1.5866791 -1.4387596 -3.3746445 -3.7254498 -3.1813054 -0.8710184 -0.7655557
-2.428987 -3.150666 -2.9653459 -6.9087873 -3.0326705 -0.9511099 -1.03341 -0.9755133
-0.10929546 -4.0522385 -7.4898057 0.7199431 -2.5552573 -2.143867 -9.372403 0.5880578
0.3821565 -0.43277043 1.4032825 -0.99365836 -1.9634097 -1.1762599 -3.5359914 0.85481703
-1.0006591 -1.7676972 -0.13470641 -2.3072965 -2.8689604 0.8690237 -0.41414547 2.059357
-4.644955 -0.98943573 -3.5935903 -3.927677 0.21825372 -2.108949 -1.1945009 -1.3311245
-3.641381 1.3641415 -2.6575146 -2.0352907 -0.6727622 -1.5894685 0.4266377 -1.5308481
-1.6028535 -3.4260342 1.3216758 -0.6846466 -3.3862329 0.25477466 -0.113958165 1.6607862
-1.5276804 -2.1947694 -2.6198163 -0.53159016 0.6962513 -1.5616543 -1.1691304 -2.9180143
1.1043063 2.9851084 -0.82978594 -1.0320569 -0.11412727 0.87732047 0.23049371 0.97854185
-1.4369632 0.836098 -1.4691072 -2.1861732 -0.8029914 -0.6799276 -1.6146111 1.4294156
-2.36774 0.8457081 1.4400731 -1.4292723 -0.101380594 0.36855564 0.45999548 -2.2693067
1.1757388 1.3301414 1.2464502 0.3093583 -1.353236 1.5367341 0.052480057 1.2213392
1.1376505 -0.19671845 -0.2763658 1.68505 0.69180006 -0.6231229 0.72969097 -1.44183
0.40282747 -1.8579758 -0.45576286 -1.1395131 -3.1818748 -1.8924665 -1.2385031 -0.92239463
-0.95449454 0.33149472 1.2469249 -1.4357089 -0.7138725 -0.42900184 -0.22536981 0.11347146

weight_ih_l1 f4 [300, 100]
00000000: 9abc 5bbf e3c5 353f 373e 3d3f b43c 2e3f
00000010: 8fae 21c0 da55 4d3f b1c9 cd3e e2b1 9dbe
00000020: 83b0 a5be 381e 72bf f534 023d 416b 0440
00000030: e20a 6e3f 86f6 863f a342 73bd 7e36 613e
00000040: 4790 9540 8e37 243f 5632 90bf 6ba8 27bf
00000050: d9d0 76be e5b4 bcbf eaae c3be ec73 1f3f
00000060: 35c2 71bf 325c b73f cee8 1ebc e4c1 a7bf
00000070: 343a f03d 6d3e f93e e9e6 33bf 2e0d 1b3f
00000080: 2a9c 76bf ec7e acbe 0ef1 12c0 a3e0 15bf
00000090: ed8b ae3f a765 8c3f 45ec f73e 1448 b93f
000000a0: c8ba 9f3e 3958 373f bc6f bf3f a62d ebbf
000000b0: a040 dbb8 555e 823f 348d 25bf 368f 463f
000000c0: cc64 5a3f 9710 0bbf 3e12 f63f 3d49 c63f
000000d0: feb7 a93f 798b a63f 65a6 bc3f 1330 09bf
000000e0: a2a7 47bf 3edf 283f 43cc 00bf 0889 b6bf
000000f0: 9c90 473e 6749 043f e047 3d3f 1d3e a6bf
00000100: 85db 3cbe bcb8 27bb 5ecc ed3f 0e9a 1fbf
00000110: cb9a bbbf 3370 0d3f 7630 2abd 33b7 9e3f
00000120: 9ea3 f1be e78b ccbe 79bd dc3d 7d95 0ebf
00000130: d337 34bf bb7f 573f d392 1d3e 18d4 60be
00000140: da05 1e3f 3b6f ca3f d66e 9e3e f628 2abf
00000150: f2d7 023e 31ce fabe bb62 0fbf 2824 853f
00000160: a635 28bf 0be2 893e 149c 183f d63c d33d
00000170: 8f64 3040 35df 2b3f 7313 82bf 631a 3940
00000180: 377a 193f cce5 3c3f 0646 a6bf e635 81bf
00000190: cfbb 37bf 96df 4fbf 00e1 6abf b6c5 c13f
000001a0: 25c8 573f 902d 1c3d 037f a2be 1212 c13f
000001b0: 3eb6 64bf b0b5 0f3f c7c2 debe 93e5 163e
000001c0: 1c5d 3b3c b480 fc3f 0541 283f 7fb0 1840
000001d0: c46a e13f ac22 f6be aae6 1c3f 9adb f4bf
000001e0: 82d1 743c 273a 6bc0 8134 23c0 2fe7 2dbf
000001f0: 5837 a9be eed1 02bf 87bc bcbd 85d3 543f
00000200: cb6d 8c3f e3c1 703f bab2 d7be 23a9 013f
00000210: e3d4 f0be b31d d13e 3763 18bf 81ca e43e
00000220: 7cd1 e8bf 14f1 a2be 1d10 c73f dd5b 8a3f
00000230: 5104 c0be 2bf6 363e 24c8 2e3e da57 2dbf
00000240: b2d7 0fbf 7355 763f 8cea 03c0 0db0 a33e
00000250: c250 933f 030a 693f 685e b23f c02a 7cbf
00000260: fdaf 823f a496 a93f d675 b7bd 492b d6bf
00000270: 5d3c 2d40 4b25 81bf 8dba f3be cce7 a83f
00000280: e01d 55bf c237 173f e024 423f 64e0 e2bf
00000290: 6b1b 753f adef dabe 3689 efbd e0fd 803e
000002a0: e46f 44bd fd7e 75be e7e9 fcbe a14d afbe
000002b0: a515 583f 3817 c5bf 2830 d7be bb8b 57bd
000002c0: 2c3c abbf ee21 043e d626 1abf 5f7d d6be
000002d0: b677 dcbe e0ea 473f 614f 8b3f 78b0 51c0
000002e0: d99f 883a 9ae7 d93f 8b76 81bf ebe0 f4be
000002f0: ba7b b03d e1cc 8abf 7c49 9cbe 8ac8 a63e
00000300: 2966 c43e 68c2 bebe 371e 4fbe 29c2 583e
00000310: caa1 c53f 6211 24bf 3276 d83d 524c 79bf
00000320: afbb 32bf 128e 19bf 4dfb df3e 25ed 253f
00000330: b266 19be 9871 5d3f b288 9fbd 04ef e7be
00000340: 740d 10bc 1fa8 57bf 7fd0 1c3f 596a 543f
00000350: 2851 2e3f 6881 3c3f bd9f a9be 6e1b 093f
00000360: 944f 3c3f a817 0d3f 9c73 fa3e 86f1 a9be
00000370: 2e0a 35bd 2ed8 61bf a145 3cbf 5db5 483f
00000380: 1ca0 c0be 9469 123f e0d1 55bb b390 1dbe
00000390: 11bc 8e3d 618f 403f 33ca b5be 6094 5c3f
000003a0: 64c5 2fbf a7ca a7be 9be7 39bf 5732 43bf
000003b0: 3e3d 903e af2b 9c3d c673 583f 850a 8d3e
000003c0: d202 8fbd 1d53 133f 4011 0d3f 7c6c 1abf
000003d0: e93f 593f b79c 253f 2902 613e 2de6 443f
000003e0: cefd 3f3f 8d41 20bf 8c07 4c3f ff6a 623f
000003f0: 6120 4dbe 434f 88bd f4f0 653f bd3d 2ebf
-0.8583466 0.71005076 0.7392306 0.68061376 -2.5262792 0.80209124 0.4019294 -0.30799776
-0.3236123 -0.9457736 0.031788785 2.0690463 0.92985356 1.0543983 -0.05938972 0.21993443
4.673862 0.6414727 -1.1265361 -0.6549136 -0.24103107 -1.4742705 -0.38219386 0.6228626
-0.9443696 1.4325011 -0.00969906 -1.3106046 0.11729851 0.4868044 -0.70274216 0.60566986
-0.9633204 -0.33690584 -2.2959628 -0.58545893 1.3636452 1.0968522 0.48422447 1.4475121
0.3119719 0.7161899 1.4955974 -1.8373306 -0.00010454771 1.0185038 -0.64668584 0.7756227
0.85310054 -0.5432219 1.9224317 1.54911 1.3259275 1.3011314 1.473828 -0.5358898
-0.7799016 0.6596564 -0.5031168 -1.4260569 0.19488758 0.51674503 0.739378 -1.2987705
-0.18443115 -0.0025592288 1.8577993 -0.62344444 -1.4656614 0.5524933 -0.041550122 1.2399658
-0.47195143 -0.39950487 0.107783265 -0.5569685 -0.7039768 0.84179276 0.1538804 -0.21955907
0.6172768 1.5815195 0.30943936 -0.6646875 0.12777689 -0.48985437 -0.56010026 1.0401659
-0.6570686 0.2693027 0.59613156 0.10314338 2.7561376 0.6713746 -1.0162185 2.8922355
0.5995211 0.7378814 -1.299012 -1.0094573 -0.7177095 -0.8120054 -0.9174957 1.5138462
0.8428977 0.03812939 -0.31737527 1.508364 -0.8934058 0.5613661 -0.43507978 0.14736013
0.011435773 1.9726777 0.6572421 2.3857725 1.7610707 -0.48073328 0.61289465 -1.9129517
0.014942529 -3.6754243 -2.5500796 -0.67930883 -0.33050036 -0.5110158 -0.09215646 0.83135253
1.0971006 0.9404585 -0.42128545 0.5064871 -0.4703742 0.4084297 -0.5952639 0.44685748
-1.818893 -0.31824553 1.5551792 1.0809284 -0.37503293 0.17867343 0.17068535 -0.67712176
-0.561885 0.96224135 -2.0611906 0.31970254 1.150902 0.910309 1.393506 -0.9850273
1.0209957 1.3249097 -0.08958022 -1.673196 2.7068093 -1.0089506 -0.47603264 1.3195739
-0.8324871 0.59069455 0.75837517 -1.7724729 0.9574496 -0.42760983 -0.11696093 0.2519369
-0.04795827 -0.23974223 -0.49397203 -0.34238914 0.84408027 -1.5397711 -0.42028928 -0.05262349
-1.3377738 0.12903568 -0.6021551 -0.41892526 -0.43060082 0.78092766 1.08836 -3.2763958
0.0010423615 1.7023804 -1.0114301 -0.4782785 0.08617349 -1.0843774 -0.30524814 0.32574874
0.38359192 -0.37257695 -0.2022637 0.21167816 1.5439999 -0.64089024 0.10569419 -0.9738208
-0.6981763 -0.5998241 0.43746415 0.6481498 -0.14980581 0.86501455 -0.077897444 -0.45299542
-0.00879227 -0.8424091 0.6125564 0.82974774 0.68092585 0.7363496 -0.33129683 0.5355748
0.73558927 0.5511422 0.48916328 -0.3319208 -0.04419916 -0.8822049 -0.73543745 0.7840174
-0.37622154 0.5719235 -0.0032626316 -0.1538723 0.069694646 0.7521878 -0.35505828 0.861639
-0.6866057 -0.327718 -0.72619027 -0.7624869 0.28171724 0.076255195 0.84551656 0.27547088
-0.0698296 0.57548696 0.55104446 -0.60321784 0.84863144 0.6469225 0.2197348 0.7691372
0.7499665 -0.6260002 0.79699016 0.88444513 -0.20031883 -0.06655743 0.8982079 -0.68062955

weight_hh_l1 f4 [300, 100]
00000000: 9cf7 df3f 8d46 d7bd 3afd 003f 195e 0abf
00000010: d75a 043f 80fa 77bf d820 503f 424e 803f
00000020: a333 ac3e 2359 ec3f 67a7 f33f 8dba 8f3d
00000030: 957d 90bf 2030 f53e 4276 5cbf c5b3 57be
00000040: 3c05 60bf 1d29 c9be 7312 7d3f 00de dd3e
00000050: 5515 c73e 2383 6abf a42a a9be b80a 1c3f
00000060: cd30 b6bd 7725 c73e 2ba7 dcbe 8989 023f
00000070: 1a7a bd3e b4b6 c63e ea33 8bbf 631e 1d3e
00000080: 2399 ad3f 1c43 2c3f 4a62 b23d 4c79 2b3f
00000090: dae4 4dbf 15ed a83e 6cec 9f3e 9bed c43f
000000a0: b120 8f3f 5b9a 783f 4927 743e 1aca 3dbf
000000b0: cf68 5f3f 042b 82bd 074a 4fbf 4dd3 53bf
000000c0: 26d9 5c3e 685d 443d 382e 44bf 44e0 863e
000000d0: 96a5 443e 7d77 c6bf 43c5 343d 942d ba3e
000000e0: 7118 983e 682d 98be 7d61 3cbf 5797 113f
000000f0: 75e3 1abf a5f5 03c0 52d4 63be ed25 9f3e
00000100: 31c6 8abf 2405 f9bd 0795 833f ac40 48c0
00000110: 4ac9 b33f 3f84 aabf b621 263f cd24 453f
00000120: 68a0 d93e 103f 853e 8a33 02bf 7d4f 05be
00000130: 7344 42bf d535 63bf bb97 90bf 610e 4e3f
00000140: 35ba 5ebf 5495 86be 5a28 a43f f5c5 ac3d
00000150: 051e 23be bb5e dabe 0d76 663e 72fb 06be
00000160: b4fb a13f 418e 423f f212 be3d d0a3 f13d
00000170: 320e 1cbe 260c cebe 56e6 5f3f 414c bc3f
00000180: 9811 3f3f e428 9d3f 0f97 483f 9de1 dc3f
00000190: cfef bc3f adb0 c2be 1b71 f53e 1373 0f3f
000001a0: 6268 b0be aac9 b4be f7cc d73c 545e 2dbf
000001b0: a5ff 51bf bdbb f9bc f50b 0b3f de35 f63e
000001c0: c1df 92bf f6a1 543e 7b23 09be 69e3 9e3d
000001d0: 2dfb ac3e da5c 563f 29c8 3a3e e9e8 203f
000001e0: ab18 573e c9a2 3f3f 5667 843f 40b1 563f
000001f0: 7bf6 643f b0a7 04bf 935b 793e 86d4 363f
00000200: 971c 203e 86eb f13f 2816 843e 86da 8c3f
00000210: 8549 553f 7532 d3be f1f5 0ebf 9383 f7be
00000220: 29c2 643e 37f2 933e c234 5e3f fa0b f53f
00000230: c80d 52bf 1025 a6bf dab6 71bf 8dd3 043f
00000240: 6d6d 30bd 572f 8e3f 617c f1ba 27b3 57bf
00000250: 084d 10c0 41dc 68bf 90cb 45bf ccd8 8a3f
00000260: 345c 70bf 3a14 66bf b094 44bf d8bb ab3e
00000270: 687a 833f 71df 15bf f408 4abf c592 153f
00000280: 051f a4bf cd6e 9cbf 3076 223f b3d4 d83e
00000290: 5c17 b2bf 860d 1a3e c90f 153f 940f a2bf
000002a0: 51d6 c8bf ffc3 ff3e d22b 19bf 90f0 aebf
000002b0: 7e9b a03f 24eb 9d3f f9b9 723e cb30 463f
000002c0: cf05 0e3d c0a0 87be 2fbe 333f 700f 9a3f
000002d0: 1e50 53be 2348 02be 807c 45be d51f 60bf
000002e0: 1152 5c3f 2a9b 573f 2e70 63be 0770 4bbf
000002f0: 9b20 d43d 138c 2e3f 168d 7f3e 4170 be3f
00000300: 910d cdbe 9f3c 2f3f 17f2 23bf 4a28 6340
00000310: 4fd8 47bf 41f5 5bc0 b75c 3dbe f4f9 ae3f
00000320: adce 083f 1009 073d 7bbc e13e 9a87 3f3e
00000330: 7074 bf3d abd9 56bf 8980 3f3f fe02 803f
00000340: 6e5b 313e 9c70 503f da5c 273e 3b38 29bd
00000350: defc 43bf f199 b53e 6211 42bf 9938 57bf
00000360: b7bb 21bf ce86 8dbe 043b 633f b71b 01be
00000370: a26a 8e3e 4e9a c2be a297 05be b40a bfbe
00000380: dffd 3ebe 0912 953e 310c aabe 26f3 ea3e
00000390: 5462 da3e d309 a6be 15ab 1bbf 6196 23bd
000003a0: 4541 783f 834e 0d3e a2bf 4a3e c323 e43e
000003b0: c5fa 3dbf 08c5 f13e 9131 133e 20ca f0be
000003c0: 7037 403f 7239 133d 5a60 cf3d 9093 b2be
000003d0: 2d4b 793f cdb0 69be b82e 66bf ceb2 39bf
000003e0: c583 e43e a03c 033e 3624 52bf b9cd 023f
000003f0: c41d 5f3e e73e e5be 8138 a9be aa77 fc3e
1.7497439 -0.10511503 0.50386393 -0.5404983 0.5170111 -0.9686661 0.81300116 1.0023882
0.33633146 1.8464702 1.9035462 0.070180036 -1.1288325 0.4788828 -0.8611795 -0.2106467
-0.8750799 -0.3928918 0.98856276 0.43333435 0.38883463 -0.9160635 -0.33040345 0.60953856
-0.08896027 0.3889577 -0.4309629 0.5099111 0.3700722 0.38811266 -1.0875218 0.15343623
1.3562359 0.672899 0.087101534 0.6698196 -0.80427325 0.3299338 0.31235063 1.5385011
1.1181852 0.9711053 0.23843111 -0.7413651 0.872693 -0.06355861 -0.8097233 -0.82744294
0.2156721 0.04794064 -0.76633024 0.26342976 0.19203791 -1.5505215 0.044133436 0.36362898
0.29706147 -0.29722142 -0.73586255 0.5687155 -0.6050332 -2.061868 -0.22248963 0.31083623
-1.0841733 -0.121591836 1.0279855 -3.1289473 1.4045804 -1.3321608 0.6489519 0.7700928
0.42505193 0.26024675 -0.5085989 -0.13018604 -0.75885695 -0.88754016 -1.1296304 0.8049069
-0.8700288 -0.26285803 1.2824814 0.08436195 -0.1592942 -0.426504 0.2250597 -0.13181856
1.2654939 0.7599831 0.09280957 0.11798823 -0.1523979 -0.40243644 0.8746084 1.4710771
0.7463622 1.2278104 0.783555 1.7256352 1.4760684 -0.38025418 0.47937855 0.56034964
-0.34454638 -0.35310107 0.026342852 -0.6772206 -0.8203071 -0.030485028 0.5431512 0.48087972
-1.1474534 0.20764908 -0.13392441 0.07758219 0.33785382 0.8373543 0.18240418 0.6285539
0.21005504 0.74857765 1.0344036 0.8386421 0.894386 -0.5181837 0.24351339 0.71418035
0.15635906 1.8900001 0.25798154 1.1004188 0.83315307 -0.41249433 -0.55844027 -0.4834257
0.22339691 0.28895733 0.8679925 1.914428 -0.8205228 -1.298006 -0.94419634 0.518853
-0.043073107 1.1108197 -0.0018423909 -0.8425774 -2.2547016 -0.9096108 -0.77263737 1.0847411
-0.9389069 -0.89874613 -0.7678938 0.3354175 1.027173 -0.5854407 -0.7891991 0.5842708
-1.2821966 -1.2221314 0.6346159 0.42349777 -1.3913379 0.15044221 0.5822721 -1.2661004
-1.5690404 0.4995422 -0.5983249 -1.3667164 1.2547452 1.2337384 0.23703755 0.774182
0.03467351 -0.2648983 0.7021207 1.2035961 -0.20636031 -0.1272283 -0.19285774 -0.8754857
0.86062723 0.84221137 -0.22210762 -0.79467815 0.103577815 0.68182486 0.24956164 1.4878007
-0.40049413 0.68451875 -0.64041275 3.549334 -0.78064436 -3.436844 -0.18492399 1.367003
0.5344036 0.032967627 0.44089112 0.18704072 0.093483806 -0.83925885 0.74805504 1.0000913
0.17320034 0.8142183 0.16344014 -0.04131339 -0.7655772 0.3546901 -0.75807774 -0.84070736
-0.63177055 -0.2764191 0.88761926 -0.12608229 0.2781573 -0.3800835 -0.13046125 -0.37312853
-0.18651532 0.29115322 -0.33212426 0.45888633 0.42653143 -0.3242937 -0.60807925 -0.039938334
0.96974593 0.13799481 0.19799665 0.44558534 -0.7421077 0.47220635 0.14374377 -0.4702921
0.7508459 0.035943456 0.101257995 -0.34878206 0.97380334 -0.2282135 -0.8991504 -0.7253846
0.44631782 0.12816095 -0.82086504 0.5109516 0.21788698 -0.44774553 -0.33050922 0.49310046

bias_ih_l1 f4 [300]
00000000: be54 23bf c83b 903e 3ff7 26bf 05ff e6bf
00000010: 1cf5 a73f 430b 5dbe e705 c23e afd8 3cbf
00000020: d262 3b3f 81e5 90be cd58 a3bf 1800 1dbe
00000030: d46f 2bbf 9cd3 c1be 4d2c 5bbf 1f1a 05c0
00000040: 0bd4 ffbe 1e67 453e b070 cd3e c2ef 7ebe
00000050: 32be 28bf a60a 09bf d806 5fbe fb4c ba3e
00000060: 64ab 443f bc95 ce3f c6dd 72be eac7 60bd
00000070: 1114 5dbf 5dcb 6d3f 2a73 e4be 9c19 03c0
00000080: 031a 573f 8f40 37bf b7a5 f7bd 0e02 c8be
00000090: 45c2 2fbf 93d5 30bf d75f 3e3f 77de b0bc
000000a0: e323 353f c985 953f e299 c43e dbb2 c4bf
000000b0: f80c 3bbe 3751 0d3f 8d28 a23e 6fa3 0c3e
000000c0: 5847 c83e 01b5 5ebd f166 2bbf aae5 f13f
000000d0: f954 503f 438e 013f a020 3b3f 13f9 313f
000000e0: 0576 bb3f 3e7c 3cbe 0f14 b83d 56c1 fabb
000000f0: 9879 5fbf 4ed3 1f40 74f1 f3be 5e89 4b3e
00000100: 6b3d 43be 7cf5 413f 76a3 873e bf62 d83f
00000110: ee8d 1bbd 1330 babe 7c67 2d3f a601 46bf
00000120: 9cf0 163f 0118 77bf e9ac 68bf fec3 f9be
00000130: 8146 e03e d9c6 23be 771b 333e 5ebf b7bd
00000140: d475 43bf 9492 493e 5a52 503e 68fa 86bf
00000150: 57a6 1a3f 576b df3e 3d0a 63bf c7e2 d53d
00000160: 6093 083b b2fc 8fbd f36f c33e bf44 d03f
00000170: 1957 0f3c cb53 9ebf 873b cfbf b733 2dbf
00000180: 7351 ebbf dc3d 7cbf b621 ee3f 47b6 6b3f
00000190: 4fba 2ebf 3e46 cc3e 3226 0a40 bbcc 1dbf
000001a0: fcfa ea3f fa6f 3040 5f75 ae3e ad66 0f3f
000001b0: 4279 213f 0d2a e23e 3e24 2f3f 682e 683f
000001c0: 1bd6 29bf 9bb0 2d40 f5f6 0840 ef58 25bf
000001d0: ca4f 1240 e837 0fbf 0aff 1440 bdef 6c3f
000001e0: 9c9a 2d40 4915 56c0 a72a 4340 709c c03f
000001f0: 1fc0 5940 2b54 1ec0 c422 92be 0633 a83f
00000200: 0837 1e40 a7ca 9c3d 71d8 1b3e 48ff 813f
00000210: 8b4b c63e 0f21 0c40 6c56 5240 39e1 f1bf
00000220: 98d2 e93e 187f 3240 8257 3140 ef4e 63bf
00000230: ea1f 4c3d 2aae 2dc0 bf0c ddbe 959d 6740
00000240: ba3d 723f 87f3 c5bf dd77 6840 da2c dc3f
00000250: 21b9 4440 a361 a23e a23b 5f40 b3c7 cebf
00000260: fc80 3d40 0c68 5ebd d1aa 8ebf 3ce3 2d40
00000270: b1ba 79c0 f65d 37bf 854c 9cbf c0f6 1640
00000280: b8fa fa3f cbce 8640 46c5 f6bf 8a9a 2940
00000290: d6d6 fb3c 7f59 1b40 0f45 3740 226a 10c0
000002a0: 1cc0 0c40 1b5b 83bf 7085 a6be 6cd0 0dc0
000002b0: f84d 04c0 3808 2e40 9d4c 7740 4745 ff3f
000002c0: b5f7 b03f 8c1d 1340 54e8 9abb cfa9 1640
000002d0: e6bb a83e ff13 903e e1fd ca3f 68b8 4940
000002e0: cf08 2d40 36dc 2d40 7353 1440 f93d ba3f
000002f0: c16a 8fc0 fbb6 1dc0 62db 643f c6e4 8140
00000300: bbf6 3240 7ca5 1340 4dfc b83f 7d3e c7bf
00000310: 0ac3 2540 b1b1 9740 6146 21c0 896e 8e3e
00000320: 8abc 913f b2ee 86bf a72b 5c3f 5f32 7c3f
00000330: ac26 8fbf 3db8 d7be 7bc2 aebf 943d 94bf
00000340: 3687 5f3e d704 73c0 f01d 593e be6e 27be
00000350: ffbc 873f 343f 6a3f 9e75 f5be ca42 cbbd
00000360: aff9 713f 25b8 813f f277 ae3d a5be 1e3f
00000370: e863 6a3f cedd 61be 5996 013f 331a 14c0
00000380: 4ab9 0fbd a18c fe3e 7f97 62bf 3b7c 813f
00000390: 9d08 683f 32eb 733e 18eb 383f 10a1 35bf
000003a0: 4b36 2f3c f6ad 4cbf 598d 2a3f 0f3a 9d3f
000003b0: 1e1e 913f 6c97 623f 6545 223d b8ca 3fbf
000003c0: 0bfd 9ebf 160d 8ebe fe8e 033f 7811 d5bf
000003d0: 24fe 103f e426 72bf b2d8 93be fad6 923e
000003e0: b2c2 c0bf 424f 59bf b1be f6be 74c0 d63f
000003f0: 8791 1bbe 2dc4 8c3f 1c09 95bf 8a21 3b3f
-0.6380118 0.2817061 -0.6522102 -1.8046576 1.3121676 -0.21586327 0.37895128 -0.7376813
0.7319766 -0.28300098 -1.2761475 -0.15332067 -0.6696751 -0.37856758 -0.8561447 -2.0797193
-0.49966463 0.19277617 0.40125036 -0.24896148 -0.65915215 -0.53531873 -0.21779954 0.36386856
0.7682402 1.6139445 -0.23717412 -0.054878153 -0.86358744 0.9288843 -0.44619113 -2.048438
0.84024066 -0.71582884 -0.120921545 -0.39064068 -0.68655807 -0.6907589 0.7436499 -0.021590455
0.70757884 1.1681453 0.38398653 -1.5367082 -0.18266666 0.5520205 0.31671563 0.1373422
0.3911693 -0.054371838 -0.6695395 1.8898213 0.8137966 0.506077 0.73096657 0.6952068
1.4645392 -0.1840677 0.08988201 -0.007652442 -0.8729491 2.497272 -0.47645152 0.1987662
-0.19066398 0.75765204 0.26491898 1.6905135 -0.03797715 -0.36364803 0.6773603 -0.77346265
0.5896089 -0.96521 -0.9088884 -0.48782343 0.4380379 -0.15993823 0.17490946 -0.08972047
-0.76351666 0.19684821 0.20343915 -1.0545168 0.60410064 0.4363658 -0.886875 0.10443645
0.0020839795 -0.0703062 0.38171348 1.627098 0.008748793 -1.2369322 -1.6190041 -0.67657036
-1.8384231 -0.9853189 1.8604038 0.9207501 -0.68253034 0.3989734 2.1585813 -0.6164052
1.8357844 2.7568345 0.34073922 0.56016046 0.6307565 0.44172707 0.68414676 0.9069581
-0.66342324 2.7139041 2.140073 -0.64588827 2.28612 -0.5594468 2.3280663 0.9255331
2.7125616 -3.3450491 3.0494783 1.5047741 3.4023511 -2.4738872 -0.2854215 1.3140571
2.4721088 0.0765584 0.15219285 1.0156031 0.3872951 2.1895177 3.2865248 -1.8896858
0.45668483 2.7890072 2.770966 -0.8879232 0.049835123 -2.7137551 -0.43173787 3.618993
0.9462544 -1.5464944 3.6323159 1.7201188 3.0737994 0.31715116 3.4880147 -1.6154693
2.9609976 -0.054298446 -1.1145879 2.7169943 -3.9020197 -0.7162775 -1.2210852 2.3588104
1.9607763 4.2127433 -1.9278953 2.6500573 0.03074209 2.4273374 2.86359 -2.2564778
2.1992254 -1.0262178 -0.3252368 -2.215846 -2.0672588 2.7192516 3.864051 1.9943017
1.3825594 2.2986784 -0.0047274027 2.3541143 0.32955855 0.28140256 1.5858728 3.1518803
2.7036626 2.7165656 2.3175933 1.4550163 -4.4817815 -2.4642932 0.8939725 4.0591764
2.7963092 2.3069754 1.4451996 -1.5565945 2.5900292 4.740441 -2.5199206 0.27818707
1.1385663 -1.0541594 0.8600411 0.9851436 -1.1183677 -0.4213275 -1.3653101 -1.1581292
0.21828923 -3.7971704 0.21202826 -0.16350839 1.0604552 0.9150269 -0.47941297 -0.099248484
0.9452161 1.0134321 0.085189715 0.6200965 0.91558695 -0.22057268 0.5062004 -2.314099
-0.035088815 0.49716666 -0.88512415 1.0116037 0.9063814 0.23820189 0.72233725 -0.70948887
0.010694097 -0.79952943 0.6662193 1.2283343 1.1337316 0.885123 0.03961696 -0.749187
-1.2420973 -0.2774436 0.51390064 -1.6645956 0.5663779 -0.9459059 -0.28876263 0.2867964
-1.5059416 -0.8488656 -0.4819236 1.6777482 -0.15192233 1.0997368 -1.1643405 0.7309805
