saved_models/learning_rate_0.05.pt (torch, 570970 bytes, 11 tensors)

weight f4 [100, 100]
000000 70 9b a4 bf 67 59 1e 3f b4 cd 62 3f 67 0b 1a bf
       -1.2859936 0.6185517 0.8859513 -0.6017365
000010 79 88 01 3f ca f0 5e 3e ab b2 e2 3e b8 35 68 bf
       0.50598866 0.21771541 0.44276938 -0.9070697
000020 62 2d ce be bd 3a ef 3d 70 74 27 3f 57 c8 5a bf
       -0.40269 0.11681125 0.65412045 -0.85461944
000030 11 81 b7 3f 3a 6f 79 3f bb 02 4d bf da ad 16 bf
       1.4336263 0.97435343 -0.8008229 -0.58859026
000040 97 53 ca 3f 8a 04 26 3e 74 3d 1e 3f 85 20 e3 be
       1.580676 0.16212669 0.6181252 -0.44360748
000050 9a 1d 10 bd 76 f6 99 be f2 8d 1f be bc 13 e4 3e
       -0.03518448 -0.30070847 -0.15581492 0.44546306
000060 16 9c 57 bf 73 f2 7a be 8a 65 98 bf e0 35 4f be
       -0.84222543 -0.2450655 -1.1905987 -0.20235395
000070 53 2d b4 3e 4a 74 3f bf b5 9d 9a 3d 33 23 8c bf
       0.3519083 -0.7478682 0.075496115 -1.0948242
000080 f9 83 6d 3f 4d 23 c2 bf 7f 93 da be 13 08 88 bd
       0.927795 -1.5167023 -0.42690656 -0.06642165
000090 54 97 79 bd 29 d1 c3 3f 12 cd 0c c0 e8 f4 b1 3f
       -0.060935333 1.5298206 -2.2000165 1.3902864
0000a0 9a 21 86 bf 04 01 91 be ed 3e 90 bf 4a c0 7e be
       -1.0479004 -0.28321087 -1.1269203 -0.2487804
0000b0 5d df a8 3e 7a 9d 5e 3e e6 a6 9a bf 05 bd 4e be
       0.32982913 0.2173976 -1.2082183 -0.20189293
0000c0 a9 f2 db bf 18 4b 5e 3f 5b f1 65 3f 20 49 00 be
       -1.7183429 0.86833334 0.89821404 -0.12527895
0000d0 db 5a 2c be a8 90 bd 3e 89 cb 39 3f f2 cf fd 3d
       -0.16831534 0.37024426 0.72576195 0.12393178
0000e0 7e 80 eb bf 23 79 93 be 09 89 be be 3c 11 86 bf
       -1.8398588 -0.28803357 -0.37213925 -1.047401
0000f0 f6 af 87 bf 6c 7f 12 be 0c 00 75 be fb d0 a5 bd
       -1.0600574 -0.1430642 -0.23925799 -0.080965005
000100 aa 19 03 bf 51 3a a4 3f 2d 8d 59 3f 5c 54 3d 3f
       -0.51211035 1.2830297 0.8498104 0.7395685
000110 3d f3 0d bf c6 74 af be 55 22 e5 3d e6 42 a4 3f
       -0.5544928 -0.3426878 0.11188189 1.2832916
000120 53 52 07 bd 91 73 9d 39 b3 75 b6 be bd c4 28 bf
       -0.033037495 0.00030031477 -0.35636672 -0.659252
000130 ab 24 87 3e ee 82 7b bf ea 43 11 bf b0 01 e6 3d
       0.26395163 -0.9824666 -0.56744254 0.112307906
000140 4b 60 08 3e e1 3b cf bf 98 5b 26 3d d0 60 b1 3c
       0.13317983 -1.6190149 0.040614694 0.02165261
000150 b1 6a 99 bf ad 87 f2 bc d0 13 6f 3f 9b e5 a0 3f
       -1.1985685 -0.02960571 0.93389606 1.257007
000160 e4 1c 9f 3f 61 8d 02 bf 43 43 98 3f b6 48 44 3f
       1.2430692 -0.5099698 1.1895527 0.7667345
000170 98 e0 26 be cd 76 27 3f 7d e7 09 3f 35 f2 bd 3f
       -0.16296613 0.6541565 0.5386885 1.4839541
000180 99 73 05 c0 3f 50 2c 3f 09 81 88 3f eb 00 c8 3e
       -2.0851805 0.67309946 1.0664378 0.390632
000190 82 a5 ed 3d 22 ae 57 3e 61 ac 09 bf 58 93 36 bf
       0.11603834 0.2106252 -0.53778654 -0.7131858
0001a0 94 54 8d 3b f2 54 e3 3f e5 d3 d8 3e 97 24 c6 3f
       0.004313061 1.7760298 0.42349163 1.5479916
0001b0 3c 4f ce 3f a2 b3 ec bf 51 37 a7 bf 84 fe ae 3e
       1.611793 -1.849232 -1.3063756 0.34178555
0001c0 8d 98 28 3e a5 2e 76 bf 54 f9 e9 bd 38 97 4e bf
       0.16464444 -0.96164924 -0.11424509 -0.8069949
0001d0 b9 a0 0b 3f 7a 76 d1 bd dd a6 a7 3f 9c 98 05 bf
       0.5454212 -0.10227676 1.3097798 -0.5218599
0001e0 d8 a4 40 40 15 88 6f 3f 8c ad 1c 3f 68 3e de bf
       3.0100613 0.9356702 0.6120231 -1.7362795
0001f0 97 25 26 bf 89 cb 89 be 88 77 e1 bc e7 59 92 be
       -0.6490111 -0.26913098 -0.027522817 -0.28584215
000200 24 2c 4d 3f 92 dd fc 3e 3e 84 93 3f 44 f9 14 bf
       0.8014548 0.49387795 1.1524732 -0.5819285
000210 70 e0 3c 3d 86 88 c0 be b7 e7 c2 be de 5a 5b bf
       0.046112478 -0.3760416 -0.3806741 -0.8568553
000220 10 d9 22 3e 7f aa 1b 3f 46 de 66 bf 3e 86 48 3e
       0.15903115 0.6080703 -0.9018291 0.1958246
000230 ae 1d b5 bf e9 5a dc 3f 7e 03 f4 3e 03 41 7f bf
       -1.4149683 1.7215244 0.47658914 -0.99708575
000240 5d 63 15 3e 55 d3 a1 bf 75 d8 6a bf f5 9e bc bf
       0.14588685 -1.2642618 -0.9173654 -1.473601
000250 e8 7a 01 3f 57 08 86 be 90 f6 7f 3f ac 21 81 3e
       0.50578165 -0.26178238 0.999856 0.25221002
000260 b4 7c e7 3e b7 c0 44 bf c0 8e 4c bf 72 f7 a9 bf
       0.45212328 -0.7685656 -0.7990532 -1.3278639
000270 50 23 01 bf c1 0d 0d 3f b7 2b 6f 3f ee 74 30 bf
       -0.5044451 0.5509911 0.9342608 -0.6892842
000280 9f 45 8d 3e e9 27 2d 3f e2 b7 f6 bf 03 d2 16 3e
       0.2759218 0.67639023 -1.9274867 0.1472855
000290 de de bb be 9e f6 35 40 6b f5 5f 3f 0d f8 6b be
       -0.36693472 2.8431773 0.87483853 -0.23043843
0002a0 a9 41 e6 3f a5 55 ab 3f 35 11 ac 3e eb 24 72 bf
       1.7988788 1.3385512 0.33606878 -0.9458758
0002b0 6b 85 e4 3e 26 69 35 bf d8 7d dc 3d bb d6 00 3f
       0.4463304 -0.7086357 0.1076619 0.5032765
0002c0 14 29 cb bb 0a 0f a4 bf 36 d4 41 3f 10 62 94 3f
       -0.0061999653 -1.281709 0.75714433 1.1592426
0002d0 7f 49 d8 bf 6a 7c bb be 77 5d be 3e 29 53 06 bf
       -1.6897429 -0.36618358 0.37180683 -0.5247064
0002e0 72 f7 d0 3e 6f 36 44 3f 5b 3d 01 c0 96 d0 e8 be
       0.40813786 0.7664556 -2.0193698 -0.45471638
0002f0 c7 64 3c 3f 72 ec 02 bf 23 bd 7c 3f db 29 d6 bd
       0.73591274 -0.51142037 0.987261 -0.10457202
000300 bc 3b b1 3f ec 6e b5 3f ea 31 a6 bf 40 73 a9 bf
       1.3846354 1.4174476 -1.2983983 -1.3238297
000310 b0 4f 31 bc 85 68 ae bf 29 23 a9 3e 69 43 8c 3f
       -0.010822222 -1.3625647 0.33034638 1.0958072
000320 23 a8 c2 3f 44 8c 11 c0 e3 50 9d be 72 8d 7f be
       1.5207561 -2.2741861 -0.30725774 -0.24956301
000330 a5 19 dd 3e 47 36 30 3e fa a4 6f bf 31 6d 0e 3e
       0.43183628 0.17208205 -0.9361111 0.1390884
000340 fd f8 27 3f bb 01 68 bf db 95 4b 3e ba cc e1 3f
       0.656143 -0.9062764 0.19881384 1.7640603
000350 b2 67 be 3f 47 fd 62 bf 6d ae 35 bf ea e1 b9 bf
       1.4875395 -0.8866772 -0.7096928 -1.4522069
000360 e7 98 4a 3f c2 94 db bf e5 43 7a 3f 40 9c 17 3f
       0.7913956 -1.7154772 0.9775985 0.59222794
000370 b2 f2 62 be 6a d8 84 3f 4a cd 88 be 33 b5 ee be
       -0.22162893 1.0378544 -0.26719123 -0.4662262
000380 f2 58 d5 be 68 d7 cd 3e 42 9f de be e9 8b 9e 3f
       -0.41669422 0.40203404 -0.4348088 1.2386447
000390 c1 d7 4d 3f bd 96 d7 3d cc 48 aa bd e5 9c 14 bf
       0.8040734 0.10526798 -0.08314666 -0.580519
0003a0 5e 90 5d 3d 98 44 01 bf 89 ed d5 bd 5c cf 8b bf
       0.054092757 -0.5049529 -0.10445697 -1.0922656
0003b0 45 cd 0c 40 28 75 89 3f 99 0a e5 bc 4a 4f 76 3f
       2.2000287 1.0738878 -0.027959155 0.96214736
0003c0 ce 7c 0b bc 46 a3 55 bf 3a da d7 3e 07 f7 62 3e
       -0.0085136425 -0.8345226 0.4215868 0.22164546
0003d0 d6 49 6d 3f 37 30 00 bf 47 f0 79 3f 21 6c 1a bd
       0.9269079 -0.5007357 0.9763226 -0.037700776
0003e0 90 48 9f bc 4c a4 29 3f 4c fe 14 3f f0 a9 d7 be
       -0.01944378 0.6626632 0.58200526 -0.4212184
0003f0 d1 62 91 be fa 94 2f 3f f1 bf 9a be 30 03 14 bf
       -0.28395703 0.68586695 -0.30224565 -0.57817364

weight_ih_l0 f4 [300, 100]
000000 ab 4c d9 bf 04 f7 46 bf 38 70 26 bf 88 59 f0 3d
       -1.6976522 -0.77720666 -0.6501498 0.11735827
000010 cd 3f 5a bf f4 16 28 be 3c 4d 1f bf 23 86 60 bf
       -0.852536 -0.16415006 -0.62227225 -0.87704676
000020 15 48 bf bf 76 97 05 bf 6b 8c 1d c0 e5 af 12 c0
       -1.4943873 -0.52184236 -2.4616954 -2.2919858
000030 d3 69 d1 bf e4 31 1a bf 55 9e 0d c0 8c e3 b2 be
       -1.636042 -0.6023238 -2.2127888 -0.3493923
000040 f1 fd e4 3f 3c 39 8a 3f 2d 29 f4 be c8 fd b8 3d
       1.7889997 1.0798717 -0.47687665 0.0903278
000050 95 fa d8 bd aa b2 ee 3e d7 bf 37 c0 36 f8 c7 3e
       -0.1059467 0.46620685 -2.871084 0.39056557
000060 5d fd 5d 3f ca 46 35 3f 49 af 8c 3f fb 51 10 3e
       0.86714727 0.7081114 1.0990993 0.14093773
000070 6e 5c a6 be 1f e2 22 3f 62 8c 41 40 71 30 7b 3f
       -0.32492393 0.63626283 3.0241933 0.9812079
000080 b9 1f fc 3f 31 44 03 c0 58 ac 44 3e 87 d9 6f be
       1.9697181 -2.051037 0.19206369 -0.23422824
000090 5b 2f a5 be aa f1 21 bf f6 cf 18 3e ca 7c 94 bd
       -0.32262692 -0.63259375 0.14923081 -0.07250364
0000a0 bb f1 a6 be 9e b3 01 3f a2 b2 d4 bf f6 1f 15 3f
       -0.326063 0.506647 -1.6617014 0.58251894
0000b0 3d a3 ea bf 2c 16 3e bf 9c 1a f5 bf be 5f a8 3f
       -1.8331066 -0.7425258 -1.9148746 1.3154218
0000c0 29 58 9a 3f 37 ca 32 3f b4 83 b3 bd 6d d3 ad 3f
       1.2058154 0.69839805 -0.08765355 1.3580147
0000d0 0b 25 c7 3f 4a 0d 8d 3f 35 db df 3d 3a 85 2a bf
       1.555818 1.101968 0.10930482 -0.6660954
0000e0 55 5b 29 3d 28 b7 1a bf 21 17 2c 3d 5c 2b d1 bf
       0.041346867 -0.60435724 0.042014245 -1.6341357
0000f0 e4 11 07 c0 00 4a 23 bf 66 8a 5d 3f bd 47 37 bf
       -2.110467 -0.6378479 0.86539304 -0.7159384
000100 19 d8 10 3f 65 c3 b8 3f 93 b1 d1 be b3 3a 04 bf
       0.5657974 1.443463 -0.4095579 -0.5165207
000110 39 2a dd 3f f4 d4 aa 3f df 1e b2 3f 66 7e f1 3d
       1.727851 1.3346238 1.3915671 0.11791687
000120 93 29 39 3f 5d 98 34 c0 87 46 49 bf 4d 83 9c be
       0.7232906 -2.8217995 -0.7862324 -0.30568925
000130 c5 08 1b bd d5 a3 56 bd fc f1 bc bf f7 e1 a3 3f
       -0.03785016 -0.052402336 -1.4761348 1.2803334
000140 ac 5d d3 bd c8 e5 7d bf 5b 68 11 40 81 6c 44 3f
       -0.10320601 -0.99178743 2.2719944 0.76728064
000150 d8 70 9f bf de d3 3e be 41 21 11 40 56 fa fc be
       -1.2456312 -0.18635508 2.2676547 -0.4940974
000160 0f 48 b1 be 09 33 2b c0 bc f8 3c bf 8f 60 a0 be
       -0.3462529 -2.67499 -0.7381704 -0.31323668
000170 88 fa ea be b6 aa da bf 5c 44 bc be 71 97 d5 3e
       -0.45894265 -1.7083347 -0.36770904 0.41717103
000180 e2 00 05 bf 7c 31 2d c0 fd 80 b6 3d 81 cc 83 be
       -0.5195447 -2.7061453 0.08911321 -0.25741962
000190 9b b9 1e c0 c6 7d a6 40 57 96 60 40 26 a1 6b be
       -2.4800785 5.202853 3.509176 -0.23010692
0001a0 d7 61 4f c0 5f ff e7 3f 5d 88 9f 3f 54 8e e4 3f
       -3.2403467 1.8124808 1.246349 1.7855935
0001b0 02 2b 67 3e f2 f9 99 bf 63 51 15 bf 3f c0 ac 3f
       0.22575 -1.2029402 -0.5832731 1.3496169
0001c0 09 89 04 40 46 10 b0 bf f5 d2 3e 40 46 1b 6d bf
       2.070864 -1.3754966 2.9816258 -0.9261974
0001d0 e1 5e 82 bf ba 77 8e be 65 bb 12 c0 da 9d 02 40
       -1.0185205 -0.2782572 -2.2926877 2.0408845
0001e0 20 c0 9e bf f0 6a 80 be 06 b3 a8 3e 3c 1c 66 c0
       -1.2402382 -0.25081587 0.32949084 -3.5954733
0001f0 2d 57 38 c0 c4 8a 7c bc 60 7c 95 bf fc 88 77 3e
       -2.8803208 -0.015413944 -1.1678581 0.24173349
000200 41 e7 70 40 b1 fc 4b 40 f5 86 ee bf 22 16 03 c0
       3.7641146 3.187298 -1.8634936 -2.0482259
000210 74 a0 9e 3e 5c fa b3 3f 22 68 30 3e 55 45 9a bd
       0.3098179 1.4060779 0.17227224 -0.07532755
000220 ca 83 2e 40 04 8e a5 bd 29 00 53 40 4a fd 71 bf
       2.7267938 -0.08083728 3.2968848 -0.94527113
000230 53 d8 03 40 2d 04 44 c0 0c 7e 13 c0 df 9f 88 c0
       2.0600784 -3.0627549 -2.3045683 -4.2695155
000240 e0 6a 70 40 96 10 16 c0 fe 5e f3 3f 80 b7 e6 bf
       3.7565231 -2.3447623 1.9013364 -1.802475
000250 56 17 cc be 15 9f 3f c0 96 d8 0b c0 a4 8b c9 3f
       -0.39861554 -2.9940846 -2.1850944 1.574574
000260 f6 d9 11 c0 82 f3 f1 bf 68 c1 18 3d ef 63 2d 3f
       -2.2789283 -1.8902438 0.03729382 0.6773061
000270 22 f3 4f be b2 18 8e 3f 41 c7 16 3f 50 fd 32 3c
       -0.20307592 1.1101286 0.5889779 0.010924652
000280 0f 79 83 3e be 39 8c 40 f0 27 22 c0 6f 4c 72 3f
       0.25678298 4.3820486 -2.5336876 0.9464788
000290 ba 7a 43 40 34 96 8f 3c 0c 66 53 3f b4 af d1 bf
       3.0543656 0.017527677 0.82577586 -1.6381745
0002a0 7f 07 4a 3f e8 5e 68 40 9e 13 09 40 65 1f 75 3e
       0.7891769 3.6307926 2.1418223 0.23937757
0002b0 19 b1 25 bf bd cb b8 3f 9b 9f ad 3f d4 78 ac bd
       -0.64723355 1.4437176 1.3564333 -0.08421484
0002c0 23 43 b3 3f 91 2e 9b bf 3b 13 49 40 35 16 83 3f
       1.4004864 -1.2123586 3.1417987 1.0241152
0002d0 56 a8 3f c0 e8 95 8f 3e 72 6d 1e 40 a8 bb 2e 40
       -2.9946494 0.28044057 2.47543 2.7302036
0002e0 12 84 85 be 08 c8 b0 3f b5 af 30 c0 0c 13 e2 3d
       -0.26077324 1.3811045 -2.7607243 0.11038789
0002f0 4e b3 f9 bf d1 64 40 40 0e b3 00 c0 9b 2a 2e c0
       -1.9507844 3.0061533 -2.0109286 -2.7213504
000300 9e c4 09 40 58 a2 ff bf 18 68 a0 3f 64 ae 1c c0
       2.1526256 -1.9971418 1.2531767 -2.448144
000310 d4 16 8a 40 fd af fa be b3 b8 59 c0 dc e0 21 40
       4.3152866 -0.48962393 -3.4018981 2.5293493
000320 4f 6e 44 40 1e 1b 7d bf 68 a0 fe bf 1f 68 c3 3f
       3.0692327 -0.988695 -1.9892702 1.526615
000330 42 ab 85 bf f1 5b 95 bf 47 55 26 bf d5 cb ee bf
       -1.0442889 -1.1668683 -0.6497387 -1.8655955
000340 2c 07 17 40 f1 30 a8 bf 61 a6 3b bf f7 34 c9 bd
       2.3598127 -1.3139936 -0.7330075 -0.09824555
000350 49 63 1a bf e1 9c 0e bf 9b 0e a2 3f 6d d2 c1 3f
       -0.6030775 -0.5570813 1.2660707 1.5142342
000360 a2 78 c9 be 78 1e e5 bf 08 93 17 40 30 43 83 3f
       -0.39349848 -1.7899923 2.368349 1.0254879
000370 06 a1 ac bd 1d cf e8 3e ea 38 e8 bf fe e5 e4 bf
       -0.0842915 0.45470515 -1.8142369 -1.7882688
000380 e0 c5 b3 3f 8d 44 ad be 8b a5 0d 3f d2 ad 41 40
       1.4044762 -0.33841363 0.55330724 3.0262341
000390 20 57 d6 be 74 75 bb be e9 9d 8b 3f ce 38 98 3f
       -0.41863346 -0.36613047 1.0907565 1.1892335
0003a0 b9 8c 3d 3f 25 e8 4a 40 b0 50 9b 40 93 a4 15 bf
       0.7404285 3.170419 4.8535995 -0.58454245
0003b0 b7 37 a6 3f 0b 65 1a 3f 16 69 29 3f fd 5f e1 3e
       1.2985753 0.6031043 0.66175973 0.44018546
0003c0 ad 7a 1a 40 3d ab 99 bf 80 9c 17 be 2f 7f 5b 40
       2.4137375 -1.2005383 -0.14805794 3.4296377
0003d0 0d 40 3b 40 c0 6b 41 3e 8a 29 bc 3f ca b9 62 3e
       2.9257843 0.1888876 1.4700177 0.22141185
0003e0 5f 61 ac be 5f 7b ec 3d c2 c4 4f bf 47 1d 0b 40
       -0.33668038 0.11546969 -0.81159604 2.173662
0003f0 ec 41 9d 40 91 e1 c0 3d b7 7a 14 3f 1d ae 83 40
       4.914297 0.094180234 0.5799975 4.115004

weight_hh_l0 f4 [300, 100]
000000 12 64 95 3e 39 90 cf 3e e7 8e a6 3e a9 f5 36 be
       0.2917791 0.4053972 0.325309 -0.1786715
000010 28 b7 8d bf 3d 40 4a 3f 3b 1d d7 3e 27 a5 a3 bf
       -1.107152 0.7900427 0.4201449 -1.2784775
000020 80 86 e8 3e 98 90 db 3f 6b 41 db bf 75 29 6a 3e
       0.45415115 1.7153502 -1.7129339 0.22867377
000030 2c 64 0e 3f ad f9 33 c0 c5 6d 6d bf df f4 13 c0
       0.556216 -2.812114 -0.9274562 -2.3118207
000040 ba 12 03 bf 7b 25 4a bf 97 80 0b bf ed ad 1d c0
       -0.5120045 -0.7896344 -0.5449309 -2.4637406
000050 90 bd de 3f 9c 5d be bf db 00 25 bf 50 f4 93 3e
       1.74016 -1.4872317 -0.6445443 0.28897333
000060 1a 7e 81 3f 03 8c fb be 9d d7 0c 3c 36 ed 08 3f
       1.0116608 -0.49130258 0.008596328 0.53486955
000070 7b 2f c8 3f 39 e0 9f bf 01 b2 2c 3e e3 67 28 be
       1.563949 -1.2490302 0.16864778 -0.1644588
000080 f4 7e 4d bf f1 c4 6c be e7 52 ae bd 39 c8 cc be
       -0.8027184 -0.23122002 -0.08511906 -0.39996508
000090 a6 f5 8c bf de 45 1b c0 c1 dd 25 3e a0 42 e6 bd
       -1.1012466 -2.4261394 0.16197874 -0.112431765
0000a0 aa c9 88 3f 39 26 3c 3f 12 89 ac 3f 41 08 1a bf
       1.0686543 0.73495823 1.347933 -0.60168844
0000b0 f6 db ea be c4 fe be 3e c8 d5 5d bf 30 f3 a4 3e
       -0.45870942 0.37303746 -0.8665433 0.32216787
0000c0 02 53 62 be 15 12 4c bf 35 b4 57 3e e6 48 29 3f
       -0.22101977 -0.7971509 0.21064837 0.6612686
0000d0 47 01 42 3f e9 d9 0c bf de 5b e3 3e 50 c7 aa 3f
       0.757832 -0.55020005 0.44406027 1.3342075
0000e0 3b 74 96 be 5a b9 05 c0 2e 9d 08 bd 11 4b 15 40
       -0.29385552 -2.089438 -0.033353023 2.3327067
0000f0 97 1e 91 bf 18 2f 43 3f 8b 1e ad bf 1f ce a2 3f
       -1.133746 0.76243734 -1.3524946 1.2719153
000100 a9 8e ac bf 1c 9f 2f 3f a5 cc 08 c0 2e 3c d3 3f
       -1.3481036 0.68602157 -2.1374905 1.650274
000110 df 2b c9 bf 3f f8 88 be e5 2c fc 3f 74 fa 03 bf
       -1.5716513 -0.26751897 1.9701201 -0.51554036
000120 da dc ba bf c3 e6 91 3f ac 8b 15 bf 30 a9 a8 bf
       -1.4598649 1.1398548 -0.5841625 -1.3176632
000130 32 49 10 3f 9a 32 59 bf 46 f9 3c bf eb e2 ce 3d
       0.5636169 -0.84842837 -0.7381786 0.10101875
000140 24 7c 22 c0 6a ea 63 bf fe c8 dd bd fc a8 d2 bf
       -2.538827 -0.8902956 -0.10829352 -1.645782
000150 5e 1e a2 bf 5d 39 b4 3d 79 18 95 3f 68 5c 15 40
       -1.2665517 0.08800004 1.1648093 2.333765
000160 84 c6 a9 bf 3a 76 63 3f 19 1d b7 bd fb c4 e2 3e
       -1.3263707 0.88852274 -0.08941097 0.4429091
000170 da a1 a9 bf 24 78 d6 be c9 bc 9a 3f 1b 85 14 bf
       -1.3252518 -0.41888535 1.2088863 -0.580156
000180 e3 f1 1e 3f ce 66 4e 3f f3 b8 1a bf 47 03 9a 3f
       0.6208784 0.8062562 -0.6043846 1.203225
000190 e1 7a 6a bf e0 53 d7 3e a2 a1 7b 3f fb 49 1a 3f
       -0.9159375 0.4205618 0.9829351 0.60269135
0001a0 c0 c4 a1 3d 08 39 c1 bd 79 20 21 bf 60 e8 83 3f
       0.07898855 -0.09434706 -0.62940174 1.030529
0001b0 19 cb ff 3d c2 9b 98 bf 98 40 9c 3f 26 1a 82 be
       0.1248991 -1.1922534 1.2207212 -0.25410575
0001c0 e7 76 df bf 31 e5 3d 3f 5b 06 3f 3e a7 c1 52 3f
       -1.7458161 0.74177843 0.18654768 0.8232674
0001d0 12 d5 32 be 48 3d cd 3e 59 0f dc bd 31 ae 80 3e
       -0.17464092 0.40085816 -0.10745115 0.25132897
0001e0 3b 3a c9 bf 5c 19 d9 3f c2 0f 8a 3f 60 e8 c1 bd
       -1.5720896 1.6960864 1.0786059 -0.0946815
0001f0 86 8b 97 bf fb d0 3b 3f ee e5 0b 3f a2 6d 99 3e
       -1.1839454 0.73365754 0.5464772 0.29966456
000200 1c a0 75 3d 99 c9 36 bf c5 fd ce be a5 89 43 3f
       0.059967145 -0.71401364 -0.40427986 0.76381904
000210 92 7a 72 be f9 98 6d 3f c7 c4 29 3f 7d 13 7a 3f
       -0.2367957 0.9281154 0.66315883 0.97685987
000220 c1 41 2e 3f 85 a5 79 3f 7d a5 ff 3d f8 28 bb 3f
       0.6806908 0.9751819 0.12482736 1.4621878
000230 ed 65 4c bf 52 a8 4d bd de 22 02 bf 5a 3c be 3f
       -0.79843026 -0.05020935 -0.50834453 1.4862168
000240 a7 fd 2f 3f 08 92 a4 3f a9 e1 22 3f 11 f4 fe 3f
       0.6874642 1.2857065 0.6362558 1.9918233
000250 7e eb af bf 8f 72 b2 3f 6d 69 65 3e 15 4e f7 3e
       -1.3743742 1.394121 0.22403498 0.4830176
000260 87 80 a4 bf b1 c8 6c 3f f0 68 a8 bf 17 17 d0 be
       -1.2851723 0.9249373 -1.3157024 -0.40642616
000270 6b e0 b1 3e f2 ed b5 3f 5c c7 5f bf f1 19 8a 3f
       0.3474153 1.421324 -0.87413573 1.0789167
000280 f7 b8 6f 3f 36 75 b3 bf 37 45 16 40 89 91 a4 bf
       0.9364161 -1.4020145 2.3479745 -1.2856914
000290 96 d3 d2 3f a9 c7 5f bf b7 57 9e bf 38 3a 84 3f
       1.6470821 -0.8741403 -1.2370518 1.0330267
0002a0 c3 75 3e bf 51 c0 d3 3e 6e b1 37 bf a5 a8 4b be
       -0.7439844 0.41357663 -0.7175511 -0.19888552
0002b0 31 21 0c 3e bb ca 2f c0 83 1e 0c 3e f6 53 b5 3f
       0.13684537 -2.7467487 0.13683514 1.4166248
0002c0 57 e6 f9 bf e3 cc 30 40 b7 c7 23 3f 3e 62 c5 bf
       -1.9523419 2.7625053 0.63976616 -1.5420606
0002d0 31 d3 de be cc 34 ad 3f 6c 6b a0 3f 4f 64 7f be
       -0.435205 1.3531737 1.2532783 -0.24940608
0002e0 44 b0 ee 3e 75 ac 8f 3e 4e 55 23 bf 86 68 98 3f
       0.46618855 0.28061262 -0.6380204 1.1906898
0002f0 70 31 c1 3c e0 3e 91 bf 44 8d 32 3f 49 64 1d 3f
       0.023583144 -1.1347313 0.69746804 0.6148115
000300 a2 0b e5 3e 96 e7 5d 3f f3 0e ab bf 85 9b 45 bf
       0.44735438 0.866815 -1.3363937 -0.7719043
000310 97 d2 c5 3d 7f e7 78 bf 86 78 28 3e 0f 68 10 bd
       0.096593075 -0.97228235 0.16452226 -0.035255488
000320 8f 42 e1 bf 89 a7 7f bf 2f eb bb bf e5 a7 dc 3f
       -1.7598437 -0.99865013 -1.4681147 1.7238737
000330 3f 04 eb bf 47 c0 d8 3e 6d 33 8c 3f d0 c2 0e bc
       -1.8360671 0.42334196 1.0953194 -0.008713439
000340 96 51 29 be 95 2f 2b bf b3 af 12 3f 5e 86 ca bf
       -0.16535029 -0.6686948 0.57299346 -1.5822256
000350 93 28 dd 3f 29 ec d2 bf 2c b9 c5 3f 20 c1 23 be
       1.7278007 -1.647832 1.5447135 -0.1599164
000360 a6 3b 6f bf bc c6 a0 bf b0 e3 9b bf e2 ad ca bf
       -0.9345039 -1.2560649 -1.217886 -1.5834315
000370 e4 a8 c4 3f c1 ec f8 3f 85 19 34 40 8a 2d aa 3f
       1.5364041 1.9447252 2.8140576 1.3295147
000380 e4 96 a4 3f d0 68 db bf 41 73 8a bf f2 f6 24 c0
       1.2858548 -1.7141361 -1.0816423 -2.5775723
000390 7f 56 2e 3f 1b 5d 8d 3f 1d b0 e0 3f 9e 6b 10 bf
       0.6810073 1.1044039 1.7553746 -0.5641421
0003a0 1e 7c f9 bf de a2 eb bf 5a 3a 49 3f 6f 15 74 bf
       -1.9491003 -1.8409078 0.7860466 -0.95345205
0003b0 91 36 a2 3f 63 05 f5 bf 3c c0 5a 3f 15 93 bc 3f
       1.2672902 -1.9142269 0.85449576 1.4732386
0003c0 1c 69 b9 bf 53 d1 6d 3f 1f 74 2a bf 54 ee cb 3f
       -1.4485202 0.9289753 -0.66583437 1.5932107
0003d0 4f c8 a2 3f f1 9c 03 40 45 83 6a be 01 47 05 3f
       1.2717379 2.056454 -0.22901638 0.5206147
0003e0 1c 7c 8b 3f 70 83 75 bf 51 8e 35 bf 40 20 f1 bf
       1.089725 -0.9590368 -0.7092028 -1.8837967
0003f0 9c 0c e7 bf b8 a7 9d bf 82 be 3b 3f e5 b8 56 bf
       -1.8050723 -1.2316809 0.73337567 -0.83875877

bias_ih_l0 f4 [300]
000000 e8 ee 20 be 26 13 47 be 23 6c c4 bf 95 a4 24 bf
       -0.15716136 -0.19440898 -1.5345501 -0.6431363
000010 37 92 06 c0 71 aa 90 be 73 2e 9e 3f a6 20 a6 3f
       -2.1026742 -0.28255036 1.2357925 1.2978714
000020 f9 bf b0 bf 95 83 2f c0 7e bb d0 bf f1 e9 ed bf
       -1.3808585 -2.7424061 -1.6307218 -1.8587018
000030 a6 f5 31 bf 0c 06 18 bf f5 37 0c c0 f3 47 cd be
       -0.69515455 -0.59384227 -2.1909153 -0.40093955
000040 24 e0 7f bf ec 15 dd 3e bb 13 58 bf 6f 62 4b c0
       -0.99951386 0.43180788 -0.84405106 -3.177883
000050 af 0a 21 bf 99 45 ba be c6 7d 4f bf 05 e6 46 bf
       -0.62906927 -0.36381224 -0.8105129 -0.7769473
000060 45 fb 2d c0 76 2b ee bf 8d fb ba 3f 80 fa f5 bf
       -2.7184613 -1.8607013 1.4608017 -1.9217072
000070 53 7e 1a c0 96 42 61 be 0f d6 0d c0 76 ee da 3e
       -2.4139602 -0.21998057 -2.21619 0.42760056
000080 95 9c 61 bf 5f 2d 83 bf fc fb 18 bf ab e0 2e bf
       -0.8812955 -1.0248221 -0.597595 -0.68311566
000090 6c 89 35 bf 2b 57 ba be 0e 3a 8b bf 0a 0e 53 c0
       -0.70912814 -0.3639463 -1.0877092 -3.2977319
0000a0 6d 5f 01 3f 87 7a 53 be 9f dd a9 bf 45 54 fb bf
       0.50536233 -0.20652209 -1.3270758 -1.9635092
0000b0 f9 74 39 40 ec c5 f9 bf 2f fc 67 c0 b9 49 2d 3f
       2.8977644 -1.9513526 -3.624767 0.67690617
0000c0 1b d3 1b bf ed ff 0f c0 c2 bc a2 be 25 1c f6 bf
       -0.60868996 -2.2499955 -0.31784636 -1.9227339
0000d0 b2 39 53 bf a4 ba 8d be b4 90 be 3e ff d8 b0 bf
       -0.8250991 -0.27681458 0.37219775 -1.3816222
0000e0 34 bd c0 3f 94 84 83 bf 83 39 74 c0 c2 3d db 3f
       1.505774 -1.0274835 -3.8160102 1.7128222
0000f0 c5 83 5d bf 9e b2 e2 bf b3 e4 b2 bf d1 66 66 bf
       -0.8652919 -1.771076 -1.3976043 -0.90000635
000100 86 16 be bf bd 48 26 bf c6 e2 74 bf 8f ad d0 bf
       -1.4850624 -0.6495474 -0.9565853 -1.6302966
000110 7b 23 09 c0 a3 a7 a7 3d c5 d1 44 c0 3c e1 ca bf
       -2.1427906 0.08186271 -3.0753033 -1.5849986
000120 f6 18 cc be bd e8 85 bf a0 2b d9 be a7 28 f5 be
       -0.39862794 -1.0461651 -0.42416096 -0.47882578
000130 9f c1 f7 be 80 d8 1e bf 5a 7f 85 bf c8 03 b1 3f
       -0.4838991 -0.620491 -1.042949 1.3829279
000140 3b e4 0f bf e0 a6 47 bf 5c 8e 89 be 78 07 10 c0
       -0.5620763 -0.77989006 -0.26866424 -2.2504559
000150 ac e2 21 c0 33 c0 47 bf 21 d2 26 bf 77 6b 8f bf
       -2.52946 -0.7802765 -0.6516438 -1.1204671
000160 d7 fb 5f bf c1 67 d8 bd 0a 6f 8a 3e c7 f8 6c 40
       -0.8749365 -0.105666645 0.2703784 3.7026842
000170 f7 7c b1 bf 56 5c 26 be 66 7b 62 bf ad de 28 3f
       -1.3866261 -0.16246161 -0.8846954 0.65964776
000180 5b 4f 07 3f 7e 0c 52 bf 33 da d6 bf e4 a6 13 c0
       0.5285546 -0.8205031 -1.6785339 -2.3070612
000190 0e 4d 95 bf 99 75 38 be 09 8e 09 bf f3 51 8c c0
       -1.166414 -0.1801361 -0.53732353 -4.3850036
0001a0 1a c9 10 3e f1 4d 66 be 70 c8 1e c0 0a d3 04 c0
       0.14139214 -0.2249067 -2.4809837 -2.0753808
0001b0 38 41 35 c0 c6 65 d9 bf 88 65 59 bf 82 a9 fd 3e
       -2.8321056 -1.6984184 -0.8492055 0.49543387
0001c0 e6 91 0a 3f 42 46 fa bf 6c 0a 99 bf 83 c1 c4 bf
       0.54128873 -1.9552691 -1.1956306 -1.5371555
0001d0 8c 90 8f bf 5a 66 5c c0 07 81 85 bf 71 57 37 c0
       -1.1215987 -3.443747 -1.0430001 -2.864712
0001e0 28 eb ba bf 73 8c 1e c0 fe 13 23 be c5 28 f7 bf
       -1.4603014 -2.4773223 -0.15925595 -1.9309317
0001f0 7b 52 d2 bf 3d 05 95 be 2e 7d e5 bf 37 59 aa bf
       -1.6431421 -0.2910556 -1.7928827 -1.3308476
000200 c2 2a 19 3f af 2e 49 c0 78 92 99 bf 30 06 a3 be
       0.5983087 -3.1434743 -1.1997824 -0.31840658
000210 29 b9 ba bf 76 58 b2 bf c6 d0 1b bf 76 7d 0a c0
       -1.4587756 -1.3933246 -0.6086544 -2.1639075
000220 43 18 1d bf bc d6 aa bf 01 52 1c c0 27 58 23 c0
       -0.61365145 -1.3346782 -2.4425051 -2.5522554
000230 0e 66 ed 3e c3 ae 88 bf 2b ca 89 bf 78 a4 e4 be
       0.46366924 -1.0678333 -1.0764822 -0.4465673
000240 5c 94 a4 bf 50 68 34 3e c6 2d a2 bf 2a b0 e1 bc
       -1.2857776 0.17617917 -1.2670219 -0.027549822
000250 fe 17 1c 3f 56 00 20 be 6e 9c 5d bf 6f c2 33 c0
       0.6097411 -0.15625128 -0.8656682 -2.8087423
000260 98 77 12 c0 3e e0 4a bf fa a1 e1 bf 7f 55 8b bf
       -2.2885494 -0.79248416 -1.7627556 -1.0885466
000270 44 ab ee bf da 37 03 c0 c1 29 ad bf 05 eb 20 3e
       -1.8646016 -2.050284 -1.3528367 0.15714653
000280 39 22 d5 bc ab 43 11 c0 b7 d8 18 c0 90 9c ee bf
       -0.026017295 -2.2697551 -2.3882272 -1.8641529
000290 2b 8c f7 bf 4f 8a 08 c0 e6 5b 8c bf ce 36 cc bf
       -1.9339651 -2.1334417 -1.0965545 -1.5954225
0002a0 34 fe 70 bf 07 fc 25 bf 93 06 b9 bf 9a fd 9a bf
       -0.94137883 -0.6483769 -1.4455131 -1.2108643
0002b0 5e 71 af bf 1b f6 48 bf f5 37 47 c0 a6 4e 60 bf
       -1.3706472 -0.7850053 -3.1127903 -0.8762001
0002c0 d0 fd 11 40 29 91 64 bf db f8 8f c0 e0 50 dc bf
       2.2811165 -0.89283997 -4.499128 -1.7212181
0002d0 b7 4e df bf 5e 83 9c bf af f2 2e c0 79 55 c3 bf
       -1.7445897 -1.222759 -2.7335622 -1.5260459
0002e0 f5 34 3c bf 4e 49 c3 bf 20 d6 b0 bf 8c b1 fe be
       -0.73518306 -1.5256746 -1.3815346 -0.49744833
0002f0 a1 f8 05 c0 cf 8e a5 3e 8f a2 ee 3e 19 93 e3 be
       -2.0933 0.32335517 0.46608397 -0.44448164
000300 bc d3 a5 bf 4d 5a 50 c0 af 47 e5 bf 78 c1 49 bf
       -1.2955241 -3.2555115 -1.7912501 -0.78810835
000310 25 a5 a3 bf 42 05 0a bf 78 e5 4f c0 cd 05 3b c0
       -1.2784773 -0.5391427 -3.2483807 -2.922229
000320 61 6f 93 be da 46 02 3f c9 00 87 3f a4 51 34 bf
       -0.28795913 0.5088936 1.0547115 -0.70437074
000330 6c f0 ee bd ec 85 45 bf a6 d2 d9 bf f9 54 d3 3e
       -0.116669506 -0.77157474 -1.701741 0.41275766
000340 29 5e a5 3f f1 1c 8f be df fe 33 3f 5b 98 6b be
       1.291936 -0.27951768 0.7031078 -0.23007338
000350 60 fc d5 bf 0e 4f bd 3d e7 26 18 bf 29 b9 5d 3f
       -1.6717644 0.09243594 -0.5943436 0.86610657
000360 9a c6 99 3f 67 fa 23 3f fa 54 82 3f a0 4f a3 3f
       1.2013733 0.6405396 1.0182183 1.2758675
000370 15 5b 2a be 34 93 38 3e 40 b9 3f bf a1 91 14 40
       -0.16636308 0.18024904 -0.74892044 2.3213885
000380 23 8e f3 be 62 bd 32 3f c9 3a eb 3f 8e 3c a0 3e
       -0.4756938 0.69820225 1.8377315 0.312962
000390 71 bf 99 3f c5 03 99 3e 7c e5 04 40 88 dc 15 3f
       1.2011548 0.29885688 2.0765066 0.5853963
0003a0 97 87 8f bf 3f 5a 4e 3f dc dc b0 bf 7b fa 90 3f
       -1.1213254 0.80606455 -1.3817401 1.132644
0003b0 24 81 8f 3f 09 9a ae 3b 75 f2 86 bf 12 b5 00 bf
       1.1211286 0.005328421 -1.0542742 -0.5027629
0003c0 f8 65 9d 3f b7 49 c3 be 1a d1 ad bf 7b 53 c2 3f
       1.2296743 -0.38142177 -1.3579438 1.5181726
0003d0 97 e0 b9 bf 7b e8 9c bf f9 6e 62 bf b9 d3 a5 3d
       -1.4521664 -1.2258447 -0.8845058 0.080970235
0003e0 1f 0d 39 be 7b 61 0d 3f 4d 6c 14 bf ca c2 a8 bf
       -0.18071412 0.5522687 -0.57977754 -1.3184445
0003f0 cb df 74 bf 29 e0 9b 3d b6 e5 c4 bf c3 7e cf 3f
       -0.9565398 0.076111145 -1.5382602 1.621056

bias_hh_l0 f4 [300]
000000 d4 73 99 bd f8 17 e0 bd c9 a9 c0 bf 4b a3 07 bf
       -0.074927956 -0.10942072 -1.5051814 -0.5298354
000010 0d 3e 09 c0 a7 0e 9c be 3b 38 9d 3f 98 86 b0 3f
       -2.1444123 -0.3047993 1.2282785 1.3791075
000020 e5 3b ac bf 8d c3 2a c0 72 11 d1 bf 91 b4 e0 bf
       -1.3455778 -2.6681855 -1.6333449 -1.7555104
000030 f6 40 1e bf 4b 20 07 bf ca 35 0c c0 f6 91 f8 be
       -0.6181787 -0.5278365 -2.190783 -0.4854886
000040 24 88 6a bf 02 9e a1 3e 77 55 43 bf 60 15 4d c0
       -0.91613984 0.31565863 -0.76302284 -3.2044296
000050 bf bd 1e bf 67 08 f9 be 7c 1d 42 bf 28 42 6b bf
       -0.6200828 -0.48639223 -0.7582624 -0.9189782
000060 7f 1b 2a c0 85 0b e6 bf bd 13 c8 3f d2 bf e0 bf
       -2.6579282 -1.7972265 1.5631024 -1.7558539
000070 8e 3a 12 c0 0d 3c 95 bd 9d a8 05 c0 26 97 e2 3e
       -2.284824 -0.072868444 -2.0884163 0.44255942
000080 eb 23 6a bf 6d e7 74 bf 58 81 f6 be d2 37 29 bf
       -0.91461056 -0.9566563 -0.48145556 -0.661008
000090 7c a2 47 bf 07 fa f3 be 32 63 8e bf 1e e5 4e c0
       -0.77982306 -0.47651693 -1.1124022 -3.2327342
0000a0 20 e3 cb 3e 95 92 ac be b9 43 9c bf 33 a1 08 c0
       0.3982172 -0.33705583 -1.2208167 -2.1348388
0000b0 69 f9 35 40 8a f3 f5 bf 31 9f 67 c0 52 65 32 3f
       2.8433478 -1.9214947 -3.6190913 0.6968585
0000c0 f0 67 f3 be 08 ca 0e c0 da 0c ad be 7d 06 05 c0
       -0.47540236 -2.231081 -0.33798867 -2.078521
0000d0 f4 3c 2c bf fd cd 67 be 7a c1 d7 3e ba e2 ae bf
       -0.6728051 -0.22637172 0.42139798 -1.3662941
0000e0 96 bb c2 3f 58 aa 6e bf 1b 61 6a c0 26 1a c7 3f
       1.5213497 -0.93228674 -3.6621768 1.5554855
0000f0 b1 b9 6a bf f0 7c e0 bf 13 f6 b2 bf a7 68 4a bf
       -0.9168959 -1.7538128 -1.3981346 -0.79065937
000100 c2 f0 c9 bf 1d c7 2b bf fc 4f 56 bf 35 d1 bc bf
       -1.5776598 -0.671007 -0.83715796 -1.4751345
000110 98 a2 05 c0 17 f8 9e bc a4 93 41 c0 2e c4 cd bf
       -2.088049 -0.019405408 -3.0246363 -1.6075494
000120 7e 42 9b be 96 3e 76 bf 2b 4d 09 bf b0 81 c8 be
       -0.30324167 -0.9618925 -0.53633374 -0.39161444
000130 60 c2 ec be dd c4 31 bf 74 b0 79 bf 7a 85 b2 3f
       -0.46242046 -0.69441015 -0.9753487 1.3946984
000140 9a c8 e4 be 06 8d 4a bf 02 5c 8b be e9 94 15 c0
       -0.44684297 -0.79121435 -0.27218634 -2.3372138
000150 e6 10 23 c0 a5 e2 40 bf e1 55 28 bf 75 26 a0 bf
       -2.5479064 -0.7534583 -0.6575604 -1.2511736
000160 29 ec 72 bf 19 11 eb bd 6a 77 d8 3d 6b ca 72 40
       -0.948916 -0.114778705 0.105696514 3.7936046
000170 21 f6 af bf e1 14 60 be 1c 50 53 bf 50 d3 3c 3f
       -1.3746988 -0.21882965 -0.8254411 0.7375994
000180 0e fc 18 3f 9c 7c 5b bf 53 dd d8 bf 20 c1 15 c0
       0.59759605 -0.85737014 -1.6942543 -2.3399124
000190 ae 72 8b bf ce 7a af bd 8d 68 0b bf 61 a3 8d c0
       -1.0894372 -0.08568345 -0.54456407 -4.4261937
0001a0 2f e5 4d 3d 9e b0 85 be 2e 13 22 c0 ba a9 01 c0
       0.050267395 -0.2611131 -2.5324206 -2.0259843
0001b0 70 39 38 c0 cc 9f dc bf c8 2f 43 bf fe eb f2 3e
       -2.8785057 -1.7236266 -0.76244783 0.47445673
0001c0 aa 49 0d 3f 55 74 09 c0 52 75 a0 bf 7a 58 d9 bf
       0.5519053 -2.1477253 -1.2535803 -1.6980126
0001d0 23 6a 83 bf d0 31 62 c0 a1 ab 6a bf aa 6d 33 c0
       -1.0266765 -3.5342903 -0.91668135 -2.8035684
0001e0 92 b6 bd bf f0 84 1d c0 be f0 77 bc ef 63 e2 bf
       -1.4821341 -2.4612389 -0.015133081 -1.7686747
0001f0 75 a3 e1 bf 74 84 f5 be c6 18 d5 bf df 94 ab bf
       -1.7628008 -0.47952616 -1.6648185 -1.3404807
000200 44 a7 3d 3f 0d ce 43 c0 ce c3 97 bf ba 59 ac be
       0.7408335 -3.0594513 -1.185663 -0.33662206
000210 50 98 cd bf 42 1d b0 bf d0 d9 3d bf 9e e8 0c c0
       -1.6062107 -1.3758929 -0.7416048 -2.2016978
000220 0f 56 05 bf f2 22 ad bf 2b ab 1f c0 19 7a 26 c0
       -0.5208444 -1.352629 -2.4948223 -2.6012022
000230 45 a9 e8 3e 39 85 8a bf 47 8c 88 bf 03 30 e3 be
       0.45441642 -1.0821906 -1.0667809 -0.44372568
000240 50 b3 a6 bf 29 9c ab 3e 92 f7 a6 bf b0 4c f6 bb
       -1.3023472 0.33517578 -1.3044302 -0.007516466
000250 4e e4 17 3f 8e 64 d9 3b ae 2a 69 bf 83 9e 31 c0
       0.5933274 0.0066343015 -0.9108075 -2.7752998
000260 1a a9 13 c0 87 76 65 bf 9f f9 ec bf 87 b2 7b bf
       -2.3071961 -0.89633983 -1.8513678 -0.98319286
000270 5e b8 da bf cc 76 09 c0 3b 5e 9d bf b1 25 33 3d
       -1.7087514 -2.1478758 -1.2294382 0.043737117
000280 82 91 38 bc d7 23 0e c0 db bc 12 c0 88 77 01 c0
       -0.0112651605 -2.2209375 -2.2927768 -2.0229206
000290 e3 04 ff bf 91 5e 0b c0 47 0c 8d bf 6e 28 cc bf
       -1.9923366 -2.1776469 -1.1019372 -1.5949838
0002a0 a5 db 6b bf f0 57 40 bf 4d 6d c0 bf 16 d2 9f bf
       -0.92132026 -0.7513418 -1.5033356 -1.2485988
0002b0 72 4f a8 bf 9b e2 31 bf ce 2c 44 c0 be 7e 62 bf
       -1.3149245 -0.694864 -3.0652347 -0.88474643
0002c0 ec f3 16 40 9d 19 65 bf 47 8e 8e c0 a8 5f d8 bf
       2.3586378 -0.8949221 -4.454868 -1.6904192
0002d0 d1 01 da bf 5a bb 8f bf 1f b7 39 c0 b0 43 bc bf
       -1.7031804 -1.122905 -2.9018018 -1.4708157
0002e0 52 e1 56 bf fe 66 c2 bf 82 18 af bf 41 08 f5 be
       -0.8393756 -1.5187681 -1.3679354 -0.4785786
0002f0 87 97 06 c0 ad 40 a8 3e 2f 4c f9 3e 05 51 d9 be
       -2.1029985 0.32861844 0.48690936 -0.42444625
000300 12 2a af bf 15 5e 51 c0 ad 78 d3 bf b8 5e 4b bf
       -1.3684714 -3.2713673 -1.6521202 -0.79441404
000310 71 fe a8 bf 7e db 11 bf da e0 4f c0 c5 3c 35 c0
       -1.3202649 -0.56975543 -3.2480989 -2.831834
000320 9d c0 68 bf 0e 7f 3e 3f 8c 6a a3 3d af 3b f3 be
       -0.90918905 0.7441262 0.079793066 -0.47506472
000330 ec 46 cf 3c 68 63 34 be 0d 21 de bf d0 78 41 3e
       0.025302373 -0.17616045 -1.7353836 0.18893743
000340 33 fd 50 3f 0c 5c 3a be 85 c5 31 3f 36 fa 09 3d
       0.8163635 -0.18199176 0.69442016 0.033685885
000350 ce 9a 5a bf 46 f0 2a be 4b f8 59 bf b5 c9 36 3e
       -0.85392463 -0.1669322 -0.8514449 0.17850383
000360 71 e8 33 3f 0f b7 0d 3f a1 8e bb bd 15 2a 83 3e
       0.7027655 0.5535745 -0.09158064 0.25618044
000370 db ca 8b bd a6 2a 8d 3d 27 fe 40 bf 3b b9 cd 3e
       -0.06825801 0.068929 -0.75387806 0.40180382
000380 4e 4a 1d 3f 2e 31 49 3f d0 60 a6 3f f5 03 ca be
       0.61441505 0.7859067 1.2998295 -0.39456144
000390 d2 6b be be ed 6e e6 3c aa 8e 99 be 40 ac 1e ba
       -0.37191635 0.028129065 -0.29991657 -0.0006052889
0003a0 75 ef f1 bc 14 31 9b 3e 82 00 32 3f 70 64 2b 3f
       -0.029533127 0.3031088 0.69532025 0.6695013
0003b0 b9 46 24 3e 0d 10 47 be f0 82 a9 be db 52 86 bd
       0.16042604 -0.19439717 -0.3310771 -0.06558772
0003c0 b6 1c 89 3f 5a dc 90 bd 7e ab 5e bc 4b 35 c9 bf
       1.0711887 -0.07073279 -0.013590692 -1.5719389
0003d0 bc a6 a5 bf 22 a7 1b bf 6a 69 23 3e c1 60 b1 bd
       -1.2941508 -0.608019 0.15958181 -0.086610325
0003e0 ee f4 5e be 34 0e 68 3f 22 34 0a bb e2 51 7a bf
       -0.21773121 0.9064667 -0.0021088202 -0.97781193
0003f0 eb 62 f1 be 75 de 3f 3f 05 54 0d c0 7a 1f f9 3e
       -0.4714578 0.7494882 -2.2082531 0.48656827

weight_ih_l1 f4 [300, 100]
000000 b0 91 71 be 18 0f 1a be ba b8 10 bd a5 98 85 be
       -0.23590732 -0.1504482 -0.03533242 -0.2609302
000010 a9 45 42 3e 9b c4 66 3e d8 46 82 be 94 37 8b 3e
       0.18971886 0.22535937 -0.25444674 0.2719084
000020 ea 98 5b 3f 9d d4 97 3e d8 03 0a 3e 8c 2d 8e be
       0.85780203 0.296544 0.13478029 -0.27769125
000030 19 57 2d 3e a7 0a 28 be 26 f0 c3 3d 67 08 6f be
       0.16927756 -0.16410314 0.09567289 -0.23343049
000040 d2 56 0a 3f 42 73 a0 3e 1e 09 92 be 56 db 32 3f
       0.5403873 0.31337935 -0.2852258 0.6986593
000050 14 6b 32 3f ce c2 95 bd a7 b1 be bd 3e 09 85 3e
       0.6969464 -0.07312547 -0.09311228 0.25983614
000060 26 86 d1 3c 4f 91 44 3e 44 ab 46 be 6c e3 31 be
       0.025576662 0.19196056 -0.1940127 -0.17371911
000070 5d 9e 85 be 93 1e 42 be 44 d4 79 3e ef 71 04 bf
       -0.26097384 -0.18956976 0.24397379 -0.5173635
000080 76 a6 70 be 59 d6 bb 3d 1c 90 7f 3e 1b bd da 3e
       -0.23501 0.09171743 0.24957317 0.427224
000090 48 19 5b bf 03 49 81 bf 6b bc 07 3e a5 09 af 3e
       -0.8558545 -1.0100406 0.1325547 0.34187046
0000a0 87 23 ca 3d 27 4e e2 bc c3 66 6b be 24 f3 a0 bf
       0.098700576 -0.027625157 -0.22988419 -1.2574201
0000b0 7d 4f d8 3e 14 e6 41 bf 6a dc b1 be c0 1d bb 3d
       0.42248145 -0.75741696 -0.34738475 0.09136534
0000c0 d9 77 bd bd cb bf a0 3c 0f c6 86 3e 1b 27 b3 bf
       -0.09251375 0.019622704 0.26322982 -1.3996309
0000d0 63 b3 b9 3e 5c 4e 19 bd ac 36 89 be d2 b9 99 3e
       0.36269674 -0.037428245 -0.26799524 0.30024582
0000e0 96 8a 16 3e 78 4a 02 bd 9d 1a c9 bd 00 88 78 3e
       0.14701304 -0.0318093 -0.09819529 0.2427063
0000f0 a7 e8 00 bf 05 e5 24 3e 4f ee 1d be ee d8 c4 bd
       -0.50355 0.16102989 -0.15422939 -0.096116886
000100 f6 76 88 3e a5 9b 36 be a7 d6 be bd 44 f5 74 be
       0.2665326 -0.17832811 -0.093182854 -0.23921686
000110 5e 0e 73 bd df da cc 3d 14 5c bd 3e b1 b6 5f 3e
       -0.059339873 0.10002684 0.36984313 0.21847035
000120 e8 9c a5 3e cd 0a 70 bb 5b a0 18 3e 5c 6e cd 3d
       0.32346272 -0.0036627532 0.14904921 0.10030815
000130 6d 1e 8b 3e 20 7c 8f be de d0 58 3d 15 9d cd be
       0.2717165 -0.28024387 0.052933566 -0.40158907
000140 96 9b 16 bf b9 ac f5 be ab fa 80 3e c4 ca 3a bd
       -0.58831155 -0.4798334 0.25191244 -0.04560353
000150 6e a6 2d be e7 c3 40 3e 91 3e 28 be 6f ad 1b be
       -0.16958019 0.18824731 -0.16430117 -0.15202878
000160 a1 72 4d be 37 53 f9 3b 26 db 43 be 69 a8 3e 3c
       -0.20063259 0.007608797 -0.19126567 0.011636832
000170 cf 79 a3 be f5 66 0d be fb 83 6d be f7 a0 5c 3e
       -0.3192887 -0.13808806 -0.23194878 0.21545778
000180 1d 9a 15 3e 36 4a 6d 3d 1f d7 b6 3e 5e de 74 3e
       0.14609571 0.0579321 0.35711 0.23912951
000190 4a 9c c3 bf 76 61 7b 40 c3 31 c8 3c f5 93 8f 3f
       -1.5282071 3.9278235 0.02443779 1.1217028
0001a0 49 e4 fb be 5c e4 7a 3e 91 ec 5b bf 1b 87 44 c0
       -0.49197605 0.24501175 -0.85907847 -3.0707462
0001b0 6b 39 ee be 8f 15 06 bf b2 58 26 3d ea ba 0a c0
       -0.4652818 -0.52376646 0.04061193 -2.1676583
0001c0 21 ed bb bc e0 62 f4 3e 1c 6e 8a bf 5e 61 51 c0
       -0.02294022 0.47731686 -1.0814853 -3.2715678
0001d0 7b fa ed bf e4 7f f6 3f e6 7b 49 3f f3 f7 5d c0
       -1.8592066 1.9257779 0.7870468 -3.4682586
0001e0 42 ba f1 3f f4 af b1 3f 23 c8 0f bf b8 e3 86 3e
       1.8884966 1.3881822 -0.5616476 0.2634561
0001f0 4c 64 6f bf 25 e3 00 bf 6a 2a e8 3f 82 56 c4 3e
       -0.93512416 -0.50346595 1.8137944 0.3834725
000200 48 69 14 40 bc 0b 66 bf 53 26 b0 bf bd 54 33 40
       2.3189259 -0.89861655 -1.3761696 2.802047
000210 2d 90 bf be 25 18 8f bf ca 28 8e 3f 52 db de 3e
       -0.37414685 -1.1179243 1.1106198 0.43526703
000220 57 bf b1 bf d6 e5 6d bf bd fb 3c bf 0e b6 09 c0
       -1.3886517 -0.92928827 -0.7382162 -2.1517367
000230 bd 78 2d 3f 83 79 58 40 32 1a a3 3d 25 dd c8 bf
       0.67762357 3.3824165 0.07963981 -1.5692488
000240 5d 91 94 bf 9d 31 fb be 1d e3 c4 3f 4b fa 07 40
       -1.1606861 -0.4906129 1.538181 2.1246517
000250 1a 16 64 be 77 7e 38 c0 dd 22 11 c0 75 36 1d c0
       -0.22274056 -2.8827188 -2.267753 -2.4564488
000260 23 04 5a 40 bf 7f 30 bf ab dd 1a c0 ef d1 7d be
       3.4065025 -0.68944925 -2.4197795 -0.24787115
000270 4c fa e8 3f e7 66 8e be f7 2c ab 3f ee ad 0c bf
       1.8201385 -0.27812883 1.3373097 -0.54952896
000280 c4 4a 80 3e 5a f8 0b bf 56 56 05 c0 df 70 f5 bb
       0.25057042 -0.5467583 -2.0833945 -0.007490262
000290 37 48 81 bf c0 31 bb 3e e5 9b e4 bf 8e 61 12 40
       -1.0100163 0.36561394 -1.7860075 2.2872043
0002a0 de 93 c8 be 28 78 d6 bf 15 a4 20 40 3f 7c a3 bf
       -0.39175314 -1.6755419 2.5100148 -1.2772292
0002b0 a9 be 40 40 1b b9 a0 bf 7f 9e 91 bf 75 76 f1 be
       3.011637 -1.255649 -1.1376494 -0.47160688
0002c0 35 d4 e7 be b6 34 29 bf 6b cd 46 bf 4d 44 8b 3f
       -0.4527909 -0.66096056 -0.7765719 1.0880219
0002d0 b0 65 6e c0 3a 7a 20 c0 bb 88 f1 bf 6f 76 de bf
       -3.7249565 -2.50746 -1.8869852 -1.7379893
0002e0 e0 5b a8 3f 4d a6 9b 40 bb a8 f7 3f 9b 90 df 3f
       1.3153038 4.8640504 1.9348367 1.7466005
0002f0 89 14 73 40 68 e3 a5 bf 65 96 8e 3e e1 30 e6 3d
       3.7981284 -1.2960024 0.27849117 0.11239792
000300 71 9f e8 bf 40 d2 37 bf 04 2f 44 3f 19 4e 5b 3d
       -1.8173658 -0.7180519 0.7663424 0.053541277
000310 41 c7 09 3f f5 04 a7 3d 63 ee 20 c0 33 63 24 3f
       0.5381966 0.08155242 -2.51455 0.64213866
000320 9d 84 13 40 73 12 cb bf 81 08 db 3f aa 9c 05 c0
       2.304969 -1.5865005 1.711197 -2.087687
000330 59 a8 9c 3f 25 37 a1 c0 b9 73 55 3c 66 bf 39 3f
       1.2238876 -5.0379815 0.013028079 0.72557676
000340 75 6b 20 be 61 fd 1d bf 79 db b0 bf 13 06 b5 3e
       -0.15665992 -0.6171475 -1.3816978 0.35356197
000350 0a 1f fe bf 86 11 da 3f 73 1c c6 3f 4a f2 ef 3c
       -1.9853222 1.7036598 1.5477432 0.029290337
000360 00 45 95 40 0e d0 05 40 99 74 e8 3f cd e2 fb 3f
       4.664673 2.0908237 1.8160583 1.9678589
000370 6d d3 33 c0 f4 60 5a 40 14 d4 0f 40 da c0 d1 3f
       -2.8097794 3.4121675 2.2473192 1.6386979
000380 76 52 19 c0 1a 90 ef 3e 1d 5e 21 40 78 a8 a1 bf
       -2.395658 0.46789628 2.5213692 -1.2629538
000390 fa e1 03 3e 59 19 55 3f 0b e3 26 bf 7d 19 4a 40
       0.12879172 0.832418 -0.6519019 3.1578057
0003a0 c1 e4 21 40 60 80 75 40 37 d1 ac bf 5d 9f 03 40
       2.529587 3.8359604 -1.3501347 2.0566018
0003b0 31 dd 4a 3f 84 82 2f 3f 0a f2 05 c0 6a e4 1b 40
       0.7924376 0.68558526 -2.092898 2.4358163
0003c0 89 c0 50 bf a5 36 28 c0 e8 af 4a c0 8f 05 ac bf
       -0.81543785 -2.6283352 -3.1669865 -1.3439196
0003d0 7a f9 b8 be 4f e4 b6 3f 2a eb 4a 40 23 84 27 c0
       -0.36127836 1.4288424 3.1706033 -2.61744
0003e0 c1 90 83 bf d0 f7 63 3f 65 ec 24 c0 57 9f 04 40
       -1.027855 0.89050007 -2.5769284 2.0722253
0003f0 cd e1 9a bf a9 5a c1 3e ad 37 14 bf 9d e5 cf bf
       -1.2100159 0.3776448 -0.57897455 -1.6241947

weight_hh_l1 f4 [300, 100]
000000 05 d1 bf be 53 b8 50 bf 66 d9 00 be 68 66 e5 3e
       -0.37464157 -0.81531256 -0.12582931 0.44804692
000010 74 37 42 3f 7d f7 f4 3e 01 63 d0 be de 26 0e bf
       0.75865865 0.4784507 -0.40700534 -0.55528057
000020 bd 40 cc be 98 6a 2e bf 78 5a eb be ae bb 46 3e
       -0.3989314 -0.681314 -0.4596746 0.19407532
000030 45 f8 8c bf 07 67 14 bf 71 7e ac 3e 5e 0e 29 be
       -1.1013266 -0.5796971 0.33690217 -0.16509387
000040 2c c4 21 bf da 00 2f 3f f9 cb 07 3f 88 5f 77 bf
       -0.6318996 0.68360674 0.5304561 -0.96630144
000050 8c 3d ff bc 3e 10 4b be 3e fa dd be 56 35 2f 3f
       -0.031157278 -0.19830415 -0.43354982 0.6844076
000060 cc 83 22 bf 2b 55 e6 be 10 09 97 3e ba aa 3a be
       -0.63482356 -0.44986853 0.29499102 -0.1822919
000070 f4 c0 90 be ae e8 38 bf 3a 3e 26 3f a5 13 1d 3f
       -0.28272212 -0.7223004 0.649387 0.613581
000080 c1 92 a2 bd b7 47 be be 96 21 1c 3f d9 fb cf 3e
       -0.07938147 -0.3716409 0.6098875 0.40621832
000090 80 67 16 bf 3a 7f 1f bf bb 5c 08 3f 5a eb 1e bf
       -0.5875168 -0.6230351 0.53266495 -0.6207787
0000a0 0f 1f e9 be ba 14 27 3f 2c 87 f7 bc 92 a0 33 3f
       -0.45531508 0.65266 -0.030215822 0.70166886
0000b0 87 e4 56 3e e8 3b f4 3e fe f3 4b be bf a1 0c 3f
       0.20985614 0.47701955 -0.19917294 0.54934305
0000c0 23 d1 df be ab 14 c5 be d9 0a e2 be 25 e0 dd be
       -0.43714246 -0.3849233 -0.441489 -0.4333507
0000d0 11 46 e2 be de 04 17 3e e3 8e f6 3e a0 83 bd 3e
       -0.4419408 0.1474795 0.4815589 0.37014484
0000e0 25 f9 ef 3e d6 bd bb be 17 8b a2 3e eb cb d7 3d
       0.4686977 -0.3666827 0.31746742 0.10536941
0000f0 eb 12 8e 3f c0 51 74 3e 76 24 0b 3f 45 f2 93 be
       1.1099523 0.2385931 0.5435251 -0.28895774
000100 d2 26 08 3f e5 30 e5 3e 6b 18 bb be 22 3f ba 3e
       0.53184235 0.44763866 -0.36542067 0.36376292
000110 cc de fd bd 48 45 f4 be 50 28 f8 3e 29 59 7a 3e
       -0.12396011 -0.47709107 0.48468256 0.24448074
000120 3b 37 9c bd 92 36 31 3f 7e ea 23 3e f8 39 fe 3e
       -0.07627722 0.6922389 0.1600742 0.49653602
000130 63 5c 03 bf 61 72 ab bc 04 3c 60 bf a4 49 f1 3e
       -0.51312846 -0.020928564 -0.87591577 0.47126496
000140 5e 33 e1 3e db 36 c7 3d 22 c1 24 bf 47 dc 61 be
       0.43984503 0.0972726 -0.643572 -0.22056685
000150 e3 ee 55 bf e4 c4 65 3f ba 58 45 bf 7b 26 c4 3e
       -0.8356764 0.89753556 -0.7708851 0.38310608
000160 aa 85 32 bf 4d 51 f8 3e 92 8c 0c 3f e5 1a f0 be
       -0.69735205 0.48499528 0.54901993 -0.4689552
000170 b5 bd 2a 3e 4b 20 6b be 13 e5 b8 3d 5a 9b 24 bf
       0.1667393 -0.22961538 0.090280674 -0.6429955
000180 97 52 73 be 4e da 08 3f ec e5 ce 3e d3 52 01 bf
       -0.23761974 0.53458107 0.4040979 -0.50517005
000190 19 6b dc be bd d3 2c 3f 4b 35 c9 bd 53 c7 a2 3e
       -0.4305046 0.67510587 -0.09824618 0.31792697
0001a0 c9 85 c2 3e 9a 36 04 3e 30 0d 2c 3f 44 e8 c5 3e
       0.37992695 0.12911454 0.6720762 0.38653767
0001b0 00 69 59 bf 92 26 a3 be 3f 26 72 bf 72 45 b5 be
       -0.8492584 -0.31865364 -0.9458961 -0.35404545
0001c0 1c 44 d5 3e a4 e0 43 40 8a 3e 19 bf f5 df d5 3e
       0.41653526 3.060586 -0.5986105 0.41772428
0001d0 85 e4 0d bf 49 6f 06 bf 9e 02 2c bf c6 da 28 3e
       -0.5542682 -0.5251356 -0.67191494 0.16489705
0001e0 6e 5c c6 3e c3 fb 7b 3f 82 c5 4a bf b5 be 90 be
       0.38742393 0.9843103 -0.79207623 -0.28270498
0001f0 b2 1d 6e 3e 75 87 d8 3c 73 d5 eb 3f 17 d7 40 40
       0.23253515 0.026431778 1.8424515 3.013128
000200 13 c3 9e be 43 1f 48 bf 6a e7 fc be 71 d1 f5 3e
       -0.31008205 -0.781727 -0.49395305 0.48011354
000210 4e 6e 4a 3e e5 17 27 bf 38 28 0b 3f bd 54 4c be
       0.1976864 -0.65270835 0.54358244 -0.199542
000220 6d 7e 8e bf a9 f7 fe 3f 2c 96 8a 3f 43 7d 57 bf
       -1.1132332 1.991933 1.0827079 -0.8417551
000230 5a 03 d0 bd 71 92 8d be 0e 93 df 3f d2 37 07 bf
       -0.10156889 -0.27650788 1.7466753 -0.5281955
000240 f2 69 d5 bf 09 b9 74 3f 24 40 03 bd 19 58 6f 3f
       -1.6672957 0.9559484 -0.03204359 0.934938
000250 bc 03 04 3f a8 08 44 3f ce ce d2 3e 4e 66 f2 3d
       0.515682 0.7657571 0.41173404 0.11835919
000260 bb 97 a3 bf c4 28 af 3f 43 c9 84 3f b1 94 15 c0
       -1.278068 1.3684316 1.037392 -2.3372004
000270 d3 88 90 3e c9 7c c8 3d 9f 37 87 c0 10 20 47 3f
       0.2822939 0.09789426 -4.2255397 0.777833
000280 fe eb 0c 3c 29 80 ea 3e 0d d1 39 bf 68 a2 44 3e
       0.008601187 0.45800903 -0.7258461 0.19202578
000290 89 c8 56 c0 d0 6b 63 3f 2c d7 cd 3f 9f 84 ee 3d
       -3.3559897 0.88836384 1.608129 0.11646389
0002a0 db dc 77 c0 a8 68 66 be 7e 79 28 3f 09 01 16 bf
       -3.872855 -0.2250086 0.6581038 -0.5859533
0002b0 50 d8 42 bf 1c b0 84 3e 24 86 fd 3e 57 d8 b0 be
       -0.76111317 0.2591561 0.49516404 -0.34540054
0002c0 a1 cc 49 bf ad 63 82 bf 9b d2 2b 3e 61 82 45 3e
       -0.78827864 -1.0186669 0.16779558 0.19288017
0002d0 35 e1 33 3f 3b 2b 82 40 d3 c9 f2 3d d2 86 d8 bf
       0.70265514 4.067777 0.11854901 -1.6916144
0002e0 9e 62 0f 40 9c 7a f9 3e 53 db b1 3f bc 61 a5 3e
       2.240394 0.48726356 1.3895057 0.32301128
0002f0 63 8e 45 bf 47 50 fe 3e b1 58 83 bf 50 a1 3e bf
       -0.7717039 0.49670622 -1.0261441 -0.74464893
000300 78 02 4a 40 80 f9 80 bf 6c 79 f4 bf 73 20 aa 3e
       3.1564007 -1.0076141 -1.9099555 0.33227882
000310 d9 6a 14 c0 20 d1 69 3f c9 5f f2 3f a0 54 2e bf
       -2.3190215 0.91334724 1.8935481 -0.6809788
000320 8a 04 02 c0 0f 54 99 3f 70 42 f8 bf a4 a5 8a be
       -2.031527 1.1978778 -1.9395275 -0.270795
000330 dd ca 67 bf 47 64 dd bf ef 16 54 c0 e5 aa 60 3f
       -0.9054392 -1.7296227 -3.3138998 0.87760764
000340 f7 90 91 3f dd 0c cc 3f 36 03 1a 40 fd 5b a6 bf
       1.1372365 1.5941426 2.406446 -1.2996823
000350 6e 4b 40 3f 91 c0 2f be 15 ab 2f bf b0 f1 98 bf
       0.75115097 -0.17163302 -0.68620425 -1.1948757
000360 50 89 ad 3f ad 18 7e bf a8 ee f4 3f 24 15 d8 3e
       1.355753 -0.992564 1.9135332 0.4220363
000370 51 ca e6 bf db 14 0b 3e 0d 9d b6 3f 20 ef 2b bf
       -1.8030492 0.13582174 1.4266678 -0.6716175
000380 15 7c a6 bf 90 aa 11 3e a2 00 33 c0 b5 55 74 3f
       -1.3006617 0.1422522 -2.7969136 0.9544328
000390 e2 e1 f3 bc 8f ac dc 3f 0f 42 64 be d6 d5 8f 3f
       -0.029770795 1.7240161 -0.22290824 1.1237133
0003a0 7e 96 22 40 7e c1 99 3f fc 08 b1 bf cc 6c 66 be
       2.5404353 1.2012174 -1.3830867 -0.2250244
0003b0 f4 54 29 40 c6 3f c4 bf 70 8a c0 bf 2e 3a ad 3f
       2.6458101 -1.5331962 -1.5042248 1.353338
0003c0 aa 85 f7 3d 21 cd 61 bf b8 2c 71 3f 03 24 5a bf
       0.12086041 -0.88203627 0.9420886 -0.852112
0003d0 37 e6 a1 be 4d b1 9f bf 04 d7 2c be 06 4a bc bf
       -0.31620952 -1.2475983 -0.16878897 -1.471009
0003e0 92 86 a5 be 17 ad b3 3f b2 d4 e7 3d ca ce f4 3f
       -0.32329232 1.4037198 0.11319865 1.9125607
0003f0 4e bf 6a 3f 91 48 f2 bf c4 d1 dd bf 84 b9 93 bf
       0.9169816 -1.8928396 -1.732964 -1.154099
