saved_models/learning_rate_0.005.pt (torch, 570985 bytes, 11 tensors)

weight f4 [100, 100]
000000 61 b2 c5 be 2f 5b 33 3d 6c d8 aa 3f df 3c 88 3e
       -0.38612655 0.04378813 1.3347297 0.2660894
000010 4f f1 4d 3d b0 6c ec 3f 03 7c e8 3e 74 62 df 3e
       0.050278958 1.8470669 0.45407113 0.436298
000020 c5 d8 74 be 6d 86 19 bf 61 33 ed 3e e2 d8 19 40
       -0.23910816 -0.5997074 0.46328261 2.4038625
000030 a5 91 92 3e 15 c6 9c 3e ed ba 77 bf 57 86 e6 bf
       0.28626743 0.30619875 -0.967696 -1.8009747
000040 0e 76 9a bf ef 4a 73 bf a0 7d f8 be 46 6b 09 be
       -1.2067277 -0.95036215 -0.48533344 -0.13419828
000050 03 ab b1 3f 9d d1 5b bf 86 6f b7 3f 1d 74 26 3e
       1.3880314 -0.8586672 1.4330909 0.16255231
000060 4f 3a fa 3f e5 c3 30 be e9 55 3d bf e5 7f d0 bf
       1.9549044 -0.17262228 -0.73959213 -1.628903
000070 11 2f 7e 3f 09 31 f5 be 19 e5 30 bf c5 f2 4e bf
       0.9929057 -0.47888973 -0.69099575 -0.80839187
000080 ac b0 0a c0 5f 4f a7 3e 12 2c e9 bf 29 a3 1b bf
       -2.1670332 0.32677743 -1.8216574 -0.6079584
000090 b2 69 12 c0 04 c0 ba bf 9c ab 45 3e fe 69 2a be
       -2.2877011 -1.4589849 0.19303745 -0.16641995
0000a0 40 47 65 3f 0f f1 91 3e cf 5e 92 3d 38 d9 e4 be
       0.89561844 0.28504226 0.071469896 -0.44696975
0000b0 8f 90 4b bf 89 f9 80 3e 5e a5 22 40 7b 00 06 3f
       -0.79517454 0.2519038 2.5413432 0.52344483
0000c0 07 bc 01 3f 60 be 71 3e b4 4f 9a 3f 3b 01 47 bf
       0.5067753 0.23607779 1.2055573 -0.7773625
0000d0 04 0c 81 3f 4d e7 10 3f 4e 47 15 3e cc 99 13 bf
       1.0081792 0.56602937 0.14577982 -0.5765655
0000e0 fe 1d 68 3f f3 44 c8 3d af d2 05 bf 62 c8 3a bf
       0.90670764 0.09778776 -0.522746 -0.7296201
0000f0 80 f8 68 3f 38 ea 90 3f 7d e0 3c 3e b0 19 71 3f
       0.9100418 1.1321478 0.1844501 0.9417982
000100 e0 24 80 3e 97 67 01 c0 fc 5d 28 bf b4 b7 33 3f
       0.25028133 -2.0219476 -0.6576841 0.70202184
000110 db f3 8a 3f 8c d3 1a 3e f1 e5 35 3d 17 62 bb be
       1.0855669 0.15119761 0.044408742 -0.36598274
000120 0a 1d 38 bf 25 a1 91 bf 44 0f 8c bc 7e 0f e8 3e
       -0.7191931 -1.1377302 -0.017097123 0.4532432
000130 64 61 0f 3e 38 a7 96 bf 13 4f c8 3e 8a 59 2e 3f
       0.14001995 -1.1769781 0.3912283 0.68105376
000140 4b 85 88 bf 92 df 5b 3f a4 c1 14 bf ea 25 2e 3d
       -1.0665678 0.85888016 -0.5810797 0.042516626
000150 eb 8c 58 bf df ea be bf 89 02 ab 3e 21 c6 c5 3f
       -0.84590024 -1.4915427 0.33400372 1.5451089
000160 93 38 65 3f a9 c8 ce 3e c0 68 1b 40 37 cd 15 3f
       0.8953945 0.40387467 2.4282684 0.5851626
000170 4a 94 00 c0 c1 ab a9 3f 75 a7 67 3f 2e 9a 97 3f
       -2.0090508 1.325554 0.90489894 1.1843927
000180 be da 95 3f a3 12 f4 bf 50 24 79 3f af 68 ec bc
       1.170738 -1.9068187 0.97321033 -0.02885851
000190 b5 d7 de be ef 47 fd 3f 6c 01 4d be c7 93 d1 3f
       -0.43523946 1.9787577 -0.20020074 1.6373223
0001a0 dc 3d 25 bf da 5b 09 40 01 63 96 bf f9 60 1b 40
       -0.64547515 2.1462312 -1.1748964 2.4277937
0001b0 28 bb 87 3f c1 97 2d be 7e 0c 67 be df fc 05 3f
       1.060399 -0.16952421 -0.22563359 0.52338976
0001c0 62 c6 04 3e be 48 0d 3f 9f 40 23 3f 43 5f 3d bf
       0.12966302 0.5518912 0.6377048 -0.7397348
0001d0 f7 58 8c 3f ef 90 55 bf f4 97 83 bf 3d 7a 36 be
       1.096465 -0.83424276 -1.0280747 -0.17820068
0001e0 9f b8 df 3e f0 d1 c1 3e e0 f7 a4 3f 54 da 89 bf
       0.43695542 0.37855482 1.2888145 -1.0769753
0001f0 38 51 bb bf 03 cf df be 3f bb 42 bf f1 f7 de bf
       -1.4634161 -0.43712625 -0.76066965 -1.7419416
000200 4f b2 f8 bd 83 f4 ca be 09 95 55 bd 24 5f 9d 3f
       -0.12143385 -0.39639673 -0.052144084 1.229466
000210 a7 6b 94 3d 9b a4 44 bf 53 14 96 3e fe 31 9b bf
       0.072470956 -0.7681367 0.2931238 -1.2124631
000220 60 ba 67 bf 63 63 73 3e e8 c6 00 c0 56 5b 77 be
       -0.9051876 0.23768382 -2.0121403 -0.24155936
000230 5c 50 8b bf c3 f1 90 be e4 91 94 bf 3d 29 8f bd
       -1.0883899 -0.2830945 -1.1607022 -0.069902875
000240 ad ec 20 be 64 f1 e7 bd dc 71 89 bf c3 d9 56 3f
       -0.15715285 -0.113253385 -1.0737872 0.8392603
000250 d3 8e 9e 3f 62 f0 7f 3f c5 ce 8a bf 76 f2 0b bf
       1.2387336 0.9997617 -1.0844351 -0.5466684
000260 12 34 79 3f 95 ca a3 3f 99 8b 65 be c9 8a d5 3f
       0.9734508 1.2796198 -0.22416534 1.6682979
000270 35 cd da 3f b9 ee 3f bf a6 95 06 3f 8a ca 80 bf
       1.7093874 -0.74973637 0.52572095 -1.006181
000280 de 72 81 be c2 c1 d7 be eb 29 8a bf 54 1c 4e 3b
       -0.2528295 -0.42140013 -1.0794042 0.003144999
000290 92 1f 69 3f 0b 98 83 be 7f 75 20 3f f3 88 8d bf
       0.910638 -0.25701937 0.62679285 -1.1057419
0002a0 09 52 b4 bf 26 32 90 3e 9a da 54 3e 28 e5 ac be
       -1.4087535 0.2816326 0.20786515 -0.33768582
0002b0 60 fd 7a bf 3d ff 04 40 b4 56 13 40 4f b1 ce bf
       -0.9804287 2.0780785 2.302167 -1.614786
0002c0 4a ca 49 3e 92 e0 9f bf 34 5f 2d bf 7d be 7c be
       0.19706073 -1.2490408 -0.67723393 -0.2468204
0002d0 cb bf d6 3f fa 39 75 3e 7f dd 8a 3f 55 2d 5a bf
       1.677728 0.23947898 1.0848845 -0.8522542
0002e0 7c 40 b7 3e 38 0c fc bf 14 01 83 3f 71 b1 01 3f
       0.35791385 -1.9691229 1.0234704 0.5066138
0002f0 ae 16 d9 3f d5 c3 87 be 79 73 b6 bf 20 17 19 be
       1.6960046 -0.26516595 -1.425399 -0.14950228
000300 a6 63 94 3e f6 26 b2 bf e8 56 44 bf 97 ef 26 3f
       0.28982276 -1.391814 -0.7669511 0.65209335
000310 d5 1f 9e 3e 76 14 87 3f 1b 68 02 3f 91 c1 10 bf
       0.3088366 1.0553119 0.509401 -0.5654536
000320 e7 7f 61 3f f8 6f bb 3e a2 a3 04 c0 d6 13 bb bf
       0.8808579 0.36608863 -2.0724874 -1.4615428
000330 29 9c b0 be 8c 54 9f bd ba 19 4c bf 41 41 21 3f
       -0.3449414 -0.07779798 -0.79726756 0.62990195
000340 ba 0e c2 3f b9 8c 32 3f e5 fd 2d 3f 8c 81 81 3f
       1.5160744 0.69745976 0.6796554 1.011766
000350 34 75 00 3b 63 59 e7 be 79 cb b4 3f 26 f2 33 3f
       0.0019601109 -0.45185384 1.4124595 0.70291364
000360 09 99 d4 bf d8 9e ad 3f 15 b2 68 3c 24 82 87 bf
       -1.6609203 1.35641 0.014202614 -1.0586591
000370 74 80 23 3f 04 31 79 bf 70 9d 0a bf 62 06 95 bf
       0.6386788 -0.97340417 -0.5414648 -1.1642573
000380 cd 55 08 40 8c c5 83 3f d6 61 e2 3e 5d a7 68 3f
       2.1302369 1.0294662 0.44215268 0.90880376
000390 46 bd d2 3f 36 74 f9 3f 99 a8 40 3f 70 f6 d9 bf
       1.6464012 1.948859 0.7525726 -1.7028332
0003a0 76 ec d2 3f 55 5d 0f be 32 5b 43 3f 1a db 1c c0
       1.6478412 -0.14000447 0.7631103 -2.450873
0003b0 fc 4a dc 3f a2 9c 99 bf e2 bb f0 bf 1c 6d 12 3e
       1.7210383 -1.2000926 -1.8807337 0.14299434
0003c0 0b 69 fc 3d 94 b4 9c 3e 80 25 14 bd 15 4c 39 bf
       0.12324723 0.3060652 -0.036168575 -0.72381717
0003d0 57 ad 5e 3b 88 20 98 3f ed 7b b1 3f 8c a1 c4 3e
       0.003397783 1.1884928 1.3865944 0.384045
0003e0 12 4e 96 bf a3 bc b7 3d 8a a9 86 bf 8b c0 1b c0
       -1.1742575 0.089715265 -1.0520489 -2.433627
0003f0 a5 ac 61 3f ee 32 09 3f 3f 09 5c 3f a1 1c e9 3d
       0.8815406 0.5359334 0.8595161 0.11382414

weight_ih_l0 f4 [300, 100]
000000 61 75 fb 3c 6a 53 da 3e 11 b8 35 be 8c 1f fb be
       0.030695619 0.42641765 -0.17745997 -0.49047506
000010 57 18 2a be 9a b9 23 3e 78 2e 09 3e 7b 80 93 be
       -0.16610847 0.1598877 0.13396633 -0.2880896
000020 59 d1 8c 3c 24 1f 1c be ff c9 7f be 12 cb f0 3e
       0.017189668 -0.15246254 -0.24979399 0.4702993
000030 e2 7d 64 3e 8a 29 64 3e c6 2e f7 3d 24 b3 82 3e
       0.22313645 0.22281471 0.12069468 0.25527298
000040 9c 02 ad 3e a0 44 c9 be 41 28 b0 be d6 40 f2 3d
       0.33791053 -0.3931017 -0.3440571 0.11828773
000050 1d 89 2d 3d 64 5f 1e 3f 39 d1 87 be d3 4b 95 3e
       0.04236709 0.61864305 -0.26526812 0.29159412
000060 da 3e e5 be 51 99 d3 be a2 4b 21 3e 4d 1f c2 be
       -0.44774514 -0.4132791 0.15751508 -0.37914506
000070 c1 97 e2 3d 6c 9f ac bd 3a 90 fb 3d d5 e6 cc bc
       0.11064101 -0.08428845 0.122833684 -0.025012413
000080 f7 26 84 3d 3c a3 95 bd 6c c2 17 be ff 6a 04 be
       0.064527445 -0.07306525 -0.1482026 -0.12931441
000090 f1 68 34 3e 0d 68 0c 3e d6 94 56 be 5f df 91 be
       0.17618157 0.13711567 -0.20955214 -0.2849073
0000a0 23 7a 1c be 55 e7 c9 3d b5 ff 80 3d 25 99 27 be
       -0.15280966 0.09858576 0.06298772 -0.16367014
0000b0 14 df 1a bd fe 2c fd be b2 b2 52 3e 2a e0 35 3e
       -0.0378104 -0.4944839 0.2057598 0.17761293
0000c0 04 18 f8 bc 83 98 82 3e 23 22 a3 be 1e e3 35 3d
       -0.030284889 0.25506982 -0.31861982 0.04440605
0000d0 f2 4c 0f 3e f7 3d 13 3f 43 af 9b be 91 9f 08 3f
       0.13994196 0.57516426 -0.30407152 0.5336848
0000e0 12 fa 9f bd c8 10 b0 3e de 74 ae be f2 d3 9e 3e
       -0.07811369 0.34387803 -0.34073538 0.31021076
0000f0 7b fc 01 3e 35 a4 42 3d 5a e2 83 be 23 bd 97 3d
       0.1269397 0.04751988 -0.2575863 0.07409122
000100 e2 a0 1b 3f 35 12 87 bd e3 7f e2 be 64 5f 95 be
       0.6079236 -0.065952696 -0.44238195 -0.2917434
000110 0b 27 28 3e 1a 5a 37 bd f9 85 a8 3c c4 0a ca 3c
       0.16421144 -0.044763662 0.020571696 0.024663337
000120 cd 23 94 3e b3 7d af bc 23 a6 89 bd 5d 76 50 bd
       0.28933564 -0.021422243 -0.06721141 -0.05089413
000130 8a 18 12 bd f8 ad da 3e 07 96 df bd a4 85 fa bd
       -0.035667934 0.42710853 -0.10917287 -0.12232521
000140 11 c2 45 3e 2e fb e6 bd 93 dd 07 3e 2d ee e0 bd
       0.19312312 -0.112783775 0.13268118 -0.109829284
000150 cb 2a 11 bf 45 5e 00 3d 56 5b 4c 3e 0c d2 9b be
       -0.5670592 0.031339902 0.19956717 -0.3043369
000160 af 5c fb 3e 20 d6 56 3e fa fa 52 3e 00 3d 7b be
       0.4909415 0.2098012 0.20603552 -0.24534988
000170 31 82 17 be 18 1d d8 3d b7 67 37 3d 43 bc c3 bd
       -0.14795758 0.10552424 0.044776645 -0.095573924
000180 8f 99 b9 bb 58 cd 95 3e 51 f4 a7 bd 5d 8e bf be
       -0.0056640576 0.29258227 -0.082008965 -0.37413302
000190 e6 54 bf bd 6a f1 6f 3d 1a d8 01 bd 65 9a 6d 3e
       -0.09342365 0.05857984 -0.03170023 0.23203428
0001a0 42 79 81 bd d6 02 b4 bd fe 27 78 bd af 02 24 be
       -0.06321956 -0.087896034 -0.060585015 -0.16016649
0001b0 2c c1 19 bc 11 47 a1 be eb da db 3e 22 50 ee bd
       -0.009384435 -0.31499532 0.4294046 -0.11636378
0001c0 82 98 9b 3d f7 37 ac bd a5 53 43 3d 9b b4 c3 bd
       0.07597448 -0.08409112 0.04768719 -0.09555932
0001d0 b9 29 32 be 50 f0 37 bb 52 98 6e 3e 9c 1c 01 be
       -0.17398728 -0.0028066821 0.23300293 -0.1260857
0001e0 31 5e 9e 3c b8 1d a3 be 53 70 04 bf b9 97 7c 3e
       0.019332023 -0.3185861 -0.51733893 0.24667253
0001f0 a7 2f 53 3e 60 60 c1 3e 03 c3 b5 bd 7b 35 99 3c
       0.20623647 0.3776884 -0.08875086 0.01870226
000200 a2 bc ce ba 46 04 86 bd 08 e4 bf 3e 88 47 ce 3e
       -0.001577277 -0.06543784 0.37478662 0.4028895
000210 60 b2 5d 3e e5 e3 3c 3e c5 c0 92 bd 2b ae fa bb
       0.21650076 0.1844631 -0.07165674 -0.007650157
000220 46 77 7b 3e 3a 4d cf 3c fc f1 f0 3c 98 b3 8f bd
       0.24557218 0.02530538 0.029412262 -0.07016677
000230 df 1c 19 be 77 a6 72 3e 81 7e fc be 71 87 f7 3e
       -0.1495242 0.23696314 -0.49315265 0.4834552
000240 f4 c3 1f 3d 30 d2 f3 bd 77 9c 10 be b0 79 16 bd
       0.039005235 -0.119053245 -0.14122187 -0.036737144
000250 4e 82 d6 bc 5d 2d e1 bd c1 d2 da 3d 21 15 8e 3d
       -0.026185181 -0.109949805 0.10684729 0.06937624
000260 c6 92 06 3c c1 8d 86 bd 3f 96 33 3e fd c2 4a be
       0.008213704 -0.06570006 0.17537783 -0.19800945
000270 56 bf 69 be 70 e5 bd 3d 0d ff cd 3e 76 bc 15 3e
       -0.22826895 0.09272277 0.4023365 0.14622673
000280 7c 4b 82 bd a2 b6 eb 3d 76 1d 78 3e 28 70 20 3d
       -0.06362054 0.11509444 0.24229988 0.03916946
000290 47 87 09 be 72 34 3b be 54 b7 46 bd fa 05 a2 3e
       -0.1343051 -0.18281725 -0.04851468 0.31645185
0002a0 0c da 30 be 5e 64 2a bd 46 0f 78 3e 4b 8e 7c 3e
       -0.17270678 -0.041599624 0.24224576 0.24663655
0002b0 01 b2 57 be aa f2 3e bc 2c 34 3e 3e 3e 12 e2 3e
       -0.21063997 -0.011654535 0.1857459 0.44154543
0002c0 40 a1 9c 3e 6d 5b 40 be c9 c3 05 bf 82 2c 9e 3e
       0.30591774 -0.18784876 -0.5225187 0.30893332
0002d0 e1 a7 82 3e 50 7f f5 bd 6f ba 97 3e cb f7 2e 3f
       0.25518706 -0.119871736 0.29634425 0.6834685
0002e0 00 19 6d 3c ee 4e 92 3e 8a 5e 96 3d c4 43 18 bb
       0.0144712925 0.28575844 0.07342251 -0.002323375
0002f0 3c 5b 43 3e c9 7d e8 bd 9e a9 ee 3e 99 fe b4 bc
       0.19077772 -0.113521166 0.46613783 -0.022094058
000300 04 e5 19 be 7e 80 70 bd 26 7d d8 3d d9 af 4d 3e
       -0.15028769 -0.05871629 0.10570745 0.20086612
000310 0f 96 95 bd 9e a5 dc be f2 e6 f0 3d 13 3e 99 bd
       -0.07304012 -0.43095106 0.11762799 -0.07482543
000320 65 e5 78 3e 93 4f 0c bd a1 6d c8 3e e2 9b ad 3e
       0.24306257 -0.034255575 0.3914614 0.33907992
000330 54 8d ce be f0 aa e2 be ad 58 d1 3e cd f8 be be
       -0.403422 -0.4427104 0.40887967 -0.37299195
000340 d6 c1 97 3e b9 be 10 bd 3c ed cf bc 86 a8 70 3d
       0.29640073 -0.035338137 -0.025381677 0.058754466
000350 c9 37 9f 3d ce b6 2c bc 30 e8 b3 3c 48 bd 9d be
       0.07774312 -0.010541631 0.021961302 -0.30808473
000360 19 41 35 3a 7f 43 9f 3e b6 54 9e be bb 36 0f 3f
       0.00069143024 0.31106183 -0.30924004 0.5594289
000370 c6 d6 14 bf 8e 71 78 bd 50 77 56 be 3f a5 16 3d
       -0.5814022 -0.06065517 -0.20943952 0.036778685
000380 09 ea f6 3e 77 87 b7 3e 6b 2d 95 be ed 0f 3e 3c
       0.4822543 0.3584554 -0.29136214 0.011600477
000390 5b b1 49 be fb c3 6d be 4e 33 22 3e 0f 5b 0e 3e
       -0.19696562 -0.23219292 0.15839884 0.13901924
0003a0 ce 3a 11 bf 81 c1 0e 3c 2e 45 d0 bd c1 c3 a7 bd
       -0.56730354 0.008713127 -0.10169445 -0.08191634
0003b0 9f 48 b0 3e 8d f2 9c 3e c4 b1 10 be 2c 1c a4 3c
       0.34430405 0.30653802 -0.14130312 0.020032965
0003c0 89 00 66 be 20 67 c8 be 24 50 42 be ee 9b c0 3e
       -0.22461142 -0.39141178 -0.18975884 0.37618965
0003d0 70 a0 9e be a6 47 54 3e 73 68 1a bd 0c b2 56 be
       -0.3098178 0.20730457 -0.037697267 -0.20966357
0003e0 c7 9f 7d 3e 0f 7a cc bd 95 3e b9 bd d5 e4 28 3f
       0.24767981 -0.09984218 -0.0904514 0.6597417
0003f0 13 6a 17 3e 11 0a 65 be e5 64 48 3e df 45 e4 3e
       0.14786558 -0.22367121 0.19569738 0.44584557

weight_hh_l0 f4 [300, 100]
000000 7b b3 c3 3e e3 c3 0e bf 8c 12 0f 3d 7c a6 96 be
       0.3822287 -0.5576765 0.034929797 -0.29423892
000010 44 4a f2 3d f0 af cc 3e b7 2d af 3e 39 87 88 3e
       0.11830571 0.3997798 0.34214565 0.26665667
000020 68 c8 de 3d 3a 4a 10 bd e0 09 01 bd c2 cc 3f be
       0.10878068 -0.035227038 -0.03150356 -0.18730453
000030 77 86 99 3e a2 ec 93 3a f6 01 b2 3d e8 db a6 3e
       0.299854 0.0011285732 0.0869178 0.3258965
000040 ad b5 f1 3e 6b b9 f6 bc 73 1b b2 be 82 b0 0c bf
       0.4720892 -0.030117711 -0.34786567 -0.5495683
000050 1d 5c 24 3e da 59 e0 bd a1 dd 84 bd 65 ea a9 bd
       0.16050763 -0.10954638 -0.06487585 -0.0829666
000060 20 6a a0 3d 88 00 41 be 4e f7 a7 3c ba cc a2 3e
       0.07832742 -0.18847859 0.020503666 0.3179682
000070 5e 5d 94 bd 1c 2a f7 bd 4f cb a9 3e cd 04 88 be
       -0.07244371 -0.120685786 0.33162925 -0.26566163
000080 ba 82 a6 bd 3a 69 37 3f 4b 5e fd 3e 66 8a 4c be
       -0.08130403 0.7164494 0.49486002 -0.1997467
000090 7e 0c 47 3e 98 64 cc be 8a 2d b3 be 73 5c d5 bd
       0.19438359 -0.39920497 -0.3499568 -0.10418024
0000a0 ef aa 03 3f 3f 34 e2 be f1 a5 c3 3e ce 43 01 be
       0.514327 -0.44180486 0.3821254 -0.12623522
0000b0 01 7b 23 bf 1a 41 ca 3e 7a 55 10 be 95 48 b7 3e
       -0.63859564 0.39502794 -0.14095107 0.35797563
0000c0 e3 67 37 3e f8 cb 05 be 27 6e 58 3e f2 1b a3 3e
       0.17910723 -0.13066089 0.2113577 0.31857258
0000d0 30 71 59 be 00 96 87 3d 4a bb 15 3e 77 21 12 bf
       -0.21234584 0.06620407 0.14622226 -0.57082313
0000e0 6c 12 32 3d bc c5 f7 3d 11 74 da 3e 35 85 50 3e
       0.0434746 0.12098262 0.42666677 0.20363314
0000f0 7d 49 b0 3d e7 f2 29 3e d1 b4 4c bf 1e ec 0a 3f
       0.08607767 0.16596566 -0.79963404 0.54266536
000100 cf b0 86 3c ff 50 fa 3e 5f 49 c3 3e ac 84 44 3e
       0.01644173 0.4888992 0.38141915 0.19191235
000110 49 2a 96 3d f2 38 bc be 04 f1 84 3e 6a 76 72 3d
       0.07332284 -0.36762196 0.2596513 0.05919496
000120 2e 3a c5 be 70 12 7a be f1 f0 ab be b1 b4 db be
       -0.3852095 -0.24421096 -0.3358226 -0.42911294
000130 c4 b3 27 3e 0d ee ae bb 7e c8 98 bd 82 fe 08 bf
       0.16377169 -0.0053384365 -0.07460116 -0.5351335
000140 fe 7d ed 3e ae f6 b6 bd 32 b3 b3 bc 58 c7 08 be
       0.46385187 -0.08933769 -0.021936033 -0.13357294
000150 9f 11 22 bf 64 92 af 3e a6 a3 11 be f0 08 ad be
       -0.6330814 0.34291375 -0.14222583 -0.3379588
000160 9c b1 e5 bb e8 0c 81 3d a6 9d 29 3f 4a 56 c7 3d
       -0.007009698 0.0630129 0.6625618 0.09733255
000170 4b c2 38 bd 19 a1 20 3e ac 47 cb 3c 0f 76 b6 be
       -0.045107167 0.15686454 0.02481445 -0.35636947
000180 90 ee 8a 3e 78 cd 1f 3e 12 a4 fb be 9b 16 a8 be
       0.27135134 0.15605724 -0.49148613 -0.32829747
000190 8e 67 77 bd da cb 1a bf dd ca df 3e b4 45 3d be
       -0.06040149 -0.604673 0.4370946 -0.18483621
0001a0 f8 65 19 3f 07 e1 42 be f8 2f 35 3f 05 2c 87 3f
       0.59921217 -0.19031154 0.7077632 1.0560309
0001b0 b8 e2 d5 3e 8c f0 9d 3e f0 12 70 3e a4 23 14 3f
       0.41774535 0.30847585 0.23444724 0.57866883
0001c0 d8 29 fa 3e 00 af d6 3d 95 f3 6c 3e ad 8f 89 3e
       0.4886005 0.10482597 0.23139794 0.26867428
0001d0 97 cd 1c 3f b8 2c bf be e2 01 b0 3d 8e 07 bf bd
       0.61251205 -0.37338805 0.08594109 -0.09327613
0001e0 e7 2d 2f 3f 88 80 8a 3c a6 40 bf bd 43 22 fc bd
       0.68429416 0.016906992 -0.093385026 -0.123112224
0001f0 06 0a a1 3e 29 97 4a 3f 12 ee 0e 3f e9 a8 1c be
       0.3145296 0.791369 0.55832016 -0.15298809
000200 2b 3f 0e bf df ed c1 be 3a d2 7b 3e bf 2d 16 3f
       -0.55565137 -0.37876794 0.24591914 0.58663553
000210 1d 69 84 3e d7 b3 e6 3d b0 db a9 3e 11 1b 85 bc
       0.25861445 0.112647705 0.3317542 -0.016248258
000220 f8 7a cc 3e eb 0b 81 be c5 6e 19 bf 15 c3 0e bf
       0.39937568 -0.25204405 -0.59934646 -0.5576642
000230 76 1e fb 3e 06 ce 41 3d 82 1e 0d be 57 e3 0f bd
       0.49046677 0.04731562 -0.13781169 -0.035128918
000240 01 2a cc be c6 55 de 3d 7d 47 20 3e f3 e3 0f be
       -0.39875796 0.10856204 0.1565227 -0.140518
000250 a3 f5 1a bf 8e 52 b6 3e 48 1f 53 be 80 4b b5 3c
       -0.6053106 0.3560986 -0.20617402 0.022130728
000260 bb 74 c8 bd 08 91 85 be 9f 14 48 bd 5e 08 58 3e
       -0.097878896 -0.26087213 -0.04884779 0.21096942
000270 8e ff da be 06 4f b4 be 1f 53 be 3e 99 1f 15 be
       -0.42773098 -0.3521654 0.3717279 -0.14562835
000280 80 c8 33 bf 02 a8 08 3e 15 4a 46 3e 11 e6 2b be
       -0.70227814 0.1334534 0.19364198 -0.16786982
000290 53 45 cf 3e d1 be 4d 3f 31 e3 69 3e 57 eb 54 3f
       0.40482578 0.8036929 0.22840573 0.831716
0002a0 1d 9e 78 be 79 d4 0e 3f 0d 89 82 3e 7a c5 40 3e
       -0.24279065 0.5579296 0.25495186 0.18825331
0002b0 6d 44 77 be 6d 4d 42 bf e2 a9 95 3d 13 c3 60 3c
       -0.24147196 -0.7589939 0.07307793 0.013718384
0002c0 86 69 ab be c3 1a c1 3e 85 09 4a bd 64 9e ab 3e
       -0.33478945 0.3771573 -0.049325485 0.3351928
0002d0 0f 26 8b 3e c3 ac ec be c2 54 22 3d de a5 3c bd
       0.27177474 -0.46225557 0.039631613 -0.04605662
0002e0 87 f1 96 3e be 80 a8 3e a7 24 4a 3f 6c 1b 99 3e
       0.29481146 0.32910722 0.7896218 0.29903734
0002f0 12 30 b6 3d 38 82 4d bf 11 bf 90 3d ac d5 93 be
       0.088958874 -0.80276823 0.07067693 -0.28873956
000300 bc c6 db 3e 27 4f 83 be 43 d5 2a 3e 28 29 f0 be
       0.4292506 -0.25646326 0.16682915 -0.469064
000310 d3 88 a0 be 5d 73 fa bd 8a 5c 9c be 04 1d e1 3e
       -0.3135439 -0.12229035 -0.30539352 0.4396745
000320 f7 d5 11 be 2b ac be 3e 95 9c 71 3e 16 ae 0b 3f
       -0.14241777 0.3724073 0.23594888 0.5456251
000330 18 a5 5f 3f 56 cc 9d 3c 83 ea 99 3e 93 30 5d 3f
       0.8736129 0.019262474 0.3006173 0.86402243
000340 29 3a bb be 1f 1b 88 be 68 10 1d 3e e0 8c 31 3f
       -0.3656781 -0.26583192 0.1533829 0.69355583
000350 30 20 82 bf 59 db df be 19 35 6c be a3 71 1d 3e
       -1.0166073 -0.43722036 -0.2306713 0.1537538
000360 c1 75 21 bf 44 de af 3e 53 98 24 3e 63 92 cf bd
       -0.63070303 0.34349263 0.16073732 -0.10135343
000370 42 fc 8f be ec ff 2c 3e 39 ba 8e 3e f2 8c ec 3e
       -0.28122145 0.16894501 0.27876452 0.46201283
000380 c6 a2 34 bc 95 67 25 be 4b c5 97 be 87 5a 9c be
       -0.011025136 -0.16152795 -0.2964271 -0.30537817
000390 17 f4 36 3e 64 83 0f 3f d4 a8 28 bf e3 74 85 bd
       0.1786655 0.5605986 -0.6588261 -0.06516435
0003a0 1b 8a e3 be 8b f7 20 bf 0c 35 bb 3e e9 e7 5c 3e
       -0.44441304 -0.6287772 0.3656391 0.21572842
0003b0 82 e6 09 3d 3f e3 94 3e e6 57 24 3e bd 9a 87 bd
       0.033667095 0.29079625 0.16049156 -0.06621311
0003c0 06 fc 8f be af ef 3b 3e 5a 6a 52 3e 1f e9 1a be
       -0.28121966 0.18353151 0.20548382 -0.15127991
0003d0 b5 6a 12 3d 0d 07 30 3d 57 8a cf 3e 4c 7d 19 3e
       0.035746295 0.042975474 0.40535232 0.14989203
0003e0 07 ef ba be c2 b6 a6 be b7 fc e9 bd 95 4d 70 3e
       -0.36510488 -0.32561308 -0.11425155 0.23467095
0003f0 a3 00 03 be 75 49 33 3e 75 f0 81 3d 50 01 dc be
       -0.12793212 0.1750849 0.06344692 -0.4296975

bias_ih_l0 f4 [300]
000000 3b 2a b3 3c a3 6e f5 3d 86 d2 e2 3d 85 16 4d bb
       0.021870723 0.11983993 0.110753104 -0.003129394
000010 ca 13 bb bd ee f3 d9 bd 4d 33 01 bd ed f1 c5 bd
       -0.09134634 -0.10642229 -0.031543065 -0.09665284
000020 8b 72 06 be 5c 35 42 be 9d d1 b6 3d 39 f3 79 3c
       -0.13129632 -0.18965667 0.08926699 0.015255743
000030 1f 88 fa bd 5a a8 58 3d 0f 93 17 b9 39 3b 7c be
       -0.12232994 0.052894928 -0.00014455266 -0.24631967
000040 09 0f 49 be 2a 1a e8 bc 50 1c 9a 3d 52 d3 1c be
       -0.19634642 -0.028332788 0.075249314 -0.15314987
000050 e4 d3 17 3e 20 46 08 3d d2 ad 36 3e 77 35 8d bc
       0.14826924 0.03327 0.17839745 -0.017237408
000060 fe 73 b3 3d 7a e3 18 bd e2 80 b7 3c a9 a3 76 3e
       0.08762358 -0.037326314 0.022400323 0.24085869
000070 3a 3c c2 3d 54 9f 1f be da 91 d5 3d 7f 17 1d 3e
       0.094841436 -0.15588123 0.104282096 0.15340994
000080 31 2d 66 3d 95 1f bc bc 28 89 43 be 50 c1 92 3e
       0.05619544 -0.022964278 -0.1909529 0.2866311
000090 18 e5 57 be 5d 97 c4 3d 65 de 35 be 98 97 b4 3e
       -0.21083486 0.09599183 -0.17760618 0.35271907
0000a0 b9 b6 1f 3d 97 0f ed bc 70 2a b7 be 92 8d 58 be
       0.038992617 -0.028938098 -0.35774565 -0.21147755
0000b0 0d cc f4 3d 1a a6 b1 bd 46 ed af bc 20 99 3e be
       0.11952982 -0.086742595 -0.021475445 -0.186131
0000c0 07 09 cd bd 53 64 e5 3b 38 98 21 bd 88 61 e5 3d
       -0.100114875 0.007000485 -0.039451808 0.11200243
0000d0 f2 3a 83 bc be e1 1f bd 07 b7 d0 bd f4 cd 10 3e
       -0.016019318 -0.039033644 -0.1019116 0.14141065
0000e0 77 6a b9 bd bb a9 77 bd 91 26 2b 3e 5f 45 11 bd
       -0.0905351 -0.060464602 0.1671393 -0.035466548
0000f0 fc 9a c2 3d 42 5e c8 3c ab 22 60 3e c7 04 83 3e
       0.09502217 0.024459008 0.21888225 0.25589582
000100 85 4d b2 bd e3 fb 9d 3c 9f ca 70 3e 4a 6a f0 3d
       -0.08706192 0.019285148 0.23514794 0.11739023
000110 72 db 72 3b 68 c7 87 be 6e 30 91 be 7a 81 f0 3c
       0.003705707 -0.26519322 -0.2835726 0.029358614
000120 56 f5 2e 3e 71 75 af bd ed 2f 14 be bd a3 04 3e
       0.17085776 -0.08567322 -0.14471407 0.12953086
000130 21 ed d3 bc a4 0f 5a 3b 00 56 ab be 7b 91 84 3d
       -0.025869908 0.0033273483 -0.3346405 0.06473061
000140 d3 1b df 3d 58 74 fe bd fa df dc bc 25 dc 00 3c
       0.10893979 -0.124245346 -0.02696227 0.007864987
000150 d8 f7 a0 3d b4 8b c8 3d 5c 85 af 3c 79 f3 51 be
       0.078597724 0.09792271 0.021425895 -0.20503034
000160 1d 12 80 3d 74 b1 f3 3d 25 31 3c bd 1a 8f 90 3e
       0.06253455 0.11899081 -0.045945305 0.28234178
000170 e9 46 53 3d 96 35 95 3d 36 96 5d bd 3c c1 47 be
       0.051581297 0.07285611 -0.05409833 -0.19507307
000180 8d 10 43 be aa 1c 1e 3e 8d 82 79 be 3a d8 31 bc
       -0.19049282 0.15440622 -0.24366207 -0.010854775
000190 57 53 b2 be 28 76 2e be ee c4 fa be af f3 32 be
       -0.34829208 -0.1703726 -0.4897837 -0.1747577
0001a0 4a 20 8a be d2 b3 78 be 85 27 27 be 6a 88 37 be
       -0.2697776 -0.24287346 -0.16323669 -0.17923132
0001b0 9a 55 50 be d3 83 9b be 03 e1 01 be 05 f3 59 be
       -0.20345154 -0.3037401 -0.12683491 -0.21284111
0001c0 aa 97 f9 be 25 b6 c8 be 8c 48 07 bf 95 5e 81 be
       -0.48748523 -0.39201465 -0.5284507 -0.25267473
0001d0 4f 61 88 be ec 29 1d bf a5 ef d2 3d 69 47 ab be
       -0.2663674 -0.6139209 0.10299615 -0.3345292
0001e0 6b 0e bc be 98 44 cf be 38 17 57 be fb bb 73 be
       -0.3672975 -0.4048202 -0.21004951 -0.23802178
0001f0 f7 12 58 bd 8f f5 e4 bd 1b e6 1b bd bc 96 59 be
       -0.05275246 -0.11179649 -0.038061243 -0.21248907
000200 6d 50 5a be 81 52 1c bf 41 60 45 be 5c 77 dc be
       -0.21319743 -0.6106339 -0.19274999 -0.43059814
000210 e7 2e 05 be 98 d1 f1 be 6b 17 32 bd 54 74 0b be
       -0.13006173 -0.4723022 -0.043479364 -0.13618594
000220 b9 61 18 be 5d f0 32 be a9 e4 11 bf b3 d3 c7 bd
       -0.14881028 -0.17474504 -0.5698953 -0.09757175
000230 7a 10 8e be 6c 3c 3a be 9c 0e 57 be 09 11 c4 be
       -0.27746946 -0.18187112 -0.21001667 -0.38294247
000240 26 fe f0 be 75 82 1f be 44 30 23 be 36 9b a7 be
       -0.470689 -0.15577109 -0.1593638 -0.32735604
000250 d8 54 ab be 08 d0 ae bd c2 65 01 be e6 8f 90 be
       -0.33463168 -0.085357726 -0.12636474 -0.28234786
000260 78 3c ad be eb e4 c9 be 5d 81 e2 be 4f c0 c6 be
       -0.33835196 -0.39432463 -0.4423932 -0.38818595
000270 8a e9 97 be 8d 56 d0 bd 18 3e d5 bc 09 8a 31 be
       -0.29670364 -0.10172758 -0.026030585 -0.17337812
000280 08 9e da be 38 a8 c8 be 24 88 b6 be f6 02 bd be
       -0.42698693 -0.3919084 -0.35650742 -0.36916322
000290 28 fc a6 be 90 d0 07 be 51 c6 a0 be e2 67 b5 bd
       -0.32614255 -0.13263154 -0.31401303 -0.08857705
0002a0 61 82 4d be af ff e3 be 73 d2 e9 be eb 43 18 bf
       -0.20069267 -0.4453101 -0.45668373 -0.59478635
0002b0 15 c2 e7 be 81 b6 07 be bd 01 c2 be e0 a3 a2 be
       -0.4526526 -0.13253213 -0.3789195 -0.31765652
0002c0 4b e8 95 3c 3c ea dd be ff 51 04 bf 96 71 4c be
       0.018299242 -0.4334277 -0.51687616 -0.19965205
0002d0 6b 7c fa be cd de 95 be 47 ce 9a bd 83 05 c3 bc
       -0.48923048 -0.29271546 -0.075588755 -0.02380634
0002e0 fd 61 d6 be 71 4b 77 3c 9d 39 b5 be 65 a1 e1 be
       -0.41871634 0.01509367 -0.35395518 -0.44068447
0002f0 36 12 7a bc b1 2e e5 be cf d4 c4 be ba 70 21 bf
       -0.015263131 -0.44762185 -0.3844361 -0.6306263
000300 5c a4 89 be 67 c7 04 be ec 1a c8 be 6e 97 89 be
       -0.2688321 -0.12966691 -0.3908304 -0.26873344
000310 44 0c 36 be 71 dc bf be a9 f8 be be a8 41 aa be
       -0.17778116 -0.3747287 -0.37299088 -0.33253217
000320 fd b4 1f be 3f aa 16 be d6 a2 2e 3e 4a 18 01 3a
       -0.15596385 -0.14713381 0.17054304 0.0004924579
000330 a7 cb 2b be 5a 8a 91 3d b1 13 36 be 38 02 a4 3d
       -0.16776906 0.071064666 -0.17780949 0.08008236
000340 24 ce 0a 3e 67 e7 00 be cc 6d 45 bd 34 01 10 3c
       0.13555199 -0.12588273 -0.048200414 0.008789349
000350 22 55 cb 3b 13 d4 e1 3d d2 b1 50 be 7f 2e 01 3e
       0.006205217 0.11026778 -0.20380333 0.12615393
000360 d6 b4 47 3e 14 34 8e 3c 63 a6 7e bd 54 69 54 bc
       0.19502577 0.017358817 -0.062170397 -0.012964565
000370 22 5a 55 3d a6 3d 5f 3d cc 9c c6 bc b1 cc 4d 3e
       0.05208791 0.054502152 -0.024244688 0.20097615
000380 95 9d 82 bc 49 1c 83 be 91 9a 30 be c1 07 54 bd
       -0.015944282 -0.25607517 -0.17246462 -0.051765207
000390 31 9e cd bd f2 e4 29 3e 20 08 20 be e0 ec 0c 3e
       -0.10039938 0.16591242 -0.156281 0.13762236
0003a0 bc b5 d6 3a 89 fc 89 bd 97 08 6f bd f9 a6 f1 bd
       0.0016381065 -0.067376204 -0.0583578 -0.11799426
0003b0 22 26 12 be 68 d9 10 be 8d 28 15 3e fa 41 bf bc
       -0.14272359 -0.14145434 0.1456625 -0.02334689
0003c0 23 81 d9 bc 1c 8f 89 3d dd f5 40 bc e0 63 6a be
       -0.026550835 0.06716749 -0.011777368 -0.22889662
0003d0 16 8f 0e be 72 12 b2 bd f9 74 31 be c1 18 ae bc
       -0.1392177 -0.086949244 -0.17329778 -0.021252038
0003e0 18 1a fa bd 66 34 4a 3e cc 16 0a 3d 19 2b 2e be
       -0.12212008 0.19746551 0.033713147 -0.17008628
0003f0 d0 cc 67 be 17 d8 ed bc 8e 98 23 3e b7 ba 97 bd
       -0.22636724 -0.029033704 0.15976164 -0.0740866

bias_hh_l0 f4 [300]
000000 a3 c7 82 bd b7 ac a9 3c cd 47 74 3c 6d 3b e5 3c
       -0.06385734 0.02071224 0.014909697 0.027982438
000010 15 3f 4b 3c 4a 94 8f bc c0 69 19 ba e5 e7 80 bd
       0.012405177 -0.017526764 -0.0005852245 -0.0629423
000020 90 19 24 39 e9 a0 3f be 60 38 0e 3b 64 09 82 bc
       0.00015649782 -0.18713726 0.0021701083 -0.015873618
000030 4c a7 01 be 75 64 3f 3e af 41 0d 3d e9 a8 85 be
       -0.12661475 0.18690665 0.03448647 -0.2610543
000040 d5 3c 59 bd 6e 09 72 bd c0 c4 a0 bd ce bd 30 be
       -0.05303653 -0.059091024 -0.07850027 -0.17259905
000050 4f 21 e1 3d 8d fb 72 3d fc 76 00 3e 32 7b 0f bb
       0.10992681 0.05932193 0.12545389 -0.0021893498
000060 18 43 b6 bd a5 10 c0 3d 55 ea fb 3c 76 14 44 3e
       -0.08899516 0.09378175 0.030751387 0.1914843
000070 b0 70 13 3e 44 64 c1 bd 6a a8 bd 3d 65 f2 25 3e
       0.14398456 -0.09442952 0.09260638 0.16205747
000080 c7 53 6a 3d 0e 76 9e 3d 5e 0a 0e be 7c 0c 87 3e
       0.057208803 0.07737361 -0.13871142 0.26376712
000090 2e 0f 5c be 6a 07 b5 3d f7 e0 37 be 7b 91 8d 3e
       -0.21490166 0.08839305 -0.17956911 0.27650055
0000a0 bd 47 24 3e 9b 0a 0f 3e ea 1c 55 be c6 bd 1f bd
       0.16042991 0.1396889 -0.20811811 -0.03899934
0000b0 bd e4 ec bc c6 1e e4 3c 5a 1e b1 bc 3f d3 dd bd
       -0.028917665 0.027846705 -0.021620918 -0.108313076
0000c0 9e 67 0f be 0e fb ce 3d 1d 2a a4 3d 64 78 18 3e
       -0.1400437 0.10106479 0.08015845 0.14889675
0000d0 a5 de 4f bd e0 a9 a4 bc 21 87 d8 bd c0 fa 10 39
       -0.05074944 -0.020100534 -0.10572649 0.00013826322
0000e0 35 36 b7 3d 25 24 41 bd 7b 3c 73 3e 2e e3 a7 3d
       0.08945886 -0.04715361 0.2375354 0.08197628
0000f0 30 36 97 3d 7f 85 84 3c a4 f8 8a 3e 9d f9 47 3e
       0.07383382 0.016176937 0.27142823 0.19528814
000100 45 b9 9d 3c 80 60 58 bd e3 46 af 3e d3 9e 0b 3d
       0.019253382 -0.052826405 0.3423377 0.034087013
000110 18 cb bb bd f9 c7 06 be ea 9e 4a be 90 98 7c bd
       -0.091695964 -0.13162221 -0.19787183 -0.061668932
000120 56 40 2f 3e 3d a3 db 3a 73 86 3f bd 45 b6 f4 3d
       0.17114386 0.0016757023 -0.04675908 0.11948828
000130 88 7d 27 be a2 14 4f 3d c0 b0 9b be 8f d5 8b 3d
       -0.1635648 0.050556786 -0.30408287 0.068278424
000140 f0 88 2d 3e a9 f8 36 bd 1b 86 44 3d ed 22 16 be
       0.16946769 -0.044670735 0.047979455 -0.1466176
000150 0d b8 a2 bb 65 b4 05 bd d5 96 45 3c 65 3e 1d be
       -0.004965788 -0.03264274 0.012059887 -0.15355833
000160 e9 00 08 3d f3 b3 22 3e 77 04 35 3d 1b 9c 41 3e
       0.033203993 0.15888958 0.04419371 0.18907206
000170 f1 78 d5 3d 9e f3 12 3c 06 2d 7c 3c de 30 3c be
       0.10423458 0.008969216 0.015391594 -0.18378016
000180 8d f3 56 be a5 b3 d8 3d c2 38 80 be 68 97 fc bb
       -0.20991345 0.105811395 -0.25043303 -0.0077084787
000190 c5 bb 75 be 96 47 2a be d6 1c e5 be 2b d9 44 be
       -0.2399741 -0.1662887 -0.44748563 -0.19223468
0001a0 96 09 04 be 88 b0 71 be 1f ad 1d be f8 3c 38 be
       -0.12894282 -0.23602498 -0.15398072 -0.17992008
0001b0 ae c9 30 be fe 2b 4e be 22 b3 79 be bf d3 a0 be
       -0.17264435 -0.20133969 -0.2438474 -0.3141155
0001c0 a6 6f ee be 43 ef b4 be ff 2f d1 be 54 89 8d be
       -0.46569556 -0.35338792 -0.4085693 -0.27643836
0001d0 a1 c0 8f be 02 73 1e bf 23 e8 21 3d fd 3e af be
       -0.28076652 -0.6189424 0.039528023 -0.34227744
0001e0 e9 42 ae be c4 4d e3 be 84 1a b2 be 03 d8 d1 be
       -0.34035423 -0.44395268 -0.34785855 -0.40985116
0001f0 8d 0c 9c bd 18 65 9a bd af c7 1b be d6 f4 54 be
       -0.07619581 -0.07538813 -0.15212892 -0.20796522
000200 97 b1 73 be 0d 08 23 bf e1 6f 4e be 8e 38 eb be
       -0.23798214 -0.6368416 -0.20159866 -0.45941585
000210 b3 6c 05 bd 31 94 f8 be 7b cd 9b bd 3d c0 34 be
       -0.032574367 -0.4855056 -0.07607552 -0.17651458
000220 eb 2b 55 bd 10 80 36 bd 9f f0 0f bf f1 4f cb bd
       -0.052043837 -0.044555724 -0.56226534 -0.09927357
000230 1a b0 cd be 87 e6 9e be 5f 18 e7 bd ca fb 89 be
       -0.40173417 -0.31035253 -0.11283945 -0.26949912
000240 4c ff fb be de dc 2e be 3a 82 4e be 52 e7 99 be
       -0.49218214 -0.17076442 -0.20166865 -0.30059296
000250 cc 4b a2 be ea e9 06 be a4 74 58 be ce 34 c7 be
       -0.31698453 -0.13175169 -0.21138245 -0.38907474
000260 26 6c a4 be 07 f3 b5 be b4 2a d4 be b1 af e6 be
       -0.3211376 -0.35536978 -0.4143883 -0.45055917
000270 9f 44 83 be 33 82 af bd 70 ba 31 bb ac 77 ac be
       -0.2563829 -0.085697554 -0.0027119182 -0.33685052
000280 69 7e b3 be ee c0 ac be a2 8d 98 be c0 5d a3 be
       -0.3505738 -0.33740944 -0.29795557 -0.31907463
000290 22 07 d4 be 27 b6 55 bd b5 71 87 be 8c 5a 62 be
       -0.41411692 -0.052175667 -0.2645394 -0.22104853
0002a0 57 3e 12 be 3f d5 fe be 3f e5 ea be f5 b3 05 bf
       -0.14281593 -0.4977207 -0.45878026 -0.5222772
0002b0 90 44 01 bf 7f 17 0c be eb f3 af be 06 7a 96 be
       -0.50495243 -0.13680838 -0.34365782 -0.29389971
0002c0 c1 d1 e6 bd 72 28 96 be 1a bb 10 bf 24 64 3d be
       -0.11270476 -0.29327732 -0.56535494 -0.18495232
0002d0 af f8 de be fc 90 87 be 4c b1 29 be e7 d5 84 bc
       -0.43549106 -0.26477802 -0.1657154 -0.016215278
0002e0 4f 70 c9 be 4e 0a ba bb ff d8 b5 be b8 d5 14 bf
       -0.39343497 -0.005677498 -0.35517117 -0.5813861
0002f0 46 a8 5a 3d 87 a7 db be eb da cd be 59 ab 08 bf
       0.053383134 -0.4290125 -0.40206084 -0.53386456
000300 8c f1 95 be 73 21 f1 bc c6 10 93 be 0a b7 a7 be
       -0.29285848 -0.029434895 -0.28723735 -0.32756835
000310 b0 02 30 be 4d 79 97 be 75 8f 94 be a0 97 3c be
       -0.17188525 -0.29584733 -0.290157 -0.18417215
000320 a8 e9 0a 3e ca bd 2c 3e 59 c3 70 3e 9e db af 3e
       0.13565695 0.16869274 0.23512019 0.34347242
000330 65 7a 88 3d dc 31 80 be af 45 b0 be 01 4a 24 3d
       0.0666397 -0.2503804 -0.34428164 0.040109638
000340 a2 02 cd bb 41 25 58 bd d4 6e a9 3e 5b 7c fd bc
       -0.0062564174 -0.052769903 0.33092368 -0.030943086
000350 4e a2 f1 3d 38 4d 85 3e 03 95 d0 be ce fa 97 3d
       0.11798535 0.26035476 -0.40738687 0.07420884
000360 c8 6c 5c 3d f0 97 a3 3e cd ef 4f bd 9d 70 c5 3d
       0.05381468 0.31951857 -0.0507658 0.0964062
000370 c4 49 54 bd 47 69 4c bd eb f6 95 bd 1e b1 ba 3e
       -0.05182816 -0.049905088 -0.073224865 0.36463255
000380 d1 22 47 bd 4a 67 9a bd 5d 92 2d be 90 df 9e be
       -0.048617188 -0.07539232 -0.16950364 -0.3102994
000390 ed 92 e3 bc 91 6e 99 bd ba ff 85 be d1 1d 40 3d
       -0.02778002 -0.07491792 -0.26171666 0.046903435
0003a0 68 44 ff 3e 61 62 48 3e ec 47 4e bd 94 b9 81 bd
       0.49856877 0.19568779 -0.05036156 -0.06334224
0003b0 8c 77 42 be db 75 76 be 10 49 38 3e 03 ed aa be
       -0.18990916 -0.24068396 0.17996621 -0.3338395
0003c0 85 fb 5d 3d 1c 6d 60 3e b6 7a c9 3c ae f9 99 bd
       0.054194946 0.21916622 0.024594646 -0.07518326
0003d0 a2 b4 84 3e d9 78 94 3e 7c 42 47 3d fa ca 06 be
       0.25919062 0.2899845 0.04864739 -0.13163367
0003e0 3b aa ec 3c db 5f 93 3e 0d ba 5a bd c8 74 6a be
       0.028889766 0.2878407 -0.053400088 -0.22896111
0003f0 a3 49 17 be 8c 31 12 be 56 6d a2 3d d4 60 ca bd
       -0.14774184 -0.14276713 0.079310104 -0.0988175

weight_ih_l1 f4 [300, 100]
000000 70 60 0e 3f 7a 0a 80 bc 39 a3 72 bd 10 89 65 be
       0.556159 -0.015629996 -0.059237693 -0.22415566
000010 87 ae 04 bf 79 e3 e1 bd 14 e3 c0 be f6 57 fc 3d
       -0.5182881 -0.11029715 -0.37673247 0.12321465
000020 a0 7a 2a 3f 57 ea 01 3e 13 cb a5 be dd 00 5f be
       0.6659336 0.1268705 -0.32381496 -0.21777673
000030 de e6 42 3f 6c e6 10 3f b1 31 4f 3e e6 75 ad 3d
       0.76133525 0.56601596 0.202338 0.08469753
000040 1b 47 2c bf 00 7a b1 3e ef 2e 1d be 7c 72 de 3e
       -0.67296 0.3466339 -0.15349935 0.4344672
000050 02 6f b3 3e 50 9a 21 3e 28 8a 7b 3d ed f6 a0 3e
       0.3504563 0.15781522 0.061411053 0.3143839
000060 2c 61 a1 3e b7 ba 87 3e 0d 57 ab 3e 9c 31 06 bf
       0.3151945 0.2650964 0.33464852 -0.5241945
000070 2d ff c0 3e 18 1e b0 3e 5a 0a 82 bc 22 f8 90 3e
       0.37694684 0.3439796 -0.015874077 0.2831431
000080 6e 9f f2 bd 0a 6c 02 3e 87 cf d9 be 0c 24 ea be
       -0.11846815 0.12736526 -0.42541143 -0.45730627
000090 7e f9 a2 3e 10 81 c8 be 74 bf a8 be da f8 e8 be
       0.31830972 -0.39160967 -0.32958567 -0.4550236
0000a0 11 64 53 3f 4d 14 5d 3e bc dc 77 3e 32 57 c5 be
       0.82574564 0.21589775 0.24205297 -0.38543087
0000b0 04 55 1d 3e cc 09 3d bf 8a 70 fa 3b 4e b5 e4 3d
       0.15364462 -0.73843074 0.0076428102 0.111673936
0000c0 13 f4 e5 3d 0a 33 96 3e 45 d2 3e be 55 5e b3 3e
       0.11228194 0.29335815 -0.18634899 0.35032907
0000d0 59 52 08 be 06 93 07 3f 72 75 62 be 41 b6 f0 3d
       -0.13312663 0.52958715 -0.22115114 0.11753512
0000e0 a5 73 21 bf 5a 8d f8 bd 40 ea 1e be 46 01 e4 be
       -0.63067085 -0.12136336 -0.15519047 -0.44532222
0000f0 51 38 5b 3e 40 cb 05 bf 9c 47 bb be a8 d3 03 3f
       0.21408202 -0.5226326 -0.3657807 0.51494837
000100 c0 49 2d be ee 90 be 3e 6a 01 6e 3d 88 e2 1f 3e
       -0.16922665 0.37219948 0.058106817 0.15613759
000110 d0 eb e6 be 81 b0 e4 3e 36 b3 d0 bd 8a 0e 31 bf
       -0.45101786 0.44665912 -0.10190432 -0.6916281
000120 b8 e0 77 be 08 c7 38 bc 20 1f 92 3d 1e 38 23 3e
       -0.24206817 -0.0112779215 0.07134843 0.15939376
000130 81 33 01 3d 77 72 e9 bc 67 20 91 3e 5f d2 e5 3e
       0.03154326 -0.028496964 0.28345034 0.44887063
000140 b8 f9 e5 3e f3 50 50 bf fc 40 05 3e 0b 3c 12 bf
       0.44917083 -0.8137352 0.13013071 -0.5712287
000150 7e a2 9c 3e 76 66 2b be a1 50 10 be 8b 4d 81 3e
       0.30592722 -0.16738304 -0.14093257 0.25254473
000160 59 b9 08 be 31 5f fd be 04 08 24 3e aa 29 9a 3e
       -0.13351955 -0.49486688 0.16018683 0.30109912
000170 a7 71 99 3d 1b e1 2e 3e a5 83 71 3f 7d e4 72 3e
       0.074923806 0.17078058 0.943415 0.23719974
000180 2c 01 f9 3c 6b e4 13 bf fd 34 9e be a8 85 aa 3e
       0.030396067 -0.57770413 -0.30899802 0.33305097
000190 8e 6a 29 3f eb e7 50 be f3 0d 95 bd 3a cf c4 3d
       0.66178215 -0.2040097 -0.07278051 0.09609838
0001a0 be f5 4c 3f ab e4 1f be fc 66 2b 3f c6 37 75 be
       0.8006247 -0.15614574 0.66954017 -0.23947057
0001b0 50 63 7c 3e 90 7f c9 bd a6 07 ec 3d 34 b0 85 3e
       0.2464726 -0.09838784 0.11524896 0.26110995
0001c0 97 aa 8e bd 84 f7 4e 3d 6f 6d aa be cd b1 3d bf
       -0.06966131 0.050529018 -0.33286616 -0.7409943
0001d0 7a 09 04 3f e6 9e 3d be 88 56 ab 3e 73 9f 2f 3e
       0.5157696 -0.18517646 0.33464456 0.17150669
0001e0 9d be 23 3f ff ec 80 3c 6c ff c7 bc bf 38 59 3f
       0.6396273 0.015738009 -0.024413787 0.8485221
0001f0 bc 92 f6 be ef ff a5 bd 69 77 8c 3e 1c c2 a7 3d
       -0.48158824 -0.08105456 0.27434853 0.0819132
000200 cc 13 06 3f 4c aa 20 3e 11 03 9d 3e 36 8a 7e 3d
       0.5237396 0.15689963 0.30666402 0.062143527
000210 ea ba 69 ba 27 28 50 bf 56 c1 bf 3e 6b f0 4f be
       -0.0008916097 -0.8131127 0.3745219 -0.20306556
000220 b1 d1 74 be 2e 48 92 3e fb b4 09 bf 3c 20 8c be
       -0.23908116 0.28570694 -0.5379178 -0.27368343
000230 01 6c 7a 3d bf 4f cf bd 77 05 bc be 27 f6 09 be
       0.061138157 -0.10122632 -0.3672292 -0.13472806
000240 48 fd 65 3f 1b d4 ad 3c d7 9f c7 be 22 31 8b 3c
       0.898396 0.021219304 -0.38989136 0.016991202
000250 e4 e1 78 bf 29 48 10 bf ca c7 09 3e c5 fc 46 3e
       -0.9721968 -0.5636011 0.1345512 0.19432361
000260 15 21 bf 3d c6 0a b3 3e 66 31 53 3d 54 29 89 3e
       0.09332482 0.34969157 0.051560782 0.26789343
000270 81 bd 18 3f cf bb 8e bd 4c d6 9a bc 87 03 11 3e
       0.5966416 -0.069694154 -0.018901013 0.14161502
000280 2a 3c 1e be 53 bf d3 be b9 5d c2 3e fc f0 fb be
       -0.15452638 -0.41356906 0.3796213 -0.49207294
000290 27 79 8c be 06 9e 07 3e 51 aa bf 3d 69 ea 6c be
       -0.27436182 0.13243875 0.09358657 -0.23136295
0002a0 0d e9 9d 3e d4 fd 8b bf 9c 89 5d bd ae 3a d6 be
       0.30841866 -1.0936837 -0.054086313 -0.41841644
0002b0 c9 1e e4 3e 61 a6 8e bf 65 89 bd be 80 c7 e3 bd
       0.44554737 -1.1144525 -0.37018886 -0.11122036
0002c0 1e 89 8e bd f3 64 83 3c 4f 01 86 3c 2b 9b 94 be
       -0.06959747 0.016039347 0.016358046 -0.29024634
0002d0 7b 70 28 bf 8f 7b 31 bf 6e b3 78 3e 02 db b2 3e
       -0.6579663 -0.6932916 0.24287197 0.34932715
0002e0 22 54 86 3e ec 35 85 be 42 70 de be 87 a9 10 bd
       0.26236063 -0.26017702 -0.4344502 -0.035317924
0002f0 05 79 7f be d7 12 6d be 73 6c c5 bd 76 56 1e bf
       -0.24948509 -0.23151718 -0.09639826 -0.6185068
000300 52 e0 11 be 91 68 6e bd 14 eb 25 bf 05 9f c7 3d
       -0.14245728 -0.05820519 -0.64811826 0.097471274
000310 0d 11 25 be 09 7f 90 3d d4 94 94 3e 58 33 ce bc
       -0.16119786 0.0705548 0.29019797 -0.025170967
000320 a4 0c 61 3e ff 0d a0 3d 7b 67 c9 bd 74 2b 85 3e
       0.21977478 0.078151695 -0.098341905 0.26009715
000330 e5 82 f1 3e 67 17 9c 3d 5c ad b1 3e 36 23 fc bd
       0.47170177 0.07621651 0.34702575 -0.123114035
000340 a1 e4 47 3f e2 5a ad be 8c 0d 0e bf b9 1a 89 bd
       0.78083235 -0.338584 -0.5548942 -0.0669455
000350 96 70 0b 3f 20 b2 cf 3e 96 64 e5 3d 4c 8a c7 bd
       0.5446867 0.40565586 0.11200826 -0.09743175
000360 a9 4e 3d 3e b4 ba fe 3e 35 c6 b3 be 0a ed c9 bc
       0.18487038 0.49751818 -0.35112157 -0.024649162
000370 91 48 8a 3d 5b c0 0e bf 54 6d 6a bc 26 7f 94 bd
       0.06752122 -0.5576226 -0.014308292 -0.07250814
000380 85 85 eb 3e 77 fe 02 3e 1f 32 13 bf 59 35 d3 be
       0.46000305 0.12792383 -0.57498354 -0.4125164
000390 ce 2e b2 3d 56 19 28 bd 74 d6 02 3f cb e7 9e 3d
       0.087003335 -0.041039787 0.5110848 0.07759055
0003a0 a3 84 42 bd 57 e7 ab 3d a9 1c 0c 3f ce 55 48 bf
       -0.047489773 0.08393734 0.5473123 -0.7825593
0003b0 82 d3 1d bf ca 5f df 3d 73 e9 f2 bd 69 5c 16 bd
       -0.6165086 0.10906942 -0.11860933 -0.036709223
0003c0 e0 e4 b7 3e 28 4b 41 3c 1c 82 14 3d 06 11 2e 3e
       0.35916805 0.011797704 0.036256894 0.16998681
0003d0 ee 7a be 3e 04 14 99 3e 4c ba a9 be d2 94 84 3e
       0.37203163 0.29898083 -0.33149946 0.2589479
0003e0 e4 59 f6 3e 18 4a 4e bd 2a 4c 04 bf 26 ed 8d 3e
       0.48115456 -0.05036363 -0.5167872 0.27719992
0003f0 99 22 2d 3c fc 9c a1 3e c9 72 6f 3e 96 17 b2 be
       0.010567331 0.31565082 0.23383631 -0.3478362

weight_hh_l1 f4 [300, 100]
000000 ea d2 d2 be 5f 1f d1 3e d3 98 7e 3e 52 28 a4 be
       -0.4117654 0.40844247 0.24862985 -0.32062012
000010 f4 f5 9f bd 1f 77 f0 3d 58 f5 2e bc 41 36 81 3d
       -0.07810584 0.117414705 -0.010678612 0.06309176
000020 0b f9 85 be 0b 06 3d be 78 65 6a be 3e 2a d3 be
       -0.26166567 -0.18459336 -0.2289027 -0.41243166
000030 97 6f 85 be 4e b6 d0 be aa 4f db 3e a8 d0 76 bd
       -0.260617 -0.40764087 0.42834216 -0.060257584
000040 81 a9 23 bd 53 f4 e2 3d 32 2f e2 be 0d b3 c7 bd
       -0.039956573 0.110817574 -0.44176632 -0.09750948
000050 96 1a 37 3f cf b2 f9 3d 14 80 1c bf dc f0 2a 3d
       0.7152494 0.12192308 -0.6113293 0.041733608
000060 86 36 9b 3d 7e 1a c3 3e 32 96 2e 3e a1 4a 71 3e
       0.07578759 0.3810615 0.17049482 0.23563625
000070 72 67 2f 3e c9 4c 64 3e 3c 31 f2 ba 00 8b 0e 3d
       0.17129305 0.22294916 -0.0018477808 0.03480053
000080 ba 02 a6 3e 5c b4 1d 3c 20 6f 69 3e 03 7b c2 3d
       0.32423955 0.009625521 0.22796297 0.09496119
000090 b9 b6 41 bd dd 26 6c be e0 bd 6f 3d 23 f7 2d be
       -0.0472934 -0.230617 0.05853069 -0.16988806
0000a0 ed ea f6 bc a8 84 43 be 7c d7 81 3e f2 a9 12 3d
       -0.030141318 -0.19093573 0.25359714 0.035806604
0000b0 6f 37 3c bc d6 42 08 be 0a 3e 06 be d4 d5 41 bd
       -0.011487826 -0.13306746 -0.13109604 -0.047323063
0000c0 3e 6a 39 3e 4e 18 bf be 10 ea 92 bd fe d2 3a bd
       0.18106934 -0.3732323 -0.0717355 -0.045611374
0000d0 6d a7 2a 3e 83 16 5f be 39 d5 64 3d 33 aa c8 3e
       0.1666543 -0.21785931 0.055867407 0.39192352
0000e0 9c d8 59 be 06 b4 ee bc 8b 6b 89 bd 09 da 94 be
       -0.21274036 -0.029138576 -0.06709965 -0.29072598
0000f0 1e ba eb bd 12 67 04 3d a1 93 48 3f 6e ea 42 be
       -0.115101084 0.032324858 0.78350264 -0.1903474
000100 cb b9 ea bd 72 83 f0 3c 57 30 60 3e e2 c5 e3 be
       -0.114612184 0.029359553 0.2189344 -0.4448691
000110 66 e0 04 3e b1 79 b9 bd e6 69 87 3e fb db 93 be
       0.12976226 -0.09056414 0.26447982 -0.2887877
000120 b0 44 6c 3e 3e 8f 29 3e ec 27 33 3e bf a4 1b bc
       0.23073077 0.16558549 0.17495698 -0.009499728
000130 68 65 06 be 1e 11 19 be fb 58 18 bf e0 58 0e bc
       -0.13124621 -0.14947936 -0.59510773 -0.008688182
000140 74 41 24 3e 63 a0 8f bd 32 95 ae 3e d6 44 19 bf
       0.16040593 -0.07013013 0.34098202 -0.5987066
000150 95 4f 46 3e da 48 81 bc ba ff ae bd d9 eb 92 bd
       0.19366296 -0.015781809 -0.0854487 -0.071738906
000160 7d 0e 89 bd c8 8e c1 3d 2a 33 a5 be b0 0f c0 be
       -0.066922165 0.094510615 -0.32265598 -0.3751197
000170 32 1d 85 bd 97 aa 8f be 9b 58 31 be 40 c7 d0 be
       -0.06499709 -0.28059837 -0.17318957 -0.40777016
000180 f8 16 86 3c f6 7c 85 3e bf 7e 73 bc d4 ab a5 bd
       0.016368374 0.260719 -0.014861762 -0.08089414
000190 c9 f8 79 3c 63 b2 86 bf 29 5a fd bb 2a d0 d7 be
       0.015257069 -1.0523189 -0.007731695 -0.42151004
0001a0 2c 5f 9d 3d 72 52 a2 bd 01 9d de be 08 6c 63 be
       0.07684168 -0.079258814 -0.4347916 -0.2220918
0001b0 a5 e0 96 bd 80 dd 52 3d 1d 1d 06 bd 70 68 e0 be
       -0.07367066 0.05148077 -0.03274261 -0.4382968
0001c0 91 94 54 3e 13 59 6f be 2e f9 6e 3d 3b cf ca be
       0.20759799 -0.23373823 0.058343105 -0.3961123
0001d0 69 90 98 be 72 62 cf bd 06 cf 7f 3e 32 c9 ae 3e
       -0.29797676 -0.10126199 0.24981317 0.34137875
0001e0 7c ee 23 be d3 f6 c6 3e 8d 38 03 3d da 30 31 bc
       -0.16008943 0.38860187 0.032036353 -0.01081487
0001f0 16 60 db 3c f4 20 8c 3f aa 29 ab be 6b 8c 0e 3f
       0.026779216 1.0947556 -0.33430225 0.5568301
000200 07 a8 1c be 49 80 fd bd 90 a3 b8 bd 5e f0 cf be
       -0.15298472 -0.12377984 -0.09015572 -0.40613073
000210 ed 60 bb bc 17 7d a0 3d 24 15 49 3e 40 97 34 be
       -0.022873366 0.07836359 0.19636971 -0.17635822
000220 31 6f 00 be a0 44 e7 bd 92 ee 62 3e b7 02 65 be
       -0.12542416 -0.11292386 0.2216132 -0.22364317
000230 b6 78 e9 be ca 97 36 bf c1 75 49 3e df 7c 82 be
       -0.45599908 -0.7132536 0.19673826 -0.25485894
000240 ed 1a d5 bd bb 63 e8 bd 3e 53 6d 3d 44 55 2a be
       -0.10405526 -0.11347147 0.057940714 -0.16634089
000250 f5 1c 50 bd 47 c9 01 be cf a1 b6 bd 00 eb e0 3d
       -0.050808866 -0.12674437 -0.08917581 0.10982323
000260 eb e2 73 3d bc ad c4 bd df 28 8a be 21 e8 36 be
       0.059542578 -0.0960345 -0.26984307 -0.17861988
000270 5e 51 1a be 86 18 01 3d a3 8c f1 be 5b 1b f2 3e
       -0.15070102 0.031517528 -0.4717761 0.47286496
000280 48 51 a7 be db 9f 60 3e a2 1f a9 3c af 36 fb bd
       -0.326792 0.2193598 0.020644967 -0.122662894
000290 cf bf c7 3d 58 bd 1e 3f 3b 6b 4f 3e cf 76 28 3f
       0.097533815 0.62007666 0.20255749 0.6580629
0002a0 8e 2a 51 3e ec ce 65 be e8 f5 17 3e ad 7f 7f be
       0.2042639 -0.22442216 0.148399 -0.24951048
0002b0 b2 b7 cf be 4b c7 c4 3e 3b b8 37 be 7d 3f a4 3e
       -0.40569836 0.38433298 -0.17941372 0.32079688
0002c0 26 ff 3e 3e d1 be 73 bd 7d ae 3e 3e 6f 6f 24 3e
       0.18652019 -0.05950815 0.1862125 0.16058134
0002d0 a7 9f 06 bf b9 80 ca 3d 01 cc 95 be 3c b8 86 3b
       -0.5258736 0.09887833 -0.29257205 0.004111318
0002e0 2c 5a 72 be 0a 0a 71 be 85 86 e6 3e 77 09 00 3f
       -0.2366721 -0.23538986 0.45024505 0.5001444
0002f0 5f 74 90 3e d2 e6 62 3d 0f 92 ee be 10 86 e0 3e
       0.28213784 0.05539591 -0.4659581 0.43852282
000300 72 8c 6f 3e 0c fc bd 3e 17 2f 9c 3e 97 7b ab bc
       0.2339342 0.3710636 0.30504677 -0.020932956
000310 85 12 2b 3e d0 a2 ca 3d 49 2c 43 3d fd 48 f5 be
       0.16706283 0.09894335 0.047649655 -0.47907248
000320 c7 db 8e 3e 4d cd 36 3e 6f 7b c2 be 97 05 89 be
       0.27902052 0.17851754 -0.37984797 -0.26762077
000330 0d 6d 5c be 61 4f 43 3e df 36 c4 3e 6c f4 34 3e
       -0.21525975 0.1907325 0.38323113 0.17671365
000340 ce 81 a5 bd bf c3 9f 3e 32 7b 19 be f3 e8 04 3f
       -0.08081399 0.3120403 -0.14988402 0.5191795
000350 5f 6d eb bd df 57 81 3e 36 6f c6 3e 32 cf bd be
       -0.1149547 0.25262353 0.38756722 -0.3707214
000360 af 39 07 3f e0 5a c1 bd 4b ea 77 3e 30 80 34 bd
       0.52822393 -0.09441161 0.2421047 -0.04406756
000370 b5 89 04 bf 50 16 bd bd 1d 29 f6 3e e0 76 11 3e
       -0.51772624 -0.092327714 0.48078242 0.14205503
000380 e7 ec 52 bc 98 d9 03 be 6b 75 ac 3d 88 d5 39 bf
       -0.012873865 -0.12875974 0.08420833 -0.7259145
000390 1e 65 0f 3f ab 49 7c be d9 30 44 3e 8a a5 03 3f
       0.5601367 -0.24637477 0.19159259 0.5142447
0003a0 17 2e b8 be ed de b4 be 64 38 07 3e d5 ee 2c bf
       -0.35972664 -0.3532633 0.13205105 -0.6755193
0003b0 0f 7f 4d be a5 3c a6 3e 7e 28 61 3e 1b 60 9d bd
       -0.20068 0.32468143 0.21988103 -0.07684346
0003c0 43 64 c1 be 38 13 65 3d cb df d9 3d 73 67 34 bd
       -0.37771806 0.05592653 0.10638388 -0.04404397
0003d0 29 8d d9 bd 4b 9e 19 3d 37 ec 17 bf b3 36 c1 3e
       -0.10622627 0.037504476 -0.5934481 0.37737045
0003e0 f6 31 02 3e 93 df 66 3b bb e5 32 bd 8f d2 5d bb
       0.12714371 0.0035228475 -0.04367612 -0.0033847427
0003f0 d1 2b 8b bd ed e8 a0 3d 98 a1 c4 3e 89 3a 32 be
       -0.06795467 0.07856927 0.38404536 -0.17405142
