saved_models/learning_rate_0.01.pt (torch, 570970 bytes, 11 tensors)

weight f4 [100, 100]
-0.6910719 -1.3700435 0.50794935 -1.8797462 -0.9869134 -0.2584259 1.3918573 -0.027146878
-0.0009949085 0.19564658 -2.3864596 -0.0071188733 0.9518462 1.2600883 -2.1579347 1.1278609
0.40178618 2.0263646 -0.6951957 -0.26011607 -1.1268293 0.5460041 0.0865324 -0.5984283
-0.22445847 -0.33240154 -0.2518344 -1.9383091 -1.3281258 -0.102238014 0.2921537 0.4502924
-0.550174 -0.8598882 -0.22046046 -0.22212078 -0.061002824 0.8934342 -0.9111591 1.6235327
0.54337215 -0.4432218 2.2473955 -0.19245264 -1.173183 0.33153263 -0.14969397 -1.309858
-1.6384907 0.43411264 1.574318 0.18766202 0.123712435 -0.17578945 -0.47044557 -1.8359147
-0.32733268 -0.9225336 -0.114952095 0.17798127 0.0047432524 1.4159738 -0.25593403 1.2113405
0.026957601 -1.0246319 0.10351576 -0.2461771 -0.67762303 -1.506142 -0.6495596 -0.34896812
-0.5171541 -1.7160757 0.91043526 -0.3572272 0.009469144 0.30691382 -1.1187857 1.7546797
0.35529482 0.57342273 -0.8461294 0.5974511 0.50510293 -2.1379378 0.78966206 0.40513048
0.02781113 0.26236874 -0.89767426 0.25963193 0.7176797 0.45544484 -0.33876497 0.0924535
-0.18993852 0.18587442 1.6193016 0.48115343 -2.3324165 -0.60217535 0.16015594 0.28837228
-0.39723328 -0.22255854 1.2562021 -1.2404276 -0.07571027 -0.6414817 -0.78667766 2.2437942
0.016744964 -0.4078647 -0.28442633 -0.64536315 1.5833055 0.130914 -0.750236 -0.741279
-0.4750086 0.78978294 1.0112262 -1.1350567 -0.07763896 1.4963405 -0.8247165 -1.6599762
-1.5359566 0.35758612 -1.0758944 -0.63563675 0.38293153 1.7594473 0.26256853 -0.3517406
-0.66768605 -0.9272439 0.01862565 -0.19170819 0.2966447 0.09649076 -0.10328218 -0.55827886
-0.120610416 0.18929759 -0.006868915 -0.63301843 0.7635784 -0.15970753 0.09641582 -0.1319799
-1.7051071 1.4191161 0.8974251 1.6728202 1.0658324 2.4933565 0.84143674 1.1312367
0.09959673 1.594161 0.8993471 1.2120562 -1.1641533 -1.1112047 -0.99859595 0.47629723
-1.3029737 0.71733314 1.3985586 -0.878977 -0.53745526 -0.9416613 0.48751554 -0.0071109994
-0.5811671 0.20885232 0.80328655 2.1533222 -0.9595482 -0.50671834 0.37831777 0.27967238
-0.32281527 0.75544703 0.7183823 1.1072294 0.6475968 1.4997034 0.3345782 -0.29566556
-0.53946906 0.600412 -1.1690276 1.4744169 0.20415345 0.14649718 -0.4580437 0.5546995
-1.777135 0.20719324 -0.8801378 1.3944418 -1.2636818 -2.839359 2.180981 -0.86435527
1.8053445 -1.4074483 0.1751197 -1.9033425 -0.45747575 -1.1725142 1.6870217 -0.00059415225
-0.6946956 0.5081573 0.87512505 -1.3854778 0.12641647 -1.0251105 2.4329631 0.69889957
-0.52131677 -0.36754778 0.54931295 0.033655517 1.3236636 0.5060567 -1.1724995 -1.0818415
-0.49160072 1.1971613 1.502039 0.28932866 -0.19714592 -0.71992433 -0.56451213 -1.5929863
0.6718078 -0.8292002 0.97396845 -3.0968516 0.7732155 1.2799077 1.4668235 0.7146775
0.547194 -0.16073416 -1.2940124 -0.3653002 -1.2249548 -0.3351058 0.001014074 -1.6837165
00000000: 17ea 30bf 965d afbf f808 023f 869b f0bf
00000010: 5ba6 7cbf 6650 84be 6128 b23f 2163 debc
00000020: 9767 82ba 9457 483e c1bb 18c0 7045 e9bb
00000030: 31ac 733f 934a a13f 9a1b 0ac0 bf5d 903f
00000040: ebb6 cd3e f5af 0140 58f8 31bf ef2d 85be
00000050: f13b 90bf edc6 0b3f e637 b13d 9932 19bf
00000060: 71d8 65be 8930 aabe 70f0 80be 831a f8bf
00000070: 0700 aabf 2a62 d1bd 2b95 953e ba8c e63e
00000080: 34d8 0cbf a221 5cbf 63c0 61be a173 63be
00000090: 19de 79bd 1bb8 643f b941 69bf ebcf cf3f
000000a0: 701a 0b3f f8ed e2be 54d5 0f40 4e12 45be
000000b0: dc2a 96bf a5be a93e 6049 19be 6da9 a7bf
000000c0: 10ba d1bf 0344 de3e 4183 c93f 792a 403e
000000d0: f25c fd3d 2602 34be 3ede f0be 41ff eabf
000000e0: 2698 a7be 292b 6cbf 016c ebbd b940 363e
000000f0: 496d 9b3b a13e b53f c909 83be 350d 9b3f
00000100: 30d6 dc3c 2327 83bf 1200 d43d da15 7cbe
00000110: b478 2dbf 43c9 c0bf 8a49 26bf f3ab b2be
00000120: 3664 04bf 5ea8 dbbf 4912 693f 7ce6 b6be
00000130: 7824 1b3c cf23 9d3e 5f34 8fbf 5899 e03f
00000140: 34e9 b53e d5cb 123f f09b 58bf 8ef2 183f
00000150: 6d4e 013f f9d3 08c0 4b27 4a3f 436d cf3e
00000160: 2bd4 e33c 3255 863e fbcd 65bf 7aee 843e
00000170: dbb9 373f 1130 e93e 9a72 adbe 4358 bd3d
00000180: 3e7f 42be dd55 3e3e 4645 cf3f be59 f63e
00000190: 5046 15c0 2a28 1abf ebff 233e 88a5 933e
000001a0: 2962 cbbe 63e6 63be 3bcb a03f 55c6 9ebf
000001b0: fc0d 9bbd 2538 24bf b563 49bf 539a 0f40
000001c0: bc2c 893c a4d3 d0be 54a0 91be 8536 25bf
000001d0: c1a9 ca3f 520e 063e 770f 40bf 76c4 3dbf
000001e0: 5434 f3be 372f 4a3f dc6f 813f 8a49 91bf
000001f0: 2d01 9fbd 1688 bf3f 9f20 53bf 1a7a d4bf
00000200: 3a9a c4bf 8715 b73e e8b6 89bf 17b9 22bf
00000210: 9a0f c43e 9235 e13f 626f 863e 5817 b4be
00000220: 79ed 2abf db5f 6dbf d294 983c 274f 44be
00000230: d0e1 973e f39c c53d 9c85 d3bd 5deb 0ebf
00000240: 9802 f7bd 3ad7 413e a314 e1bb 7f0d 22bf
00000250: e079 433f 5f8a 23be a875 c53d bd25 07be
00000260: f340 dabf 99a5 b53f a7bd 653f f91e d63f
00000270: 326d 883f 2793 1f40 6668 573f 5dcc 903f
00000280: 5ff9 cb3d 780d cc3f 9d3b 663f a824 9b3f
00000290: fa02 95bf f53b 8ebf fca3 7fbf 3bdd f33e
000002a0: d8c7 a6bf 25a3 373f f803 b33f a304 61bf
000002b0: ab96 09bf b710 71bf a39b f93e 6303 e9bb
000002c0: 5ec7 14bf 62dd 553e 30a4 4d3f 08d0 0940
000002d0: f3a4 75bf 4bb8 01bf deb2 c13e 3831 8f3e
000002e0: 0b48 a5be fa64 413f e7e7 373f b1b9 8d3f
000002f0: e7c8 253f 48f6 bf3f d54d ab3e 7a61 97be
00000300: a51a 0abf 9ab4 193f b2a2 95bf b1b9 bc3f
00000310: 9a0d 513e 5b03 163e b484 eabe c900 0e3f
00000320: 2979 e3bf 772a 543e b650 61bf 127d b23f
00000330: 53c0 a1bf 0fb8 35c0 3195 0b40 6346 5dbf
00000340: 8715 e73f 4427 b4bf 9452 333e baa0 f3bf
00000350: 433a eabe f214 96bf 54f0 d73f e2c0 1bba
00000360: 92d7 31bf 9916 023f 3208 603f 5657 b1bf
00000370: 5273 013e d236 83bf abb5 1b40 15eb 323f
00000380: 0475 05bf 392f bcbe c69f 0c3f 5eda 093d
00000390: cf6d a93f ef8c 013f 7714 96bf c879 8abf
000003a0: 17b3 fbbe 953c 993f d042 c03f e322 943e
000003b0: 9fe0 49be f64c 38bf de83 10bf fae6 cbbf
000003c0: 99fb 2b3f 7746 54bf ff55 793f d132 46c0
000003d0: 73f1 453f 04d4 a33f dfc0 bb3f 1bf5 363f
000003e0: e814 0c3f 7f97 24be 33a2 a5bf a108 bbbe
000003f0: 52cb 9cbf fd92 abbe adea 843a 0684 d7bf

weight_ih_l0 f4 [300, 100]
0.39396396 0.24747905 -0.069703475 0.46703774 -0.6211326 0.016278703 -0.75077456 -0.27896902
-0.0626307 -0.3491559 -0.5382737 0.2568117 -0.62759644 -0.37009084 -0.45174178 -0.3145014
0.46296564 -0.14257288 0.27533743 -0.36248064 0.016735196 0.024020342 -0.17500381 -0.07821669
0.6226536 0.5135347 -0.11191024 0.01870266 0.12157673 0.6638336 -0.27839974 -0.806158
-0.43855718 0.61789703 0.27391896 1.0845032 -0.50014454 -0.7666572 0.23427723 0.47368178
-0.073188595 -0.225213 -0.37478867 0.44886893 -0.37462702 -0.2628093 0.983451 0.23859371
-0.13162746 -0.09733054 0.85592926 -0.4191997 0.10763433 -0.042302568 0.4744086 0.5547703
-0.011752428 0.08648275 0.20660694 -0.4218859 -0.15338536 0.8573566 -0.7646168 -0.62626946
-0.56639606 -0.62372625 0.074919455 -0.2673975 -0.63877964 0.60736024 -0.41685387 -0.9452253
-0.095083654 0.055218723 0.21647178 0.17948358 0.479356 0.1392024 -0.06885 -0.21497877
-0.090966046 0.92780787 -0.20339541 -0.35511482 0.19838941 0.8601268 -0.27677217 -0.5458488
-0.14168432 -0.1936792 -0.70227545 -0.23933297 -0.58472097 0.13690925 0.24810293 0.41319916
0.9152792 0.14361666 0.47487837 -0.22761199 0.26587254 0.7915786 0.31068656 -0.6713257
-0.095875174 0.52155364 -0.064070925 -0.23458454 0.18458702 0.26970372 0.1855985 0.6486678
0.13279544 -0.031764537 -0.20582771 0.3029494 -0.08698774 -0.036046818 -0.8177489 0.027736947
0.3869551 0.20841053 0.087715074 0.37658265 -0.26231354 -0.45173305 0.010505469 -0.18640578
0.08187017 0.23898955 -0.1272839 -0.14613034 0.34264666 -0.15563735 -0.23220503 0.4292513
0.69504017 -0.5618336 0.033608403 -0.8933555 -0.07099295 -0.32085153 -0.11053012 -0.51495606
-0.28939453 -0.00036104786 0.35019836 -0.24310035 0.62908936 0.6606275 0.035203576 0.7282124
0.033967208 0.14322227 -0.35155797 0.14616737 0.185188 -0.15918618 0.018738655 -0.3004483
0.072819725 0.5465885 -0.28585058 -0.6801727 -0.38588735 -0.21830316 -0.11978516 -0.4495291
-0.30760565 -0.015171275 -0.05862109 -0.3380773 1.1761982 -0.0016719364 0.31627 0.18851805
0.41354293 0.19581549 -0.45855382 -0.34984383 0.5952516 0.5496033 -0.6424033 -0.14421447
-0.41568667 -0.6017896 0.42755106 -1.0162096 0.41150993 0.28097057 0.2692548 0.10705505
-1.2196757 0.05442192 0.63708586 -0.15524602 0.4868192 0.25207677 0.21380964 -0.20963094
0.66774344 0.7204745 -0.090504915 0.43334258 0.40135673 -0.0002974139 -0.57769597 0.10909102
-0.28658527 -0.046560533 0.25126603 0.16331561 0.101199575 0.2378126 -0.44367096 0.13045014
-0.49990708 -0.30095357 -0.17382431 0.017302899 0.36960527 -0.43308744 -0.083781525 0.3416947
-0.27392265 0.63934034 -0.18852465 -0.11607926 -0.40890768 -0.097529836 -0.13323806 0.038634524
-0.1355685 0.13984717 0.74200827 -0.10532664 -0.46962968 -0.12584674 0.60019296 0.40767655
0.036834665 -0.08852009 -0.12973778 -0.30489272 -0.89660716 -0.5265448 -0.11252849 0.45111287
0.3374346 -0.74372053 0.037240315 -0.41063657 -0.124558076 0.2907245 0.030607754 0.51052946
00000000: a5b5 c93e 266b 7d3e b2c0 8ebd 921f ef3e
00000010: 8c02 1fbf ea5a 853c c332 40bf 07d5 8ebe
00000020: 8644 80bd 90c4 b2be 4ecc 09bf d37c 833e
00000030: 29aa 20bf 8c7c bdbe b34a e7be 5406 a1be
00000040: d509 ed3e a0fe 11be 07f9 8c3e 1097 b9be
00000050: 4018 893c 4fc6 c43c 3334 33be 1230 a0bd
00000060: 3a66 1f3f 0377 033f 3231 e5bd 5236 993c
00000070: 38fd f83d 00f1 293f 698a 8ebe 5f60 4ebf
00000080: 918a e0be 802e 1e3f 1b3f 8c3e 00d1 8a3f
00000090: 7909 00bf a543 44bf 5fe6 6f3e 6b86 f23e
000000a0: e7e3 95bd 3d9e 66be 4de4 bfbe 26d2 e53e
000000b0: 1dcf bfbe f18e 86be 72c3 7b3f e951 743e
000000c0: 59c9 06be 3c55 c7bd 2e1e 5b3f 58a1 d6be
000000d0: 636f dc3d 7545 2dbd afe5 f23e 6d05 0e3f
000000e0: 418d 40bc de1d b13d c590 533e 6e01 d8be
000000f0: 0d11 1dbe b97b 5b3f edbd 43bf 3253 20bf
00000100: 55ff 10bf 86ac 1fbf 5f6f 993d 53e8 88be
00000110: 1087 23bf f67b 1b3f df6d d5be 49fa 71bf
00000120: 38bb c2bd 072d 623d c7aa 5d3e 8bca 373e
00000130: 266e f53e 138b 0e3e 3b01 8dbd 6523 5cbe
00000140: 684c babd d184 6d3f e346 50be 9cd1 b5be
00000150: 9826 4b3e 4531 5c3f 15b5 8dbe bfbc 0bbf
00000160: b215 11be d753 46be 53c8 33bf b413 75be
00000170: 46b0 15bf f031 0c3e b20e 7e3e d78e d33e
00000180: bd4f 6a3f 3f10 133e 4223 f33e 1e13 69be
00000190: 7220 883e e5a4 4a3f 4f12 9f3e 00dc 2bbf
000001a0: 345a c4bd 8a84 053f 9e37 83bd ee36 70be
000001b0: 6104 3d3e 9b16 8a3e 880d 3e3e 180f 263f
000001c0: 87fb 073e 881b 02bd 80c4 52be 2f1c 9b3e
000001d0: a126 b2bd d4a5 13bd fe57 51bf 9838 e33c
000001e0: fb1e c63e 9269 553e f6a3 b33d 71cf c03e
000001f0: f64d 86be 8e49 e7be 211f 2c3c 28e1 3ebe
00000200: 8cab a73d adb9 743e b656 02be 31a3 15be
00000210: 626f af3e 665f 1fbe 28c7 6dbe d4c6 db3e
00000220: 27ee 313f 54d4 0fbf f7a8 093d f2b2 64bf
00000230: c064 91bd a746 a4be 9e5d e2bd 29d4 03bf
00000240: 852b 94be 064b bdb9 334d b33e 4cef 78be
00000250: 000c 213f e21e 293f a031 103d 216c 3a3f
00000260: 3321 0b3d dca8 123e 68ff b3be e6ac 153e
00000270: eca1 3d3e b401 23be cf81 993c 5cd4 99be
00000280: 8222 953d 39ed 0b3f 025b 92be cc1f 2ebf
00000290: 0793 c5be dd8a 5fbe ec51 f5bd ae28 e6be
000002a0: 7d7e 9dbe f090 78bc ab1c 70bd 7818 adbe
000002b0: aa8d 963f e024 dbba 24ee a13e e00a 413e
000002c0: e6bb d33e db83 483e 91c7 eabe bb1e b3be
000002d0: 6962 183f cdb2 0c3f 8b74 24bf f5ac 13be
000002e0: e2d4 d4be e20e 1abf f9e7 da3e 2813 82bf
000002f0: 6eb1 d23e 60db 8f3e c4db 893e ae3f db3d
00000300: 551e 9cbf 85e9 5e3d 0f18 233f d0f8 1ebe
00000310: 5e40 f93e 3510 813e eaf0 5a3e 7ea9 56be
00000320: 3cf1 2a3f 0471 383f a45a b9bd 14df dd3e
00000330: a17e cd3e 38ee 9bb9 e2e3 13bf 1d6b df3d
00000340: 4ebb 92be 42b6 3ebd f1a5 803e 353c 273e
00000350: b941 cf3d 2585 733e d728 e3be b994 053e
00000360: d2f3 ffbe 9616 9abe 00ff 31be cfbe 8d3c
00000370: e73c bd3e a3bd ddbe a695 abbd 9cf2 ae3e
00000380: 973f 8cbe cfab 233f 9b0c 41be f7ba edbd
00000390: 595c d1be b9bd c7bd 8f6f 08be 3c3f 1e3d
000003a0: 78d2 0abe 1934 0f3e 41f4 3d3f 7eb5 d7bd
000003b0: 4d73 f0be f8dd 00be 3fa6 193f fbba d03e
000003c0: f2df 163d 054a b5bd fbd9 04be e61a 9cbe
000003d0: 0c88 65bf a4cb 06bf 5675 e6bd 44f8 e63e
000003e0: 3ac4 ac3e 7864 3ebf 4d89 183d f53e d2be
000003f0: 4e18 ffbd d7d9 943e 1dbd fa3c 0fb2 023f

weight_hh_l0 f4 [300, 100]
0.88560706 -0.24003531 -0.7220191 0.43891406 0.3526022 0.12960903 -0.06533245 -0.74339426
0.039195746 0.23245002 -0.57572734 0.9095849 -0.11387792 0.17638041 0.88885605 -0.22734469
-0.051694646 -1.3146901 0.09043035 0.17764153 -0.7634274 0.29409415 0.16528364 0.7730085
0.16538978 0.36364186 0.111668766 0.2115503 -0.52090526 -0.5878173 0.60357535 -0.8322818
-0.6102462 -0.078279816 0.04305411 0.60873306 -0.58966255 0.6551449 -0.29798052 -0.30604908
0.35415512 0.03733625 -0.37606725 -0.5061605 -0.13662669 -0.2961932 -0.7394072 0.4290872
0.2841295 -0.69179547 -0.38118973 0.55591863 0.42247018 -0.27118322 0.14772248 -0.026134389
-0.0392457 -0.14035764 -0.21313164 0.24340577 -0.5525134 -0.25556448 -0.8073969 -0.5961722
0.38843626 0.5496787 -0.23601359 0.1887911 -0.34516963 -0.15022555 0.20199049 -0.74162734
0.15309803 -0.46775827 0.71714514 -0.2949157 -0.013278943 1.0304788 0.121328704 0.0145522
0.053524595 0.29603127 -0.10210939 0.17384219 0.39111054 -0.0026581855 -0.100735284 1.0412802
0.012478009 0.04941127 0.37392318 -0.19084626 -0.14499219 -0.22122201 -0.55951726 0.39230415
-0.27447027 0.6541969 -0.28093672 -0.7610598 0.9433732 -0.70145774 -0.41511434 0.00085599895
-0.6104508 -0.4496053 0.09222002 0.11602574 -0.25153884 -0.16542396 -0.3898453 0.09447669
-0.029299902 -0.36351332 0.10700647 0.177035 -0.42974022 -1.1085224 0.22152632 0.24382615
-0.30230245 -0.15044187 0.08265203 -0.033989586 0.1659534 -0.53788024 -0.32513112 1.2071335
0.1519298 1.308013 0.5381487 -0.2003674 0.26108614 0.14522979 -0.6173723 0.46650353
0.0012893709 -1.0756949 -0.73459667 -0.17231546 -0.19279462 0.19962251 -0.3074371 0.28830796
0.7009766 0.44290823 -0.26743793 0.6533385 0.4829442 -0.6369575 0.460584 -0.25388068
0.019153383 0.7401166 0.22239104 -0.58131874 0.25602353 -0.60145485 1.0205909 0.38778815
-0.033908192 0.44440448 -0.5545914 0.32935837 -0.8682431 0.37762424 -0.13354312 0.30210987
-0.42700252 0.25597924 -0.1103811 1.1689385 0.1275521 0.6155351 0.620672 -0.23486178
1.4126514 -1.3392504 -1.1183323 0.1621725 -0.94550234 0.05345385 0.3264279 -0.2101548
0.67536634 0.17042962 -1.1995819 -0.22838728 0.12394909 -0.22418453 -0.74095076 -0.19152673
-0.21133806 -0.43380573 0.2107542 -0.24550913 -0.34786066 0.048908565 -0.23286597 0.3187623
0.69303465 -0.46052828 0.019593606 -0.085132845 -0.5949277 -0.36121133 -0.0873713 -0.3554777
0.8785893 0.054792147 -0.07934016 0.08315231 0.08739731 0.047805533 0.074516654 0.9289688
0.026337845 -0.22130634 0.0008164553 0.25792366 0.25708833 0.30094272 -0.2520259 1.0499059
-0.11013038 0.016386366 -0.34105805 0.9212668 -0.17686325 1.0721029 -0.25534812 0.37013033
0.4581913 0.03390725 0.01973649 -0.31942782 0.3717184 -0.1763685 -0.16039604 -0.9464658
-0.23418504 0.14052549 1.0945797 -0.99789333 0.26936576 0.058397084 0.6788665 -0.1313941
0.32140663 0.31494176 0.87968403 0.5208971 -0.26028234 0.009034455 0.24735726 0.13794324
00000000: 25b7 623f d1cb 75be 3ed6 38bf 58b9 e03e
00000010: 4788 b43e 3bb8 043e 05cd 85bd 164f 3ebf
00000020: b88b 203d 6107 6e3e de62 13bf 8eda 683f
00000030: d438 e9bd 119d 343e 128c 633f 0ccd 68be
00000040: c4bd 53bd c447 a8bf 8c33 b93d a9e7 353e
00000050: fa6f 43bf 8293 963e 1d40 293e e3e3 453f
00000060: f05b 293e 442f ba3e 98b2 e43d a4a0 583e
00000070: 0c5a 05bf 327b 16bf ea83 1a3f 6c10 55bf
00000080: 1839 1cbf 2b51 a0bd 8259 303d eed5 1b3f
00000090: 20f4 16bf 93b7 273f e790 98be 77b2 9cbe
000000a0: d253 b53e e5ed 183d e38b c0be bc93 01bf
000000b0: dee7 0bbe a3a6 97be ca49 3dbf 51b1 db3e
000000c0: 6c79 913e 8219 31bf 4d2b c3be af50 0e3f
000000d0: 034e d83e 87d8 8abe 9044 173e c917 d6bc
000000e0: 19c0 20bd eab9 0fbe 2e3f 5abe 5d3f 793e
000000f0: 8571 0dbf 59d9 82be 90b1 4ebf be9e 18bf
00000100: 1ee1 c63e beb7 0c3f 8cad 71be 7452 413e
00000110: 13ba b0be bad4 19be 98d6 4e3e 4adb 3dbf
00000120: bbc5 1c3e 037e efbe d396 373f 31ff 96be
00000130: ec8f 59bc bbe6 833f 2f7b f83d 5a6c 6e3c
00000140: 9b3c 5b3d 6991 973e ba1e d1bd b003 323e
00000150: a43f c83e f434 2ebb 4d4e cebd ab48 853f
00000160: 9070 4c3c 7963 4a3d dc72 bf3e 346d 43be
00000170: d578 14be 0688 62be 863c 0fbf 17dc c83e
00000180: 5e87 8cbe 7379 273f f0d6 8fbe d1d4 42bf
00000190: e880 713f bc92 33bf de89 d4be 1e65 603a
000001a0: 8146 1cbf aa32 e6be dadd bc3d e79e ed3d
000001b0: b3c9 80be e664 29be ce99 c7be ff7c c13d
000001c0: 5906 f0bc 6b1e babe 3526 db3d aa48 353e
000001d0: e906 dcbe 10e4 8dbf ccd7 623e 90ad 793e
000001e0: 63c7 9abe 6f0d 1abe 7845 a93d aa38 0bbd
000001f0: b0ef 293e 85b2 09bf 9677 a6be 5a83 9a3f
00000200: 7c93 1b3e f86c a73f 1dc4 093f 1d2d 4dbe
00000210: 15ad 853e 1eb7 143e 1c0c 1ebf 8dd9 ee3e
00000220: 1c00 a93a 5fb0 89bf 870e 3cbf 7773 30be
00000230: f46b 45be d869 4c3e 6568 9dbe 1a9d 933e
00000240: 3473 333f dec4 e23e a0ed 88be 3141 273f
00000250: 7644 f73e a60f 23bf abd1 eb3e a6fc 81be
00000260: 8ee7 9c3c 4878 3d3f 7aba 633e 4ed1 14bf
00000270: 8415 833e f2f8 19bf b9a2 823f 2b8c c63e
00000280: 51e3 0abd fc88 e33e b4f9 0dbf a9a1 a83e
00000290: 2e45 5ebf f757 c13e 87bf 08be 25ae 9a3e
000002a0: 13a0 dabe b60f 833e 7c0f e2bd c79f 953f
000002b0: 059d 023e b593 1d3f 5ce4 1e3f 9b7f 70be
000002c0: c3d1 b43f 8f6c abbf 8325 8fbf 8c10 263e
000002d0: 710c 72bf 6df2 5a3d 8f21 a73e d232 57be
000002e0: cfe4 2c3f 1a85 2e3e e68b 99bf 5bde 69be
000002f0: 05d9 fd3d a190 65be f3ae 3dbf 951f 44be
00000300: 0169 58be c91b debe f3cf 573e bf66 7bbe
00000310: cb1a b2be 5954 483d 6b74 6ebe d034 a33e
00000320: b86a 313f 5dca ebbe c582 a03c 215a aebd
00000330: 2f4d 18bf b1f0 b8be b9ef b2bd 2c01 b6be
00000340: 3aeb 603f bb6d 603d 187d a2bd c24b aa3d
00000350: 5cfd b23d bccf 433d 309c 983d e6d0 6d3f
00000360: 77c2 d73c 219e 62be 6307 563a 920e 843e
00000370: 15a1 833e 2a15 9a3e 8a09 81be 5163 863f
00000380: 098c e1bd b33c 863c 299f aebe 24d8 6b3f
00000390: a41b 35be ab3a 893f fdbc 82be b981 bd3e
000003a0: 0d98 ea3e 54e2 0a3d 6bae a13c 0b8c a3be
000003b0: e051 be3e f299 34be dc3e 24be 954b 72bf
000003c0: 34ce 6fbe eae5 0f3e 301b 8c3f f075 7fbf
000003d0: 4fea 893e c831 6f3d 32ca 2d3f 2d8c 06be
000003e0: 698f a43e 0c40 a13e f932 613f 8359 053f
000003f0: ba43 85be 4005 143c 394b 7d3e fe40 0d3e

bias_ih_l0 f4 [300]
-0.224319 -0.28692386 -0.24807549 -0.085522056 0.08268252 -0.037935708 0.17040245 -0.4157961
-0.22472428 -0.16404155 0.003785201 -0.009196488 -0.16153853 0.042825054 -0.12847622 0.40226895
-0.4328184 0.07492091 -0.5690631 0.025486587 -0.3021531 -0.17628719 -0.47054645 0.16660067
-0.68495077 -0.35078594 0.1704078 0.12159766 -0.39710522 0.06584046 0.059346087 -0.219014
-0.5625303 -0.3820624 0.041410547 -0.117053844 -0.53203756 -0.20444825 -0.34556803 0.08468249
-0.004488319 0.081805594 -0.42731014 0.19875763 -0.2980048 -0.5386739 -0.16017398 -0.40082595
-0.3362523 -0.43750536 -0.21100555 -0.18137676 0.14470007 0.10184972 -0.61982644 0.24908885
-0.40686703 -0.051337056 -0.45796347 -0.27492508 -0.18075581 -0.11622532 0.18271081 -0.13768359
-0.4323609 -0.20062266 -0.062622055 0.06161065 -0.20522289 -0.2210285 -0.20360816 -0.32572877
0.074515425 -0.34687382 -0.3282055 0.0028107534 0.028784683 -0.09154755 -0.17901427 0.03976518
-0.27509823 -0.069904126 -0.2574709 -0.063187554 0.24230988 0.082148924 -0.24671574 0.056490857
-0.045157745 -0.36456314 0.26736292 0.05392792 0.10010285 -0.31007248 -0.4736944 0.2086832
-0.14242825 -0.41051155 -0.13977377 -0.013883736 -0.27917412 -0.22033373 -0.09758915 -0.80891436
-0.39541566 -0.6113475 -0.82426715 -0.70992434 0.017953195 0.26099998 -0.31718695 -0.54869413
-0.41458067 -0.22959475 -0.47255498 -0.25333887 -0.69612366 0.0119309705 -0.31957984 -0.1404075
-0.12601207 -0.17059927 -0.5285094 -0.14497012 -0.5201579 -0.40811008 -0.49940544 -0.27885625
-0.64732647 -0.32100922 -0.086448096 -0.49201342 -0.56629837 -0.83989066 -0.2652941 -0.9086381
-0.4558214 -0.6556803 -1.060874 -0.20268051 -0.31369686 -1.0722138 -0.4233621 -0.561258
-0.45784524 -0.6435903 -0.4281697 -0.62474245 -0.43376938 -0.9094476 -0.4615258 -0.33020988
-0.14257924 -0.61370134 -0.27164498 -0.15004706 -0.48624763 -0.39922884 -0.6937297 -1.0748814
-1.0792534 -0.5028694 -0.3599615 -0.5499317 -0.6373772 -0.3714582 -0.3802456 -0.22809789
-0.6606017 -0.41266063 -0.2718984 -0.47132435 0.057332635 -0.2130018 -0.30559316 -0.6747635
-0.3267205 -0.59125435 -0.63616383 -0.5373527 -0.88907415 -0.5046003 -0.044749565 0.07346643
-0.34979728 -0.72193813 -0.62041813 -0.66311115 -0.59984577 -0.22620165 -0.32153413 -0.114114754
-0.35581052 -0.5133397 -0.6633272 -0.63337547 -0.45449138 -0.35908887 -0.2415268 -0.3826125
0.11812288 0.19940749 0.16272582 0.014860308 -0.34160396 0.13129178 -0.033480324 -0.09753898
-0.186882 0.000940845 -0.21716222 0.011730551 -0.22419994 -0.20788164 0.051938746 0.0892281
0.12282949 0.21905696 -0.24961902 -0.08557331 -0.20477548 -0.16222723 0.3645092 -0.32998353
-0.1342847 -0.09366437 0.18381889 0.06273725 -0.24967074 -0.14735745 0.03453486 0.3084642
-0.062768884 0.024426322 -0.08789563 -0.03357388 -0.04209016 -0.03627179 -0.017375074 -0.03864352
-0.0585983 0.36760834 0.3299862 -0.10995273 -0.006971419 -0.053835105 0.23150428 0.25032467
-0.051369015 0.0040619634 -0.10390454 -0.2589808 0.11402804 -0.38566944 -0.34086487 0.15222056
00000000: e1b3 65be afe7 92be 8007 7ebe 3026 afbd
00000010: 7455 a93d 7962 1bbd fb7d 2e3e 3ae3 d4be
00000020: 1f1e 66be 82fa 27be 2311 783b deac 16bc
00000030: 5b6a 25be 5369 2f3d 458f 03be 32f6 cd3e
00000040: 609a ddbe 2270 993d 1fae 11bf 3fc9 d03c
00000050: d0b3 9abe a184 34be 77eb f0be 5e99 2a3e
00000060: ef58 2fbf 379a b3be 627f 2e3e 3208 f93d
00000070: 6051 cbbe 5dd7 863d e214 733d 3545 60be
00000080: fc01 10bf af9d c3be 1b9e 293d edb9 efbd
00000090: 9d33 08bf e25a 51be 4bee b0be 036e ad3d
000000a0: c012 93bb b189 a73d 65c8 dabe 1f87 4b3e
000000b0: 1694 98be 88e6 09bf a604 24be 0f39 cdbe
000000c0: 4329 acbe b400 e0be d711 58be d4ba 39be
000000d0: 412c 143e 9696 d03d f2ac 1ebf 2611 7f3e
000000e0: e050 d0be ce46 52bd 307a eabe fbc2 8cbe
000000f0: 0d18 39be 8a07 eebd 8b18 3b3e edfc 0cbe
00000100: 685e ddbe 0770 4dbe fe3f 80bd 735b 7c3d
00000110: f325 52be 4c55 62be a87e 50be ecc5 a6be
00000120: 8b9b 983d 7299 b1be 8d0a a8be 9e34 383b
00000130: dbcd eb3c 487d bbbd 844f 37be d0e0 223d
00000140: add9 8cbe e529 8fbd 3ad3 83be 7a68 81bd
00000150: 1520 783e b23d a83d 0da3 7cbe f562 673d
00000160: 54f7 38bd 05a8 babe cbe3 883e 86e3 5c3d
00000170: b902 cd3d d2c1 9ebe 1388 f2be 0cb1 553e
00000180: b6d8 11be 922e d2be db20 0fbe 9c78 63bc
00000190: e9ef 8ebe 2a9f 61be d2dc c7bd 0315 4fbf
000001a0: ec73 cabe 4581 1cbf 2c03 53bf 9abd 35bf
000001b0: 9412 933c caa1 853e 5466 a2be 3877 0cbf
000001c0: eb43 d4be e31a 6bbe baf2 f1be a2b5 81be
000001d0: 2935 32bf 1e7a 433c f89f a3be fcc6 0fbe
000001e0: 4f09 01be 93b1 2ebe 644c 07bf 0c73 14be
000001f0: 1129 05bf cef3 d0be 12b2 ffbe 3fc6 8ebe
00000200: 30b7 25bf 525b a4be b30b b1bd 2fe9 fbbe
00000210: eef8 10bf 1303 57bf a1d4 87be 829c 68bf
00000220: 6c61 e9be aada 27bf b8ca 87bf 7b8b 4fbe
00000230: e09c a0be 4d3e 89bf ebc2 d8be 9bae 0fbf
00000240: b16a eabe 55c2 24bf 0f39 dbbe 1fef 1fbf
00000250: 0517 debe 8fd1 68bf 1c4d ecbe 4511 a9be
00000260: 4b00 12be 881b 1dbf 0d15 8bbe f0a5 19be
00000270: 73f5 f8be b967 ccbe 4598 31bf b795 89bf
00000280: fa24 8abf 0dbc 00bf e04c b8be 53c8 0cbf
00000290: 272b 23bf c52f bebe 8daf c2be 7e92 69be
000002a0: 311d 29bf 4148 d3be 4436 8bbe 6d51 f1be
000002b0: a0d5 6a3d 251d 5abe b576 9cbe 4dbd 2cbf
000002c0: e947 a7be 725c 17bf a2db 22bf f28f 09bf
000002d0: 5d9a 63bf 7c2d 01bf 524b 37bd 9175 963d
000002e0: a118 b3be f0d0 38bf b9d3 1ebf a7c1 29bf
000002f0: 7e8f 19bf 68a1 67be 1fa0 a4be ffb4 e9bd
00000300: cc2c b6be 3b6a 03bf d0cf 29bf e524 22bf
00000310: 18b3 e8be 7fda b7be cd52 77be c9e5 c3be
00000320: 69ea f13d 7a31 4c3e 99a1 263e a678 733c
00000330: b7e6 aebe 5a71 063e aa22 09bd 84c2 c7bd
00000340: ff5d 3fbe 0aa3 763a c65f 5ebe 7f31 403c
00000350: ab94 65be edde 54be b9bd 543d 39bd b63d
00000360: 078e fb3d 7850 603e 219c 7fbe 0f41 afbd
00000370: aab0 51be e51e 26be f3a0 ba3e 9af3 a8be
00000380: ee81 09be 1bd3 bfbd 053b 3c3e 637c 803d
00000390: b0a9 7fbe dfe4 16be 6d74 0d3d 05ef 9d3e
000003a0: f98c 80bd b619 c83c a002 b4bd c484 09bd
000003b0: bb66 2cbd ba91 14bd 2c56 8ebc ab48 1ebd
000003c0: c504 70bd 2937 bc3e f4f3 a83e e62e e1bd
000003d0: 8070 e4bb 3382 5cbd 750f 6d3e 8e2a 803e
000003e0: 5168 52bd 381a 853b e7cb d4bd 2299 84be
000003f0: 8887 e93d 7776 c5be d785 aebe b5df 1b3e

bias_hh_l0 f4 [300]
-0.19241758 -0.17864777 -0.1909751 -0.033127375 0.1170505 -0.20588186 0.21924281 -0.3502922
-0.20915298 -0.12657174 0.1417007 -0.07446011 -0.25108197 0.13913274 -0.22503313 0.4234702
-0.46416527 0.15810767 -0.5534381 0.08749021 -0.15079483 -0.084468625 -0.43833858 0.26610988
-0.6224812 -0.37544784 0.12210847 0.19244616 -0.4241541 0.10568394 0.10648446 -0.32635745
-0.6078105 -0.4157367 -0.08313858 0.0017542676 -0.6676993 -0.1779705 -0.33474413 0.007648031
-0.147404 0.1466072 -0.59398925 0.15506174 -0.3759403 -0.60804147 -0.08659639 -0.5328584
-0.43077895 -0.3500424 -0.08836236 -0.15864703 0.0672993 0.009217288 -0.5782037 0.14999743
-0.41106445 -0.14375582 -0.50709945 -0.29818568 -0.17486657 -0.05876236 0.21122135 -0.0778646
-0.43634903 -0.28367862 -0.074733734 0.030594477 -0.078374125 -0.1702883 -0.26317918 -0.3101256
0.0406725 -0.3806926 -0.33460042 0.020697845 -0.11465811 -0.049404386 -0.14074983 0.14357352
-0.19191258 -0.2507484 -0.18736836 0.018891238 0.31514096 -0.019640153 -0.13442247 0.13471726
-0.07532876 -0.42190263 0.28160146 0.13157403 0.0045675742 -0.24845943 -0.55085385 0.22699232
-0.2578293 -0.43560696 -0.14660153 0.025573248 -0.3351629 -0.13124514 -0.24101798 -0.75966436
-0.49113142 -0.5098134 -0.8933296 -0.739517 -0.09767172 0.23818673 -0.21358961 -0.6263699
-0.41794023 -0.29194534 -0.52798533 -0.41175473 -0.7806652 0.05986267 -0.32360172 -0.17988291
-0.14663051 -0.17380087 -0.66174185 -0.09061111 -0.6043871 -0.3432625 -0.4441215 -0.3928382
-0.65946615 -0.3366981 -0.19043142 -0.46134973 -0.47747153 -0.71340364 -0.27358738 -0.92275494
-0.5437301 -0.7906946 -1.0368307 -0.21163182 -0.3235619 -0.9938206 -0.5183852 -0.57706326
-0.5743405 -0.5707475 -0.49723575 -0.5471431 -0.3330345 -0.9301955 -0.35158616 -0.26919165
-0.32194647 -0.5310572 -0.3505768 -0.1314342 -0.41590342 -0.54163754 -0.8117494 -1.0621668
-0.99852705 -0.45099568 -0.48893678 -0.588275 -0.60622436 -0.37196216 -0.38700274 -0.32324392
-0.56688446 -0.54428923 -0.42679125 -0.56502694 -0.047413632 -0.19019334 -0.27930006 -0.5652999
-0.20115623 -0.59503573 -0.62562025 -0.5388759 -0.7939463 -0.626655 -0.034990318 0.0912262
-0.27737543 -0.69358253 -0.42484173 -0.68088096 -0.6101643 -0.09936832 -0.39654222 -0.033841524
-0.28986967 -0.65462524 -0.6731039 -0.60210234 -0.4851302 -0.21245633 -0.17992944 -0.4338229
0.35756925 -0.191608 -0.58760154 -0.031621777 -0.09077562 0.018061606 -0.18453828 0.16243935
-0.565944 0.22350788 -0.26024306 -0.57803565 -0.0052167727 -0.69398636 0.11498176 -0.6196176
0.092781775 0.21787056 -0.04411381 -0.20546699 0.5548328 -0.20105447 0.323957 -0.43624276
0.10489609 0.23600727 0.14370176 -0.2144968 -0.14038418 -0.47645372 -0.026382493 0.26896077
0.27988753 0.45552886 -0.061731536 -0.35679096 0.57133305 0.07478534 0.063832045 0.0690499
0.39071256 0.3536125 0.16235115 0.04745966 -0.2912878 0.17322382 -0.11802329 0.21579425
-0.16781433 0.23568323 -0.619457 0.3424067 0.39074972 -0.9535444 -0.39913195 0.39342853
00000000: 1d09 45be 71ef 36be fa8e 43be 92b0 07bd
00000010: 2cb8 ef3d b2d2 52be 3081 603e 8059 b3be
00000020: 332c 56be 069c 01be fd19 113e 8b7e 98bd
00000030: d18d 80be d078 0e3e 166f 66be 16d1 d83e
00000040: 12a7 edbe fae6 213e 1fae 0dbf 112e b33d
00000050: f669 1abe e3fd acbd ea6d e0be 8e3f 883e
00000060: ee5a 1fbf b33a c0be 0114 fa3d 9b10 453e
00000070: ba2a d9be d270 d83d 8614 da3d 5318 a7be
00000080: 7899 1bbf 71db d4be 8f44 aabd 74ef e53a
00000090: 57ee 2abf e63d 36be 9563 abbe 569c fa3b
000000a0: 13f1 16be 3320 163e ae0f 18bf 81c8 1e3e
000000b0: 3f7b c0be 9ba8 1bbf 7359 b1bd 6869 08bf
000000c0: 0f8f dcbe c238 b3be 53f7 b4bd 5e74 22be
000000d0: 37d4 893d 1c04 173c 2805 14bf ed98 193e
000000e0: 0a77 d2be ba34 13be 45d1 01bf cbab 98be
000000f0: 3910 33be cdb0 70bd 694a 583e 7a77 9fbd
00000100: 2469 dfbe 533e 91be 000e 99bd 45a1 fa3c
00000110: 9d82 a0bd 0e60 2ebe 6cbf 86be c8c8 9ebe
00000120: 3598 263d 24ea c2be bf50 abbe 878e a93c
00000130: dfd1 eabd 415c 4abd b920 10be f004 133e
00000140: bb84 44be 1862 80be 7edd 3fbe ccc1 9a3c
00000150: 285a a13e 63e4 a0bc 0ba6 09be 52f3 093e
00000160: f745 9abd 9f03 d8be 112e 903e 58bb 063e
00000170: 97ab 953b 266c 7ebe c204 0dbf ad70 683e
00000180: 3402 84be e007 dfbe b61e 16be fd7e d13c
00000190: 799a abbe 2065 06be 6bcd 76be 5d79 42bf
000001a0: 9475 fbbe 2283 02bf 40b1 64bf fc50 3dbf
000001b0: 1c08 c8bd 39e7 733e 3cb7 5abe c759 20bf
000001c0: 43fc d5be dc79 95be 0c2a 07bf 84d1 d2be
000001d0: add9 47bf 8f32 753d 20af a5be 3a33 38be
000001e0: 4f26 16be dbf8 31be ea67 29bf 5192 b9bd
000001f0: 1db9 1abf 1ac0 afbe e563 e3be 1722 c9be
00000200: c6d2 28bf b263 acbe 7400 43be 0836 ecbe
00000210: 2677 f4be 9fa1 36bf a513 8cbe ab39 6cbf
00000220: e531 0bbf f66a 4abf deb6 84bf 03b6 58be
00000230: e8a9 a5be 076b 7ebf e4b4 04bf 6bba 13bf
00000240: fb07 13bf 821c 12bf af95 febe 9211 0cbf
00000250: 7f83 aabe 4b21 6ebf 1a03 b4be 7dd3 89be
00000260: 2bd6 a4be 5df3 07bf cd7e b3be b096 06be
00000270: 4bf1 d4be c2a8 0abf cfce 4fbf 15f5 87bf
00000280: 789f 7fbf e8e8 e6be ec55 fabe 3199 16bf
00000290: 8531 1bbf d371 bebe 3925 c6be 3a80 a5be
000002a0: 571f 11bf 8a56 0bbf 6284 dabe 9ba5 10bf
000002b0: cc34 42bd 0bc2 42be 6b00 8fbe 7fb7 10bf
000002c0: e6fb 4dbe 4354 18bf a628 20bf c5f3 09bf
000002d0: 1140 4bbf 766c 20bf 0252 0fbd cdd4 ba3d
000002e0: 2704 8ebe a08e 31bf db84 d9be 374e 2ebf
000002f0: ba33 1cbf 9e81 cbbd 9507 cbbe 699d 0abd
00000300: cc69 94be 8595 27bf 8a50 2cbf 6123 1abf
00000310: fc62 f8be 278e 59be 6c3f 38be 091e debe
00000320: 5113 b73e e334 44be 0e6d 16bf d685 01bd
00000330: 91e8 b9bd eff5 933c 9af7 3cbe 8056 263e
00000340: b5e1 10bf 40df 643e 943e 85be 25fa 13bf
00000350: 76f1 aabb 17a9 31bf 8f7b eb3d 429f 1ebf
00000360: 5f04 be3d 7619 5f3e afb0 34bd f065 52be
00000370: 8609 0e3f 39e1 4dbe b1dd a53e 365b dfbe
00000380: c3d3 d63d e4ab 713e 8e26 133e 0da5 5bbe
00000390: dfc0 0fbe bef1 f3be 1920 d8bc 3ab5 893e
000003a0: 6b4d 8f3e 143b e93e 35da 7cbd 4ead b6be
000003b0: e242 123f 0e29 993d 60ba 823d 096a 8d3d
000003c0: 7a0b c83e b30c b53e 613f 263e 0f65 423d
000003d0: ad23 95be 9661 313e 32b6 f1bd 2bf9 5c3e
000003e0: 85d7 2bbe f256 713e bc94 1ebf ee4f af3e
000003f0: 5910 c83e 7c1b 74bf 065b ccbe 776f c93e

weight_ih_l1 f4 [300, 100]
-0.08119638 0.024303766 0.80543774 -0.8536067 -0.0011578754 -0.675996 -0.39696196 -0.3033355
0.23230559 -0.7426336 -0.4053043 0.07547478 -0.3081429 -0.21808742 0.20919666 -0.48869714
0.30898973 -0.34914133 0.17965126 -0.11282408 0.29299974 -0.1472021 0.0025193975 0.032424428
-0.31978387 0.20126434 0.057641592 0.107171625 -0.21475838 -0.51925427 -0.90495324 0.37038526
0.029990528 -0.42223924 -0.87494004 -0.4361949 0.0139189465 -0.1753895 -0.5750012 0.4249046
0.27533606 0.0073321294 0.0735629 -0.29714134 0.478142 0.2639733 0.653941 0.10744965
0.099750966 -0.06710691 -0.9153327 0.38248518 0.20879085 0.53387034 0.12964524 -0.97785527
0.58426124 0.35027692 1.0249932 0.23562658 0.22550194 0.410395 -0.15279435 0.19898836
0.08826122 -0.0669277 0.3711614 0.20848756 0.29744872 0.07967814 -0.3862547 -0.22370481
1.2060221 0.3018022 0.4922486 0.9206563 0.14909221 0.33785346 -0.44226825 0.011762077
0.35672837 -0.14590353 1.0825708 0.15470782 0.15499261 -0.00749247 -0.7620627 -0.103852056
-0.3846711 0.3000538 -0.5668333 1.1717634 1.0397455 0.6595229 -0.61919445 -0.39032948
0.79999876 0.4672092 0.58480054 -0.40735048 0.8639128 -0.4162984 -0.81148064 0.4059921
1.7819427 -0.78181094 0.31422868 0.117158175 1.0067931 -0.16499469 0.0022217864 -0.42621583
0.11107187 -0.24835517 -0.8171026 0.84237486 -0.7001429 -0.061530694 -0.022789761 0.37095058
0.4453366 0.5674677 -0.05621303 0.9007961 -0.15098262 0.15165223 0.3482528 -0.3274442
-0.0022280153 -0.01832857 0.30316472 0.3588052 0.039372195 -0.06230353 -0.2835362 0.3395378
-1.4198763 -0.38809404 0.55661714 -0.40043753 0.99940115 0.03760716 0.09538687 0.36134574
0.8803491 1.014847 -0.52802354 -0.50186753 -0.37240288 1.0186327 1.0277563 0.042010386
0.12858735 0.21586014 -0.0048580915 0.104502685 -0.26063925 -0.53445387 0.3095187 -0.46153623
-0.67324334 -0.14935163 0.68556195 0.45644683 0.042469162 -0.0005088571 0.44432887 -0.44594306
-0.052491825 0.20156881 0.24782595 -0.39605853 -0.11494272 0.1023021 0.4474182 -0.6215575
0.5876235 0.31811687 0.2823594 0.029206512 -0.44597596 0.9541163 -0.13268177 -0.014649945
-0.21865442 0.44388512 0.87579674 0.8108996 -0.37537456 0.59915566 -0.40794528 -1.2884979
0.98667043 -0.7320628 -0.014605473 -0.06139017 0.41612646 -0.24186726 -0.3504327 -0.0023698842
-0.4095826 -0.10343444 0.7054428 0.17032449 -0.5803531 0.044565592 0.02537138 0.17273906
-0.6943264 0.10322684 -0.11774845 -0.16027713 -0.34326738 -0.17980242 0.24296413 0.07631433
0.41290906 0.26093346 0.007873147 -0.6811785 0.06520807 -0.43272635 0.4185964 0.18936798
0.45146787 0.27898616 -0.30610314 -0.28297666 -1.2721065 0.7700154 -0.8277478 0.35646462
-0.18884337 0.6666249 -0.29629195 0.05133957 0.50317425 -0.12375986 0.48616934 0.41502967
-0.31134385 0.6695128 0.94582546 0.73714864 0.19736587 -0.5711918 0.3212377 0.080457196
-0.33244294 -0.31413037 0.093723826 -0.5520165 0.43079793 0.07013919 -0.6972855 0.042840917
00000000: 4a4a a6bd b118 c73c 2b31 4e3f f885 5abf
00000010: dac3 97ba 130e 2dbf 993e cbbe ca4e 9bbe
00000020: 84e1 6d3e 3c1d 3ebf 0c84 cfbe 8592 9a3d
00000030: e8c4 9dbe 4f52 5fbe a637 563e 8336 fabe
00000040: e733 9e3e a7c2 b2be 80f6 373e 5010 e7bd
00000050: 1004 963e 26bc 16be 7a1c 253b 7acf 043d
00000060: b6ba a3be 3d18 4e3e 9719 6c3d cc7c db3d
00000070: 9fe9 5bbe d9ed 04bf 04ab 67bf 23a3 bd3e
00000080: b2ae f53c be2f d8be 12fc 5fbf f054 dfbe
00000090: 4b0c 643c 4e99 33be 4733 13bf 198d d93e
000000a0: d9f8 8c3e 5c42 f03b 25a8 963d e922 98be
000000b0: 07cf f43e 8227 873e ad68 273f 900e dc3d
000000c0: 3c4a cc3d 596f 89bd 3e53 6abf 19d5 c33e
000000d0: 45cd 553e baab 083f b9c1 043e b954 7abf
000000e0: 2592 153f 7f57 b33e fa32 833f 1848 713e
000000f0: fbe9 663e 4b1f d23e 1f76 1cbe 9bc3 4b3e
00000100: 4cc2 b43d 6411 89bd de08 be3e c37d 553e
00000110: 334b 983e 4b2e a33d 2dc3 c5be e012 65be
00000120: ef5e 9a3f d185 9a3e 0208 fc3e 22b0 6b3f
00000130: a1ab 183e 21fb ac3e fc70 e2be bab5 403c
00000140: 1aa5 b63e bc67 15be ae91 8a3f ba6b 1e3e
00000150: 62b6 1e3e 6583 f5bb 8b16 43bf 63b0 d4bd
00000160: 9cf3 c4be a7a0 993e fd1b 11bf 58fc 953f
00000170: 6116 853f 7ed6 283f 8783 1ebf 44d9 c7be
00000180: b8cc 4c3f 0b36 ef3e 7db5 153f 3e90 d0be
00000190: 6429 5d3f 1025 d5be 32bd 4fbf 32de cf3e
000001a0: b316 e43f c324 48bf 95e2 a03e a0f0 ef3d
000001b0: 99de 803f 5ef4 28be 649b 113b f638 dabe
000001c0: a679 e33d d150 7ebe a32d 51bf e1a5 573f
000001d0: 913c 33bf 9c07 7cbd 98b1 babc 3ced bd3e
000001e0: 2903 e43e 9045 113f a23f 66bd 939a 663f
000001f0: 309b 1abe b94a 1b3e 314e b23e c4a6 a7be
00000200: e503 12bb cc25 96bc 6838 9b3e 51b5 b73e
00000210: bd44 213d fc31 7fbd a82b 91be e6d7 ad3e
00000220: 82be b5bf 43b4 c6be 767e 0e3f 2606 cdbe
00000230: c1d8 7f3f f709 1a3d 315a c33d 4f02 b93e
00000240: 8f5e 613f 82e6 813f 8d2c 07bf 647a 00bf
00000250: 97ab bebe 8e62 823f 858d 833f 1513 2c3d
00000260: 67ac 033e 710a 5d3e a030 9fbb 8105 d63d
00000270: 8272 85be f8d1 08bf 3c79 9e3e 7a4e ecbe
00000280: ad59 2cbf a2ef 18be fd80 2f3f 66b3 e93e
00000290: 25f4 2d3d d264 05ba 137f e33e a652 e4be
000002a0: ab01 57bd 0e68 4e3e 16c6 7d3e 2fc8 cabe
000002b0: 1767 ebbd c383 d13d 0014 e53e 641e 1fbf
000002c0: 7e6e 163f 37e0 a23e 6991 903e 7f42 ef3c
000002d0: f656 e4be f740 743f bbdd 07be 5306 70bc
000002e0: f2e6 5fbe e944 e33e 3734 603f 1e97 4f3f
000002f0: 1831 c0be 4462 193f 34de d0be 80ed a4bf
00000300: 6f96 7c3f 7868 3bbf cb4b 6fbc 4274 7bbd
00000310: 870e d53e 0dac 77be ea6b b3be 0f50 1bbb
00000320: d0b4 d1be 70d5 d3bd e697 343f 8b69 2e3e
00000330: 0592 14bf 698a 363d a4d7 cf3c 82e2 303e
00000340: 60bf 31bf 9868 d33d 1926 f1bd b01f 24be
00000350: bec0 afbe 201e 38be 97cb 783e b04a 9c3d
00000360: d168 d33e 1299 853e 5ffe 003c b761 2ebf
00000370: cf8b 853d 4f8e ddbe 4452 d63e aee9 413e
00000380: cc26 e73e 46d7 8e3e 8db9 9cbe 51e2 90be
00000390: 63d4 a2bf bb1f 453f 48e7 53bf 8882 b63e
000003a0: 2860 41be eea7 2a3f 94b3 97be 7149 523d
000003b0: 07d0 003f cf75 fdbd 30eb f83e c57e d43e
000003c0: 7668 9fbe 3165 2b3f 9e21 723f c6b5 3c3f
000003d0: 471a 4a3e a039 12bf 4579 a43e bec6 a43d
000003e0: f635 aabe b2d5 a0be 47f2 bf3d f450 0dbf
000003f0: 8c91 dc3e 23a5 8f3d 4d81 32bf f579 2f3d

weight_hh_l1 f4 [300, 100]
-0.37683645 -0.027514078 -0.029629914 0.14141968 -0.30338097 -0.14947541 0.044650577 0.030915374
0.059462823 -0.20785089 0.4079676 -0.102632925 -0.73101026 0.20825431 0.31525284 0.40833947
-0.089024484 -0.07361515 0.17644691 0.32117122 -0.654371 0.18532082 0.3809837 0.47295228
-0.33345073 0.06939724 0.00986981 0.38454676 -0.23367658 0.055081297 0.27285165 -0.093218625
-0.17123666 0.4606841 0.182853 0.24421465 0.057005625 -0.5250108 -0.21309227 -0.38493168
0.5183123 -0.20473242 0.19560717 0.2555439 -0.39427766 0.015350006 0.10940612 0.086799644
-0.24039124 -0.4375662 0.012435047 -0.2252772 0.10579609 0.39115348 0.18611294 0.19342409
-0.34767833 0.65421456 -0.20660889 0.22714958 0.0033599976 -0.14316414 -0.5962125 0.1321973
0.5798202 0.38087815 0.029905237 -0.2450138 0.25545704 -0.4056997 0.20245315 0.030413434
-0.18703315 0.3304184 0.34899917 -0.30928257 -0.13435891 0.22663608 0.03631395 -0.13127697
0.048111804 -0.2600051 -0.0050123855 0.56174755 -0.17281075 0.003764155 0.09135554 0.59062845
-0.32414433 -0.15628175 -1.0113133 -0.38993904 -0.29181603 0.7481328 -0.35501635 -0.7248423
0.037043303 -0.042197388 0.071445204 0.35223964 0.45606664 -0.91612685 -0.12382147 0.24494174
0.4841944 -0.067497976 0.50448453 0.10316054 -0.24283181 0.11000765 -0.536674 0.3529337
-0.0095076775 0.25487435 0.030063376 0.08718982 -0.16594376 0.29756764 -0.21225904 -0.47931048
0.30988902 -0.53245455 0.7775912 -0.59151703 -0.025236601 -0.13159652 -0.11971965 -0.51907206
0.09740359 0.026416166 -0.19424708 -0.37467542 0.12906499 -0.30411956 -0.3389541 0.4133662
0.41529095 -0.3242665 -0.23497637 0.5619967 -0.1409758 -0.092010066 -0.4152963 0.14648917
-0.15983066 -0.26409703 -0.34811777 0.34217617 -0.0129834 0.5347757 0.21811408 -0.122442506
0.17530857 1.0826851 -0.63076836 -0.6990493 -0.2007388 -1.0849019 0.16316125 -0.24328536
-0.14002006 0.7813161 0.3531225 0.3420554 0.06882976 0.053882126 -0.32469216 -0.19125208
0.24948816 0.19731927 0.5195167 0.3811646 0.6324758 -0.0051746275 -0.8173133 -0.14314127
-0.45119718 -0.3705608 -0.50031215 0.10757488 -0.2090565 0.027213674 0.30974275 0.5937769
-0.30062464 -0.22004585 -0.52783227 0.01369536 0.56192935 -0.004119645 -0.08308675 0.38181564
0.5650136 -0.4223048 -0.4398887 0.23214203 -0.040448297 0.23337436 0.5758293 -0.0022675851
0.28117454 0.11012943 -1.1803282 -0.13775083 -0.1087445 0.48875695 -0.07654339 0.17141639
-0.6232301 0.26830012 0.68909883 0.3315102 -0.3532391 -0.01219333 -0.39268434 0.31372637
0.026402185 -0.14707753 -0.3498167 -0.1762385 0.56392974 0.28321722 0.44744706 -0.07576728
-0.11845343 -0.26627532 0.075889155 0.12194585 -0.49253556 -0.16749032 -0.09445995 0.33038986
-0.23792881 -0.038959425 -0.1848435 -0.30443606 0.12844726 -0.27578875 0.1647037 0.10741871
-0.13978988 1.0962981 -0.3028907 -0.017472295 0.18357162 0.1568231 -0.11569948 0.19737254
0.22377412 0.24747781 -0.17551714 0.041488297 -0.30679715 -1.4925386 -0.033631705 0.1301357
00000000: b5f0 c0be 3465 e1bc 6fba f2bc 52d0 103e
00000010: c054 9bbe 1510 19be 86e3 363d 3d42 fd3c
00000020: 4a8f 733d ddd6 54be 21e1 d03e 3631 d2bd
00000030: 7d23 3bbf 9e40 553e d268 a13e df11 d13e
00000040: 7852 b6bd 8ac3 96bd 80ae 343e 8e70 a43e
00000050: dc84 27bf bec4 3d3e 4c10 c33e cd26 f23e
00000060: 0eba aabe 2420 8e3d fcb4 213c 50e3 c43e
00000070: ea48 6fbe ed9c 613d 36b3 8b3e 68e9 bebd
00000080: aa58 2fbe c9de eb3e d13d 3b3e 6813 7a3e
00000090: bb7e 693d 1c67 06bf dc34 5abe c415 c5be
000000a0: 1db0 043f 60a5 51be 3f4d 483e a6d6 823e
000000b0: c3de c9be 977e 7b3c 5110 e03d 03c4 b13d
000000c0: 1f29 76be ad08 e0be 5ebc 4b3c 11af 66be
000000d0: 9fab d83d 4545 c83e 6494 3e3e f710 463e
000000e0: e502 b2be 9b7a 273f 4891 53be e699 683e
000000f0: 6833 5c3b 9f99 12be 62a1 18bf bb5e 073e
00000100: 196f 143f 7602 c33e d4fb f43c e6e4 7abe
00000110: 44cb 823e dfb7 cfbe e14f 4f3e 9825 f93c
00000120: 9e85 3fbe 9a2c a93e 05b0 b23e 495a 9ebe
00000130: 6295 09be 4a13 683e f0bd 143d 786d 06be
00000140: e210 453d 631f 85be f03e a4bb b0ce 0f3f
00000150: 4df5 30be 0bb0 763b 9d18 bb3d 6d33 173f
00000160: 3ff6 a5be 5308 20be b772 81bf 17a6 c7be
00000170: e968 95be a285 3f3f b4c4 b5be 448f 39bf
00000180: b8ba 173d 2bd7 2cbd dd51 923d c158 b43e
00000190: 9181 e93e 4a87 6abf 1c96 fdbd 02d2 7a3e
000001a0: 54e8 f73e 613c 8abd e625 013f d545 d33d
000001b0: e7a8 78be b14b e13d 7863 09bf bab3 b43e
000001c0: 17c6 1bbc e47e 823e 7847 f63c 9490 b23d
000001d0: 29ed 29be c95a 983e 6f5a 59be 2f68 f5be
000001e0: c6a9 9e3e f14e 08bf 3810 473f a96d 17bf
000001f0: fdbc cebc 3dc1 06be 932f f5bd e8e1 04bf
00000200: 897b c73d b766 d83c b5e8 46be 75d5 bfbe
00000210: 9d29 043e 8fb5 9bbe 648b adbe bca4 d33e
00000220: 04a1 d43e 4206 a6be a59d 70be 04df 0f3f
00000230: f65b 10be c66f bcbd b7a1 d4be 4201 163e
00000240: a6aa 23be ba37 87be 7e3c b2be b731 af3e
00000250: 54b8 54bc 0fe7 083f 4c59 5f3e 23c3 fabd
00000260: 1784 333e 6d95 8a3f 097a 21bf e5f4 32bf
00000270: 798e 4dbe 11de 8abf be13 273e cc1f 79be
00000280: 6b61 0fbe 5504 483f 79cc b43e e321 af3e
00000290: 9ef6 8c3d 81b3 5c3d 0d3e a6be 96d7 43be
000002a0: d379 7f3e 100e 4a3e 0cff 043f 0228 c33e
000002b0: efe9 213f ec8f a9bb 723b 51bf a093 12be
000002c0: 5103 e7be 25ba bdbe 7514 00bf 3850 dc3d
000002d0: e812 56be 36ef de3c 9a96 9e3e c301 183f
000002e0: 79eb 99be b353 61be 0420 07bf 8162 603c
000002f0: 9ada 0f3f 16fe 86bb 6329 aabd 577d c33e
00000300: bba4 103f 5638 d8be 1739 e1be a4b6 6d3e
00000310: 1dad 25bd b0f9 6e3e 8d69 133f c49b 14bb
00000320: 1cf6 8f3e 8a8b e13d ff14 97bf 8e0e 0dbe
00000330: 70b5 debd 5a3e fa3e c8c2 9cbd c787 2f3e
00000340: 028c 1fbf a25e 893e c868 303f b4bb a93e
00000350: c1db b4be 88c6 47bc ec0d c9be bea0 a03e
00000360: 6549 d83c 7e9b 16be 2d1b b3be de77 34be
00000370: b35d 103f d901 913e c817 e53e e02b 9bbd
00000380: b697 f2bd 3d55 88be c66b 9b3d bfbe f93d
00000390: 9f2d fcbe 9582 2bbe 3874 c1bd dc28 a93e
000003a0: 9ca3 73be eb93 1fbd 9d47 3dbe 0bdf 9bbe
000003b0: ae87 033e 2f34 8dbe 16a8 283e 57fe db3d
000003c0: 1425 0fbe 7f53 8c3f 7d14 9bbe 0f22 8fbc
000003d0: 33fa 3b3e 3c96 203e d9f3 ecbd 071c 4a3e
000003e0: 0b25 653e d36a 7d3e c4ba 33be a2ef 293d
000003f0: 8414 9dbe 810b bfbf 66c1 09bd 4b42 053e

bias_ih_l1 f4 [300]
-0.25115365 -0.03363283 0.12396008 0.14673853 0.23617578 0.46409565 0.15839098 0.043979485
0.070826136 0.20220496 -0.17114966 0.04840696 0.07438709 0.1947759 -0.2218655 -0.030201986
0.20184946 0.04028072 0.10593372 0.23969686 0.029917588 0.019750189 -0.07827676 0.23406695
0.09779981 0.098381735 -0.05433899 -0.0044551743 0.08217136 -0.054101348 -0.4766236 0.14309132
-0.09111479 -0.19697684 0.07386069 0.075744085 0.32405937 0.10392945 0.10842926 0.010210622
-0.07291165 -0.1687742 -0.07592504 0.28467593 0.4882851 -0.075968325 -0.05989837 -0.013249919
0.35680762 -0.105395086 0.022048308 0.33893654 0.1462502 -0.044781946 0.016679034 -0.18598616
-0.34517893 0.020205364 -0.009140025 -0.23703362 0.31177217 0.3093713 0.15678625 -0.23634985
-0.27927968 0.12415835 -0.011306526 -0.07961715 0.20059447 0.05532307 0.3930693 0.09739598
-0.008866845 0.13110828 0.03009985 0.28089714 -0.12907943 -0.02895505 -0.23914179 -0.08265578
0.18572737 0.008243668 0.22836046 -0.10717591 -0.0775223 0.09464659 -0.049976673 0.120941855
0.026171017 -0.14172402 0.01592215 -0.19883731 0.053358518 -0.027290184 -0.20037083 -0.052085653
0.34795368 0.29842183 -0.052127644 -0.07891594 0.08296983 -0.7944765 0.034908637 -0.5534525
-0.4488709 -0.066571265 -0.12821375 -0.41882968 -0.10560485 -0.515819 -0.13725954 -0.043928917
-0.10016224 -0.25757086 -0.2125267 -0.53767556 0.09949175 -0.2686703 -0.48407838 -0.22970282
0.0179733 -0.15419969 -0.33973107 -0.645996 -0.43965584 0.41090673 -0.13321686 -0.28243923
-0.0014104968 -0.94074434 0.33174074 -0.3299813 -0.22470969 -0.24630962 0.21613944 -0.35111967
0.3385574 -0.38822594 -0.75283307 -0.3206064 -0.2925652 0.26477495 -0.27109134 -0.7156927
-0.3099466 -0.4869554 -0.07271367 -0.46427897 -0.5327061 -0.36044428 0.0834749 -0.35752654
-0.6814117 -0.18500066 0.05783253 -0.1888513 -0.012248912 -0.18088071 -0.23989093 -0.2842638
-1.0423222 -0.3643935 -0.10234389 -0.10724677 -0.6309945 -0.33979556 0.36434156 -0.3895805
0.031777605 -0.34282947 -0.035879605 -0.5214898 -0.19979316 -0.2138772 0.19107297 -0.07002893
-0.11447802 0.21810795 -1.497313 0.11425316 -0.13703346 0.32675803 -0.017663138 -0.20973474
-0.30676055 -0.60764706 -0.5931305 0.045800798 -0.5610694 -0.23947993 -0.49855816 0.06527486
0.2479568 0.029137745 -0.46030712 -0.47935346 -0.27621034 -0.59983414 0.1829479 -0.460095
-0.23081797 -0.32543516 -0.001460322 -0.24730127 -0.25079176 -0.59205765 -0.2052331 0.024765832
-0.1350719 0.3294964 -0.10688374 0.23863097 -0.106031165 -0.15944919 -0.116617896 0.42878756
0.09541648 0.073556416 -0.024670448 -0.22907963 -0.0019496527 -0.13659136 0.32847258 0.43398067
-0.14961822 -0.24042505 -0.039011728 0.017907722 0.095921166 -0.051410068 0.17105907 0.24657498
-0.047753576 0.25331715 -0.1320771 0.14964671 0.14049034 -0.26030964 0.31140214 -0.0024675734
0.16295828 -0.11793247 -0.0728626 -0.40109816 0.26579663 -0.22623989 -0.12589319 0.08306648
0.34200037 0.25933453 -0.032783043 0.093497835 -0.07841556 0.3824767 0.111352846 -0.0660869
00000000: 3697 80be 94c2 09bd c8de fd3d a042 163e
00000010: 10d8 713e f29d ed3e 3f31 223e d523 343d
00000020: 4b0d 913d d10e 4f3e db41 2fbe 6046 463d
00000030: 4258 983d 5573 473e b630 63be 286a f7bc
00000040: a0b1 4e3e 65fd 243d c7f3 d83d 1873 753e
00000050: bb15 f53c 26cb a13c 914f a0bd 3faf 6f3e
00000060: 444b c83d 5d7c c93d 9092 5ebd b6fc 91bb
00000070: 7549 a83d 6099 5dbd 0208 f4be 8886 123e
00000080: 649a babd 4cb4 49be 4644 973d b71f 9b3d
00000090: 1ceb a53e f7d8 d43d 2910 de3d 744a 273c
000000a0: b452 95bd 25d3 2cbe 967e 9bbd 0bc1 913e
000000b0: 8100 fa3e 4895 9bbd fe57 75bd 3016 59bc
000000c0: 7daf b63e 61d9 d7bd a79e b43c 1789 ad3e
000000d0: 9dc2 153e 466d 37bd 78a2 883c 2873 3ebe
000000e0: 4bbb b0be b885 a53c 0bc0 15bc f1b8 72be
000000f0: 9aa0 9f3e ea65 9e3e 938c 203e b205 72be
00000100: bffd 8ebe bc46 fe3d 023f 39bc 510e a3bd
00000110: a368 4d3e 729a 623d 6140 c93e 8b77 c73d
00000120: 3e46 11bc 4041 063e f693 f63c c0d1 8f3e
00000130: 662d 04be 2433 edbc 96e1 74be 6f47 a9bd
00000140: 512f 3e3e 7310 073c 53d7 693e 0b7f dbbd
00000150: 03c4 9ebd 12d6 c13d 57b4 4cbd 5db0 f73d
00000160: 9a64 d63c 1a20 11be 2b6f 823c 029c 4bbe
00000170: 768e 5a3d aa8f dfbc 032e 4dbe c457 55bd
00000180: fc26 b23e bfca 983e cc83 55bd ae9e a1bd
00000190: 16ec a93d d062 4bbf 5cfc 0e3d 10af 0dbf
000001a0: 68d2 e5be 8456 88bd 774a 03be d870 d6be
000001b0: 5b47 d8bd b70c 04bf c48d 0cbe cfee 33bd
000001c0: dc21 cdbd 54e0 83be 99a0 59be 1ba5 09bf
000001d0: 55c2 cb3d 278f 89be 1fd9 f7be 3737 6bbe
000001e0: be3c 933c 86e6 1dbe 3bf1 adbe fe5f 25bf
000001f0: 921a e1be 5e62 d23e 006a 08be e09b 90be
00000200: 6be0 b8ba 9fd4 70bf ecd9 a93e 4ff3 a8be
00000210: 4c1a 66be 9738 7cbe a853 5d3e f5c5 b3be
00000220: 6557 ad3e 8dc5 c6be abb9 40bf 8626 a4be
00000230: 1bcb 95be 9590 873e 7ccc 8abe a337 37bf
00000240: 52b1 9ebe 3852 f9be e8ea 94bd f9b5 edbe
00000250: 6d5f 08bf 278c b8be e3f4 aa3d b80d b7be
00000260: ff70 2ebf d070 3dbe cee1 6c3d 3c62 41be
00000270: a9af 48bc cb38 39be f8a5 75be 068b 91be
00000280: d06a 85bf c991 babe ac99 d1bd 32a4 dbbd
00000290: db88 21bf aff9 adbe fa8a ba3e 1877 c7be
000002a0: 3c29 023d 5887 afbe 7ef6 12bd 5b80 05bf
000002b0: 9496 4cbe a002 5bbe a2a8 433e 546b 8fbd
000002c0: 7473 eabd b157 5f3e f4a7 bfbf 90fd e93d
000002d0: 8052 0cbe d44c a73e 49b2 90bc b4c4 56be
000002e0: b80f 9dbe c28e 1bbf 67d7 17bf 9e99 3b3d
000002f0: 3fa2 0fbf 3a3a 75be 0443 ffbe d3ae 853d
00000300: 63e8 7d3e 48b2 ee3c 60ad ebbe d16d f5be
00000310: 716b 8dbe bb8e 19bf b256 3b3e 9291 ebbe
00000320: 8c5b 6cbe 709f a6be 4668 bfba 8b3c 7dbe
00000330: c767 80be 1791 17bf a028 52be b7e1 ca3c
00000340: 4a50 0abe c1b3 a83e dde5 dabd ad5b 743e
00000350: de26 d9bd a646 23be 5dd5 eebd 0b8a db3e
00000360: b769 c33d bfa4 963d ae19 cabc da93 6abe
00000370: 7d8b ffba 9bde 0bbe 8f2d a83e b732 de3e
00000380: 8535 19be fc31 76be c3ca 1fbd 37b3 923c
00000390: 5172 c43d 5d93 52bd 1c2a 2f3e 277e 7c3e
000003a0: 4199 43bd c9b2 813e 383f 07be fd3c 193e
000003b0: b3dc 0f3e 4e47 85be 1a70 9f3e 03b7 21bb
000003c0: 89de 263e 9486 f1bd fd38 95bd bd5c cdbe
000003d0: 7f16 883e 6eab 67be 25ea 00be c21e aa3d
000003e0: ac1a af3e 7fc7 843e 8347 06bd cb7b bf3d
000003f0: 5698 a0bd fcd3 c33e f60c e43d 9258 87bd
