saved_models/RNN_2_layers.pt (torch, 570752 bytes, 11 tensors)

weight f4 [100, 100]
000000 d8 6d 0c c0 de 09 3b 3f e4 61 29 c0 18 e6 d5 3f
       -2.1942043 0.7306193 -2.6465998 1.6710844
000010 1d fe 62 3f 7b f2 0e 3f 0a 5a b5 3c 91 f3 8f be
       0.88668996 0.55838746 0.02213766 -0.28115514
000020 68 87 e8 3d 18 4f 84 3f ab 11 e9 be f7 17 c2 be
       0.11353952 1.0336637 -0.45521292 -0.3790891
000030 e2 d3 c5 3f 8b 94 6a 3f e6 ed 46 bf 44 ff 8c 3f
       1.5455287 0.9163291 -0.77706754 1.1015401
000040 57 a3 61 3f 37 f5 4e 3f c9 20 53 bf fb fb 6a 3f
       0.8813986 0.8084292 -0.824719 0.9179074
000050 38 5c ad 3f 3c 99 1d c0 dc 9e 28 bf f1 ba cb bf
       1.3543768 -2.4624777 -0.658674 -1.5916425
000060 4d 8f 85 3f 0e 7d e5 be 98 87 92 3f a7 42 64 bf
       1.0434357 -0.44821972 1.144763 -0.89164203
000070 6f db a3 3f dd ed c6 3e 56 e6 95 bf 60 b8 a4 bf
       1.2801341 0.3885335 -1.1710918 -1.2868767
000080 0c 12 42 bf f3 d7 ab bf ad 98 96 3e 7a 78 9e be
       -0.7580879 -1.3425277 0.29413357 -0.3095129
000090 95 71 3e bf 03 72 f0 bd 33 a3 f2 3f 85 8c 95 3d
       -0.7439206 -0.11740496 1.8956054 0.073021926
0000a0 d0 e0 62 bc cb c0 f8 3e 1b 21 91 3e eb ff aa bf
       -0.013847545 0.4858459 0.2834557 -1.335935
0000b0 79 ed c0 bd 21 51 5c 3f 3f be 63 bf 86 3f d1 be
       -0.09420294 0.8606129 -0.8896217 -0.40868777
0000c0 96 49 82 3f 63 90 68 3f 42 d8 a0 3f d8 c7 16 3e
       1.0178707 0.90845317 1.2565997 0.14724672
0000d0 12 3d 1d bf 0e 80 81 3d 65 80 e8 3d 20 f3 43 bf
       -0.6142131 0.063232526 0.11352614 -0.76542854
0000e0 69 89 93 be 23 3a 08 3f b4 8e a0 3f 26 4b 68 bf
       -0.28815773 0.5321371 1.254355 -0.9073967
0000f0 85 9b 63 3e 0a c6 91 3f f2 62 25 3f 40 ee 68 3f
       0.22227295 1.1388562 0.64604104 0.9098854
000100 03 07 a3 bf f9 17 d7 be 12 72 e9 bf fc e5 8a 3f
       -1.2736515 -0.42010477 -1.8237936 1.0851436
000110 30 a1 04 3f 4e e0 22 3f 3d 6c c8 bf b4 cc 97 bf
       0.5180845 0.6362351 -1.5658032 -1.1859345
000120 e1 3c 9c 3f 0d 58 29 bf 64 ce 9d 3f a8 4f 45 bf
       1.2206079 -0.6614998 1.232861 -0.7707467
000130 b1 6f c1 3f 36 63 7a bf 91 54 a9 bf 46 3b 37 bf
       1.511221 -0.97807634 -1.3228933 -0.7157482
000140 17 6d e9 bf f7 84 8c 3f 07 2b 80 3e f1 0f dd 3e
       -1.8236417 1.0978078 0.25032827 0.43176225
000150 af 93 e7 bd 31 2d d4 3e d7 bd bd 3f 12 57 9a 3e
       -0.11307465 0.41440728 1.482356 0.30144554
000160 72 5b 8a 3c 5b 22 09 bf de fc 8d be b9 2b 37 3f
       0.016889308 -0.5356805 -0.27731985 0.7155109
000170 5e 28 c2 3e 50 52 f9 be 26 66 ec 3e f8 d8 8b be
       0.37921423 -0.48695612 0.46171683 -0.27313972
000180 ef ce ab 3e d9 a3 52 3f d8 56 69 bd 18 8b 86 3f
       0.33556315 0.8228126 -0.056967586 1.0511198
000190 82 5d 53 3e 6e 24 d9 bf ac f9 9c bf 5f f6 1b c0
       0.20641139 -1.6964242 -1.2263694 -2.4369123
0001a0 d2 36 b0 bf ce 39 0a be 97 6f 11 bf 1f e3 b5 bf
       -1.376673 -0.13498613 -0.568109 -1.4209937
0001b0 92 3e 71 bf 7c c9 cd 3e 3b 3d 52 3f 0f 1d 5f bf
       -0.942361 0.40192783 0.8212468 -0.87153715
0001c0 18 47 28 3f b8 37 2c be 92 7a e6 bf b0 cc d3 3e
       0.6573348 -0.1681813 -1.8006155 0.41367102
0001d0 66 b4 9a be 91 90 80 3f 1a 1d 51 be f9 aa 8a 3f
       -0.30215758 1.0044118 -0.20421258 1.0833427
0001e0 52 2c 0f 3f 06 59 a7 3f 9f 77 32 3e b4 1e c4 3e
       0.55927 1.3074043 0.17428444 0.38304675
0001f0 7d 95 f6 3f 58 5a 5b be a2 d4 03 be 2a fb b8 3f
       1.926437 -0.21421182 -0.12874082 1.4451649
000200 62 f6 1b 3f 7f 5d 59 3f d3 0c 0a be 6a 3c b4 be
       0.60922825 0.8490829 -0.13481455 -0.35202342
000210 e0 4a 08 40 a9 0c 4a 3f 95 a6 7e 3e 70 6c 18 3f
       2.12957 0.7892557 0.24868234 0.5954046
000220 f7 06 29 bf 07 44 10 3f ec 26 96 bf 95 0c 04 bf
       -0.6602625 0.563538 -1.1730628 -0.515817
000230 76 32 0c c0 15 a5 fd 3d 2a 5f f9 3d 43 1b b7 bf
       -2.19058 0.123850025 0.12176354 -1.4305195
000240 ee 41 3b be 2f 40 7a 3f 6c 06 9d bd 48 b4 a5 bf
       -0.18286869 0.97754186 -0.076672405 -1.2945642
000250 58 60 ac bd bf 5d 05 3f 1a 24 48 bf 20 96 12 be
       -0.084168136 0.5209617 -0.78180087 -0.1431508
000260 aa c6 02 be cb 73 75 3e e1 42 76 be 66 b8 3c 40
       -0.12771097 0.23969953 -0.2404895 2.9487548
000270 63 71 cd bf ab f4 86 bf 6b 3a 4c bf d2 ae b6 3f
       -1.6050228 -1.0543417 -0.7977664 1.4272101
000280 5c a9 2c bf f7 56 ac be e3 cb e2 3e a1 e9 ae bf
       -0.6744592 -0.336601 0.44296178 -1.3665048
000290 65 f4 27 c0 ca 7d d7 3f 4b 70 36 be ff 53 8f 3f
       -2.6242917 1.6835263 -0.17816274 1.1197509
0002a0 11 53 41 3f 08 e2 b7 3e c4 dc b8 3f d7 d7 12 3e
       0.75517374 0.35914636 1.4442372 0.14340149
0002b0 49 d3 06 3f b3 5a 77 3d be f4 7e 3f b6 1a a7 3f
       0.52666146 0.060389232 0.99592197 1.3055027
0002c0 f1 5c e1 3e 32 69 9e bc d4 52 4f bf 7d 2e c2 be
       0.4401622 -0.01933727 -0.8098576 -0.37926093
0002d0 99 ff 7e 3f ca 0c 97 3f 50 fe 52 bf 7e 98 84 bf
       0.9960876 1.1800778 -0.824193 -1.0359037
0002e0 fb 1e 41 be b4 52 c1 bf f9 79 f5 3f 12 b5 5b bf
       -0.18859474 -1.5103364 1.9177848 -0.85823166
0002f0 38 8b 8f 3f bb b5 c1 bf 88 65 1e 3f e6 0b 50 be
       1.1214361 -1.5133585 0.61873674 -0.20317039
000300 1c c8 be 3e 41 75 af bf c4 e1 58 bf 3e 79 87 3f
       0.37262046 -1.3707658 -0.8471949 1.0583875
000310 eb 1b 0b be c5 8e c5 bd 05 4b 6a bf 21 31 b8 be
       -0.13584869 -0.09646372 -0.9152072 -0.35974982
000320 3a 0c aa 3f e4 de c8 3f 55 b8 13 40 c2 0c 2c be
       1.3284981 1.5693021 2.3081257 -0.16801742
000330 7d 0c 67 be f8 99 09 3f 93 88 0e c0 04 d7 53 3f
       -0.22563358 0.5375056 -2.2270858 0.8274996
000340 f7 16 f9 3d 0e 68 3a bf 98 e8 ac 3e 62 99 ae bf
       0.12162583 -0.72815025 0.33771205 -1.3640559
000350 b7 01 e8 3e 25 c6 1a 3f 63 aa a7 be df 28 24 bf
       0.45313808 0.60458595 -0.32747182 -0.64124864
000360 07 fc d4 be 70 ee 8f bf 4d 23 08 3f cf 64 fd 3e
       -0.41598532 -1.124464 0.53178865 0.49490973
000370 72 a0 21 bf 44 c5 39 3f a1 4a c3 3f 4a 93 bd 3f
       -0.63135445 0.7256663 1.525715 1.4810574
000380 3b e5 32 3e cb ce 7b be 0c cb 74 bf 24 63 9b be
       0.17470257 -0.24590604 -0.95622325 -0.30349076
000390 ee 25 a2 bf a7 29 c0 3d a7 e9 a2 3f 3f 41 64 3f
       -1.2667825 0.093829446 1.2727555 0.8916206
0003a0 e9 77 1b 3f f0 77 04 3f 75 86 f2 3f 45 2b 04 3e
       0.60729843 0.5174551 1.8947283 0.12907131
0003b0 de 44 f1 be 52 a7 77 bf 1c 05 c6 bc 18 f0 64 3e
       -0.47122854 -0.96739686 -0.024172358 0.22357213
0003c0 a1 69 5d be 62 bd c7 bf 2d 01 a9 bd f0 a6 32 40
       -0.21622325 -1.560467 -0.082521774 2.791439
0003d0 db a1 35 bf 57 6c 40 3f 32 22 80 bf 9d 54 06 c0
       -0.70950097 0.75165313 -1.0010436 -2.0989144
0003e0 90 28 c1 3f c1 88 0b 40 4d 1f af 3f 43 f9 6f bf
       1.5090504 2.1802218 1.3681427 -0.9373972
0003f0 38 47 96 3d 51 ef 44 bf fa 62 3c 3f 1c 2d 37 bf
       0.07337803 -0.7692767 0.73588526 -0.71553206

weight_ih_l0 f4 [300, 100]
000000 92 d4 fe 3e 08 f6 26 bd 68 46 50 be dd 01 23 3e
       0.49771553 -0.040761977 -0.20339358 0.1591868
000010 63 4c df 3e 93 5b cc bc c2 93 9b be a8 1d 52 bc
       0.43612966 -0.02494601 -0.30386168 -0.012824453
000020 30 e3 97 bc 8b 20 1f bf bb 06 a5 be 84 9a 2b 3e
       -0.018540949 -0.6215903 -0.32231697 0.16758162
000030 7b 28 04 3f 19 fc 68 3e 48 58 44 be f4 7e 54 3d
       0.5162427 0.22752418 -0.19174302 0.051878884
000040 dc fb 0e bf c9 dc 5f bd b8 e7 0b 3e a4 9c 31 3e
       -0.55853057 -0.054653917 0.13662612 0.1734491
000050 1c 8d aa bc 12 2b 9c be 8a 3a b7 3e 58 53 8a be
       -0.02081924 -0.3050161 0.3578685 -0.2701671
000060 28 f0 71 be 01 2a 94 3e 7d 5f 4e 3d a4 2e 04 3e
       -0.23626769 0.28938296 0.050384033 0.12908417
000070 f0 07 01 3e 89 b2 ec bc bb f5 f2 3e e2 9d 53 be
       0.12600684 -0.028893726 0.47453102 -0.20665696
000080 9f a0 cc bd e5 0f d5 3d 6e 88 17 3f bb d9 25 3f
       -0.099915735 0.10403422 0.5919255 0.64785355
000090 08 49 a0 be 32 75 3a 3e e1 55 71 3e 89 23 9b be
       -0.31305718 0.18208769 0.23567916 -0.3030055
0000a0 7c 56 df be 02 3b 91 3e dd 3b 64 3e 55 47 18 be
       -0.4362067 0.28365332 0.22288461 -0.14870961
0000b0 d8 e3 5a 3f 3b c5 77 3e eb d1 67 be fc eb 0d bf
       0.8550391 0.24196331 -0.22638671 -0.5543821
0000c0 8e 43 86 3e 9b ec ee be ec fe 9a 3e d8 fb 0c 3e
       0.26223415 -0.4666489 0.30272615 0.13767946
0000d0 a9 b4 e7 3e a9 f3 f1 be eb 93 28 bf c8 c6 8c 3c
       0.4525502 -0.4725621 -0.65850705 0.01718463
0000e0 bc 97 25 3d 49 66 2f bf d9 51 fa 3e 76 e2 68 bd
       0.04042791 -0.6851545 0.4889057 -0.056856595
0000f0 e2 fb e5 bd ee 93 0e bd 08 9a 01 be 06 47 0a bf
       -0.112296835 -0.034809045 -0.12656415 -0.54014623
000100 cc 8f 20 be 6d 5b 83 3d 6a 66 ac 3e 5e 32 97 3e
       -0.15679854 0.064139225 0.33671886 0.29530615
000110 4d c8 b6 3d d7 b5 2c bf c0 01 34 3e a9 f4 ff bd
       0.08924923 -0.67464966 0.17578793 -0.12497837
000120 ef df 24 bf a7 59 9d be ea 3b 13 be 35 44 fc be
       -0.64404196 -0.30732462 -0.14378324 -0.49270788
000130 66 0c 39 3e 5c 41 a8 be a3 f6 d5 3d 9e 68 77 3d
       0.18071136 -0.32862365 0.10447433 0.060402505
000140 2f dd 3d bf d3 a5 87 bc a6 8d ae be 1b 13 4a 3e
       -0.74165624 -0.016558563 -0.34092444 0.1973385
000150 39 38 03 bf 00 4a 98 3e c7 81 d6 be a0 28 c8 3d
       -0.51257664 0.29743958 -0.41895887 0.097733736
000160 cf 7b 23 3f a8 34 2b be d5 45 47 3e ae 01 df bd
       0.6386079 -0.16719306 0.19460233 -0.10888992
000170 c4 13 17 3f 5a 05 a5 be 6c 75 bf 3e 90 72 ba be
       0.59014535 -0.32230645 0.37394273 -0.3641553
000180 d1 7b 05 be ec 36 e7 be a4 63 ee 3e f7 98 86 bf
       -0.13035513 -0.4515909 0.46560395 -1.0515431
000190 53 b4 b0 3e ab ff 73 3f cb fb 3a bf f3 6b f6 bd
       0.34512576 0.95311993 -0.73040456 -0.120323084
0001a0 f9 39 9c 3c 08 24 e7 be db f1 5a bf 61 9f 52 3e
       0.019070612 -0.45144677 -0.8552529 0.2056861
0001b0 14 fb 65 3e aa 9e 14 3e a0 6d 39 3e ae e0 c7 be
       0.2245906 0.1451365 0.18108225 -0.39038604
0001c0 15 f1 a3 3e 74 7d e9 3d 9e 2c 4b be fe 27 dd be
       0.32019868 0.114008814 -0.19841239 -0.43194574
0001d0 b6 ae 20 be fa 39 7e 3d cc e2 b5 3e 90 f9 0f 3f
       -0.15691647 0.06206701 0.35524595 0.5624018
0001e0 a0 2c a7 be 2e 39 43 bf d0 ca ca 3d d7 4e 46 bd
       -0.32651234 -0.76259124 0.09901965 -0.04841503
0001f0 44 11 3b 3f ff 41 3c bf 67 a6 16 3f 69 6d 36 3f
       0.7307322 -0.735382 0.5884766 0.71260697
000200 e1 80 5a 3e c6 7e 7b be 95 29 97 be c1 42 23 bd
       0.21338226 -0.24560079 -0.29523912 -0.039858583
000210 fe 1d 24 bc 7d c4 bd 3d 8a 8d c1 be 99 68 9c bd
       -0.010016916 0.09265993 -0.37803298 -0.07637138
000220 f1 1b da 3d 4d 0c 58 3e 49 46 08 bf 21 2b 43 3e
       0.10649861 0.21098442 -0.53232247 0.19059421
000230 c2 fa 96 bd 63 58 39 bf 92 fb 9c 3f 8c 59 09 3f
       -0.07372047 -0.7240049 1.2264273 0.5365226
000240 1d 14 a7 3e 17 cc 1a 3f de 0a 03 bf 38 af 0e 3f
       0.32632533 0.60467666 -0.51188457 0.5573611
000250 23 6e ad bd 90 64 b6 be fe ed 34 3f a2 95 a2 3e
       -0.084682725 -0.35623598 0.7067565 0.31754786
000260 bd 31 cc 3d ca 94 63 bd 4c a9 dd be 69 84 87 bc
       0.09970424 -0.05556182 -0.43293226 -0.01654263
000270 1b b1 24 3f d1 df c4 3d 43 6d 06 3e 7a cf ff 3e
       0.6433274 0.09613002 0.13127618 0.4996298
000280 46 bf 72 3e 83 39 f4 be 98 59 16 be 67 cb 8a 3e
       0.23705778 -0.47700128 -0.14682615 0.2710831
000290 17 de 4a 3f e5 d7 c0 be 88 20 b7 be c5 1c 74 bf
       0.7924513 -0.37664714 -0.35767007 -0.953564
0002a0 9a 2e 68 bf 63 58 00 bf ce db 34 3e 6d c1 be 3e
       -0.9069611 -0.5013487 0.17661974 0.37256947
0002b0 7f 62 41 be 83 20 1c be e9 14 f2 be 42 87 68 be
       -0.1888523 -0.15246777 -0.47281578 -0.22707847
0002c0 4c e4 31 be 7d c4 54 be c5 66 44 be 2d ff 51 3e
       -0.17372245 -0.2077808 -0.19179828 0.20507498
0002d0 73 4c a5 bd a5 ff fb bc 0a 52 01 bf fa 7f 0e 3f
       -0.08071222 -0.03076155 -0.50515807 0.55664027
0002e0 ab da 3c bf 68 1c bd be 9b 2e 1a bf 9f cb a4 3d
       -0.7377116 -0.36935735 -0.60227364 0.0804665
0002f0 d0 9e 02 3f ed 1a 02 3f 71 70 66 3e 4d fa 8e 3e
       0.5102358 0.50822335 0.2250383 0.2792534
000300 b7 cf 09 3f 13 81 16 3f 8c 82 04 3f 8c f2 89 be
       0.5383257 0.587907 0.517617 -0.2694286
000310 39 1a 75 be a5 a6 82 bd d3 4b df be 69 57 a6 3e
       -0.23935784 -0.06379441 -0.43612537 0.32488564
000320 9a dd 32 bf 81 20 7d bf c0 18 55 3d 14 3c 41 3f
       -0.6986939 -0.9887772 0.052025557 0.75482297
000330 8f 7c 89 be e5 40 b3 be d9 3e 60 3f a0 17 9b 3e
       -0.26852843 -0.35010448 0.875959 0.30291462
000340 2f 8d 06 bf 8b a6 65 3f d1 ca 96 be a1 ac 58 be
       -0.5255918 0.8970725 -0.29451612 -0.21159603
000350 23 8f 21 3f 23 b3 08 3f c2 90 9c be 73 29 04 3e
       0.63109034 0.5339834 -0.3057919 0.12906437
000360 91 1a f8 3c 11 42 90 be 36 da 8b bd 38 b9 ba 3e
       0.030286105 -0.28175405 -0.0682873 0.36469436
000370 35 8c 20 be ca 65 d0 3e e8 1d 61 bd 11 51 60 be
       -0.15678485 0.4070266 -0.05496016 -0.21905924
000380 fb 09 40 bf 5e 55 58 be a1 1d 6a be d9 a6 52 3d
       -0.7501523 -0.21126315 -0.22862865 0.05142865
000390 f8 82 a9 3e 02 da 51 3f bd 50 4b 3f 47 01 2b be
       0.33107734 0.8197328 0.7942007 -0.16699706
0003a0 17 2b 97 3d fe 7f c5 bd a6 2e 59 3f 9e 25 df bb
       0.073812656 -0.09643553 0.84836805 -0.0068099042
0003b0 c7 56 6b bf 05 08 56 bc c9 3d 85 3e 71 aa f6 3e
       -0.91929287 -0.013063435 0.260237 0.4817691
0003c0 97 12 4e bf 84 08 75 3f a0 7c bf 3d ac ca df 3e
       -0.80497116 0.9571612 0.09349942 0.43709314
0003d0 5f e5 b0 bd 94 04 9e be 5e 37 81 3f e1 f6 3e bf
       -0.08637499 -0.30862868 1.0095022 -0.7459546
0003e0 15 da 14 3f f8 af 04 bf 93 93 2b 3f 10 59 8b be
       0.58145267 -0.51831007 0.67022055 -0.27216387
0003f0 74 2f 67 3e 50 4b 31 bf 08 8a f9 3e e9 27 33 bf
       0.22576696 -0.6925554 0.48738122 -0.69982773

weight_hh_l0 f4 [300, 100]
000000 92 88 61 3e 05 02 1a be c2 17 09 bf 3d e3 2e bf
       0.22024754 -0.15039833 -0.53551877 -0.6831549
000010 09 12 2d 3f 48 4e e2 be 5c d2 95 3e 18 a4 b7 3d
       0.67605644 -0.4420035 0.29262054 0.08966845
000020 34 49 23 3f 0c db ad be 81 a9 e1 be 77 dc 05 3f
       0.63783574 -0.33956182 -0.44074634 0.5228953
000030 b5 cb 39 bf ea 1f 88 be f5 d0 5a be 33 4b 89 3f
       -0.7257646 -0.26586848 -0.21368773 1.0726074
000040 98 ec 59 bf fc 49 f2 be 4d 91 b8 3c 76 67 77 3f
       -0.8512664 -0.4732207 0.022530222 0.96642244
000050 5f 58 00 bf 91 70 37 bf a5 41 8d 3e f2 64 29 3e
       -0.50134844 -0.7165614 0.27589145 0.16542414
000060 92 00 d6 3e b5 cd 65 bd 89 a8 2f 3d 16 f7 59 3f
       0.4179731 -0.05610438 0.042885337 0.8514265
000070 04 a5 42 bf c7 c9 85 be 2f 5e 00 be ed 66 1d bf
       -0.76033044 -0.26130506 -0.12535928 -0.6148518
000080 c5 f9 e0 be 53 55 0b 3f 13 d0 60 be ef c2 8c 3e
       -0.4394056 0.5442707 -0.21954374 0.27492473
000090 90 44 f2 3e 7a 43 80 3e 11 bd 8d 3e bc a8 47 3c
       0.47317934 0.2505148 0.2768331 0.0121862255
0000a0 ec 15 cb be d8 6d 1a 3f c2 c6 9e 3e 51 0a fc 3d
       -0.39665163 0.6032386 0.31011015 0.12306655
0000b0 d0 4c 50 be 99 2f 4d be fc 0a 9b be 6e ab d2 bd
       -0.20341802 -0.20037688 -0.30281818 -0.10286604
0000c0 4f 4d cf 3d 1a b2 49 bf f7 28 19 bf d1 58 06 be
       0.10122167 -0.78787386 -0.5982813 -0.13119818
0000d0 4e 74 b0 3e e8 0f 3d 3e 04 84 92 3e 39 df 49 3f
       0.34463733 0.18463099 0.28616345 0.78856236
0000e0 ce 39 2d bc a4 d1 b4 3e 60 be 30 3e 57 11 ba bd
       -0.010572864 0.35316193 0.17260122 -0.090853386
0000f0 b9 82 fa bc 8a 59 75 3e 45 2c 3f bf 75 1e 9c 3e
       -0.030579912 0.23959938 -0.74676925 0.30491987
000100 f2 ac 88 3f 5b f3 60 bf bd bf 74 bf bc fe 41 3e
       1.0677779 -0.8787133 -0.9560507 0.1894483
000110 bb db 5e bf 2e f2 ce 3e eb c9 22 bf 0e 8b 66 3d
       -0.8705403 0.40419143 -0.6358935 0.056284957
000120 f5 07 0f be 3e 4d df 3d 4c 03 46 bd 99 ac 2a be
       -0.13967879 0.10903405 -0.048342988 -0.16667403
000130 08 c7 da 3d fd dd a1 bf 9b 05 33 3f 8c 0e f2 3d
       0.106824934 -1.264587 0.6993043 0.11819181
000140 c5 df 04 bf 04 4c 8c be 29 81 ca 3e a6 57 ad 3d
       -0.51903945 -0.27401745 0.39551666 0.08463983
000150 9a 2b 0e be 3b 0e 39 bf dd 09 9f be 2e 3e 32 3f
       -0.1388382 -0.7228734 -0.31062213 0.6962613
000160 74 ff 1f be 73 37 e1 3e 37 44 76 bf 12 30 b6 3e
       -0.15624791 0.43987617 -0.9619784 0.3558355
000170 5f c7 84 bd 4e 3f f3 bc 4a 79 01 bf e3 e7 ca 3d
       -0.064833395 -0.029693272 -0.505757 0.0990751
000180 b5 f3 0e 3f 01 e3 2f bf 6a b5 96 be db 75 53 be
       0.5584062 -0.68705755 -0.29435283 -0.20650427
000190 40 d3 cc 3d ed f6 b5 3e cb d2 8a 3e 06 8d 6f bf
       0.1000123 0.35539952 0.27113947 -0.9357456
0001a0 f6 eb e2 be e0 14 55 be d5 94 5a bf a5 89 0f bf
       -0.4432065 -0.20808744 -0.8538335 -0.56069404
0001b0 73 f8 e5 bd 02 43 4d bf cc 03 a9 3d 99 a3 cd 3e
       -0.112290286 -0.8018037 0.08252677 0.40163878
0001c0 87 7f f7 3e aa ce ec be 68 fe 14 3f 22 6d 1a be
       0.48339483 -0.46251422 0.58200693 -0.15080693
0001d0 56 20 0c bf ce b3 9c bf b4 c5 d2 3e 24 cc 92 3e
       -0.5473684 -1.2242372 0.4116646 0.28671372
0001e0 92 3f 6c be 75 02 88 3e ee ab c7 3e d4 e8 dd be
       -0.23071125 0.26564375 0.3899836 -0.43341696
0001f0 3d 90 1f 3f 20 90 ef be b0 5c 7d be 49 92 59 bf
       0.62329465 -0.46789646 -0.24742389 -0.8498884
000200 ef e1 b3 bf 43 79 62 3e bc e8 04 bf 07 48 4a 3f
       -1.4053324 0.2211657 -0.51917624 0.79016155
000210 f4 ac 16 bf 62 d0 e5 bd 86 2f c3 3c d9 5d 3c 3e
       -0.58857656 -0.112213865 0.023826372 0.18395175
000220 03 de 7d 3d 91 8a 0c bf d2 b5 6d 3e c2 86 5f 3f
       0.061979305 -0.54898936 0.2321389 0.87315
000230 99 f4 10 bf 30 95 5d be 82 0d d2 be 5b c5 47 3f
       -0.56623226 -0.21638942 -0.4102593 0.78035516
000240 ac d0 48 3e 09 c1 7a 3c c0 63 36 bd 22 ef 3a bf
       0.19610852 0.015304812 -0.044528723 -0.7302114
000250 69 65 23 3e 65 f9 9d 3f 9b dd ec 3e 3d 97 de bc
       0.15956654 1.2341734 0.46262822 -0.027171725
000260 9b 0a 71 be 8f d0 4d 3e 6e ae 91 3f a6 eb e9 bb
       -0.23539202 0.2009909 1.1381357 -0.007138687
000270 79 59 cf 3d 4c 21 49 3e 31 f5 49 be 20 23 6a b8
       0.101244874 0.19641608 -0.1972244 -5.582266e-05
000280 60 b4 84 3f 4a 70 a7 bd 0c 99 1b 3e 9a 75 fe be
       1.0367546 -0.08175714 0.15195101 -0.49699098
000290 f3 fa ee be f1 22 43 3f 2a 4f 98 be 07 5c 91 be
       -0.46675834 0.7622519 -0.29747897 -0.28390524
0002a0 a9 a8 92 3e c2 f5 45 3e 3f 2a 42 3f a7 75 40 3f
       0.28644302 0.1933203 0.7584571 0.75179523
0002b0 fd de 75 3d 2e 62 fd 3d 8a 6b 05 3e e3 16 f9 3e
       0.06002711 0.12372242 0.13029304 0.48650274
0002c0 61 fb fd be 76 bc bc bd 6e 4b 02 bf 0e 50 3c 3f
       -0.4960585 -0.092156336 -0.50896347 0.73559654
0002d0 1b 8c dc be e6 f2 d3 3e df fb 7c 3e dc dd 85 be
       -0.43075642 0.41396254 0.24705456 -0.26145828
0002e0 08 ea cd 3e 9b 8a cb bd 86 f5 76 3d 74 76 55 bf
       0.40217614 -0.09938546 0.060292743 -0.8338387
0002f0 f5 60 48 bf 09 ee e7 3e 09 d3 a3 3d 05 11 80 3f
       -0.78272945 0.45298794 0.07999236 1.0005194
000300 36 cf 8a 3d 8e 9f a5 bf c0 4d a0 3e 94 0f 69 bd
       0.067778036 -1.2939317 0.3130932 -0.056899622
000310 d6 4c 16 bf 85 19 45 bf 80 2b 61 bf 88 7e 58 3e
       -0.5871099 -0.76992065 -0.87957 0.21142018
000320 d4 26 c2 be 72 bb a7 be 99 2c e1 be 36 a2 df be
       -0.37920249 -0.32760197 -0.43979338 -0.43678445
000330 1c 8a 06 bf 22 44 18 3f 84 d6 e9 3e 93 bd 95 be
       -0.5255449 0.5947896 0.45671475 -0.29246196
000340 2f e2 43 3f ac 4e 2e bd f1 13 3c 3f f8 b8 22 3f
       0.76517004 -0.042555496 0.7346793 0.6356349
000350 67 39 e7 3e 7d 4f f7 3e 4d 33 7a bf cc e2 58 3f
       0.45160982 0.48302832 -0.9773453 0.84721065
000360 49 30 eb 3d a5 5b e8 3d af 3a 4c bf cd e1 11 bf
       0.11483819 0.11345605 -0.79777044 -0.5698517
000370 a5 9b 62 3f e6 40 21 be d8 a1 50 bf d0 a6 1c bf
       0.88518745 -0.15747413 -0.81496954 -0.61192036
000380 be 68 02 3f a2 28 57 be 29 89 65 3e 34 c3 52 be
       0.50941074 -0.21011594 0.22415604 -0.20582277
000390 6f ba 71 3e d3 8b d0 bd 7b 3d b7 3e ce ae 2b 3e
       0.23606275 -0.10182919 0.35789093 0.16765901
0003a0 17 9a 0e bf 77 76 c4 bd ac d2 ca be 48 e5 f9 3e
       -0.5570387 -0.09592908 -0.39613855 0.4880774
0003b0 cc fa 90 bd 4e 70 06 3e 94 c8 6d bc 6f bd 7e be
       -0.07079086 0.13128778 -0.014513154 -0.2487695
0003c0 46 ef 4d 3e 3a 2a 5a 3e ac 26 44 be 31 39 0a bd
       0.20110807 0.2130517 -0.19155377 -0.03374595
0003d0 07 8e 1e bf d7 d9 b0 3e b2 14 12 bf da ff 3b 3f
       -0.61935467 0.345412 -0.5706283 0.73437274
0003e0 b3 cb e1 3e 40 68 26 be 97 bc 2b 3e f5 90 fc be
       0.44100723 -0.16250706 0.1677116 -0.49329343
0003f0 1b b6 91 be e8 ce 30 bf 70 28 c7 3d 64 db 1f bf
       -0.28459248 -0.69065714 0.0972451 -0.6244414

bias_ih_l0 f4 [300]
000000 5c 12 9a 3d ba 66 76 bd c7 7d b4 be ea bf 18 be
       0.07523033 -0.06015656 -0.3525221 -0.1491696
000010 74 87 6b be 3f 5b 81 bd f9 22 11 bf ae e3 bf bd
       -0.2300089 -0.06316232 -0.5669399 -0.09369598
000020 1e a5 bf be ab 86 3b bd 87 5d 0b bc 2f 73 dd bd
       -0.37430662 -0.045782726 -0.008506185 -0.10812985
000030 16 aa 13 be 75 21 80 3b 14 ec a9 3e 0c d6 c8 be
       -0.14420351 0.0039102384 0.33187926 -0.39225805
000040 ea ed b6 3c c3 b8 07 be b7 a6 c3 3d d2 63 c7 bd
       0.022330243 -0.13254075 0.09553283 -0.09735836
000050 cd e3 b1 be 99 55 cf be 27 53 a6 be b8 3c 29 be
       -0.3474411 -0.40494993 -0.32485315 -0.16527069
000060 e7 5d 49 be 0a 42 bb be 79 a6 50 3e 9a f9 60 be
       -0.19664727 -0.3657382 0.20376004 -0.21970215
000070 01 bf be 3d 80 97 c6 bd 72 03 da bd 7d 1d dc bc
       0.09313775 -0.09696865 -0.106451884 -0.02686953
000080 48 6c 9e be 49 b3 0c bf 1b 8f 17 be 0a f3 b2 bd
       -0.30941987 -0.5496107 -0.14800684 -0.08737762
000090 90 49 65 3d 2e 17 02 bf 39 e7 16 bf 42 06 ba 3e
       0.055978358 -0.5081662 -0.5894657 0.363329
0000a0 12 1a 1a be 5b ab 55 3c 07 a6 78 be 6f 87 67 be
       -0.15049008 0.013041343 -0.24282084 -0.22610258
0000b0 17 cc 89 be 11 0f d0 3e 65 ae 87 be ae 71 9c be
       -0.2691352 0.40636495 -0.2650024 -0.3055548
0000c0 a9 20 b8 be 22 b4 17 3e 4d bf 26 bf df 5a d3 be
       -0.35962418 0.14814809 -0.6513565 -0.41280267
0000d0 96 a8 a1 be 28 be 51 be c4 3a 0f be 1b 49 20 ba
       -0.31573933 -0.20482695 -0.13987261 -0.0006114409
0000e0 45 e0 a0 3e 68 09 c9 3d ec 3a 9b bd 90 ca 69 3d
       0.31421104 0.09816247 -0.07579598 0.057077944
0000f0 84 bb e4 bb 67 8a 47 3e 1a b1 21 be dc a0 ba be
       -0.0069803614 0.1948639 -0.15790215 -0.3645085
000100 94 ac 8e be 06 05 02 3e 8f 8a 37 bd 3c fe 64 bb
       -0.27866042 0.12697229 -0.044809874 -0.0034941575
000110 cc 90 26 be b1 4b 9f bd 62 74 83 be fa cb 03 3e
       -0.16266173 -0.07778109 -0.2567473 0.1287078
000120 b2 cd 40 3e 8f b6 19 be 6c ee 7b be 94 4a e8 bd
       0.18828467 -0.15011047 -0.2460267 -0.1134235
000130 49 5e 1b be b0 da 2c be df e6 5a bc b7 6c 05 bd
       -0.15172686 -0.16880298 -0.013360708 -0.03257438
000140 0b e7 9d bd a6 d7 05 be 24 50 52 be a0 64 19 be
       -0.077100836 -0.13070545 -0.20538384 -0.14979792
000150 ad 9b 4b 3e be 5a 88 be a6 42 b9 bd a3 88 ac 3d
       0.19883604 -0.2663173 -0.09045915 0.08424499
000160 18 90 fc be bf 59 97 be 17 a4 d5 bd 3b 13 8a be
       -0.49328685 -0.29560658 -0.10431688 -0.26967797
000170 26 70 07 be c8 8b 47 be 98 c2 53 be 19 e1 cc be
       -0.13226375 -0.19486916 -0.206797 -0.40015486
000180 2c 26 5c be f6 a9 d7 be 9e c9 3e be 82 c8 ac be
       -0.21498936 -0.42121857 -0.18631598 -0.33746725
000190 af b4 15 bf dc a9 ab be ff cf 1c bf 37 0c 19 bf
       -0.58478826 -0.3352803 -0.61254877 -0.59784263
0001a0 2f 25 39 bf 48 7f 24 bf 0a a9 5c bf 38 79 c4 be
       -0.7232236 -0.64256716 -0.86195433 -0.38373733
0001b0 0b 96 5f bf 34 a2 2c bf 4d da 19 bf 5d f1 a2 be
       -0.8733832 -0.67435 -0.60098726 -0.3182477
0001c0 84 10 3f bd 1c 9a bb be 42 f2 5b bf 20 b7 01 bf
       -0.04664661 -0.36641014 -0.8591653 -0.5067005
0001d0 bb 1f bd be 41 9c 8b be 7a dd 5f bf ae b6 05 bf
       -0.3693827 -0.2726765 -0.8744732 -0.5223187
0001e0 12 37 48 bf 28 18 66 bf 94 ae 76 bf c8 39 8f be
       -0.7820903 -0.8988061 -0.96360135 -0.2797377
0001f0 71 3d 1b bf 0b c8 17 bf b5 d5 da be 4e 62 b5 be
       -0.6064063 -0.59289616 -0.4274117 -0.35426563
000200 82 dc 74 bf 44 be 80 bf 3b 10 91 3d 61 89 19 bf
       -0.9564897 -1.0058064 0.07083174 -0.5997525
000210 6f c4 16 bf 71 21 ae be 24 f1 8b be d1 06 f0 bd
       -0.58893484 -0.3400989 -0.27332413 -0.1172005
000220 cc 49 8f be 40 33 b3 be c2 0c 83 bf af 74 03 bf
       -0.2798599 -0.35000038 -1.0238268 -0.5134992
000230 bf ba d7 be 0e f2 ca be 96 26 2a bf b9 73 20 bf
       -0.42134663 -0.39637798 -0.6646513 -0.6267658
000240 de 71 74 be 57 cd cb be 57 38 e8 be 57 c7 16 bf
       -0.23871562 -0.398051 -0.45355484 -0.5889792
000250 21 5a ad be 77 b7 ea be eb 30 c2 be 2b 61 fa be
       -0.33857825 -0.45843098 -0.37927946 -0.48902258
000260 46 e0 e4 be 37 3d 09 bf c9 2c ea be 37 63 fb be
       -0.44702357 -0.5360903 -0.45737293 -0.49099132
000270 bf 6f e9 be 4c 91 4f bf 92 4a 55 bf 19 e0 97 3d
       -0.45593068 -0.8108108 -0.8331691 0.0741579
000280 b2 23 b8 be b5 ec c0 be 69 1f 94 be c5 91 46 bf
       -0.35964733 -0.37680593 -0.28930214 -0.77566177
000290 3d c3 c3 be d9 80 ab be 49 e7 6d be 09 cd 48 bf
       -0.38234892 -0.3349674 -0.2323276 -0.7843786
0002a0 45 68 1e be 75 47 34 3e f9 ec bf be 09 7c 44 bf
       -0.15469463 0.17605384 -0.37485483 -0.7675176
0002b0 bf 2c ed 3d 4a 36 07 bf 29 10 bf 3d bb 3f 3a bf
       0.115808 -0.52817214 0.09329254 -0.72753495
0002c0 7a 24 c2 3c e3 30 d4 be ab 43 68 bf a0 e7 e3 be
       0.023699034 -0.41443548 -0.90728253 -0.44512653
0002d0 03 28 cf be 04 d9 4e be 58 4f 37 bf 3f 42 ad 3c
       -0.40460214 -0.20199972 -0.71605444 0.021149753
0002e0 6b 05 72 be 55 9e f1 be de d2 65 bf 7b 31 2e bc
       -0.2363488 -0.4719111 -0.8977488 -0.010631914
0002f0 5a 1b 1c bf dc f4 3d bf 6e c6 41 be 85 34 2b bf
       -0.60979235 -0.7420175 -0.18923351 -0.66877013
000300 5d 6b 40 be de 94 fa be 01 88 26 bf 3f 63 bc be
       -0.18790956 -0.48941702 -0.65051275 -0.3679447
000310 35 95 69 bf f5 2b d7 be fc 36 04 bf 13 62 fa bd
       -0.91243297 -0.42025724 -0.516464 -0.122257374
000320 b3 3d c3 3e 58 0b 2d 3e 8a b2 9f 3d 53 50 b7 bd
       0.3813301 0.16898859 0.077977255 -0.089508675
000330 b4 55 19 3e d9 6a 61 be 33 11 92 3d 1a 50 3e be
       0.149741 -0.22013415 0.07132187 -0.18585244
000340 e9 f6 63 be c5 ed 81 3e 96 07 3f be b5 3b fd bd
       -0.22262157 0.25376716 -0.18655238 -0.12364904
000350 cc 11 83 38 0b 37 f7 be df 6f 84 3c dd 27 37 be
       6.249882e-05 -0.48284182 0.016166626 -0.178863
000360 2e 3d 78 3c b0 37 fe bd 92 02 a5 be d5 38 0b 3c
       0.015151305 -0.12412965 -0.32228523 0.0084974365
000370 da e6 51 be 3e 5f 82 3d d8 7e 83 3d cd 4c 54 3e
       -0.20498219 0.06365822 0.06420678 0.20732422
000380 d6 1a 71 be 58 3c e8 bd 1a 7a 63 3d d6 79 a9 bd
       -0.23545393 -0.11339635 0.055536367 -0.082751915
000390 1d 88 1f be 76 8e cf be c5 45 10 be 0e 6b 80 3d
       -0.15579267 -0.40538377 -0.14089115 0.06270419
0003a0 f5 78 d5 bd 1f c2 70 3d e8 ef e4 3e 90 28 3b 3b
       -0.10423461 0.05877888 0.44714284 0.0028558113
0003b0 9b 4c 8b 3e 9c 34 f0 3d 7f 28 44 bd 27 cf 59 be
       0.27206883 0.117287844 -0.047890183 -0.21270429
0003c0 25 16 fe bd 4e c9 3d be ad cd c3 be 7a 08 2b 3e
       -0.124065675 -0.18533823 -0.38242856 0.16702452
0003d0 7c 9b 73 bd 77 22 7e 3d db d6 b8 bd b9 a0 0c be
       -0.059474453 0.062044587 -0.090253554 -0.13733186
0003e0 22 22 b9 bd 82 5f 63 bd 9f f4 2b be b2 59 d7 3d
       -0.090397134 -0.055511005 -0.16792534 0.10515155
0003f0 90 5f 26 3e 6e a2 ab be f4 0e d2 be 37 95 4a 3e
       0.16247392 -0.33522362 -0.41027033 0.19783483

bias_hh_l0 f4 [300]
000000 b8 fb 2c 3e 80 0b 9e bd d7 f7 c4 be 4e 8c 14 3b
       0.16892898 -0.07717037 -0.38470337 0.0022666636
000010 84 a5 45 be 49 a4 85 3d a5 4a f0 be 1b 5e 8f be
       -0.1930142 0.065254755 -0.4693195 -0.28001484
000020 7c b5 fc be 35 e9 12 3d 08 63 24 bc bc bd ec 3b
       -0.49357212 0.035866935 -0.0100333765 0.0072247665
000030 8d 93 a2 be 17 5f bd bd a0 ea 03 3f 3c be a8 be
       -0.31753197 -0.092466526 0.51529884 -0.32957637
000040 c4 08 e5 bc e7 1e 86 be 7b 88 c6 3d f6 1a 19 be
       -0.027958281 -0.26195452 0.09694 -0.14951691
000050 1d 19 ac be 00 9d ab be c3 dc 99 be 26 e8 31 bb
       -0.3361291 -0.3351822 -0.3005124 -0.0027146428
000060 43 15 79 be e0 09 b2 be b2 19 49 3d 91 4f 89 be
       -0.24324517 -0.3477316 0.04909677 -0.26818517
000070 93 e5 01 3e f0 55 39 be 12 ce bf bd e0 fc 22 3c
       0.12685232 -0.18099189 -0.09365477 0.009947985
000080 e6 3e bb be a3 b5 0b bf 37 f6 95 be 6b bb 50 be
       -0.36571425 -0.5457403 -0.2928941 -0.20383994
000090 f7 fa 78 bc 07 df 23 bf 15 de 22 bf 7e f7 b7 3e
       -0.015196553 -0.6401219 -0.6362012 0.3593101
0000a0 54 95 41 be bb 93 a2 bd 35 74 3e be dd c1 86 be
       -0.1890462 -0.079383336 -0.18599017 -0.2631978
0000b0 67 aa 6c be 3f d8 c1 3e 56 35 70 be 0a ea 4d be
       -0.23111878 0.37860295 -0.23457846 -0.2010881
0000c0 2f 27 be be 96 3f 98 3d e3 05 26 bf 0b 64 dc be
       -0.3713927 0.07434003 -0.6485273 -0.43045077
0000d0 1a 27 bb be 27 fb ab be ef 6a 1f be 68 50 f2 bc
       -0.3655327 -0.33590052 -0.15568136 -0.029579356
0000e0 bf de de 3e 71 70 4b 3d 20 13 bd bd 51 d9 90 3c
       0.43529317 0.04966778 -0.092321634 0.01768175
0000f0 ea d3 a4 3c e5 6a 20 3e 40 4a a5 b7 ce a2 9f be
       0.02012058 0.15665777 -1.9704108e-05 -0.31178898
000100 bc b6 38 be 03 2f b6 3c d2 69 b9 3a e2 a5 0b 3d
       -0.18038458 0.022239214 0.0014145917 0.034093745
000110 53 4b 08 bd 30 aa bb bd a6 94 8e bd 1d 2f 03 3e
       -0.03327496 -0.0916332 -0.06961946 0.12810941
000120 7a cf 01 3e e3 4b e2 bc 6e bd 06 be 5b 9e 12 be
       0.12676802 -0.027624076 -0.13158199 -0.1431822
000130 b7 0e 48 be 3b 04 f2 bd 13 a3 36 3c 6a c9 05 bd
       -0.19536863 -0.11817213 0.011147278 -0.032662787
000140 47 89 16 be d5 1e 44 be b3 38 7e be f6 62 e1 ba
       -0.14700805 -0.19152386 -0.24826317 -0.001719563
000150 55 6d 69 3d 4c 5a 44 be 90 9d 80 bd d3 77 a9 3d
       0.056989033 -0.1917507 -0.06280053 0.08274808
000160 d2 be e1 be 4b fa 89 be b1 04 3c be b2 15 5c be
       -0.44090897 -0.2694877 -0.18361165 -0.21492651
000170 22 0e 4a be 1d fe 20 be 31 23 f6 bd cb b4 93 be
       -0.19731954 -0.15721937 -0.12018431 -0.28848872
000180 8a a5 18 be 22 b3 e2 be d0 ae 0a be b8 54 8b be
       -0.14906898 -0.44277292 -0.13543248 -0.27213073
000190 6b d5 13 bf fe 34 64 be 7b f8 37 bf 07 95 29 bf
       -0.57747525 -0.2228584 -0.71863526 -0.6624302
0001a0 2b e3 4b bf d5 dc 09 bf b2 a2 46 bf c4 c1 ab be
       -0.79643506 -0.5385259 -0.77592003 -0.3354627
0001b0 61 ce 38 bf 6b 75 34 bf 53 3a 36 bf 45 fb ee be
       -0.7218991 -0.70491666 -0.71182746 -0.46676078
0001c0 9a 53 11 be fe 85 d6 be 4c 2f 5d bf 59 4a 00 bf
       -0.14192048 -0.41899103 -0.86400294 -0.50113446
0001d0 96 a0 03 bf 8d e3 30 be e8 9c 4c bf 6a 4b 08 bf
       -0.5141691 -0.17274304 -0.7992692 -0.5324007
0001e0 25 eb 49 bf e8 8d 73 bf bf 08 87 bf 52 7f a2 be
       -0.7887443 -0.95138407 -1.0549544 -0.31737763
0001f0 d7 f1 1c bf 5d fc 08 bf f9 c0 12 bf c0 a2 91 be
       -0.6130652 -0.53510076 -0.573257 -0.2844448
000200 14 94 70 bf c4 b5 79 bf 82 42 1b 3d d7 33 21 bf
       -0.9397595 -0.9754298 0.037905224 -0.62969726
000210 47 9e 12 bf df 2e d0 be 9d 3b 19 be 6d d5 24 bd
       -0.5727276 -0.4066076 -0.14964147 -0.0402426
000220 5e 88 d8 be f6 a4 c9 be 26 50 7a bf 59 17 04 bf
       -0.4229154 -0.39383668 -0.97778547 -0.51598126
000230 9f 4b b0 be 68 61 7d be 83 39 1c bf 4c ba ee be
       -0.34432694 -0.24744189 -0.61025256 -0.46626508
000240 d8 57 52 be 7f 41 ca be c1 56 d0 be d7 a9 0c bf
       -0.20541322 -0.39503095 -0.40691188 -0.54946655
000250 3d 04 d0 be 58 9e 04 bf e1 f6 e7 be 85 7b d0 be
       -0.40628234 -0.51804113 -0.4530554 -0.40719238
000260 c4 c0 99 be 23 f1 cd be fb 67 da be 88 9f b5 be
       -0.3002988 -0.40223035 -0.42657456 -0.35473275
000270 b9 f2 d0 be 92 f2 35 bf 21 39 29 bf 4c 81 92 bd
       -0.40810183 -0.7107326 -0.66102797 -0.07153568
000280 7c ca df be 29 75 c5 be 17 38 a7 be 9b 4f 41 bf
       -0.4370917 -0.3856595 -0.3265998 -0.75512093
000290 23 98 c5 be bc f2 64 be 07 48 1a be c3 31 51 bf
       -0.38592634 -0.22358221 -0.15066539 -0.81716555
0002a0 35 3d 65 bd ee c3 39 3e 23 75 c1 be 01 a8 3c bf
       -0.055966575 0.18141147 -0.3778468 -0.73693854
0002b0 97 7f 0d 3e 54 68 fd be 06 f7 83 3d 49 32 5e bf
       0.13818203 -0.4949366 0.064436 -0.8679548
0002c0 52 15 81 3d 5b f7 b1 be 3d 45 5e bf 38 f5 c4 be
       0.06302895 -0.3475903 -0.868244 -0.38468337
0002d0 08 c2 06 bf 48 9c 90 be ed 0e 42 bf 29 49 12 be
       -0.5263982 -0.28244233 -0.75804025 -0.14285721
0002e0 9a de 87 be 43 65 d3 be d8 c1 45 bf bd 44 69 3c
       -0.2653702 -0.41288194 -0.7724891 0.01423758
0002f0 e0 76 20 bf 38 71 48 bf f8 2f 67 be 4b 13 3e bf
       -0.6268139 -0.7829776 -0.22576892 -0.7424819
000300 08 50 8d be 3c 49 e8 be 0f f3 3e bf 65 b4 de be
       -0.27600121 -0.45368373 -0.7458963 -0.43497005
000310 b3 39 83 bf 59 49 c1 be 61 ab 23 bf 07 1f 88 3d
       -1.0251983 -0.37751272 -0.6393338 0.06646543
000320 db 54 e4 3e 61 90 1d 3e 03 9e f5 be 67 45 88 bd
       0.4459599 0.15387107 -0.47972116 -0.066538624
000330 db e3 85 3e 44 38 39 be 64 89 ac be 29 08 de be
       0.26150402 -0.1808787 -0.3369857 -0.433656
000340 42 bf 80 be 19 ef 42 3d 5b e8 99 be 7c 9e c6 bd
       -0.25145918 0.047591303 -0.30060086 -0.09698197
000350 a3 df 43 3d bd 73 76 be 6d 0d 4f be 28 59 ff 3d
       0.0478207 -0.24067588 -0.20219965 0.12468177
000360 c3 88 3c 3d 84 0c 84 be 7c 30 2c be 7a 9d 3e be
       0.046028864 -0.257908 -0.1681537 -0.1861476
000370 78 94 bf be c2 39 07 3e ba 07 b7 bd 0a c2 00 3f
       -0.3741796 0.13205627 -0.089370206 0.5029608
000380 82 b9 71 3e 6c 13 2b bd d3 04 a7 3e 2b 68 2f bf
       0.23605922 -0.04176657 0.32620868 -0.6851832
000390 38 07 bb bd 1c 19 40 be b7 e7 5f be 94 70 e1 3e
       -0.09132236 -0.18759578 -0.21865736 0.44031203
0003a0 8b 55 00 3e 6b d0 0e be db dd e8 3e 6b 9c f0 bc
       0.12532632 -0.13946693 0.45481762 -0.02937146
0003b0 ad 22 61 3b 35 25 71 be 43 b9 55 3f d6 31 9b bd
       0.0034352944 -0.2354935 0.8348581 -0.07577865
0003c0 89 da b8 be 6d 0e c5 be c8 6f 73 be b7 a9 65 3e
       -0.3610423 -0.38487568 -0.2377311 0.22428022
0003d0 4a f8 b1 be 44 7f ce bc e9 ac 09 3e e8 d7 c6 3b
       -0.34759742 -0.02520717 0.13444866 0.0060682185
0003e0 4d 5d 67 be cd 31 71 3d d6 49 52 be fe 88 f3 bd
       -0.22594185 0.058885384 -0.20535979 -0.118913636
0003f0 7d ff 07 bd ae b2 c9 be 20 98 7b 3d 8e 7c 9f be
       -0.033202637 -0.39394134 0.061424375 -0.31149715

weight_ih_l1 f4 [300, 100]
000000 6a eb 26 3f df e5 19 3f 0b cd 8a be 01 b4 25 3e
       0.65202963 0.6011638 -0.2710956 0.16181947
000010 8b 9e a9 bd 68 9b 14 3f 13 6c 31 bf 29 8c 44 3e
       -0.08282193 0.5804963 -0.69305533 0.19194092
000020 2a e6 8f 3e 9e 13 a9 bc 6e f5 9d 3e 38 3c bd 3e
       0.2810529 -0.020639237 0.3085131 0.36960006
000030 ce 42 3c 3f a1 d6 1c 3f e5 50 cd 3f 21 78 fc 3e
       0.73539436 0.61265 1.6040312 0.493104
000040 be 22 5a 3f 10 b4 59 3e 89 5a 2e be ae 34 88 bf
       0.8520926 0.21260095 -0.17026724 -1.0641077
000050 92 41 2a bf 34 bd 51 3f c5 f5 1f bf 27 e3 55 3d
       -0.665063 0.81929326 -0.6248439 0.052218582
000060 e9 aa aa be 16 75 9a bf b4 b4 6d 3d de d3 05 3f
       -0.3333352 -1.2066982 0.05803366 0.5227641
000070 0d 84 f0 be 98 9d 85 3e 64 ed b0 3d cb 94 62 3f
       -0.46975747 0.26096797 0.08639029 0.8850829
000080 9d 7f 6c be 1d bb d3 3e e7 1f c0 3b a3 92 07 3f
       -0.23095556 0.41353694 0.005863178 0.52958125
000090 21 5e ab 3f 27 62 0b be db c6 89 3c f0 4f 36 be
       1.3388101 -0.13611661 0.016818454 -0.17803931
0000a0 35 5e 59 be 02 ed 10 3d 89 46 cc be 02 57 d1 bc
       -0.21227343 0.03538228 -0.39897564 -0.025554184
0000b0 b8 a4 7c be 29 ba dc 3e e1 12 97 3f 32 0a 47 bf
       -0.2467221 0.4311078 1.1802636 -0.7774993
0000c0 a5 b0 09 bd f2 cd 4b 3f 2d e7 b1 bd 12 1d a8 bd
       -0.033615727 0.7961112 -0.086866714 -0.0820867
0000d0 af 31 2f 3f 96 01 0c be 77 43 79 be 5e c3 6c bf
       0.68435186 -0.1367248 -0.24342142 -0.92485607
0000e0 c3 35 db be 9d 6d f9 3d 0e a6 2f be ae 5b ca 3e
       -0.42814454 0.1217911 -0.17153189 0.3952307
0000f0 e8 a1 7b bd ed 32 30 bf 37 4a 8c be e1 fa 7d 3e
       -0.061433703 -0.68827707 -0.2740037 0.24802734
000100 d4 db ad bd 1d 57 fb be f5 28 9f 3d 47 71 2b 3e
       -0.084891945 -0.490899 0.07771484 0.1674243
000110 23 f1 a9 bd d2 c2 38 bd 23 c1 d2 3e 15 35 0d bf
       -0.08297946 -0.04510767 0.41162977 -0.5515912
000120 85 99 aa 3e 4b 4d 07 be e3 ce 98 bf 90 db 12 bf
       0.3332025 -0.13213079 -1.1938137 -0.57366276
000130 5e fe 4f bf 4b 95 91 bf 97 58 c7 be 42 4c 2f bf
       -0.8124751 -1.1373686 -0.38934776 -0.68475735
000140 e5 d8 5e bf 80 0c 40 bd c4 49 37 bf 1a f8 0a 3f
       -0.87049705 -0.04688692 -0.7159693 0.5428482
000150 4e 40 50 3e f1 c1 18 bf 5f 8b a5 be 4f 8d 50 3e
       0.2033703 -0.5967093 -0.32332894 0.20366405
000160 77 6a c7 3e 0c 31 ea be e0 58 a9 3f 7e 16 7b bf
       0.38948414 -0.45740545 1.3230247 -0.98081195
000170 c2 89 8c be 95 f3 0e bf da 90 0c 3f 20 19 00 bf
       -0.2744885 -0.55840427 0.54908526 -0.5003834
000180 4f a2 e4 bd 65 3f ef 3d 06 dc d6 3d 82 8d e1 3e
       -0.111637704 0.116820134 0.10491185 0.44053274
000190 be 08 16 3f 93 80 e6 3e ad ec 01 3f a5 f0 93 3e
       0.5860709 0.4501997 0.50751764 0.28894535
0001a0 e2 b4 2b 3f 6d 01 28 bd 2f 78 b8 bf 07 94 9b be
       0.6707288 -0.041016985 -1.4411677 -0.30386373
0001b0 18 67 ff be ef b3 42 3f 6c 6b 0c be 16 ff d6 bc
       -0.49883342 0.76055807 -0.13712853 -0.026244681
0001c0 56 0b e3 be 98 e4 e4 bc b2 79 49 3e 02 d8 a9 be
       -0.44344586 -0.027941033 0.1967533 -0.33172613
0001d0 82 31 07 3f c0 48 10 bf 35 4d f1 be d2 1b 73 be
       0.5280992 -0.5636101 -0.47129217 -0.23741081
0001e0 1f d2 63 3c 54 23 4d be 7c a2 7e be eb 04 9b 3d
       0.013905077 -0.20033008 -0.2486667 0.075692974
0001f0 aa ee 8e 3e 6e 79 86 bb 80 31 78 3f f8 a3 86 be
       0.2791646 -0.004103831 0.9695053 -0.26296973
000200 f4 d7 ce 3d f9 6b 34 bf 68 3c f3 be 89 64 80 3e
       0.100997835 -0.70477253 -0.47507024 0.25076702
000210 67 c8 f0 be d0 95 7f 3e 70 21 ee 3e 00 1f 3a bc
       -0.47027895 0.24959493 0.46509886 -0.01135993
000220 ec 9a b6 be 5b fb 25 bf 90 77 b8 be 31 fa 0a 3e
       -0.3566507 -0.64836663 -0.3602872 0.13572003
000230 05 88 a6 be 42 ca 44 bc 30 8d e5 3e 1b d0 7d bd
       -0.3252565 -0.012011113 0.4483428 -0.061966043
000240 a9 73 96 3e 5d b3 86 be 14 95 83 3e 4f 4a 10 3f
       0.29385117 -0.26308718 0.25699675 0.56363386
000250 5f e9 74 bd 02 11 63 bf a3 7d bc 3c 0f 62 31 bf
       -0.059792873 -0.88697827 0.023009127 -0.6929025
000260 aa d3 9b 3e b3 07 5e bd 97 2f c5 be 0c c7 53 3d
       0.30434924 -0.05420656 -0.3851287 0.051703498
000270 10 dd 6d be 59 a5 98 3d e8 bb 98 be d3 e8 1c be
       -0.2322886 0.074534126 -0.2983086 -0.1532319
000280 ff 31 9b be e9 7e 5a 3d 91 7a e0 bb bf c2 4d 3f
       -0.30311581 0.053343687 -0.0068505486 0.80375284
000290 fe 4d 74 3f 85 a3 c2 be 9f fe e7 be 28 41 5a bf
       0.95431507 -0.3801538 -0.45311448 -0.8525567
0002a0 2c 03 52 bf d5 8b 62 3e f5 53 f3 3e d2 bd 7e be
       -0.8203609 0.22123654 0.47524992 -0.24877098
0002b0 ab 45 98 3e 27 ae d8 3d 1e b2 4c 3e f7 78 dd be
       0.29740652 0.10580092 0.19989821 -0.4325635
0002c0 70 11 2f be 17 44 11 3e 81 ae 53 3e fc 58 6c 3e
       -0.17096496 0.1418613 0.20672037 0.2308082
0002d0 fa 46 de 3e cd aa 24 3d 7f 8d 04 bf 11 b7 ed be
       0.43413526 0.04020195 -0.51778406 -0.4642873
0002e0 59 2b b4 3e 54 a2 87 be f6 94 c4 3d 2f 9e b3 3e
       0.35189322 -0.26491034 0.095987245 0.35081622
0002f0 2e a7 00 be 62 bb 85 3d 6e ad 96 be 08 51 2a 3f
       -0.12563774 0.06529881 -0.2942919 0.66529894
000300 c8 19 84 3d b3 85 63 be 29 16 24 be 84 5d 3f be
       0.0645023 -0.22218971 -0.16024078 -0.18688017
000310 c1 3b 84 bf 6c b6 2f bf f2 f0 27 bf 6c 12 30 be
       -1.0330735 -0.6863773 -0.6560203 -0.17194527
000320 38 34 97 bd a7 54 8b bf ad fb 11 bf cf f3 ef 3e
       -0.07383007 -1.0885209 -0.5702465 0.468657
000330 a2 09 1e 3f 45 12 86 be 31 53 ac 3e 77 c5 fa 3e
       0.6173345 -0.26185814 0.3365722 0.4897878
000340 45 d0 82 3f 93 12 81 3e 4e 83 4d be 1a c3 81 3e
       1.0219809 0.25209484 -0.2006962 0.25344163
000350 5f 2e e4 be f4 7e 5d 3f a2 41 14 be ca ca ae 3c
       -0.44566628 0.8652184 -0.14478162 0.021336932
000360 f9 54 23 bf 25 5e 94 3e a4 09 82 bd 9b 0e 0e 3f
       -0.63801533 0.28978077 -0.06349495 0.55491036
000370 7e c3 85 be 4a 9f cc bd 5a 65 17 be 2d 5e 05 3e
       -0.2612571 -0.099913195 -0.14784756 0.13024206
000380 85 e8 b6 be 31 4e 06 3e d3 02 b8 bc 53 80 1d 3f
       -0.35724273 0.13115765 -0.022462284 0.6152393
000390 fb 36 05 bc e0 c9 35 bf f9 50 b4 3d f6 6b 2a 3e
       -0.008130784 -0.7101116 0.08804507 0.16642746
0003a0 7c 48 b4 be 94 92 d1 be a3 00 60 be d1 e3 bf be
       -0.3521155 -0.40932143 -0.21875243 -0.37478498
0003b0 6a cc 68 be 7c 96 d3 3e d4 f7 bc bd 6a 05 3f be
       -0.22734228 0.41325748 -0.09226957 -0.18654409
0003c0 82 9c a9 3d de 42 d6 3d 6b fa c5 bd c9 9f e2 bd
       0.082818046 0.10461973 -0.09666904 -0.11065633
0003d0 8e b4 57 3f 71 09 46 bf d1 66 3e 3f b1 44 ec 3c
       0.8425988 -0.77358156 0.74375635 0.028841348
0003e0 fd 8d 92 3f e8 f0 f2 be f9 99 68 be 5c 64 01 3f
       1.1449581 -0.47449422 -0.22714986 0.5054376
0003f0 95 f4 a5 be d5 d7 01 3f 3e 18 72 be 26 64 aa be
       -0.32413164 0.5071996 -0.2364206 -0.33279532

weight_hh_l1 f4 [300, 100]
000000 5c 7c 35 be ea 06 20 be 5f c5 9c be a0 0b c4 3d
       -0.1772322 -0.15627638 -0.30619332 0.0957253
000010 4f ad 06 bf 1c f4 34 3e 71 1e 1b 3f 90 3a 1d 3c
       -0.526082 0.17671245 0.60593325 0.009596482
000020 b2 c6 82 be 39 c7 14 3e 61 28 4c 3d eb 59 91 3d
       -0.25542217 0.14529122 0.049843196 0.070972286
000030 26 cb 91 bc f9 32 4e 3e 1c f4 12 3f de 44 22 be
       -0.017797064 0.20136632 0.5740373 -0.15846583
000040 5b 61 53 3d bd 5a 4a be ec 5c 14 be c6 2f 15 3c
       0.051606517 -0.19761176 -0.14488572 0.009105628
000050 9e 31 a1 bd b2 1a 58 bc c5 ba c4 3e 75 a5 6e 3f
       -0.07870792 -0.013189958 0.38423744 0.9322122
000060 a1 7a fb bd 5a 9a 05 bf 46 5b cb 3f 80 d8 ad 3d
       -0.12279249 -0.52188647 1.588723 0.0848856
000070 76 0a fa bc d3 27 8e be 1a 87 88 bd f0 45 e8 3c
       -0.030522566 -0.27764758 -0.066663936 0.028353661
000080 fb f6 fc be ea f9 98 be 15 a0 34 be fb bb 12 3f
       -0.4940718 -0.2987817 -0.17639191 0.57318085
000090 a1 92 36 3f 48 13 9a 3d 3f e3 fb bd 7a 02 ce be
       0.7131749 0.07523209 -0.12299203 -0.40236264
0000a0 19 aa 86 bb 69 4d 1a bf e2 d9 d2 3d 0c 0e 32 bc
       -0.0041096327 -0.6027437 0.10295464 -0.010867607
0000b0 3b ed 20 3f 5a 30 92 bf cb 7f 13 3d c0 fe 84 be
       0.62861985 -1.1421006 0.036010545 -0.2597561
0000c0 70 7b 6c bf 67 f4 a5 be c1 5c 6b 3f 31 fc cd 3d
       -0.9237585 -0.32413027 0.91938406 0.10057867
0000d0 4b 0b 86 3f c7 74 2b 3f e7 7d f3 3d 6d 2d 60 3d
       1.0472196 0.66975063 0.11889248 0.05473082
0000e0 d4 ad 90 be 82 bf f0 bd 1f 92 72 3d b0 94 a2 be
       -0.2825762 -0.11755277 0.059221383 -0.31754065
0000f0 47 d0 5d bf f1 d8 df be c2 73 4a be 21 cd 5c 3e
       -0.8664593 -0.437202 -0.1977072 0.21562625
000100 9e ca ae bd 55 5c c3 3e c6 4c 86 be d4 75 48 bd
       -0.0853474 0.3815638 -0.26230448 -0.048940495
000110 31 50 1c be f7 d3 3a 3e b2 1e 12 bf dc 3e e8 3e
       -0.15264966 0.1824492 -0.5707809 0.45360458
000120 a2 85 f8 3c bf 6e 95 be fb 82 83 be 78 72 70 be
       0.030337159 -0.29186055 -0.25685868 -0.23481166
000130 41 01 9b 3d 7e c1 3e be f2 cb ba 3e 7a 3a 41 3f
       0.075685985 -0.18628499 0.36483723 0.75479853
000140 34 91 b2 3e 46 f1 95 bd f1 b3 98 3d f8 6c 68 3d
       0.34876406 -0.0732141 0.07456196 0.056744546
000150 92 aa 18 bf 02 9a e1 be 09 9d 1b be 75 82 59 be
       -0.5963527 -0.4406281 -0.15196623 -0.21241172
000160 22 f6 c1 bd 4a 10 bd be ee ac 18 3e 5d 53 9a 3f
       -0.09470774 -0.3692649 0.14909717 1.205669
000170 01 a9 ac 3e 62 29 64 bf ef f5 6c 3d b4 3b ae be
       0.3372269 -0.89125645 0.057851728 -0.34029925
000180 d6 9a e7 3d e8 ac 58 3f fd 16 17 3e ef 1b f8 3e
       0.113088295 0.84638834 0.14754863 0.48458812
000190 0c 72 99 be cd b0 bd be 68 21 40 3e 37 a1 29 be
       -0.29969823 -0.3704895 0.18762743 -0.16565405
0001a0 5b 67 08 bd 84 3f 04 be 25 9c ec 3e 84 7e d7 be
       -0.033301692 -0.12914854 0.4621288 -0.4208871
0001b0 93 91 89 be 29 bc b8 bc 8e 86 52 3e 13 5e a3 3e
       -0.26868877 -0.02255066 0.20559141 0.3190771
0001c0 b3 01 8a be e8 b7 4f 3e 50 0f 21 bb a2 b0 df 3d
       -0.2695442 0.20284998 -0.0024575777 0.10922362
0001d0 42 da ba 3e 1b 02 15 3e 4f da e9 be 01 c0 84 be
       0.36494642 0.14551584 -0.4567437 -0.25927737
0001e0 79 4d af 3e 99 12 f4 be 91 01 a9 3e d1 02 0c be
       0.34238794 -0.4767044 0.33009008 -0.1367295
0001f0 7a 54 d4 be 86 5e 18 be 7a 73 91 be cc e4 ff be
       -0.414707 -0.14879808 -0.28408414 -0.49979246
000200 91 d4 12 3e 27 0f d2 be e6 cc 24 be 22 2d 52 be
       0.143389 -0.41027185 -0.16093788 -0.2052503
000210 1f cf 43 3e 48 aa 08 be 51 38 9e 3e c7 5d 75 3e
       0.19121979 -0.13346207 0.3090234 0.23961554
000220 cd 5e a8 3e a3 70 d8 bd 18 3d 65 3c 1b d7 8b be
       0.32884827 -0.10568359 0.013991617 -0.2731255
000230 8c 12 22 3f ef 34 06 bf 7b 24 d6 3e c3 73 d6 3e
       0.6330955 -0.5242452 0.41824707 0.41885194
000240 e4 e2 08 3f cf 72 42 3e ed b4 89 3d 74 e2 75 bd
       0.5347121 0.18989109 0.06723962 -0.060030416
000250 e5 40 ae 3e c1 c5 e8 3e 79 eb 7e 3e 13 36 e7 3c
       0.34033886 0.45463374 0.24894513 0.028224027
000260 8f c7 92 bf df bf aa bc 98 f1 a7 be 6b e1 03 3f
       -1.146715 -0.020843444 -0.3280151 0.51515836
000270 0c 86 70 be 28 42 b3 bd 5e f1 80 be 77 ee d3 be
       -0.23488635 -0.08752853 -0.2518415 -0.41392872
000280 69 d8 1e be a0 3d 17 3f 6c 08 b9 be 62 ea 2f bf
       -0.15512241 0.5907841 -0.36139238 -0.68717015
000290 55 ce 90 be 61 fa 2e bf 54 f4 44 3e f3 08 df be
       -0.2828242 -0.683508 0.19233829 -0.43561515
0002a0 48 03 97 be 8f bf 9d be 6f c4 d5 3c 7a 03 00 3f
       -0.2949469 -0.3081021 0.026094643 0.50005305
0002b0 e2 fe be 3e 53 c6 1f bf be d8 eb 3d 63 e2 19 3f
       0.37303835 -0.62411994 0.1151595 0.60111064
0002c0 a2 6b ff 3e 59 91 cf be 34 8a 8b be 77 57 87 be
       0.49886805 -0.4054058 -0.27253878 -0.26433918
0002d0 c7 ad d6 3e a1 4a 3e 3e ac bb a2 be a2 4e 95 3e
       0.41929457 0.18583156 -0.31783807 0.29161555
0002e0 87 40 7b bd e9 e4 86 be bb 99 c4 3e 97 ce d1 3e
       -0.061340835 -0.2634652 0.38398537 0.40977928
0002f0 36 6f 4c 3d ab 31 e1 be 75 6d a8 3e 28 54 97 3e
       0.049910747 -0.43983206 0.3289601 0.29556394
000300 9c 73 03 be 77 16 37 be b8 ce d6 be 77 af 8c be
       -0.1283707 -0.17879663 -0.4195459 -0.2747762
000310 cd 8a eb 3d bf 8e 2e bc 0a d4 50 be e2 04 96 be
       0.115010835 -0.0106541505 -0.20393386 -0.293006
000320 36 5e 5a be a8 c1 c8 bd d8 c8 05 3f bc 07 8a 3d
       -0.21325001 -0.09802562 0.5225959 0.067397565
000330 34 74 47 bd a7 79 96 be 55 c6 4a 3d dd bd 28 be
       -0.048694804 -0.29389688 0.04950555 -0.16478677
000340 89 b9 c9 be f9 78 94 3e 4c 8f e9 bd 19 1a cf be
       -0.39399365 0.28998545 -0.11404285 -0.40449598
000350 5f ed 6a 3e 8a e5 82 be 3d a3 15 bf 78 3e a5 bc
       0.22942112 -0.2556575 -0.58452207 -0.020171389
000360 df 39 e9 bd ee 4a 6c bf 4a 4d 44 3e 9e ff f6 3d
       -0.11387991 -0.92301834 0.19170108 0.12060474
000370 98 0b 7c bf 18 ca 35 3e d7 87 8d be 51 0f 2a be
       -0.9845519 0.17752874 -0.276427 -0.16607405
000380 f7 61 69 be 9e b8 4d bd 45 58 e0 bd 08 4d 74 3d
       -0.22791277 -0.050224893 -0.10954336 0.059643775
000390 6b 77 25 be d8 48 05 3c 59 5e 3d 3e cc f7 9a 3e
       -0.16158836 0.008135043 0.18493022 0.3026718
0003a0 8e 65 ac 3d ac 66 91 3e f0 5c 1c 3d e1 2e 5e 3f
       0.084178075 0.28398645 0.03817457 0.8679028
0003b0 67 c1 37 3b dd ea 07 bb 1a 4f 71 be 1f a9 d8 3e
       0.002803886 -0.0020739355 -0.23565331 0.4231653
0003c0 29 3d e2 be ea c7 62 3d d8 be 91 be 18 41 e9 bc
       -0.44187286 0.055366434 -0.28465915 -0.028473422
0003d0 a6 43 3f 3f e6 ff a5 be c7 c6 f7 3e 30 35 cc bc
       0.747126 -0.32421798 0.48393843 -0.024927706
0003e0 f1 42 b8 be 0d 36 4f bd e3 27 09 3e eb c4 01 3f
       -0.35988572 -0.050588656 0.13394122 0.506911
0003f0 90 4e e8 be 23 b7 9e be b4 af 76 be 1a c8 fb bd
       -0.45372438 -0.30999097 -0.24090463 -0.12294026
