saved_models/RNN_1_layer.pt (torch, 327216 bytes, 7 tensors)

weight f4 [100, 100]
000000 92 3b 5a bf 5a 47 01 3f 7e 12 a5 3f b7 73 0d bf
       -0.8524715 0.504995 1.2896268 -0.5525469
000010 a8 58 ca bf 6e 96 54 3f dd ff a2 3e 4f 41 90 bd
       -1.5808306 0.8304204 0.31835833 -0.070437066
000020 0e 22 21 3e 0b a3 00 bf 11 28 08 3f 68 2e 19 3f
       0.15735647 -0.50248784 0.53186136 0.59836435
000030 ca 2c 22 bf 85 b2 db 3e 81 a4 be 3f ee ff 4c 3f
       -0.6334959 0.42909637 1.4893953 0.8007802
000040 1e 2e 04 3d cb 73 08 3f 47 b3 b1 3f e8 96 79 3f
       0.032270543 0.53301686 1.3882836 0.9749589
000050 e5 72 f6 3e 0e f8 3f 3e 59 60 9c bf 15 93 85 be
       0.48134533 0.18746969 -1.2216903 -0.26088777
000060 12 04 8e 3f 25 19 30 be ba 2a 2b 3f 50 ba 8b 3f
       1.1094992 -0.17197092 0.6686207 1.0916233
000070 14 c8 e9 3f 8a ac 86 be ad f5 2c 3f 27 c5 6c 3f
       1.8264184 -0.26303512 0.6756237 0.9248833
000080 9c 97 96 be e6 d1 81 3d 6e 57 0d 40 ec 33 d8 3f
       -0.29412544 0.06338863 2.2084613 1.6890845
000090 d7 ac dd 3d 55 d7 a0 3e 4a 12 2b bf af 7f 83 3f
       0.10823982 0.31414285 -0.6682478 1.0273341
0000a0 02 33 d4 be 15 f7 ce 3e 98 f7 7e be 13 a9 33 3f
       -0.41445166 0.40422884 -0.24899137 0.7017986
0000b0 98 93 3d be 1c c6 8e 3f d0 14 b2 bf 23 bb bf bf
       -0.18513334 1.1154208 -1.3912601 -1.4978985
0000c0 df 88 b3 bf 2c d1 40 bf 7d 4b 38 3f c5 75 b9 bf
       -1.4026145 -0.7531917 0.71990186 -1.4489065
0000d0 46 f9 b3 3f 7b 28 56 3f 78 f9 43 bf d3 c2 93 bf
       1.4060447 0.8365552 -0.76552534 -1.1543831
0000e0 d3 85 93 3f 0e 04 c4 3c 2e ca 24 bf 60 b0 88 3f
       1.1525215 0.023927715 -0.64371 1.0678825
0000f0 2a f6 27 3f 91 72 fd 3f d8 ac f3 bf a5 76 36 3d
       0.6560999 1.9800588 -1.9037123 0.044546742
000100 31 6d 84 3f 0a 25 b5 be 7a 33 f6 3f 07 17 84 bf
       1.0345823 -0.3537982 1.9234459 -1.0319527
000110 fa ae 8a be 96 fd bd bd e9 d9 78 bf 32 f0 8a bf
       -0.27086622 -0.09276883 -0.97207505 -1.0854552
000120 dc 59 26 3f 8e a6 d8 3f 19 e1 1f 40 02 8b ca bd
       0.64980865 1.6925828 2.4981139 -0.09889795
000130 b6 f5 1f bf 78 1c 74 3f cb 39 a3 3f df 45 b1 be
       -0.624843 0.9535594 1.2752012 -0.3462362
000140 3d 1f f8 3d cf f2 32 bf d5 f0 89 3e b1 0a fe 3f
       0.12115333 -0.69901747 0.26941553 1.9847013
000150 7a 8e 4f bf eb 08 17 bf bf be d4 3f fc 79 77 bf
       -0.81076777 -0.5899798 1.6620711 -0.9667051
000160 2e 55 5a 3f 28 02 53 be c7 5a 78 bc cc 4c b0 bf
       0.85286224 -0.20606291 -0.015158362 -1.3773437
000170 95 ef fe 3e 74 9f 09 40 56 8a 61 bf f0 ec 54 bf
       0.49792162 2.1503572 -0.8810171 -0.8317404
000180 17 3b f7 bd b7 40 17 3f aa 92 8e be d5 19 11 3f
       -0.12071817 0.5908312 -0.2784627 0.5668004
000190 d2 21 c8 bf c3 98 85 be 1a 78 91 be 55 d5 45 3f
       -1.5635321 -0.2609311 -0.28411943 0.77278644
0001a0 da ff a5 3f 1c f5 3d be d7 f3 a9 bf e9 0c 6e 3e
       1.2968705 -0.18550533 -1.3277539 0.23247112
0001b0 7b 2b 4b be ef d2 8e be 8c 95 c2 bf 2c ec 0c bf
       -0.19840805 -0.27895305 -1.5201888 -0.5504787
0001c0 ae 7c c2 be 6c 1d e6 3f 29 17 a5 3f cd 95 8d bf
       -0.37985748 1.7977729 1.2897693 -1.106134
0001d0 24 18 88 bf e4 d6 28 3f 11 4e 2f bf 6f a8 ad 3e
       -1.0632367 0.659529 -0.68478495 0.33917567
0001e0 0b a2 5b be ba d2 fe 3e e6 c7 8c 3e 79 91 c1 3f
       -0.21448533 0.49770147 0.2749626 1.512252
0001f0 47 9f 0d 40 13 34 50 bf e7 c2 e4 be 8f df e0 be
       2.2128465 -0.8132946 -0.4467995 -0.43920562
000200 77 c4 24 3f 94 78 9c 3e cc 9a c6 be 7d 23 d4 3e
       0.6436228 0.30560744 -0.38789976 0.41433325
000210 2a ae 3e 3f c2 96 28 3f fa 7e c1 be 91 76 69 bf
       0.74484503 0.6585504 -0.37792188 -0.9119654
000220 a3 7a 03 bf 0d f8 2b 3e 60 56 b0 bf c6 a4 54 be
       -0.51359004 0.16793843 -1.377636 -0.20765981
000230 d8 15 0d bf e9 78 ea 3e bd 9f a8 bd 9b 69 c3 be
       -0.55111456 0.45795372 -0.08233593 -0.38166508
000240 31 97 6b be 52 b8 58 be a9 89 a7 3f 29 09 9b bf
       -0.23006894 -0.21164063 1.3088886 -1.211217
000250 f1 c6 0e bf 67 36 46 bf 41 9b f5 3f e6 95 e7 be
       -0.5577231 -0.7742676 1.9188005 -0.4523155
000260 e1 13 74 be 16 33 5b bf e7 17 01 c0 9b d1 18 40
       -0.23835708 -0.85624826 -2.017084 2.3877933
000270 db 78 0c bf 70 8e 47 bf f0 2e 1f 3d 4d c3 b9 bf
       -0.5487191 -0.7795172 0.038863122 -1.4512726
000280 50 db a7 bf 66 60 7a be 7e a6 c5 3f 44 c7 99 bf
       -1.3113804 -0.24450836 1.5441434 -1.2013936
000290 3e 93 1e bf e0 49 f9 3e 3c d2 b7 bf 00 87 a8 3f
       -0.61943424 0.48689175 -1.4361033 1.3166199
0002a0 93 e3 b6 bf 62 ec 46 3c e8 0f 0d c0 0a 92 ce bf
       -1.42882 0.012141319 -2.2040958 -1.6138318
0002b0 94 78 fc be 3a 25 8b bf 6b 0b 53 be bd 24 7b be
       -0.49310744 -1.0870736 -0.20609824 -0.24525733
0002c0 d4 a9 33 3f 48 12 e5 be a5 f7 a6 3f 1c 7f 8c bf
       0.7018101 -0.4474051 1.3044325 -1.0976291
0002d0 1c 9d 06 40 74 32 b2 3e 47 f7 05 3f 1b 94 24 bf
       2.1033392 0.34804118 0.5233044 -0.6428849
0002e0 c0 f5 aa 3e 77 0a d4 3e 25 d7 92 3e ce 73 9d bf
       0.33390617 0.41414234 0.28679767 -1.2300966
0002f0 a8 e2 3b bf a6 f8 97 bf 24 b9 fa be 2d c7 2f bf
       -0.73392725 -1.1872756 -0.48969376 -0.68663293
000300 00 fb 85 3f 5a d9 e0 3d c0 57 4c 3f 69 2d 41 3f
       1.0467224 0.109789565 0.79821396 0.75459915
000310 17 67 76 3e 78 06 80 bd 83 55 9f 3f 43 55 28 bc
       0.24062763 -0.06251234 1.2447971 -0.010274234
000320 68 f6 9a be 22 34 0a 40 24 b7 b4 bf f3 e6 12 3f
       -0.30266118 2.159432 -1.411839 0.5738365
000330 cc ef 9e 3f 40 62 dc 3e fc d4 4a 3f 4c 42 fb be
       1.241693 0.4304371 0.7923124 -0.49074018
000340 7b 83 c2 be 6f c9 9d 3e 04 9f ba 3f d0 a3 38 bf
       -0.37990937 0.30817744 1.4579778 -0.7212496
000350 d5 06 a0 3d c6 58 96 3e 5a 93 29 bf d3 ed df bd
       0.07813803 0.29364604 -0.66240466 -0.10934033
000360 9f 1d f0 bf 89 1a 53 3f 30 63 30 bf db 49 db 3e
       -1.875904 0.82462364 -0.6890135 0.42829785
000370 31 0a a3 3f 45 5b c3 3e ed e8 d0 be 4e f5 2e 3f
       1.2737485 0.3815557 -0.40802708 0.68343055
000380 07 76 ab 3f 1c 96 11 3f 49 e3 80 3e 41 97 0d 3f
       1.3395394 0.56869674 0.25173405 0.5530892
000390 7c 3d d7 3f 1c ca e9 bf 82 34 00 3f 42 7e 4e 3f
       1.6815639 -1.8264804 0.5008012 0.80661404
0003a0 e2 86 3f 3e ab 16 ca bf 08 2b 96 bf ff e5 08 bf
       0.18703797 -1.5788168 -1.1731882 -0.53475946
0003b0 bd 4f 14 40 c9 b9 7b bf ba f8 c5 3f 14 40 fb 3d
       2.3173668 -0.9833036 1.546653 0.12268081
0003c0 28 86 fb 3d e3 0e d8 3f 6f 90 7f bf 24 2b cb 3e
       0.12281448 1.6879543 -0.99829763 0.3968135
0003d0 4a 15 c3 3f 26 7f ed be 0d 47 07 40 95 64 f5 3d
       1.5240872 -0.4638607 2.1137116 0.11982075
0003e0 f6 5d 45 bf c7 25 4c 3e 24 d2 1f 40 9c 9d a5 3e
       -0.770965 0.19936286 2.497201 0.3234681
0003f0 a1 9c 8e 3f 7e ad 5d 3e 97 84 ca bc 5b 5a 65 3f
       1.1141549 0.21648213 -0.024721427 0.89590997

weight_ih_l0 f4 [300, 100]
000000 92 12 f2 be 22 98 54 bf 8d c7 41 bf 61 0b e5 bd
       -0.47279793 -0.83044636 -0.75695115 -0.11183811
000010 e1 12 d9 3e f1 c2 d8 3c 61 1b 2a 3e 8d 87 99 3d
       0.42397216 0.026460143 0.16612007 0.074965574
000020 67 82 d3 bc c0 30 15 3e ae 37 33 bf d7 e1 d5 be
       -0.025819017 0.14569378 -0.70006835 -0.41773865
000030 19 8e bf 3f cc 50 62 be 14 19 28 bf f9 33 25 bf
       1.496524 -0.22101134 -0.65663266 -0.6453243
000040 7f 09 c3 3d b4 97 1f bc a3 2e f6 3d 78 e4 a9 3c
       0.095232956 -0.009740759 0.12020614 0.020738825
000050 b6 2b f0 3a ad 86 b0 bd b4 29 12 3e 55 3a 8a be
       0.0018323574 -0.08619437 0.14273721 -0.2699763
000060 59 ea 88 3d 4b 1b 47 3e 37 c3 e1 be 8e 4e af 3d
       0.06685323 0.19444005 -0.4409425 0.08559905
000070 1e dd 96 be 7a a4 a9 3e b3 69 32 3e b3 ce a2 be
       -0.29465574 0.33133298 0.17423134 -0.31798324
000080 ca 61 8b be eb 46 16 bd a0 22 9d bd 73 59 92 3e
       -0.27223045 -0.036688726 -0.0767262 0.2858387
000090 40 96 f4 3d 10 df fb 3e 06 d6 1b 3d cf 29 34 3f
       0.119427204 0.4919362 0.038045906 0.70376295
0000a0 6b ed 1c 3e 69 ad de 3e 79 b7 4c 3c 43 ac bf be
       0.15324943 0.43491676 0.012494915 -0.37436113
0000b0 ef 08 9f 3e 52 f9 2d 3e 9a df 41 3e 5a bd 52 3e
       0.31061503 0.1698964 0.18932953 0.20580044
0000c0 b3 76 e2 bd 16 60 6c bf b9 a9 30 3f 28 f9 eb 3c
       -0.11057796 -0.92334116 0.69008976 0.02880533
0000d0 97 e7 33 3f 0b 40 5a be 6d cf 01 3e f3 6c 04 bf
       0.70275253 -0.21313493 0.12676783 -0.51728743
0000e0 69 d0 bd 3e f5 b3 c3 bd 2d 12 e6 3d 2d 6a 15 bd
       0.37073067 -0.095558085 0.112339355 -0.03647821
0000f0 89 40 84 be d3 41 71 3e 6b c4 18 bf 36 07 70 bd
       -0.25830486 0.23560266 -0.5967471 -0.058600627
000100 0d 29 c4 be c8 bf 06 be ef 5b 7e 3e c5 89 bb 3d
       -0.3831257 -0.13159096 0.24839757 0.09157137
000110 ae a6 6d 3d fe fb 90 3d c9 6a 58 3e 64 2c be 3c
       0.058020286 0.07079314 0.21134485 0.023214526
000120 9e f3 e4 be bf c9 7d be b1 66 03 bf 48 11 41 3e
       -0.44717115 -0.24783991 -0.5132857 0.18854249
000130 c5 dc ef 3d 93 15 0d be 5f 7c 3b 3c a1 4c a5 be
       0.1171203 -0.13777761 0.011443227 -0.32285026
000140 d3 e4 9b bd 38 70 34 3f 27 6a 01 bf cd 8d 8b 3e
       -0.07612004 0.7048373 -0.505526 0.27256623
000150 0f da dc bc 16 20 cf 3e 34 65 c5 bd a5 63 09 bd
       -0.026959447 0.40454167 -0.096384436 -0.033542294
000160 e3 b7 fb 3d 50 79 30 3f 83 76 01 bc e9 7f c9 be
       0.12290933 0.6893511 -0.007901791 -0.393554
000170 47 9a 9c 3e ec c0 a4 be c1 f6 8e bf bd 18 23 3e
       0.30586454 -0.32178438 -1.1169053 0.15927406
000180 94 22 db 3e a2 dd 02 be 7e 14 85 be ad 63 6d 3c
       0.4279982 -0.12779859 -0.25992197 0.014489097
000190 e6 2a aa bd 18 ae 47 be 37 c6 ab 3e a9 39 03 3e
       -0.083089635 -0.19500005 0.33549663 0.12814964
0001a0 a8 5b 63 3e 37 f2 e3 3e 07 ef cf 3d 62 2b 66 be
       0.22202933 0.44520733 0.10153013 -0.22477487
0001b0 a5 eb 81 be ee e6 24 bc 2e 64 d2 be 4d e9 a1 bd
       -0.25375095 -0.010064824 -0.41092056 -0.07905827
0001c0 51 22 1f 3f bb 26 0c 3f 84 69 5a be 3c 7b d1 be
       0.6216174 0.547466 -0.21329314 -0.40914333
0001d0 93 54 74 3e 18 26 03 be a4 9e 15 be cf 2b 8b be
       0.23860388 -0.128075 -0.14611298 -0.2718186
0001e0 76 c0 90 be c6 ff a2 be 98 13 27 be 17 56 2b 3e
       -0.28271836 -0.31835765 -0.16316068 0.1673206
0001f0 23 0b 54 3d 29 2d 81 be fc ce fd be 54 f1 7c be
       0.051768433 -0.25229767 -0.4957198 -0.24701434
000200 b9 23 a4 bd 28 0d 3b 3e 85 03 ad 3e 86 b1 02 bf
       -0.08014626 0.18266737 0.33791748 -0.5105213
000210 2f cf d1 be 4e 05 81 be 31 de 20 bd 58 99 f0 3e
       -0.4097838 -0.2519936 -0.0392744 0.46991992
000220 94 ed 25 3e 00 60 91 3d dc eb ca bd ad 44 8a 3d
       0.1620391 0.07098389 -0.09908268 0.0675138
000230 9a a2 3d be 7c 8c f0 3e 21 86 e5 3e a3 04 4c bf
       -0.18519059 0.4698218 0.44828895 -0.79694575
000240 4a 06 ad bb ac 42 61 3f 8c 71 2f 3e 90 9b 20 3e
       -0.0052802907 0.8799236 0.17133158 0.15684342
000250 f6 5f 1b 3d 5a c3 b2 be 04 7f 12 3f 17 cb 0b 3f
       0.037933312 -0.34914666 0.5722506 0.54606766
000260 24 1c 54 3f b6 27 01 ba 38 2a f2 bc c7 92 3b be
       0.8285544 -0.0004926877 -0.029561147 -0.1831771
000270 57 0d ed 3d 42 17 39 be 3c 81 be be 9b fa ae be
       0.1157481 -0.18075278 -0.37207973 -0.34175572
000280 97 70 0c be 01 2c 56 be a0 1f 04 bf 87 ea c8 be
       -0.13714825 -0.20915224 -0.51610756 -0.3924143
000290 7f db f6 3e 30 90 a5 3e f6 c6 98 3d 86 73 99 3d
       0.48214337 0.3233657 0.07459824 0.074927375
0002a0 73 82 1a 3e b8 a9 84 be 3e e0 31 3f e8 1b 98 be
       0.15088825 -0.25910735 0.6948279 -0.2970879
0002b0 be 73 ec be 97 bd d0 bd 2b bd bd 3e 25 8e b3 3e
       -0.46182054 -0.101924114 0.37058386 0.35069385
0002c0 a2 89 1e bf dd e4 45 3f cc 30 13 3e a7 e2 91 be
       -0.6192876 0.7730234 0.14374083 -0.28493235
0002d0 d1 9d 26 bf 64 c2 64 3f f6 a0 d7 3e fe 8a e6 3d
       -0.6508456 0.89359117 0.4211499 0.112569794
0002e0 16 23 78 3e e5 71 34 be e1 c4 14 be 80 41 75 be
       0.24232134 -0.17621572 -0.14528228 -0.23950768
0002f0 4b 0c ce bd 60 9d 2f 3f c3 57 28 3e e4 13 3a bf
       -0.100609384 0.6859951 0.16439728 -0.726866
000300 b8 d2 70 3e 04 1f 2c bf db a9 01 be a6 2b 25 3f
       0.23517883 -0.67234826 -0.12662451 0.6451973
000310 33 1c 36 3f 95 5f 0f 3e 97 df 81 3e 0a ab 18 be
       0.7113678 0.14001305 0.25365898 -0.14908996
000320 d6 2d 3e 3e b0 90 85 3d 53 82 a1 be 65 9a 3f bd
       0.18572173 0.065217376 -0.31544742 -0.0467781
000330 d0 9d 0f 3e 0c 2b 68 3e c1 d1 b3 3e ef cb 53 bf
       0.14025044 0.22672671 0.35120967 -0.8273305
000340 fa 7d a6 be d9 c8 11 3f 58 82 66 3d da 67 d7 be
       -0.32517987 0.56947094 0.05627665 -0.4207142
000350 5a 98 20 3d 41 c4 d0 be a5 f9 de bd e8 32 80 be
       0.039207794 -0.4077473 -0.1088746 -0.25038838
000360 f3 ca 3e bc 91 7d 18 bf 4b 31 94 be 37 47 3b bf
       -0.011645067 -0.595666 -0.28943858 -0.7315554
000370 d4 ee 00 bf 56 6a af 3c a7 be 80 3e 7e 09 cd 3d
       -0.5036442 0.02141301 0.25145456 0.10011576
000380 59 cc b7 3e 4b cc 30 3e c1 19 e5 be 0a b8 b7 be
       0.35898092 0.17265432 -0.4474621 -0.35882598
000390 5d e7 6c 3e fc 3a 14 3f 31 e9 ad be 7e ff 75 be
       0.23135133 0.57902503 -0.33966973 -0.24023244
0003a0 b3 4c ec be 13 a8 19 bf 3a b9 92 3e 7f dd 1f bf
       -0.46152267 -0.60022086 0.28656942 -0.6244735
0003b0 03 d5 e0 be 0f f9 2f bf a3 ec 1b bc 20 55 8f 3f
       -0.43912515 -0.6873941 -0.009516868 1.1197853
0003c0 49 32 ac 3e a4 64 87 3e 9e 57 8c be 9c 09 1b bf
       0.33632115 0.2644397 -0.27410597 -0.6056154
0003d0 6a 51 71 3f 94 76 18 3f c6 98 a5 be 86 fe 44 3f
       0.94264853 0.59555936 -0.3234312 0.7695087
0003e0 a2 5b 9b 3d eb 34 57 3d 4a 22 be bd c6 fc a4 be
       0.07585837 0.0525407 -0.09283884 -0.322241
0003f0 e5 61 d0 3c f7 cd 93 3e 38 b1 13 bf a0 92 c3 be
       0.025437305 0.28868076 -0.5769229 -0.38197803

weight_hh_l0 f4 [300, 100]
000000 98 44 ed 3d 0c 0f d4 3f 88 07 84 3e f1 91 95 be
       0.11585349 1.6567092 0.25786996 -0.29212907
000010 56 7c e9 3d e7 ce 2c 3f 1d c6 21 3d 01 80 e7 bc
       0.11400668 0.6750321 0.039495576 -0.02825928
000020 32 5c 9a bf c0 f6 9d be ea 4a a5 be ae b1 e5 3c
       -1.2059386 -0.30852318 -0.32283717 0.028038826
000030 89 46 79 3f 96 a7 5f bf 12 fb 76 3e 9f ac 17 3e
       0.97373253 -0.8736509 0.24119213 0.14811943
000040 57 46 a3 3d b8 43 c7 3e 40 f4 5f be a9 b1 3b 3f
       0.07972401 0.38918853 -0.21870518 0.7331796
000050 e0 f7 36 bf f8 22 8d 3c 9d 1c 2d bd e0 98 bc bd
       -0.7147198 0.017228588 -0.042263616 -0.09208846
000060 d4 09 f5 3d cf 51 c0 3d 76 e7 71 3e 97 0d 1b be
       0.11964765 0.09390604 0.23623452 -0.15141903
000070 56 63 a1 3e 4b d5 25 bd 27 1f ad 3d 3a fe b7 3e
       0.315211 -0.040486615 0.084532075 0.35936147
000080 f9 50 c3 3d 7c ef 0a bc bf 62 cb 3c 73 48 2e 3f
       0.09536929 -0.008479949 0.02482736 0.680793
000090 3c 61 9b 3e 5a 2b d5 3c cd 9b 9d 3d 11 26 ff be
       0.3034762 0.026021648 0.07695732 -0.4983373
0000a0 26 bb 60 3e f9 87 54 bf 76 99 81 3f 96 45 a5 be
       0.21946391 -0.8301998 1.0124958 -0.32279652
0000b0 57 7e 2a be 54 c4 d7 be 2f b0 70 bf 66 b2 ce bd
       -0.16649757 -0.42141974 -0.94018835 -0.100926206
0000c0 b4 5a 12 bd 0e dc 25 ba 0f c2 2b 3f 1c c7 bd 3d
       -0.035731032 -0.0006327041 0.67092985 0.09266493
0000d0 a7 35 24 be 54 f3 dc 3d a2 af 6b bf a0 c1 2e 3f
       -0.16036092 0.10788599 -0.9206487 0.682642
0000e0 ac be 8c bf 43 44 42 3f 01 75 e2 3e 41 71 c4 be
       -1.0995688 0.7588541 0.44229892 -0.38367656
0000f0 f8 6a 4e be a3 bc c2 3d a4 4f 5c bf d4 9d 8c 3e
       -0.20157993 0.09508636 -0.8605902 0.27464163
000100 43 58 0d bf f8 97 ba be 75 e3 c2 be 6c 6a ab bf
       -0.552128 -0.36444068 -0.3806416 -1.3391852
000110 4d 7b 6d 3e c0 e2 da be bc ee ae bd 17 b2 a4 3f
       0.23191567 -0.42751122 -0.08541629 1.2866849
000120 98 5e 0e 3f 6f d2 15 bf 64 6f f0 3e d0 6b e5 bd
       0.5561309 -0.5852422 0.46959984 -0.11202204
000130 cd 8e a7 be 52 0d 35 bf 7b 53 23 bf 64 ac 21 3f
       -0.32726136 -0.7072345 -0.63799256 0.6315367
000140 47 6f 0d bf d3 ce 6f 3f b2 d9 55 3e 90 83 16 3e
       -0.5524792 0.93674964 0.20883825 0.14698625
000150 29 cf 32 3f 54 b1 91 be 81 84 85 bf 68 b7 b5 be
       0.6984735 -0.28455603 -1.0431062 -0.3549149
000160 4f 3d 9a bf d9 b8 74 3e 6c 72 4a be 68 2f 84 bc
       -1.204996 0.23898639 -0.19770211 -0.016135886
000170 5d 5c a3 3e f5 c1 c3 3d 20 8b 56 3e ba d6 a9 be
       0.31906405 0.09558479 0.2095151 -0.33171636
000180 f1 60 a1 3e 31 27 4e bf c8 54 00 bf b9 68 8b bd
       0.31519273 -0.8052855 -0.50129366 -0.06807084
000190 bf c5 b0 3e 9b ee be 3e 04 9c 12 be 06 5c 1e 3e
       0.34525868 0.37291417 -0.14317328 0.15464792
0001a0 04 36 c1 bd b6 c2 6a bf 6a 98 e7 3e 99 a6 67 bf
       -0.09434131 -0.91703355 0.4523347 -0.9048858
0001b0 ff a5 1c bf 63 5b 62 3f bd 8f 45 bf b2 b9 81 3e
       -0.6119079 0.88420695 -0.7717245 0.25336987
0001c0 da 62 22 bf 6d 75 44 bc f0 dd 3f bf 70 4c 4d bf
       -0.63432086 -0.011990887 -0.74948025 -0.8019476
0001d0 a7 8a 06 3f 61 dd b1 bc 17 34 e3 3d 46 78 57 bf
       0.52555317 -0.021712007 0.1109392 -0.841679
0001e0 43 21 8e bc b7 68 62 3e 7a b2 91 bd 87 d9 f7 be
       -0.017349845 0.22110258 -0.0711412 -0.48408148
0001f0 fd 07 3b 3d ae 19 c3 3e 7c 63 09 3f d2 5d bc 3e
       0.045661915 0.3810553 0.53667426 0.3679033
000200 be 12 fc bd dc 5c 5a 3c 45 57 dc bd a4 7e 0c 3d
       -0.12308262 0.013327803 -0.10758833 0.03430046
000210 96 c3 e4 3d 12 24 52 3e 64 d3 d7 3e 92 2a ff be
       0.111701176 0.20521572 0.42153466 -0.49837166
000220 c7 c6 51 3f ce a0 94 be f9 40 0d bf df 26 89 bd
       0.81943935 -0.29028934 -0.55177265 -0.06696867
000230 a7 24 5a 3d 43 f7 28 be 4d e2 94 bd ab e9 0d 3f
       0.05325761 -0.16500573 -0.07269726 0.55434674
000240 58 e0 8d be 7c 48 03 bd 53 44 45 bd d3 96 24 3f
       -0.27710223 -0.03205155 -0.048160862 0.6429264
000250 d2 f4 9b 3e b6 71 9e 3f 69 34 98 3e 77 5a a2 3d
       0.3046022 1.2378452 0.29727486 0.07927411
000260 7a 7c 0e bf d1 78 7e bf 87 7a 2a bf 99 45 b6 3e
       -0.55658686 -0.994031 -0.6659321 0.35599974
000270 49 1a 57 bf e8 28 54 bf 4f 72 e8 3d b5 4a 92 be
       -0.8402448 -0.8287492 0.11349928 -0.28572622
000280 b4 75 30 3e da 50 e5 be a0 5b 99 bc 08 f5 a8 3f
       0.172324 -0.44788247 -0.018720448 1.3199778
000290 d9 38 a9 3e 0e 20 56 bd 14 6d 0b bf d6 2f e2 be
       0.33051184 -0.052276663 -0.54463315 -0.4417712
0002a0 8a 3f 7a bf 54 b4 2c bd 96 14 50 3e 5c c5 a4 3d
       -0.977532 -0.04216416 0.20320353 0.08045456
0002b0 55 08 f1 bd 4f 93 97 3d 99 ce d0 3e f2 c5 18 3f
       -0.11769167 0.07401144 0.40782622 0.5967704
0002c0 b8 93 4f bf ff 0c 01 3f 9d 9e 26 be ed fb 08 bf
       -0.81084776 0.50410455 -0.16271444 -0.5350941
0002d0 99 02 91 be 44 ec c1 3e 02 fa 6f bd 0c c4 14 3f
       -0.28322294 0.3787557 -0.058588035 0.58111644
0002e0 d2 40 34 bf 1a 58 dc be e6 57 3b 3f 9c ce 2e bf
       -0.7041141 -0.43035966 0.73181 -0.6828401
0002f0 ae c5 2a bf 2f 4e d9 bd de 05 11 3f 36 87 1f bf
       -0.66707885 -0.106106155 0.5664958 -0.6231569
000300 49 20 95 be 2f 3a fd 3e 74 66 32 be 42 03 a8 3e
       -0.29126194 0.49458453 -0.17421895 0.32814986
000310 ca bb 4f 3e 51 be 8e be 56 65 5c be b2 db d6 be
       0.2028648 -0.27879575 -0.21523032 -0.4196449
000320 8a 4a 80 bf 6a 1d 30 be 93 81 09 3f 7f 24 38 3d
       -1.0022748 -0.1719872 0.5371334 0.04495668
000330 b4 ed 0b be 9c 8a 20 bf 57 ad ff 3d 04 e1 86 be
       -0.13664895 -0.627115 0.12484234 -0.26343548
000340 0a f1 26 be be 4a aa be aa 32 84 bf be a2 f0 be
       -0.16302887 -0.3326015 -1.0327961 -0.46999162
000350 06 77 55 3f 79 bd 5f bc 4e 61 e1 be ae 2c 50 bf
       0.8338474 -0.013656014 -0.4401955 -0.81318176
000360 f5 03 6b bc 0f 3c f0 3e 6a 79 b8 bd 54 98 2f 3f
       -0.014344205 0.4692082 -0.09007533 0.6859181
000370 27 f8 28 bf 64 68 f7 3e 95 8a b8 be 4b 27 a1 3e
       -0.6600365 0.4832183 -0.3604323 0.3147529
000380 b5 22 b2 be a3 99 7c 3c 0d c4 83 be d2 dc 53 3c
       -0.34792104 0.015417489 -0.25735512 0.012931066
000390 a3 76 3a be 85 0c 69 be 64 3e 6c 3d 50 17 19 3f
       -0.18209319 -0.22758682 0.057676688 0.598012
0003a0 04 15 fc bc 24 ff 85 be 51 53 24 be cc c8 bb bd
       -0.03077174 -0.2617122 -0.16047408 -0.09169158
0003b0 c6 9e d8 3e 5d 72 ee 3c 1b 16 6c 3d c7 ad 42 3e
       0.42308635 0.029107267 0.05763827 0.19011603
0003c0 9b b1 d7 be 56 3b d3 3d 00 90 44 3f 6d ce 79 bf
       -0.4212769 0.10314052 0.76782227 -0.97580606
0003d0 b7 39 1c bf 34 61 2f bf 56 f2 ae 3e 72 2b ed 3d
       -0.61025566 -0.68507695 0.34169263 0.11580552
0003e0 b5 c5 3e 3e ae 24 3f be 4a 80 44 bf f0 8b 17 3e
       0.18630107 -0.18666336 -0.76758254 0.14799476
0003f0 a6 22 49 3f 63 54 95 bf 51 93 12 be a4 a5 20 3d
       0.78568494 -1.1666378 -0.14314009 0.039220467

bias_ih_l0 f4 [300]
000000 33 ad cf bd 22 ff b8 3e 2b e8 01 bd ac ee 1a bd
       -0.10140457 0.3613215 -0.031715553 -0.03782527
000010 a5 35 3b 3e 62 b7 45 be d2 18 7a 3e 2b 18 94 bd
       0.18282183 -0.19308236 0.2442353 -0.07231172
000020 1d 63 17 be 33 1b c6 3d ad 06 50 be 57 61 70 3e
       -0.14783902 0.096731566 -0.20315047 0.23474632
000030 fc e8 9c bd 6a ab 8c 3e d2 d8 e8 bc 37 c3 d9 bd
       -0.07661626 0.2747453 -0.0284237 -0.106329374
000040 0d 82 6d bd ad 5a 5b 3d 3a 08 93 3e 22 03 15 be
       -0.057985354 0.053553272 0.28717214 -0.14551976
000050 5e 46 54 be 30 5a fb 39 4d 38 5c 3d 0c 28 20 be
       -0.20729968 0.00047941646 0.05376463 -0.15640277
000060 69 86 ed 3d b7 12 87 3d 02 36 a5 3e 59 5d 42 3e
       0.11597902 0.065953664 0.32267767 0.18980922
000070 44 92 04 3e f4 63 c9 3e aa 33 13 3e 84 66 34 be
       0.12946421 0.3933407 0.14375177 -0.17617232
000080 09 12 57 3d 48 d9 70 bd b0 14 ba be cc 32 19 3e
       0.052507434 -0.058800966 -0.36343908 0.14960784
000090 06 a7 af be 3d 55 8a 3e ea 65 f1 bc 13 83 1a 3d
       -0.34307116 0.27018157 -0.029467542 0.03772266
0000a0 a6 a5 bc 3d 90 7d 98 be 92 bd 16 bd e6 ea 53 3d
       0.092112824 -0.29783297 -0.036801882 0.05173769
0000b0 8d b8 f0 3d f6 20 dd bd 54 e8 52 bd 08 5e 41 be
       0.1175395 -0.107973024 -0.051491097 -0.18883526
0000c0 3f a1 9b 3c 24 0b d7 bd 55 4e ef bd 9b f4 fb 3d
       0.018997787 -0.10500172 -0.116848625 0.12302514
0000d0 f0 2b c3 bd 60 a4 a8 3e 39 2e c3 3e e9 4b 34 3e
       -0.09529865 0.32937908 0.38121203 0.17607082
0000e0 da 29 d9 3b 4c 46 83 bd 63 88 8e bd b2 c9 7a be
       0.0066273035 -0.064098924 -0.069596075 -0.24491003
0000f0 f4 f9 ab 3c b6 bd 32 3e db 48 63 be 26 23 24 be
       0.02099321 0.17455181 -0.22195761 -0.16029033
000100 31 69 bd bd fe fd b7 3d 0e 5f 9a bd 3c df 07 bf
       -0.09248579 0.08983992 -0.075376615 -0.53075004
000110 72 77 1f 3b c8 78 ae 3e a2 d2 3a 3d 78 22 44 be
       0.002433267 0.34076524 0.04561103 -0.19153774
000120 be 02 17 be 8b 10 8d be a4 0c 96 3e 1c d7 04 3e
       -0.1474714 -0.27551684 0.2930652 0.12972683
000130 02 bc d6 3e 7c 35 ba 3c 53 f2 8c be e0 8a 3d 3e
       0.41940314 0.022730581 -0.2752863 0.18510008
000140 ad c2 a3 be b3 20 81 bd 51 14 5c 3e 88 34 49 3e
       -0.31984463 -0.06305065 0.21492125 0.19648945
000150 68 23 96 be 18 ae 1a 3f f3 1b 55 3d cf 23 4e 3e
       -0.29323888 0.60421896 0.052028608 0.20130847
000160 d1 27 60 3d c4 48 9c bc b6 22 42 3e ab c5 cf be
       0.054725472 -0.019077666 0.18958554 -0.40580496
000170 7c 2a 27 be 11 6c d8 3e 51 ef c7 bd 75 0e bb 3e
       -0.163248 0.42269948 -0.09762443 0.36534467
000180 70 20 87 bd b6 26 37 3e cf 46 35 3e 4a c0 07 be
       -0.06597984 0.17885861 0.17702793 -0.13256946
000190 66 94 88 be e7 c4 ac be e1 15 b1 be b6 58 49 bd
       -0.2667572 -0.33743975 -0.34587005 -0.049156867
0001a0 80 94 98 bd a2 61 db bd 05 9d 40 bf 22 d2 8a be
       -0.07450199 -0.10711981 -0.7523959 -0.27113444
0001b0 99 29 0a bf 00 af 85 be 91 73 bc be af 79 a6 bf
       -0.53969723 -0.26110077 -0.3680692 -1.3005885
0001c0 38 ed e5 be aa 31 28 bd 8c fc 0e bf 69 3b 46 be
       -0.44907546 -0.04106299 -0.55854106 -0.193586
0001d0 9a 8e 38 bf 31 29 ef be da c0 f4 be 4b e4 b9 bd
       -0.7209259 -0.46711114 -0.47803384 -0.090767466
0001e0 ec 70 d1 be 95 60 00 bf 1a 15 2b bf a3 6a be be
       -0.40906465 -0.5014737 -0.66829073 -0.37190732
0001f0 e3 d9 51 bf 77 01 d5 be 4e f6 11 bf 6b 5c 29 bd
       -0.81973094 -0.4160268 -0.57016456 -0.041347902
000200 be 37 12 bf 7d d1 8b be be 42 08 be 6a 09 04 bf
       -0.57116306 -0.27308264 -0.1330671 -0.51576865
000210 5a 2c 96 bd 79 b5 e3 be 64 cb 4a be 74 a0 2b bf
       -0.07332678 -0.4447439 -0.1980415 -0.6704171
000220 fc 53 cc be 7a 46 8e bf 06 c0 93 be 0e 1a 52 bf
       -0.39907825 -1.1115258 -0.2885744 -0.82071006
000230 20 c6 59 bf f8 b4 18 bf 56 07 a2 bf e6 4f fc be
       -0.8506794 -0.59651136 -1.2658489 -0.49279708
000240 34 46 ea 3d 0d 96 ef be 2a d4 d5 bd ad dd d6 be
       0.114391714 -0.46794167 -0.10440858 -0.41966
000250 56 6d 21 be c7 55 a5 3d 01 bd eb be 2f b0 61 bf
       -0.15764365 0.08073001 -0.46042636 -0.8815946
000260 4a 5f cf 3d 25 a3 5d be 0a f6 05 bf 5c f8 3f be
       0.10125597 -0.21644266 -0.5232855 -0.18747085
000270 23 19 c1 be 22 35 f8 3c 69 15 c3 be 46 f7 3c bf
       -0.3771449 0.030298773 -0.38102272 -0.7381481
000280 ae 15 81 be e6 08 63 be 41 3c cc be ad 05 e5 bd
       -0.25211853 -0.22171363 -0.3988972 -0.11182723
000290 bc 51 06 bf a6 1d 7c be 68 d7 07 bf 48 b9 1d bf
       -0.52468467 -0.24620685 -0.5306306 -0.6161084
0002a0 d0 44 4b bc 37 51 f8 bd 15 5d d7 bd ef ad 49 bd
       -0.012406543 -0.121248655 -0.10515801 -0.04923814
0002b0 7c 22 cb be b0 ee 8c be ad 62 e2 be e8 2d 3b bf
       -0.39674747 -0.27525854 -0.4421591 -0.7311692
0002c0 c9 0e db be 6e 17 ed be 55 75 70 be 8a 66 bc bd
       -0.42784718 -0.46306938 -0.23482259 -0.09199245
0002d0 8a 08 a5 be 1d e7 25 bf 21 52 13 bc 48 f6 0d be
       -0.32233077 -0.64805776 -0.008991749 -0.1386348
0002e0 44 a0 f6 be 91 6e c9 be 8b e2 87 bd 5b c6 00 bf
       -0.48169148 -0.39342168 -0.066350065 -0.50302666
0002f0 18 52 ec be f0 b4 3f bf 66 0f 48 be 25 bd 94 be
       -0.46156383 -0.74885464 -0.19537124 -0.29050556
000300 ac b2 42 bf 3a b9 6f bf 5f f2 45 bf 44 cd 89 be
       -0.7605388 -0.9364201 -0.77322954 -0.26914418
000310 25 f9 1b bf 11 03 62 bd f2 64 8a bf 43 6a 32 bf
       -0.6092704 -0.055178706 -1.0812056 -0.6969339
000320 2c 2b 8d be 05 20 80 bd 8e 38 2e be 4a b5 f4 3e
       -0.27572 -0.06256107 -0.17013761 0.47794563
000330 7a 94 9d 3e 05 e6 13 be 5e bc 52 be 44 08 0f 3a
       0.3077734 -0.14443214 -0.20579669 0.0005456249
000340 74 b1 6a be cc fa 63 3e aa 3a 78 be f2 8f be 3e
       -0.22919255 0.2226364 -0.24241129 0.37219197
000350 2e 41 2f bc 6d ef a1 3d 45 ad 98 3e 6b 63 7e 3e
       -0.010696692 0.07906995 0.29819694 0.24842612
000360 63 80 87 be 83 68 41 3e bb 75 53 3d 56 35 59 3d
       -0.2646514 0.18887524 0.05162595 0.05302938
000370 42 07 b8 3e 1f 77 00 3e fc cd 49 3e 33 80 86 bd
       0.35943037 0.12545441 0.19707483 -0.06567421
000380 2c 80 d8 3d 55 f1 b4 3d 00 c9 8a 3e 98 d9 8f bd
       0.10571322 0.08835093 0.27106476 -0.070239246
000390 8d c5 3c 3e 03 fb e3 3d 7f d3 83 3e 7f e2 7a bd
       0.18434735 0.11131861 0.25747296 -0.06125116
0003a0 6b 0c 0e 3e b7 75 b3 bd 0c 03 af bd 95 fd ef be
       0.13871925 -0.08762687 -0.08545503 -0.46873155
0003b0 35 f5 31 be 3a e0 63 be 84 eb c2 be fc aa 60 3e
       -0.17378695 -0.22253504 -0.3807031 0.21940225
0003c0 7a b9 69 3d 1a 95 a0 3e 59 da c1 be 47 8a 55 3d
       0.05706165 0.31363755 -0.378619 0.052133825
0003d0 77 1f 10 3e 38 09 81 3e ca f6 21 3e 1e 3b 24 3e
       0.14074503 0.25202346 0.15816799 0.16038176
0003e0 bc 5b 12 3e 20 2c b1 3d 13 5e 0e 3e 8a cf 07 be
       0.14292806 0.08650994 0.13903074 -0.13262764
0003f0 a1 9c 66 3e b2 4b 78 3e 6e fa 4f be fc 3a b9 bd
       0.22520687 0.24247625 -0.20310375 -0.090444535

bias_hh_l0 f4 [300]
000000 b1 cf e1 bd ba 40 b2 3e ae 8f 36 bd 94 d3 f9 bb
       -0.11025942 0.34815007 -0.044570617 -0.007624099
000010 7a b3 bb 3d 92 53 8d be 93 d7 86 3e 3f 3a 5f be
       0.09165092 -0.27602822 0.26336345 -0.21799563
000020 db dd 5c be a8 1f a2 3c 6f b9 80 be 9b f7 24 3e
       -0.21569006 0.019790486 -0.25141475 0.16110079
000030 4f e4 20 3c 82 f5 b3 3e 72 f4 6d bd 4f 2b ec bc
       0.009820058 0.35148245 -0.05809445 -0.028829245
000040 6a 5c b6 bd 8c 82 7b 3e 9e ef 86 3e dc 44 15 be
       -0.08904345 0.24561518 0.26354688 -0.14577049
000050 e8 e3 5e be ba f7 27 bd 97 54 d2 bd c4 d6 0c be
       -0.21766627 -0.041007735 -0.102700405 -0.13753802
000060 c3 af 86 3d 6b 45 05 3e b2 30 5a 3e 39 47 57 3e
       0.06576493 0.13014762 0.21307638 0.21023263
000070 c0 f6 59 3e 37 d9 87 3e 76 62 29 3e fe a0 22 be
       0.21285534 0.2653291 0.16541466 -0.15881726
000080 38 19 76 3d ca 5a d1 bd bc 79 8b be 7e f0 aa 3d
       0.060082644 -0.10222395 -0.27241313 0.083466515
000090 b4 a0 e0 be 8b 24 be 3e 07 91 c3 bd 69 fc 5f 3d
       -0.43872607 0.37137255 -0.09549146 0.054684076
0000a0 2b 3f fe 3c 51 b0 4f be bd 0c 42 3c e8 22 04 3e
       0.03103598 -0.20282103 0.011843857 0.1290394
0000b0 e4 76 63 3e 02 8f 99 bd 0a 52 da bc 1a 52 71 be
       0.22213322 -0.0749798 -0.026650447 -0.23566476
0000c0 51 a6 47 bd bb b4 91 bd a3 8b 95 bd 26 4a 26 3e
       -0.048742596 -0.0711455 -0.07302024 0.16239223
0000d0 8e 21 b1 bc dc d6 ad 3e 4a 1b 8c 3e 89 9b 4e 3e
       -0.021622445 0.33952987 0.2736457 0.2017652
0000e0 1e cc 5a 3d 25 7f 03 be 35 97 f1 bd 1b 14 b1 be
       0.053417318 -0.1284147 -0.117964186 -0.34585652
0000f0 1e fa 6a 3b 22 e1 3f 3e 99 e1 9c be 18 5f 40 be
       0.0035854648 0.18738225 -0.30640867 -0.18786275
000100 0b c2 ab bd 80 a1 9e 3d 68 39 c3 3b 4b 01 c9 be
       -0.0838662 0.077456474 0.005957771 -0.392588
000110 df 39 bf 3d 5e 1b ad 3e fa bf c1 3d 8e 56 0e be
       0.0933721 0.33809942 0.09460445 -0.13900205
000120 c9 09 91 be b1 31 e3 bd d1 cb 55 3e 83 21 18 3e
       -0.28327778 -0.11093462 0.20878531 0.14856534
000130 dc ce 93 3e 65 70 8b bc 4f bc 7c be 66 af 4c 3e
       0.2886876 -0.017021367 -0.24681209 0.19988784
000140 ad ff ba be 70 19 18 be cf 65 09 3e 10 d5 57 3e
       -0.3652319 -0.14853454 0.13417743 0.2107737
000150 ea 71 a9 be 26 68 0f 3f 45 e9 32 3e f8 21 cf 3d
       -0.33094722 0.5601829 0.17471798 0.10113901
000160 e9 1c 32 3c 73 0d 3a bd 0e a2 18 3e d9 e8 cb be
       0.0108711505 -0.045422982 0.14905569 -0.39826086
000170 0e bd 29 be 75 22 ca 3e 8f 87 f0 bd 77 1b bf 3e
       -0.16576025 0.39479414 -0.11744606 0.37325642
000180 50 2a 34 be e4 b2 a9 3d c1 ac 62 3e 0a 7a 26 be
       -0.17594266 0.08286074 0.22136213 -0.16257492
000190 45 66 d0 be 43 da 9e be 01 c8 e1 be a4 4f 0f be
       -0.40703025 -0.31025895 -0.44097903 -0.13995224
0001a0 0e d0 aa bd 5f 28 06 be 7b 4d 4e bf be ca 47 be
       -0.083404645 -0.13101338 -0.80586976 -0.19510934
0001b0 81 37 07 bf c9 fa 84 be d7 ae b1 be 51 53 93 bf
       -0.5281907 -0.25972584 -0.34703705 -1.1509801
0001c0 6e 3f 04 bf 04 c1 42 bd b8 fd 0a bf 15 fe 38 be
       -0.51659286 -0.047547355 -0.54293394 -0.18065675
0001d0 a8 24 38 bf 5b 63 e4 be 30 9e ba be 6e ec 9e bd
       -0.71930933 -0.44607052 -0.36448812 -0.07759939
0001e0 26 9d f1 be 69 4c f8 be 1f 2b f6 be 57 fb ba be
       -0.47190207 -0.48495796 -0.48079774 -0.36519882
0001f0 2b cf 54 bf da d9 0f bf 8b 8b 24 bf 32 18 4c 3d
       -0.83128613 -0.5619179 -0.64275426 0.049827762
000200 f0 1d 20 bf 92 64 61 be 04 61 6e bd 4f 09 cc be
       -0.6254568 -0.22011021 -0.05819799 -0.39850852
000210 c8 e4 e7 3c 49 fd d0 be 98 dc 76 be 5f 4a 1a bf
       0.028307334 -0.4081824 -0.24107587 -0.6026973
000220 72 ff e5 be 70 da 85 bf 10 64 bb be ce 42 5c bf
       -0.44921452 -1.0457287 -0.3659978 -0.86039436
000230 00 db 5a bf 9e c6 36 bf 9b 40 a1 bf c2 d4 eb be
       -0.8549042 -0.71396816 -1.2597841 -0.4606076
000240 9b 34 8e 3e a1 02 18 bf 85 10 5c be 59 22 c0 be
       0.2777451 -0.5937901 -0.21490677 -0.37526205
000250 60 88 2d be cc 8f e3 bc 67 de f1 be e3 ba 60 bf
       -0.16946554 -0.027778529 -0.47239992 -0.87785167
000260 de 4c d2 3d 48 2e 8f be 74 54 15 bf 9c e5 48 be
       0.102685675 -0.27964997 -0.5833199 -0.19618839
000270 3f 0c b9 be eb c9 3a 3d 6b 09 c1 be 52 91 5f bf
       -0.36142156 0.04560272 -0.37702498 -0.87331116
000280 d6 be 5c be ae 00 23 be a3 48 a0 be 37 93 e7 bd
       -0.21557173 -0.15918228 -0.31305417 -0.11307376
000290 04 43 df be 97 b1 83 be 23 48 04 bf aa a4 10 bf
       -0.43605816 -0.25721428 -0.5167257 -0.5650126
0002a0 ac 7d 53 bd 63 90 aa bd eb 9c 2f be 60 53 56 bc
       -0.051633522 -0.08328321 -0.17149703 -0.013081402
0002b0 ba 08 cb be 0c 5e c1 be b1 28 ca be 21 e0 24 bf
       -0.39655095 -0.37767065 -0.3948417 -0.64404494
0002c0 41 a8 a4 be 9a 7f 9a be b8 d9 a9 be 90 c5 25 bd
       -0.32159618 -0.30175477 -0.3317392 -0.040471613
0002d0 a1 83 4e be df f7 48 bf ec f8 13 3d 97 80 b4 bd
       -0.201674 -0.7850322 0.036126062 -0.08813589
0002e0 52 77 01 bf 47 d7 e7 be bf 1e 96 bd bb 02 ff be
       -0.50572693 -0.4528143 -0.07330083 -0.4980677
0002f0 fa cb f1 be 45 1b 1a bf de 90 1b be 71 d4 f7 be
       -0.47225934 -0.6019786 -0.15191981 -0.48404267
000300 7e 5c 48 bf e4 b0 48 bf 03 56 47 bf 3f 3f de be
       -0.7826613 -0.78394914 -0.7786562 -0.43407628
000310 9d 17 28 bf e2 f4 bd bd 87 89 82 bf 25 07 0e bf
       -0.6566103 -0.09275223 -1.019822 -0.5547965
000320 58 59 3c be fe 8f 05 3f c9 3b bb bf 61 b7 6e bd
       -0.18393457 0.5217284 -1.462762 -0.058280353
000330 f6 88 0b bf 72 11 f6 be 77 63 21 bf d2 03 56 be
       -0.5450586 -0.48060185 -0.63042396 -0.20899895
000340 36 d8 43 3e 21 2b d1 be 16 bf 01 3f 53 45 a2 3e
       0.19125447 -0.40853217 0.506822 0.31693515
000350 49 b8 bb 3e 5c 64 e1 3e 86 e5 18 3e a0 40 cb 3e
       0.36664036 0.4402188 0.14931306 0.39697742
000360 6b c5 3f 3e 61 0c c2 3e c5 9c 3b 3f b5 76 e8 ba
       0.18727653 0.3790007 0.73286086 -0.0017735573
000370 08 b9 bf 3e be 22 aa 3d 25 eb e1 bd 45 6d 90 3e
       0.37445855 0.08307408 -0.110311784 0.28208366
000380 c9 bc bc be d7 61 19 bf d7 eb 1b 3f aa 2a bd be
       -0.36862782 -0.59914917 0.6090674 -0.36946613
000390 77 f4 f8 3e 7c 7f c8 3e 48 22 d4 3e 13 9f 94 3d
       0.48624012 0.39159763 0.41432405 0.072569035
0003a0 29 08 aa 3e 77 ee e2 3e 56 ca bc 3e 44 c2 c9 be
       0.3320935 0.4432256 0.3687312 -0.39406025
0003b0 8d 74 3d be a8 ed f9 be 6f 04 ba 3e e8 12 07 be
       -0.18501492 -0.4881413 0.36331508 -0.13190806
0003c0 f1 43 37 bf b8 a5 bd be 1e 56 b6 3d 90 2c 71 be
       -0.71588045 -0.37040496 0.08903144 -0.23552155
0003d0 93 75 6a 3f ac b0 60 be c6 15 b7 3e b6 06 75 3e
       0.91585654 -0.21942395 0.357588 0.23928341
0003e0 72 1f 5f bf 1f df 76 3e c2 de 30 3e e7 51 46 bf
       -0.87157357 0.24108551 0.17272475 -0.77468723
0003f0 0d d4 c5 3e cc 53 d6 3e 04 00 d9 3d 37 77 d9 3e
       0.38638344 0.41860807 0.10595706 0.42473766

weight f4 [100, 100]
000000 3a b8 6a 3e d9 89 fc bd a2 08 56 3e 7f a6 1d be
       0.2292184 -0.1233098 0.2090173 -0.15395544
000010 fd b8 0a bc 0e 0c 81 3e c9 82 05 3e 76 1f 0c 3d
       -0.008466956 0.2520451 0.13038172 0.03420969
000020 5f d1 8a bd c1 be 23 be 1f eb 83 3e 6f 1b 31 be
       -0.067782156 -0.15990736 0.2576532 -0.17295621
000030 7f 32 38 be 71 15 50 be b9 ef 15 be 6d 76 e8 bd
       -0.17988013 -0.20320679 -0.14642228 -0.11350713
000040 e3 e8 ec 3c 78 6b 3f be 80 7c 4a be ca e5 5b 3e
       0.028919643 -0.1869334 -0.19774055 0.21474376
000050 d4 72 13 be 7c 52 83 bd 06 8b 69 bd dc bd 3b be
       -0.14399272 -0.06412217 -0.05701735 -0.18334144
000060 2a af 62 3e 95 94 c0 3d b1 e6 41 be 0e 25 17 3e
       0.22137132 0.0940334 -0.18935658 0.14760229
000070 93 d9 4f be 93 a3 93 be fb 8e 88 be 6b 62 b1 3d
       -0.20297842 -0.28835735 -0.26671585 0.0866135
000080 8b 9c ff 3d 63 a3 a6 bd 8d df 14 be a7 01 0f 3e
       0.1248103 -0.08136632 -0.14538403 0.13965474
000090 23 27 9c 3e c2 e8 21 3e 28 71 ca 3d 83 b6 72 bc
       0.3049861 0.15811446 0.09884864 -0.014814022
0000a0 59 fa 60 3e 2c 0b 2f be b5 da 62 3d 07 9f 5e 3e
       0.219705 -0.17094105 0.055384357 0.21740352
0000b0 17 1b df 3d 58 71 ae bd 4f 9e df bd ad cd c4 bc
       0.10893839 -0.08517712 -0.10918867 -0.024023855
0000c0 04 a5 03 3d 84 51 8b bd 9d 01 86 bd ca e2 85 3e
       0.032139793 -0.06802657 -0.065432765 0.2614959
0000d0 a6 42 3a be c5 56 7d be 59 eb 62 3e d0 8d c1 bd
       -0.18189487 -0.24740131 0.2216009 -0.09450877
0000e0 8b 06 10 3e 3f e7 00 3e 41 c7 eb 3d ab b0 5d 3d
       0.14064996 0.12588213 0.11512614 0.05412356
0000f0 d3 e0 b0 bd dd 98 37 be 74 de 0d be fd 62 e8 bb
       -0.08636632 -0.17929406 -0.1385439 -0.0070918784
000100 2a 85 b1 3d 20 7e 2c be 58 6e 96 bc 01 53 85 3e
       0.08667977 -0.16844988 -0.018363163 0.2603989
000110 6f a1 4e 3e 4b dd e9 bc bf 20 66 3e 9f 3b 9a 3d
       0.2017877 -0.028547904 0.22473429 0.07530903
000120 0b 0a 05 bd 56 b2 13 be aa 3f 40 3d ca b1 21 be
       -0.03248028 -0.14423499 0.046935715 -0.15790477
000130 e8 3f 09 be 29 8a 60 3d 4b f8 45 be 6b 51 59 3e
       -0.13403285 0.05481926 -0.19332998 0.21222465
000140 73 ed 81 3e 40 00 77 be 9c ad 08 be 01 2f 02 3e
       0.25376472 -0.24121189 -0.13347477 0.12713243
000150 b0 e2 aa bd a9 cc 87 3d 2a bc 87 be 2c 44 6f 3e
       -0.083440185 0.06630833 -0.26510745 0.2336585
000160 f8 40 2e be f5 4f 2a 3e fd fa 3c 3c b4 8d 6c bd
       -0.17016971 0.16632064 0.01153445 -0.057752326
000170 62 12 b2 bd 8e bb 83 be ba 4d 11 be c3 11 9f be
       -0.086949125 -0.2572903 -0.14189807 -0.3106824
000180 45 a8 8e 3e 10 11 2e bd 6e ed 55 3e cb d3 a7 bd
       0.27862754 -0.04249674 0.20891353 -0.08194693
000190 4d 95 c4 3d 85 b2 02 be 1c c7 a4 3d 94 7d 13 be
       0.09598789 -0.12763412 0.080457896 -0.14403373
0001a0 84 50 12 bd 84 fa 10 3e 2a d8 3c 3e 31 3d e5 3d
       -0.035721317 0.14158064 0.18441835 0.11193312
0001b0 84 58 4e bd 49 39 35 be b0 b2 78 3e 66 65 35 be
       -0.050377384 -0.17697634 0.24286914 -0.17714462
0001c0 5a 38 f3 bd 28 6a 92 bd d0 6d 3e be 56 77 f0 bd
       -0.118759826 -0.07149154 -0.18596578 -0.117415115
0001d0 88 b2 33 3e 99 00 c0 bd a0 77 82 be 79 53 60 3e
       0.17548573 -0.09375114 -0.25481892 0.21906842
0001e0 e7 b2 55 be cb 4f c3 bc da 6e cd bd 09 eb 4b bd
       -0.20869027 -0.02384176 -0.10030909 -0.049784694
0001f0 bf 9c 3c 3e cf 83 9e 3d 1b d4 6d be c1 4b 4c 3e
       0.18419169 0.07739984 -0.23225443 0.19950773
000200 d1 92 37 be 4a 3f 70 be ec 2f 24 be 08 ca 7c 3e
       -0.179271 -0.23461643 -0.16033906 0.24686444
000210 d5 d1 e9 3d bf ac 39 bd 82 e2 38 be c3 6a b4 3d
       0.114169754 -0.04533076 -0.18055156 0.08809426
000220 18 7f 90 3e ca 11 db 3d 58 97 d2 3d b3 5e 1b bd
       0.28221965 0.10696752 0.10282773 -0.03793211
000230 13 ef 98 3d 77 15 31 be 49 37 35 3c bf a7 15 3e
       0.07467475 -0.17293344 0.011060544 0.14614771
000240 ed 96 b0 3d c5 0d 88 bd 2f 91 87 be d1 14 b4 bd
       0.08622537 -0.06643251 -0.26477954 -0.08793033
000250 cb dc 8c bd 9d 3d ab bd 4a 56 aa bd fc 89 51 3e
       -0.068780504 -0.08361361 -0.083172396 0.20462793
000260 b8 c8 ea bd e0 f6 57 be c4 d2 48 3e 32 97 1b be
       -0.11464065 -0.21090269 0.1961165 -0.15194395
000270 39 81 61 3e cd 22 1b 3e 99 fd 64 3d b4 ab 3e 3e
       0.22021951 0.15149994 0.055905912 0.18620187
000280 a8 4a fe bd ef 67 3e be 8d 24 ce bd 2c 0d 35 3d
       -0.12416583 -0.18594335 -0.10065565 0.044202015
000290 88 10 8c 3d f4 9b c5 bd e6 d5 4b 3d f0 b9 1d 3e
       0.068390906 -0.09648886 0.049764536 0.15402961
0002a0 10 a6 b8 3d f4 0a ab bc d5 38 16 3e 0a 06 b5 3d
       0.09016049 -0.020879246 0.14670117 0.088390425
0002b0 44 eb 8c 3d 5d 94 c4 bd 96 8d b8 3c 6c 3a 84 bd
       0.06880811 -0.095986106 0.022528451 -0.064564556
0002c0 af 37 de bd ac 7c 0a 3e dd 26 86 be 88 ec 4f 3e
       -0.108504646 0.13524121 -0.26201525 0.20305073
0002d0 e3 6e e5 3d 34 cd c7 bd 43 24 bb bd 6a 5b d8 3d
       0.112027906 -0.09755936 -0.09137776 0.10564311
0002e0 f4 55 9f 3c be a8 bf 3c ef 16 54 be 4e eb 3b 3e
       0.019450165 0.023395892 -0.20711873 0.1835148
0002f0 1c 0a 6c be d8 d4 5b 3d 9b a3 ca 3c db 99 00 be
       -0.23050731 0.05366978 0.024736216 -0.12558691
000300 c6 70 cc bd 8a 16 25 be 3c 8f 49 be 79 69 31 be
       -0.09982447 -0.16121879 -0.19683546 -0.17325391
000310 d5 66 e5 3d 65 d7 22 be f3 22 1b 3e 3f e1 48 3d
       0.11201254 -0.15902479 0.15150051 0.049042936
000320 f0 22 05 3e c2 72 5f bd e8 15 92 3d 92 8e 47 bd
       0.13001609 -0.0545528 0.071330845 -0.04871995
000330 2b 46 24 bd 79 a4 5a 3e cf fd 5f 3e aa 06 06 3e
       -0.04010598 0.21351804 0.21874164 0.1308848
000340 b5 b7 c7 bd d6 16 5b be c0 5a 30 3e be 8b 5a be
       -0.09751836 -0.2139543 0.17222118 -0.2134237
000350 49 07 1e be 30 34 d3 bd a1 7a 71 be 4a 52 41 be
       -0.15432467 -0.10312688 -0.23581935 -0.18879047
000360 49 c1 8c 3d 3e 73 c4 bd fb 33 38 be c8 f3 ab 3d
       0.06872804 -0.09592293 -0.17988579 0.08396107
000370 f0 0a 17 be d8 37 fd bc bb dd 11 be 57 8f 6e bd
       -0.14750266 -0.030910417 -0.1424474 -0.05824217
000380 41 e1 56 3e 1d fa 62 3e 9c ee 2d be 39 42 6c 3e
       0.20984365 0.22165723 -0.16985554 0.23072137
000390 94 88 e8 bd fa 16 8e be dc 8d 85 be 20 18 c6 3d
       -0.11354175 -0.27751905 -0.26084793 0.0967257
0003a0 67 04 29 3e 5d ab 1b be 23 9d 0c be 05 3d 18 3e
       0.16505586 -0.15202089 -0.13731818 0.14867027
0003b0 65 d2 6b 3e 69 be 3c 3e 5b 76 e5 3c 75 7e a3 bd
       0.23029478 0.1843201 0.028010538 -0.07983104
0003c0 23 19 65 3e f3 ff d0 bd f4 da e7 3c e4 ba 76 3d
       0.2237287 -0.102050684 0.028302647 0.060236827
0003d0 43 d7 15 3d a7 3d 02 be 20 81 1e be bc 2e 3a bd
       0.036582243 -0.12718831 -0.15478945 -0.045454726
0003e0 c1 85 d0 bd 53 a5 4a 3d ab 9c 05 3d 66 ca 76 3e
       -0.101817615 0.04947407 0.032620113 0.24100646
0003f0 77 fc 7d bd e9 69 89 be 88 ae 2a 3e 97 1b 47 be
       -0.062008347 -0.26838616 0.16668141 -0.19444118

bias f4 [100]
000000 21 7b 37 be 38 57 63 be f1 58 5e be 1e 5c 0c be
       -0.17918064 -0.2220124 -0.21713616 -0.13707015
000010 0a a8 a9 bd cd df 76 be 57 86 2a be 5d ec 12 be
       -0.08284004 -0.2410881 -0.16652809 -0.14347978
000020 7b 39 94 bd 50 c2 42 be ff bc 00 3e 38 22 67 bd
       -0.07237526 -0.19019437 0.12572096 -0.056429118
000030 33 4d 83 bd d3 37 b4 bd 03 99 a1 3d 6c 3f 52 be
       -0.06411209 -0.0879971 0.07890513 -0.20532006
000040 6f 29 1b be 32 16 72 3e 2b 8d 03 3e 90 73 a9 be
       -0.15152524 0.2364128 0.1284682 -0.3309598
000050 3c ce 90 be a1 80 cf bd e4 3d c7 3c 66 31 8a 3e
       -0.28282344 -0.10131956 0.024321504 0.26990813
000060 23 62 87 3e ab 6d 90 bd 78 29 12 bf 7b 8f 01 bd
       0.2644206 -0.070521675 -0.57094526 -0.031630974
000070 41 eb e8 3d 75 f1 27 3e d0 9c ad bc 12 f9 db be
       0.11372996 0.16400702 -0.021192938 -0.42963463
000080 94 cd 0d 3b 6e ca ac be 8f d3 9b bd d6 ff 17 be
       0.0021637427 -0.33748192 -0.07608711 -0.14843687
000090 9c 9c d2 3d 42 d5 09 be c8 e4 8e be bc 2e a2 be
       0.10283777 -0.13460258 -0.2790892 -0.3167628
0000a0 b7 5c 54 3d 2f b6 5c 3d c2 c7 40 be c5 ca c8 3d
       0.051846232 0.05388468 -0.18826202 0.098043
0000b0 2a ad 57 3b ca 55 aa bd ae d0 bc bc 52 29 07 be
       0.003290961 -0.08317144 -0.023048725 -0.13199356
0000c0 2d 42 e8 3d 14 54 a5 bd f8 c2 b7 3b cb 93 34 be
       0.11340747 -0.08072677 0.005607959 -0.17634504
0000d0 95 b9 6b bd ea 2b ba bc 2b b8 8a be 94 f4 9b bd
       -0.05755003 -0.022726018 -0.27093634 -0.07615009
0000e0 11 82 54 3e bf e0 4d be 6c 08 0a bd 21 af 70 be
       0.20752741 -0.20105265 -0.033699438 -0.23504306
0000f0 66 c9 c5 bd 86 65 2b be d2 ad 92 be b4 a3 58 be
       -0.09657554 -0.16737947 -0.2864824 -0.21156198
000100 68 97 54 be 82 d7 45 be 11 e5 24 be a1 20 80 be
       -0.20760882 -0.19320491 -0.16103007 -0.25024894
000110 11 4b e0 be c1 91 3b be 3b a3 10 be d1 1f 5d be
       -0.4380727 -0.1831732 -0.14124767 -0.21594168
000120 ae 08 a2 bd 99 48 26 3e fe 53 e2 be 6b f2 88 be
       -0.07911812 0.16238631 -0.44204706 -0.2674745
000130 81 e4 7a be d8 c9 0b 3f 56 d4 cb be b8 cf 0e be
       -0.2450123 0.54604864 -0.39810437 -0.13946426
000140 66 bf 75 be db 8f 7f be f8 76 fa be c0 38 3c be
       -0.23998794 -0.2495722 -0.4891889 -0.18381023
000150 07 6c bd bd 49 1d 6a be c9 0a 5c be c0 61 20 be
       -0.0924912 -0.22862734 -0.21488489 -0.15662289
000160 05 d3 77 be 5e ed 9d bd 19 32 71 be 93 12 54 be
       -0.24201591 -0.0771129 -0.23554267 -0.2071021
000170 e6 93 f4 bd 06 df 89 be e6 1d af 3e 80 1a 0a be
       -0.11942272 -0.26927966 0.34202498 -0.13486671
000180 1e 84 a3 3e 0a 7f 77 be 24 08 7a be 17 60 85 be
       0.31936735 -0.24169555 -0.24417168 -0.26049873
