saved_models/RNN_3_layers.pt (torch, 814472 bytes, 15 tensors)

weight f4 [100, 100]
0.49161035 -0.06959401 -0.7167754 -0.06646247 -0.5920303 1.2853351 0.46055874 0.75424427
-0.23517054 -0.75115764 -1.7754598 0.29328445 -0.9746138 -0.369331 -2.0329993 0.19323565
-0.41084546 -0.919161 -1.7562214 1.271265 -1.539205 -1.1296995 1.1429037 -2.2945125
1.8348552 -0.5377188 -1.3280089 -0.4235091 -1.4152315 0.62199 0.11856448 -0.023230566
1.0199146 -0.22655691 -0.6059812 0.277547 -0.6099601 -0.45535558 -1.4503515 1.1638937
0.48937553 2.3191633 -0.5168415 0.05051156 -0.07685652 0.1604506 -0.012554027 -0.02903501
-0.121680014 0.4025804 -1.6758215 0.7564087 -1.6403674 1.0039699 0.90822804 1.7004992
-0.22948708 -0.948206 -1.5001814 -1.0839736 1.1570802 1.1190099 -0.9440885 -0.4185659
-0.7228953 2.0677423 -0.32287923 -0.43398738 -2.4056013 -0.15963136 0.87776744 0.21120138
-1.2066191 0.4322577 0.353085 0.831346 -0.413798 0.2520689 -0.89809424 0.5016267
1.5079827 0.51614416 -1.4247073 -1.0356632 0.37903187 -1.1841986 0.5195612 -1.166064
-0.39118758 0.48893118 -1.4115889 0.872563 1.5755596 -0.07379386 0.19450168 1.2778248
0.7177385 0.6543299 0.04589578 0.18484221 -0.091628715 -1.6184037 2.1507926 -1.3439407
0.08354499 -0.9859817 0.11463454 1.6258576 0.8250811 -0.8668904 -1.368335 1.2404295
-0.379473 -0.09082059 -0.29579103 0.65321434 -0.38053945 1.0616213 -1.6273807 0.9913226
-2.689164 0.46434423 -0.63484365 -0.270629 -0.9192944 1.1001099 1.3281529 0.5393204
-2.7788188 -1.7834358 -0.0020256934 0.05017219 0.8069755 0.19545732 -1.0965748 -0.66551095
0.5586222 -0.8829495 -0.38141108 -0.63270307 0.15065484 0.24320918 1.9793429 0.007186076
1.7436398 0.95035094 -1.2653295 -0.35901493 -1.1737752 1.0769458 0.5614477 -0.52776885
-0.43003482 -1.2662245 1.0569481 -0.25900173 -0.98440206 -0.26110253 0.79061335 -0.20253095
-0.45698196 -0.18026246 0.34322137 0.6256319 1.2481202 -1.0230312 -1.4220488 -1.1927779
-0.6109747 -0.5064003 -0.9638227 -0.20320456 -0.48220927 -0.86139286 -0.10703465 0.15533353
-1.0214249 1.4480469 0.17881319 0.019529786 -0.08375123 0.3770194 0.74959224 -0.23414847
0.42162353 -0.1201379 0.96380347 -0.83672816 0.03656915 -1.542125 0.35961658 0.34419262
-1.162094 -2.50143 -0.8742942 -1.8208586 0.9570051 0.4008286 -0.3186983 -0.13042416
1.3902707 1.3457557 -0.3718115 -1.3664213 0.43926275 -1.001059 0.486817 2.305136
-1.189137 -0.077416256 0.40989906 2.4235666 -0.5184848 0.46897247 0.0061774044 0.9435393
-1.6442353 1.3202785 -1.9751337 -0.19891983 0.11740187 0.33878556 0.12802532 1.088694
0.6218374 -0.67863655 -0.07857503 0.94567114 -1.3183538 -0.4817245 0.22929998 0.31154978
-1.3112757 1.0516034 0.48796964 -2.8283021 0.7021008 0.4920237 -2.2435904 1.3521316
-1.1718282 -1.006628 0.13911237 -0.21540777 1.7609456 -0.85761595 -0.0300486 -1.0384625
1.7140862 -0.851171 -0.5910724 0.48302874 -0.23604566 -1.2147847 -0.7120308 -0.39914942
00000000: 5ab4 fb3e 4e87 8ebd 987e 37bf 7a1d 88bd
00000010: 4c8f 17bf dc85 a43f 5bce eb3e 2716 413f
00000020: 8cd0 70be de4b 40bf 4442 e3bf 6129 963e
00000030: 4a80 79bf f418 bdbe a91c 02c0 91df 453e
00000040: 565a d2be 234e 6bbf ddcb e0bf d0b8 a23f
00000050: ab04 c5bf fe99 90bf ab4a 923f 4bd9 12c0
00000060: 89dc ea3f f0a7 09bf 32fc a9bf 2fd6 d8be
00000070: 4e26 b5bf bd3a 1f3f efd1 f23d 074e bebc
00000080: 908c 823f 89fe 67be 9521 1bbf a41a 8e3e
00000090: 5826 1cbf 5e24 e9be 1ea5 b9bf 78fa 943f
000000a0: 6e8f fa3e 2c6d 1440 b94f 04bf 36e5 4e3d
000000b0: f366 9dbd 294d 243e 68af 4dbc d4da edbc
000000c0: 5f33 f9bd 051f ce3e 5281 d6bf 00a4 413f
000000d0: 8ff7 d1bf 1682 803f a281 683f f5a9 d93f
000000e0: a9fe 6abe a1bd 72bf f205 c0bf a6bf 8abf
000000f0: 341b 943f b73b 8f3f c9af 71bf 454e d6be
00000100: ab0f 39bf e455 0440 6d50 a5be 9833 debe
00000110: 5ff5 19c0 6776 23be 5eb5 603f 2d45 583e
00000120: 7f72 9abf e250 dd3e 8fc7 b43e 17d3 543f
00000130: 55dd d3be 2d0f 813e 81e9 65bf 9b6a 003f
00000140: 9405 c13f 0622 043f cf5c b6bf 9d90 84bf
00000150: 7710 c23e d293 97bf f601 053f 9641 95bf
00000160: bd49 c8be 3055 fa3e f2ae b4bf 4a60 5f3f
00000170: f0ab c93f 3c21 97bd 732b 473e c38f a33f
00000180: b6bd 373f 2a82 273f 37fd 3b3d 4747 3d3e
00000190: d6a7 bbbd da27 cfbf 96a6 0940 4006 acbf
000001a0: a319 ab3d 4c69 7cbf 84c5 ea3d 1a1c d03f
000001b0: 8438 533f 87ec 5dbf 9a25 afbf 65c6 9e3f
000001c0: 494a c2be 2500 babd ec71 97be 0e39 273f
000001d0: 11d6 c2be 35e3 873f 034e d0bf 51c7 7d3f
000001e0: 431b 2cc0 87be ed3e 1d85 22bf e28f 8abe
000001f0: e156 6bbf 67d0 8c3f ea00 aa3f e710 0a3f
00000200: 2bd8 31c0 a047 e4bf 7fc1 04bb 5b81 4d3d
00000210: f295 4e3f f725 483e 905c 8cbf ed5e 2abf
00000220: dd01 0f3f fa08 62bf 5048 c3be d4f8 21bf
00000230: 4345 1a3e d40b 793e 1c5b fd3f 2d79 eb3b
00000240: 972f df3f 334a 733f 51f6 a1bf ced0 b7be
00000250: 443e 96bf 5cd9 893f 09bb 0f3f dc1b 07bf
00000260: 862d dcbe a513 a2bf 134a 873f e09b 84be
00000270: c601 7cbf 3baf 85be a365 4a3f 4664 4fbe
00000280: 8af9 e9be b996 38be b6ba af3e 6a29 203f
00000290: 67c2 9f3f b0f2 82bf b205 b6bf f2ac 98bf
000002a0: d768 1cbf 73a3 01bf 16bd 76bf db14 50be
000002b0: 22e4 f6be 3e84 5cbf fc34 dbbd c10f 1f3e
000002c0: 0dbe 82bf 9a59 b93f ce1a 373e eefc 9f3c
000002d0: c485 abbd b008 c13e 47e5 3f3f 9ec4 6fbe
000002e0: 0adf d73e dc0a f6bd d3bb 763f d133 56bf
000002f0: 88c9 153d 5a64 c5bf aa1f b83e 043a b03e
00000300: 7fbf 94bf 6e17 20c0 bfd1 5fbf e511 e9bf
00000310: 49fe 743f 6839 cd3e 6c2c a3be e98d 05be
00000320: 64f4 b13f b941 ac3f 145e bebe e5e6 aebf
00000330: 0ce7 e03e b422 80bf 1440 f93e 5987 1340
00000340: a435 98bf 6a8c 9ebd 4ade d13e b71b 1b40
00000350: 6bbb 04bf 291d f03e d36b ca3b cb8b 713f
00000360: 4d76 d2bf e3fe a83f 2ed1 fcbf a4b1 4bbe
00000370: 6470 f03d 4d75 ad3e 1219 033e 535a 8b3f
00000380: bc30 1f3f 20bb 2dbf f2eb a0bd 8117 723f
00000390: d1bf a8bf 98a4 f6be 9dcd 6a3e 7483 9f3e
000003a0: e2d7 a7bf f19a 863f 28d7 f93e e702 35c0
000003b0: e1bc 333f 88ea fb3e fc96 0fc0 a612 ad3f
000003c0: 77fe 95bf 30d9 80bf 7973 0e3e db93 5cbe
000003d0: aa66 e13f b88c 5bbf 7b28 f6bc 57ec 84bf
000003e0: 2d67 db3f 58e6 59bf 8550 17bf 8b4f f73e
000003f0: f4b5 71be 117e 9bbf a747 36bf 505d ccbe

weight_ih_l0 f4 [300, 100]
-0.36836547 -0.21130353 -1.0799346 -0.20064376 0.17506939 0.4103428 0.2215957 0.087758005
0.23974422 0.05007632 0.1899513 0.6342084 0.06222314 -0.24482702 -0.32407132 0.015057098
0.008772217 0.092014395 0.1624037 -0.22838701 0.49980587 1.0448763 0.21658973 0.10760872
-0.13852334 0.31216174 -0.99074125 -0.41433495 -0.3145442 -1.26003 -0.3721035 0.35579452
0.8125056 -0.30543387 -0.21110095 0.64445025 0.81901056 0.61420506 -0.056401007 0.56105274
-0.42599955 0.2850265 0.09190634 -0.81470925 -0.29145265 0.12523878 -0.597144 -0.43519077
0.6617589 -0.3359631 -0.35377052 0.2959041 -0.4471253 0.07464473 0.41753992 0.39627132
0.7701153 -0.26274872 0.18636385 1.1385175 0.2865109 0.7412412 0.056044962 -0.39675453
-0.45150447 -0.22058323 -0.013337953 0.16674174 0.31575117 -0.80504686 0.18092407 1.0267247
-0.1394955 0.6367542 0.5353421 0.13003944 -0.43857995 -0.0069455025 -0.6660856 -0.47748157
-0.15065432 -0.4257891 0.28786367 0.12958795 0.056253426 -0.24867684 -0.10617135 0.2686593
0.43217665 0.1780376 -0.43816003 0.75991416 -0.5543432 -0.056026492 0.228752 0.28379163
0.16766857 0.7082088 0.19293651 -0.5432254 0.096806586 -0.05545811 -0.2971072 -0.0758876
-0.24340743 -0.53490305 -0.34357157 -0.9240514 0.11501154 0.112128876 1.3738871 0.718309
0.10995925 0.02014401 0.5689803 -0.61288863 1.1700102 0.08767431 0.11948402 -0.018015346
-0.6650487 1.0446569 -0.5044276 0.31372735 -0.58865374 -0.1214144 -0.74001825 0.0983691
0.62443626 -0.9360067 0.28833985 -0.4639871 -0.27865297 -0.3713733 -0.21321046 -0.5196895
0.6504995 -0.083351344 -0.044991415 0.46204653 0.32585895 -0.53393 -0.0013826226 0.30639753
-0.6244292 0.50736094 -0.36776018 0.28736082 -0.40813425 -0.16620047 -0.48982117 0.481706
0.2894739 -0.17213032 0.4404851 -0.06324796 -0.07070973 -0.33918986 0.013505152 1.0736631
0.27326742 0.7133306 -0.6698341 -0.08821348 -0.2995615 0.1283373 -0.13250394 0.041660015
-0.63547087 0.07075366 -0.0648425 0.67866236 0.26475477 0.30956468 0.41383418 -0.2994364
-0.50856274 -0.036977455 0.005188107 0.44487166 0.8948362 0.4776077 0.4490699 0.35094467
-0.8344357 -0.22390698 0.020552197 -0.6176243 0.36539486 -0.35186437 0.4614756 0.2698942
-0.27456582 0.9691915 -0.73003507 -0.20230147 -0.11961026 0.4108199 -0.2655838 -0.54338837
-0.093134575 -0.15312478 -0.108264536 0.12058026 -0.049850244 0.37122193 -0.27975607 0.15184818
-0.5374636 -0.50346285 -0.004549398 0.8034016 -0.013467898 -0.047674336 -0.35334584 -0.35623872
0.07453386 -0.4523017 0.4074637 0.019933604 0.2306778 0.15165783 -0.41417545 -0.16909829
-0.4239255 0.21398906 0.105076626 -0.23577344 0.23404017 0.004743369 -0.20107031 0.30223584
0.010588498 0.2901015 0.43223336 -0.33585134 -0.5439088 -0.0080787055 -0.032935206 -0.15416387
0.41856116 0.7079625 0.13331802 -0.21047877 0.18364415 0.045880564 -0.10591403 -0.54662687
-0.62305224 0.13101874 0.30865175 0.012745433 -0.23699763 0.05805146 0.785418 -0.18094943
00000000: 669a bcbe f45f 58be 4c3b 8abf 8f75 4dbe
00000010: 6445 333e 7418 d23e fce9 623e 78ba b33d
00000020: 827f 753e d41c 4d3d 9882 423e 7b5b 223f
00000030: b1dd 7e3d efb3 7abe adec a5be 0cb2 763c
00000040: 58b9 0f3c 0b72 bc3d 284d 263e 49de 69be
00000050: 8ee6 ff3e 82be 853f b3c9 5d3e f661 dc3d
00000060: 10d9 0dbe aad3 9f3e 38a1 7dbf b623 d4be
00000070: f00b a1be aa48 a1bf 5a84 bebe b32a b63e
00000080: 5e00 503f d461 9cbe d92a 58be b1fa 243f
00000090: adaa 513f 8b3c 1d3f be04 67bd 27a1 0f3f
000000a0: 9d1c dabe feee 913e 6439 bc3d c990 50bf
000000b0: 4839 95be 983e 003e 6ede 18bf 53d1 debe
000000c0: 0869 293f 5b03 acbe 6921 b5be be80 973e
000000d0: 9bed e4be 56df 983d cbc7 d53e 13e4 ca3e
000000e0: 4726 453f 0087 86be 2ad6 3e3e f1ba 913f
000000f0: 8fb1 923e fcc1 3d3f 678f 653d 6923 cbbe
00000100: 982b e7be 92e0 61be 6e87 5abc 59be 2a3e
00000110: 23aa a13e 8d17 4ebf 2944 393e b76b 833f
00000120: e9d7 0ebe 5302 233f 2e0c 093f 0f29 053e
00000130: 8d8d e0be 1997 e3bb 9684 2abf 7778 f4be
00000140: 2045 1abe 0701 dabe de62 933e b4b2 043e
00000150: fe69 663d 24a5 7ebe 5d70 d9bd b68d 893e
00000160: 4246 dd3e 7d4f 363e 8356 e0be bc89 423f
00000170: 70e9 0dbf 097c 65bd f73d 6a3e 234d 913e
00000180: 4fb1 2b3e 2c4d 353f 2691 453e d210 0bbf
00000190: 8842 c63d 0b28 63bd 6f1e 98be f56a 9bbd
000001a0: cc3f 79be 68ef 08bf 9de8 afbe a28e 6cbf
000001b0: 2c8b eb3d d3a3 e53d 88db af3f 19e3 373f
000001c0: 5132 e13d 0d05 a53c b1a8 113f 45e6 1cbf
000001d0: e5c2 953f 978e b33d 0ab4 f43d eb94 93bc
000001e0: a240 2abf 51b7 853f 2b22 01bf dfa0 a03e
000001f0: 03b2 16bf 1da8 f8bd d671 3dbf bd75 c93d
00000200: 0edb 1f3f 239e 6fbf 48a1 933e b88f edbe
00000210: 9aab 8ebe a424 bebe d853 5abe 5f0a 05bf
00000220: 2387 263f 1cb4 aabd eb48 38bd 5d91 ec3e
00000230: fcd6 a63e a3af 08bf 1e39 b5ba 23e0 9c3e
00000240: 98da 1fbf 68e2 013f 104b bcbe f520 933e
00000250: f9f6 d0be 7530 2abe d7c9 fabe 2ba2 f63e
00000260: ec35 943e ee42 30be 4387 e13e 2588 81bd
00000270: 43d0 90bd 4baa adbe b744 5d3c cb6d 893f
00000280: b5e9 8b3e d69c 363f 3f7a 2bbf 45a9 b4bd
00000290: 2060 99be da6a 033e 1daf 07be b1a3 2a3d
000002a0: 38ae 22bf 4be7 903d 25cc 84bd d1bc 2d3f
000002b0: f08d 873e 437f 9e3e 13e2 d33e ba4f 99be
000002c0: 2b31 02bf ac75 17bd ff00 aa3b 38c6 e33e
000002d0: fc13 653f ff88 f43e 7dec e53e 05af b33e
000002e0: 949d 55bf df47 65be 155d a83c a01c 1ebf
000002f0: 0915 bb3e 9127 b4be 8846 ec3e 932f 8a3e
00000300: e493 8cbe ef1c 783f 94e3 3abf 1e28 4fbe
00000310: 39f6 f4bd fc56 d23e 9afa 87be 801b 0bbf
00000320: 57bd bebd becc 1cbe ccb9 ddbd c9f2 f63d
00000330: c52f 4cbd cd10 be3e 303c 8fbe 177e 1b3e
00000340: 3797 09bf f1e2 00bf 1e13 95bb baab 4d3f
00000350: 75a8 5cbc 2a46 43bd bfe9 b4be ec64 b6be
00000360: 35a5 983d 1794 e7be 159f d03e cc4b a33c
00000370: cd36 6c3e 314c 1b3e ce0e d4be 1a28 2dbe
00000380: c30c d9be f31f 5b3e 6a32 d73d 986e 71be
00000390: 3aa8 6f3e 436e 9b3b 60e5 4dbe a8be 9a3e
000003a0: 617b 2d3c 2f88 943e b14d dd3e b5f4 abbe
000003b0: 9b3d 0bbf 8c5c 04bc 11e7 06bd 22dd 1dbe
000003c0: a64d d63e 083d 353f 8584 083e bf87 57be
000003d0: 360d 3c3e 42ed 3b3d 74e9 d8bd bdef 0bbf
000003e0: 5a80 1fbf c729 063e 9a07 9e3e 38d2 503c
000003f0: 82af 72be 5ec7 6d3d 2711 493f cf4a 39be

weight_hh_l0 f4 [300, 100]
-0.11119886 -0.13549411 -0.71563584 0.23301391 0.0015063562 -0.2913173 0.05351801 0.10677768
-0.0013614506 0.1709891 0.36536452 -0.98767376 0.54123116 0.1947638 -0.38454202 0.9414864
-0.26404575 0.5006952 -0.27703664 -0.7798478 -1.1653373 -0.20595 0.20099156 0.25437224
-0.19308832 -0.49529234 -0.039691076 0.18244836 -0.74029833 -0.13598847 -1.0765566 -1.557125
-0.47948828 -0.28508234 0.44245425 -0.20669049 -0.49102893 0.5982228 -0.60541636 0.6813344
0.57565415 0.562947 0.35099053 0.06724692 -0.55956537 -0.048819453 0.14006862 -0.507206
-0.07712282 1.2754632 -0.39526606 -0.54561454 0.5288832 -0.30327433 -1.1244907 0.1989041
-0.21595499 -0.47916722 -0.30306295 0.70863867 -0.8714246 1.2380303 -0.2402395 0.4946989
0.30510327 1.0278581 0.74929684 0.22067897 0.8631844 0.26637045 0.34520882 -0.5385
0.119695924 0.58120483 -0.626353 -0.16994248 0.3153903 0.2110608 0.027768811 0.72438234
-0.17545018 0.74429023 -0.28177804 -0.22331247 0.5720442 -0.051088158 0.312099 -0.4505496
-0.80965805 0.26544875 -0.7126457 -0.09682875 -0.17838874 -0.93797004 0.68478715 0.079011835
-0.6410972 0.124528855 -0.30973423 -0.8582893 0.20740852 0.11050821 0.19535163 0.38962874
0.520391 0.06718955 0.38057727 -0.6395587 0.17191222 0.14020863 0.9881413 -0.027779985
-0.611344 0.9021766 0.7604994 0.7116161 -0.036288872 -0.12171922 0.20509979 -0.013193219
-0.15457012 -0.77896965 -0.07332286 -0.86137664 0.095712 -0.3900144 -0.12442323 -0.6142741
-0.037679292 -0.7042827 -0.02563008 -0.19314069 -0.32480747 -0.9055886 -0.600078 0.1847065
-0.43112496 1.1626813 0.5661858 0.84742266 -0.7428781 -0.28774786 0.11213068 -0.2725874
-0.5731312 -0.027922368 0.108397 -0.8909687 -0.33975375 0.2341477 0.11381745 0.25850973
-0.4743666 0.75009954 -0.8923743 1.1474952 1.1137761 0.11639267 0.598161 1.042177
1.0115467 0.097304985 -0.12963709 0.040185157 0.17194988 -0.48099408 0.56897986 0.54610527
-0.26810306 -0.37680197 -0.23431268 0.009187093 -0.10519131 0.12446768 0.5921185 -0.18042631
0.67086154 1.0059873 0.17695543 0.1341431 -0.1707778 0.1025829 -0.095836475 -0.33268607
-0.14796788 0.35455063 0.9938758 0.6187709 -0.64192706 0.22648367 -0.554549 0.30791602
-0.502028 -0.3373495 0.6945493 -0.17648265 1.1660894 0.24063563 0.6613721 -0.9769124
0.0564326 0.08165871 0.18890946 -0.1187357 -0.33205444 -0.5197654 -0.15752478 -0.12348324
0.15623187 0.6496231 -0.48595744 0.13186945 0.34350458 0.29006213 -0.51943266 -0.30064487
0.42210692 0.21176493 0.18696205 0.38008797 0.29876205 0.64911973 0.6317995 0.13376474
-0.5662136 0.008089554 0.18738349 -0.035688907 0.16922775 -0.3600825 -0.22353414 -0.2687082
0.22624576 -0.3290572 -0.5684909 -0.11524972 0.4256273 0.3882951 -0.063374795 -0.48443878
0.79784894 -0.19165474 0.41587672 -0.10096046 -0.49723676 -0.11815712 -0.34869307 -0.49226654
-0.19226082 -0.3935893 -0.22953646 -0.867711 -0.3038835 0.54122764 0.7506718 -0.5167403
00000000: 3abc e3bd f8be 0abe e933 37bf 339b 6e3e
00000010: ed70 c53a 8b27 95be b335 5b3d 42ae da3d
00000020: b472 b2ba c417 2f3e 0f11 bb3e 30d8 7cbf
00000030: 208e 0a3f 2970 473e b1e2 c4be 4105 713f
00000040: 0131 87be 902d 003f bfd7 8dbe 1ba4 47bf
00000050: c629 95bf 8fe4 52be bbd0 4d3e 143d 823e
00000060: f2b8 45be f596 fdbe 1c93 22bd bed3 3a3e
00000070: 3184 3dbf 9040 0bbe 9bcc 89bf df4f c7bf
00000080: 7d7f f5be 50f6 91be 5d89 e23e aca6 53be
00000090: 2568 fbbe 2125 193f 91fc 1abf ee6b 2e3f
000000a0: 125e 133f 4b1d 103f 08b5 b33e c1b8 893d
000000b0: ad3f 0fbf e8f6 47bd 266e 0f3e 41d8 01bf
000000c0: 92f2 9dbd 6142 a33f 5060 cabe 65ad 0bbf
000000d0: e464 073f c646 9bbe 50ef 8fbf 84ad 4b3e
000000e0: 4e23 5dbe 6855 f5be 112b 9bbe 5869 353f
000000f0: af15 5fbf c777 9e3f 5801 76be 2d49 fd3e
00000100: 7f36 9c3e db90 833f ebd1 3f3f abf9 613e
00000110: a7f9 5c3f b561 883e 36bf b03e 23db 09bf
00000120: 2323 f53d d7c9 143f ac58 20bf 6705 2ebe
00000130: d67a a13e 5320 583e 6b7b e33c 1f71 393f
00000140: 36a9 33be ce89 3e3f 3645 90be 06ac 64be
00000150: 7d71 123f d141 51bd 71cb 9f3e 70ae e6be
00000160: c045 4fbf e6e8 873e f36f 36bf 274e c6bd
00000170: 8aab 36be ce1e 70bf 364e 2f3f f5d0 a13d
00000180: f21e 24bf fc08 ff3d 7c95 9ebe d9b8 5bbf
00000190: e662 543e 2152 e23d 420a 483e 6b7d c73e
000001a0: 5838 053f ad9a 893d 06db c23e 1eba 23bf
000001b0: c209 303e da92 0f3e d4f6 7c3f da92 e3bc
000001c0: 0a81 1cbf 0cf5 663f 17b0 423f 792c 363f
000001d0: a4a3 14bd ed47 f9bd ae05 523e 5f28 58bc
000001e0: a147 1ebe 8e6a 47bf 4c2a 96bd 2e83 5cbf
000001f0: a704 c43d f8af c7be 9bd1 febd 1141 1dbf
00000200: 9a55 1abd df4b 34bf 2cf6 d1bc acc6 45be
00000210: 2a4d a6be a8d4 67bf b69e 19bf b323 3d3e
00000220: 69bc dcbe bed2 943f 8df1 103f b1f0 583f
00000230: 422d 3ebf b053 93be c5a4 e53d 9390 8bbe
00000240: bab8 12bf 73bd e4bc 3fff dd3d 8616 64bf
00000250: 34f4 adbe 6ac4 6f3e 2019 e93d 635b 843e
00000260: 2ee0 f2be 8606 403f a472 64bf 1fe1 923f
00000270: 3790 8e3f 485f ee3d 1421 193f 0e66 853f
00000280: 5d7a 813f d647 c73d 96bf 04be 3199 243d
00000290: a113 303e db44 f6be aaa8 113f 8ecd 0b3f
000002a0: ce44 89be 30ec c0be aaef 6fbe 7685 163c
000002b0: 8b6e d7bd e9e8 fe3d 1495 173f adc1 38be
000002c0: 95bd 2b3f 31c4 803f ce33 353e cf5c 093e
000002d0: 60e0 2ebe fc16 d23d ea45 c4bd d455 aabe
000002e0: e484 17be a987 b53e a56e 7e3f c567 1e3f
000002f0: 5555 24bf 56eb 673e ecf6 0dbf 2ba7 9d3e
00000300: e884 00bf 13b9 acbe fccd 313f deb7 34be
00000310: 6b42 953f 3069 763e af4f 293f ee16 7abf
00000320: df25 673d af3c a73d 7b71 413e b42b f3bd
00000330: 0a03 aabe 580f 05bf 2d4e 21be c8e4 fcbd
00000340: 3ffb 1f3e b34d 263f 6acf f8be c908 073e
00000350: d5df af3e 0683 943e 8af9 04bf 20ee 99be
00000360: 661e d83e e8d8 583e fb72 3f3e e49a c23e
00000370: 57f7 983e b62c 263f 9dbd 213f a0f9 083e
00000380: 60f3 10bf 0c8a 043c 75e1 3f3e 882e 12bd
00000390: 0a4a 2d3e bc5c b8be 22e6 64be 1f94 89be
000003a0: f8ac 673e 2f7a a8be 9f88 11bf 0c08 ecbd
000003b0: d2eb d93e 9ece c63e a5ca 81bd 5c08 f8be
000003c0: d43f 4c3f 2441 44be cbed d43e 5cc4 cebd
000003d0: d195 febe 5cfc f1bd e687 b2be 5c0a fcbe
000003e0: 05e0 44be 8984 c9be 9b0b 6bbe 4f22 5ebf
000003f0: 9e96 9bbe e58d 0a3f 072c 403f 1849 04bf

bias_ih_l0 f4 [300]
-0.16622426 -0.20091254 0.02439818 -0.06467305 -0.08030051 -0.1935239 -0.15958579 -0.02476592
0.2910474 0.066614665 -0.14207865 -0.0922747 -0.5628944 0.120019555 -0.0048335865 0.020574348
0.10838084 -0.040755276 -0.30245948 0.1366945 -0.13923118 -0.0013573756 -0.14843363 -0.6330962
-0.47854745 0.13812077 -0.52911764 0.009734546 -0.16478951 -0.058145292 0.026738 -0.32044852
0.08701378 0.041248135 0.042628795 -0.6309494 -0.43839633 -0.50662094 -0.10979535 -0.0482382
-0.07513269 0.11381345 -0.37556913 0.14900203 0.14428051 -0.5167294 -0.103749596 0.043223064
0.21790862 -0.2512376 0.09269947 -0.2594968 -0.12186168 -0.4044307 -0.4022757 -0.22704214
-0.30901453 -0.012012377 0.008073917 -0.036970887 -0.31153354 -0.1725493 0.00031157024 0.10602234
-0.17077579 0.02814943 -0.09120959 -0.32279086 0.049318574 -0.4986283 -0.38193664 -0.08286716
-0.02074831 -0.16911177 -0.047089268 -0.101681285 -0.093058564 0.024865719 -0.06478077 -0.3139007
-0.004799042 -0.0065563275 -0.13513573 0.29677752 -0.11070703 0.228224 -0.10962074 -0.06820852
-0.54339707 0.22332884 -0.031858366 0.15568078 -0.16161712 0.032342926 -0.10550388 0.02567546
0.051322617 0.25547165 -0.2633435 0.176914 -0.1267281 0.03896045 -0.07861196 -0.39228052
-0.50077355 -0.51820916 -0.6872071 -0.29874063 -0.5779431 -0.55210084 -0.14527807 -0.26914918
-0.37473848 -0.23844805 -0.1259906 -0.4531895 -0.6264749 -0.60764307 -0.24321088 -0.16887951
-0.22638147 -0.20105578 -0.4604606 -0.08580689 -0.12433171 -1.3899112 0.14968385 -0.5954352
-0.23443869 -0.5392369 -0.48370773 -0.5523599 0.11579891 -0.25173476 -0.09720371 -0.66435695
-0.8449778 -0.33261627 -0.19486941 -0.23577087 -0.5842577 -0.29710138 -0.5071577 -0.20975947
-0.17250225 -0.8875479 -0.3671934 -0.19523425 -0.8597481 -0.33045262 -0.033216503 -0.7084404
-0.58457655 -0.8105253 -0.51063704 -0.24873127 -0.5263095 -0.5967257 -0.81506026 -0.5907886
-0.08800003 -0.5209932 -0.21344887 -0.28448254 -0.85307586 -0.22146656 0.06564251 -0.42170623
-0.7399367 -0.49048615 -0.45827723 -0.7159794 -0.03304536 -0.3635398 -0.56285757 -0.49895528
-0.28143552 -0.32041693 0.12366502 -0.8935409 -0.4276926 -1.1445878 -0.4148928 -0.14348152
-0.11806669 -0.41480112 -0.50759876 -0.2838656 -0.44222218 -0.8843131 -0.33894074 -0.14595553
0.08921088 -0.5318425 -0.50684136 -0.80372316 -0.40461442 0.009424425 -0.5027074 -0.3311704
0.42880058 -0.070988595 -0.15682104 -0.17105976 0.22844718 -0.11026441 -0.23411839 -0.177892
0.38720742 0.0033709432 0.25442734 0.041283593 0.04060394 -0.23773824 -0.23902579 -0.034349397
0.10376099 0.07162164 0.08635576 -0.09238059 -0.45166516 0.03472435 0.09449324 -0.13232616
0.1413403 0.3249415 0.27255863 0.06727867 -0.14864609 0.14696841 -0.20380801 0.04400758
0.20273294 0.23303936 0.09862383 -0.19970225 0.11454873 0.3497039 -0.061318908 -0.16184999
0.16403158 0.1508153 0.027136384 0.0014138054 0.18512881 0.42247948 0.29476297 -0.00021468825
-0.3208617 0.3934454 0.0994959 -0.14818296 0.06082298 0.072185375 0.247477 0.10193775
00000000: b136 2abe 04bc 4dbe b1de c73c 4e73 84bd
00000010: 9874 a4bd 212b 46be 756a 23be e6e1 cabc
00000020: 2a04 953e 456d 883d 117d 11be 85fa bcbd
00000030: d919 10bf d0cc f53d 1063 9ebb 898b a83c
00000040: c6f6 dd3d 01ef 26bd f8db 9abe a5f9 0b3e
00000050: 9e92 0ebe f8e9 b1ba fcfe 17be 9812 22bf
00000060: 2c04 f5be 886f 0d3e 4174 07bf a57d 1f3c
00000070: 95be 28be c229 6ebd a609 db3c d411 a4be
00000080: 4834 b23d cef3 283d 889b 2e3d e685 21bf
00000090: 7c75 e0be e9b1 01bf 62dc e0bd 6b95 45bd
000000a0: 2bdf 99bd 0717 e93d 994a c0be fd93 183e
000000b0: 45be 133e 6148 04bf ab7a d4bd ab0a 313d
000000c0: 7023 5f3e 37a2 80be 38d9 bd3d c4dc 84be
000000d0: 9e92 f9bd 8a11 cfbe 15f7 cdbe bc7d 68be
000000e0: 2737 9ebe 90cf 44bc 7648 043c c96e 17bd
000000f0: 5381 9fbe c4b0 30be 405a a339 3e22 d93d
00000100: d9df 2ebe a299 e63c 18cc babd d844 a5be
00000110: 4602 4a3d 354c ffbe 338d c3be 42b6 a9bd
00000120: 5cf8 a9bc a32b 2dbe ade0 40bd 473e d0bd
00000130: 7d95 bebd 31b3 cb3c c8ab 84bd 98b7 a0be
00000140: 4841 9dbb 76d6 d6bb 0561 0abe 39f3 973e
00000150: 5eba e2bd 8db3 693e d780 e0bd e9b0 8bbd
00000160: 121c 0bbf 51b0 643e eb7d 02bd c86a 1f3e
00000170: f57e 25be 047a 043d 6b12 d8bd 5855 d23c
00000180: aa37 523d 2ecd 823e f6d4 86be f228 353e
00000190: 03c5 01be fe94 1f3d 4fff a0bd fed8 c8be
000001a0: b232 00bf 5ba9 04bf ceec 2fbf 88f4 98be
000001b0: 14f4 13bf 7b56 0dbf c6c3 14be eccd 89be
000001c0: b9dd bfbe ba2b 74be ae03 01be 7408 e8be
000001d0: a960 20bf 7f8e 1bbf 460c 79be c0ee 2cbe
000001e0: 8bd0 67be 91e1 4dbe 7ec1 ebbe 86bb afbd
000001f0: a0a1 febd 9ce8 b1bf b946 193e 716e 18bf
00000200: b210 70be 6e0b 0abf 8aa8 f7be 7567 0dbf
00000210: fb27 ed3d 61e3 80be bd12 c7bd 4c13 2abf
00000220: 7750 58bf ae4c aabe d98b 47be eb6d 71be
00000230: ea91 15bf ac1d 98be 16d5 01bf 30cb 56be
00000240: 6ea4 30be 5736 63bf c600 bcbe 7deb 47be
00000250: 7418 5cbf 1631 a9be 070e 08bd 5a5c 35bf
00000260: cfa6 15bf 967e 4fbf 1cb9 02bf 69b3 7ebe
00000270: 38bc 06bf 04c3 18bf caa7 50bf ec3d 17bf
00000280: 5c39 b4bd cf5f 05bf 5792 5abe b2a7 91be
00000290: 2e63 5abf 21c8 62be 956f 863d e1e9 d7be
000002a0: 7e6c 3dbf 0021 fbbe 50a3 eabe 6d4a 37bf
000002b0: 925a 07bd e321 babe 6f17 10bf 1177 ffbe
000002c0: 5118 90be b00d a4be 1644 fd3d 19bf 64bf
000002d0: 86fa dabe da81 92bf d46c d4be d2ec 12be
000002e0: f3cc f1bd d060 d4be fef1 01bf d556 91be
000002f0: f26a e2be 5862 62bf a489 adbe 5e75 15be
00000300: 32b4 b63d d526 08bf 5bc0 01bf cdc0 4dbf
00000310: 9f29 cfbe e768 1a3c 6fb1 00bf 2b8f a9be
00000320: c08b db3e 7862 91bd b295 20be 4a2a 2fbe
00000330: 0fee 693e 4fd2 e1bd bbbc 6fbe 5229 36be
00000340: 0d40 c63e 0beb 5c3b 4d44 823e fc18 293d
00000350: 5150 263d a771 73be 2dc3 74be f4b1 0cbd
00000360: a480 d43d 5eae 923d 4adb b03d 0932 bdbd
00000370: a840 e7be 1f3b 0e3d ac85 c13d 8280 07be
00000380: 83bb 103e bb5e a63e ce8c 8b3e 66c9 893d
00000390: ae36 18be e37e 163e 0cb3 50be 4b41 343d
000003a0: 3999 4f3e dfa1 6e3e 4afb c93d bf7e 4cbe
000003b0: 8698 ea3d 640c b33e 8929 7bbd 01bc 25be
000003c0: e5f7 273e 536f 1a3e 1f4d de3c 704f b93a
000003d0: 6892 3d3e 3b4f d83e 2ceb 963e f01d 61b9
000003e0: fc47 a4be ad71 c93e 82c4 cb3d 46bd 17be
000003f0: 8421 793d edd5 933d 9c6a 7d3e bdc4 d03d

bias_hh_l0 f4 [300]
-0.074863784 -0.12686321 -0.098537825 -0.04492377 0.05735758 -0.17709732 -0.12024315 0.076725
0.18676285 0.09923305 -0.18642968 -0.0016105352 -0.52091426 0.076565504 0.13100107 0.007925414
0.21154788 -0.03107777 -0.31938106 0.13025476 -0.06354044 -0.08352692 -0.013653909 -0.54942936
-0.53733855 0.16837971 -0.53206486 0.12326564 -0.038983 -0.08176787 0.10130888 -0.22120537
0.1402499 0.098398075 0.058973245 -0.46154225 -0.44880462 -0.57707536 0.0073847375 -0.02225794
-0.14662562 0.10462261 -0.3706759 0.2799199 0.11172178 -0.45128933 -0.030638138 0.0011132053
0.12074489 -0.23609115 0.058426425 -0.21813197 -0.13500689 -0.40608007 -0.30340382 -0.10744134
-0.36844894 0.013978413 -0.16939433 -0.14622688 -0.20251858 -0.05259653 0.03954638 0.1373245
-0.15767096 0.0490865 -0.105636984 -0.2833124 -0.04244536 -0.56849366 -0.36303684 -0.18704443
-0.083310835 -0.09695589 -0.025150528 -0.16024588 -0.048915625 -0.028351014 -0.042664997 -0.25970045
-0.11624805 0.024399675 -0.24697855 0.26819614 -0.13695174 0.17992036 -0.12305816 -0.12841593
-0.624752 0.27903387 0.041280102 0.13221878 -0.27753404 0.029509375 -0.10671603 -0.011379647
0.0022181084 0.27488038 -0.35799676 0.21595082 -0.07371608 0.018717745 -0.0396345 -0.4029132
-0.41734928 -0.58733207 -0.710734 -0.23024093 -0.51738715 -0.53465796 -0.2819325 -0.11188009
-0.39802304 -0.120257765 -0.30854717 -0.47734213 -0.6306943 -0.5653911 -0.3525002 -0.108047165
-0.28253525 -0.123692356 -0.49753 -0.09141823 -0.120057 -1.3995308 0.13320734 -0.56571525
-0.11437828 -0.51265544 -0.53702915 -0.6259364 0.09552442 -0.2537648 -0.14682695 -0.69287086
-0.79995257 -0.17868854 -0.23743169 -0.3243472 -0.6437378 -0.3626092 -0.43623066 -0.10696504
-0.12215064 -0.87113994 -0.3481534 -0.2977109 -0.74148405 -0.49829715 -0.007984008 -0.72994554
-0.4998266 -0.78278124 -0.522292 -0.23803939 -0.50928926 -0.53299916 -0.8415792 -0.6689592
-0.01953569 -0.52598137 -0.34434962 -0.28755805 -0.9053674 -0.29699013 0.091825 -0.44831458
-0.68618 -0.47309735 -0.48590297 -0.79096454 -0.001810184 -0.3065587 -0.6654904 -0.52745295
-0.39652133 -0.29380757 0.2925051 -0.9479846 -0.5620344 -1.0637665 -0.4465798 -0.09384186
-0.00042358646 -0.48237878 -0.5451396 -0.2674465 -0.63985455 -0.8443974 -0.3068333 -0.15290034
0.12485662 -0.5953398 -0.3852548 -0.6852706 -0.26342374 -0.025528872 -0.5075388 -0.48100558
0.17403996 -0.52334476 -0.14363581 -0.3185672 0.64260226 -0.06696664 -0.29684868 0.18322586
0.16720921 0.31851798 -0.17551513 0.047797978 -0.016752217 -0.02507009 -0.6683447 0.018770227
0.45053777 -0.2830906 -0.025131458 0.03578886 -0.42730212 -0.23916352 -0.1253794 0.053010546
-0.280403 0.5680922 -0.04109291 0.18568495 -0.4152755 0.11042996 -0.43027455 -0.021281242
0.29230943 0.23413327 -0.2151446 0.11202988 0.109515995 0.8061099 -0.16631082 0.11988117
0.107249 0.22915304 0.016303256 0.18668503 0.5441971 0.3933311 0.40532824 0.014812037
-0.6111255 -0.17203924 -0.37984207 0.12077891 0.12974517 -0.2534695 0.2750756 -0.25646815
00000000: 2f52 99bd 6ee8 01be 33ce c9bd fd01 38bd
00000010: c8ef 6a3d 0059 35be 0a42 f6bd ff21 9d3d
00000020: c33e 3f3e b33a cb3d 6ce7 3ebe 9818 d3ba
00000030: a35a 05bf 60ce 9c3d 2525 063e 98d9 013c
00000040: 02a0 583e cf96 febc ea85 a3be 8161 053e
00000050: 7d21 82bd 2910 abbd a5b4 5fbc 67a7 0cbf
00000060: 058f 09bf bb6b 2c3e 6735 08bf b272 fc3d
00000070: a3ac 1fbd ea75 a7bd 087b cf3d a983 62be
00000080: ab9d 0f3e ee84 c93d ee8d 713d 444f ecbe
00000090: b8c9 e5be 36bb 13bf abfb f13b 4956 b6bc
000000a0: 0725 16be 6144 d63d 3bc9 bdbe a951 8f3e
000000b0: 63ce e43d 650f e7be d5fc fabc f9e8 913a
000000c0: 1949 f73d e1c1 71be 8c50 6f3d fd5d 5fbe
000000d0: 3f3f 0abe bae9 cfbe bf57 9bbe 350a dcbd
000000e0: 57a5 bcbe b705 653c b575 2dbe 80bc 15be
000000f0: 0861 4fbe 766f 57bd 63fb 213d cb9e 0c3e
00000100: 7f74 21be ed0e 493d 3458 d8bd 530e 91be
00000110: 30db 2dbd cd88 11bf f7df b9be 9388 3fbe
00000120: df9e aabd cf90 c6bd 7b08 cebc 7f17 24be
00000130: c05b 48bd 6340 e8bc 7ec1 2ebd 75f7 84be
00000140: 7513 eebd d4e1 c73c f2e7 7cbe 0151 893e
00000150: 143d 0cbe 0b3d 383e eb05 fcbd 777f 03be
00000160: bfef 1fbf 87dd 8e3e 5315 293d 5c64 073e
00000170: f118 8ebe a5bd f13c ef8d dabd b371 3abc
00000180: af5d 113b 1fbd 8c3e 5a4b b7be 3622 5d3e
00000190: 75f8 96bd f555 993c c957 22bd a44a cebe
000001a0: ceae d5be 655b 16bf aaf2 35bf 47c4 6bbe
000001b0: 7c73 04bf 58df 08bf 7559 90be 6321 e5bd
000001c0: adc9 cbbe b449 f6bd e5f9 9dbe 3066 f4be
000001d0: 2f75 21bf 79bd 10bf e87a b4be d547 ddbd
000001e0: 76a8 90be 6b52 fdbd 41bc febe 7b39 bbbd
000001f0: 72e0 f5bd d323 b3bf 8167 083e b7d2 10bf
00000200: 293f eabd 633d 03bf be7a 09bf 5e3d 20bf
00000210: 4fa2 c33d 76ed 81be ce59 16be fc5f 31bf
00000220: b1c9 4cbf 21fa 36be 4b21 73be d610 a6be
00000230: 00cc 24bf eaa7 b9be a059 dfbe 7d10 dbbd
00000240: 1d2a fabd 0703 5fbf 2a41 b2be 906d 98be
00000250: e6d1 3dbf ce20 ffbe 5bcf 02bc b6dd 3abf
00000260: 46e9 ffbe 5a64 48bf eeb4 05bf 99c0 73be
00000270: c860 02bf a272 08bf bc71 57bf e940 2bbf
00000280: 5009 a0bc b7a6 06bf 984e b0be cf3a 93be
00000290: 28c6 67bf 170f 98be bf0e bc3d 7d89 e5be
000002a0: 7ea9 2fbf d139 f2be 46c8 f8be a77c 4abf
000002b0: b243 edba 43f5 9cbe 945d 2abf 2807 07bf
000002c0: d804 cbbe f26d 96be 3ac3 953e 1eaf 72bf
000002d0: 7de1 0fbf 8029 88bf 1ca6 e4be 2930 c0bd
000002e0: d014 deb9 5afa f6be 458e 0bbf bfee 88be
000002f0: 82cd 23bf 6e2a 58bf 4119 9dbe e891 1cbe
00000300: d4b4 ff3d 3068 18bf 1e40 c5be e56d 2fbf
00000310: 7adf 86be ed21 d1bc 10ee 01bf 5d46 f6be
00000320: 8837 323e ecf9 05bf 4415 13be 3d1b a3be
00000330: 9581 243f ce25 89bd 8dfc 97be 8f9f 3b3e
00000340: e438 2b3e ca14 a33e 3dba 33be d0c7 433d
00000350: f23b 89bc ca5f cdbc a318 2bbf 05c4 993c
00000360: e3ac e63e 40f1 90be 7de0 cdbc 5797 123d
00000370: 58c7 dabe 48e7 74be 7563 00be 9621 593d
00000380: fb90 8fbe 7e6e 113f 0a51 28bd 3224 3e3e
00000390: fe9e d4be 1a29 e23d f24c dcbe 0056 aebc
000003a0: 95a9 953e a2c0 6f3e de4e 5cbe ec6f e53d
000003b0: ec49 e03d 385d 4e3f 624d 2abe 4284 f53d
000003c0: 5da5 db3d 18a7 6a3e 688e 853c 5c2a 3f3e
000003d0: 8050 0b3f b262 c93e 2f87 cf3e 30ae 723c
000003e0: b972 1cbf 0e2b 30be a97a c2be ef5a f73d
000003f0: ebdb 043e c1c6 81be b6d6 8c3e cb4f 83be

weight_ih_l1 f4 [300, 100]
-0.31066337 0.76443493 0.70863473 0.13113256 -0.35422188 0.0022850977 -0.6649629 0.03389939
0.1450526 -0.99669814 -0.28732303 -0.4729302 -0.3714002 -0.09185308 0.45814434 0.025491707
0.07799041 0.3882682 0.0067714932 -0.26881096 0.26203096 0.33075973 0.74630255 -0.51426095
0.13857707 -0.29468763 -0.0045876005 -0.11435894 -0.3972221 -0.10036645 0.03713274 -0.770282
0.103082575 0.14273834 0.31614977 0.3429274 0.30048287 0.3214661 0.33372545 -0.8033741
-1.48917 -0.30072457 -0.33454016 -0.21479808 -1.4272795 -0.71722823 0.17520553 0.9256036
-0.05035499 -0.02142712 0.46519688 -0.10063356 -0.9746386 0.11178196 0.06627752 -0.35210267
0.22906858 -0.40848687 -0.8984419 0.84344333 0.31904128 0.46749675 -0.17170669 0.26673856
-0.24579428 0.3905089 0.7636396 0.7770977 0.076379396 -0.4867572 -0.5060214 -0.2628823
-0.5542133 0.5312808 0.20205745 0.38671127 -0.5586921 -0.5666904 0.51234275 0.20207916
0.7614064 0.118828624 -0.2738053 0.029871423 0.06392479 0.24739143 0.25409707 -0.4050094
-1.2455813 0.10211114 -0.87982434 0.46372727 0.697952 -0.53068924 0.110931516 0.9137355
-0.44204667 0.13099657 0.4211298 0.7604115 -0.49143705 0.06670871 0.30401158 -0.6661188
0.39615664 0.023634095 -0.17944132 0.1851433 0.31029302 -0.138406 -0.5832949 0.21484539
0.09330552 0.15161921 0.08327603 0.19300026 0.01739518 0.3806555 0.023957761 -0.50737953
-0.26111308 -1.0055078 0.1540656 -0.054236777 0.58877736 0.6703058 -0.25228217 -0.180916
0.19529615 -0.20355901 -0.35870168 1.0032156 -0.12911502 0.44299325 0.3718443 0.87319237
-0.3206322 -0.871578 0.25881952 -0.09009733 -0.98881006 0.05042884 -1.4337864 -0.38354543
0.24964833 -0.29217434 -0.021765688 0.024105124 -0.062025372 -0.45117328 -0.035219472 1.2548674
0.3941176 -0.3605407 -0.22529061 -1.1750444 -0.20935602 0.058848616 0.22701035 -0.106260665
0.7108009 0.06425172 0.5532885 0.08558009 -0.2156234 -0.6185571 -0.090008155 -1.1600618
0.0191934 0.24694479 -0.006509256 -0.5291792 0.09386525 -0.48744643 1.5720989 -0.01401398
-0.56222314 -0.86938477 0.111697294 0.0032049958 -1.3116238 0.6778906 0.24067968 -1.4362513
1.1644961 0.43434373 0.026678119 -0.8132987 0.08448057 0.2152629 -0.22787203 0.85175145
-0.410453 0.52376765 -0.041373126 -0.4388167 -0.23658554 -0.2649164 -0.93479097 0.083148345
0.11540262 -0.17998496 -0.018804418 0.1985381 -0.037047416 0.07771325 -0.773185 -0.09324941
0.44342056 -0.26613712 -0.3530081 0.24550155 0.084002055 -0.056132097 0.48476163 0.35808244
0.19835785 0.6778139 -0.40094656 -0.17034176 -0.21490495 -1.4440176 0.04959441 -0.6727958
-0.27122542 -0.3578594 -0.06518772 0.08331 0.22461066 -0.306015 0.44220048 -0.1604126
-0.3393628 -0.50172514 0.2289555 0.5897987 0.8761149 -0.23579007 -0.26486334 -0.06928992
-0.17861968 0.40452597 0.55837387 0.7629069 0.28579053 0.069362454 0.42983934 -0.66526324
-0.45141965 0.7379548 0.43123937 -1.1230608 -0.21969676 -0.5023033 0.07023997 1.2495427
00000000: 450f 9fbe 02b2 433f 1669 353f 9d47 063e
00000010: 925c b5be 94c1 153b 023b 2abf 16da 0a3d
00000020: ab88 143e 9c27 7fbf 011c 93be e823 f2be
00000030: 2b28 bebe 781d bcbd e591 ea3e fcd3 d03c
00000040: 70b9 9f3d 17cb c63e 67e3 dd3b 97a1 89be
00000050: ec28 863e 5759 a93e af0d 3f3f 9ba6 03bf
00000060: 26e7 0d3e 4ce1 96be 9553 96bb 0535 eabd
00000070: b260 cbbe ed8c cdbd 8018 183d 3331 45bf
00000080: f51c d33d 002a 123e 62de a13e 2e94 af3e
00000090: e4d8 993e 3497 a43e 10de aa3e eda9 4dbf
000000a0: 1f9d bebf 92f8 99be d948 abbe 07f4 5bbe
000000b0: 18b1 b6bf 459c 37bf 1469 333e 5cf4 6c3f
000000c0: 0941 4ebd ed87 afbc 492e ee3e f818 cebd
000000d0: ea81 79bf f1ed e43d 82bc 873d cd46 b4be
000000e0: f490 6a3e 3125 d1be 4a00 66bf e7eb 573f
000000f0: 6159 a33e bc5b ef3e e1d3 2fbe f591 883e
00000100: 7fb1 7bbe c8f0 c73e e37d 433f e0ef 463f
00000110: cd6c 9c3d 3d38 f9be 9e8a 01bf 8298 86be
00000120: ece0 0dbf 0502 083f 26e8 4e3e 05ff c53e
00000130: 7206 0fbf 9f12 11bf e528 033f d7ed 4e3e
00000140: 88eb 423f 6c5c f33d 3530 8cbe eab4 f43c
00000150: 00eb 823d 2e54 7d3e 0319 823e 645d cfbe
00000160: 356f 9fbf a51f d13d 2b3c 61bf a96d ed3e
00000170: fbac 323f 40db 07bf 1030 e33d 92ea 693f
00000180: f153 e2be f723 063e 539e d73e 54aa 423f
00000190: a39d fbbe 939e 883d 68a7 9b3e c386 2abf
000001a0: 0bd5 ca3e 4a9c c13c 77bf 37be 3596 3d3e
000001b0: bade 9e3e 4dba 0dbe d152 15bf 6e00 5c3e
000001c0: f716 bf3d 1142 1b3e a08c aa3d dca1 453e
000001d0: 5680 8e3c 47e5 c23e 1143 c43c a0e3 01bf
000001e0: 9db0 85be 7bb4 80bf 5fc3 1d3e 6227 5ebd
000001f0: 1dba 163f 2999 2b3f 212b 81be 0b42 39be
00000200: b7fb 473e c671 50be bfa7 b7be 5e69 803f
00000210: ba36 04be 03d0 e23e 6062 be3e 8989 5f3f
00000220: e729 a4be bc1f 5fbf fe83 843e f384 b8bd
00000230: a822 7dbf 798e 4e3d 5086 b7bf 1160 c4be
00000240: d0a3 7f3e e097 95be f54d b2bc 1c78 c53c
00000250: 510e 7ebd 2f00 e7be 4b42 10bd 7f9f a03f
00000260: c8c9 c93e ca98 b8be 95b2 66be db67 96bf
00000270: 6d61 56be 3f0b 713d 6775 683e 319f d9bd
00000280: 0cf7 353f 6896 833d 51a4 0d3f 9d44 af3d
00000290: 61cc 5cbe c259 1ebf 3256 b8bd e87c 94bf
000002a0: 7a3b 9d3c 18df 7c3e 994b d5bb 4a78 07bf
000002b0: 6d3c c03d 9492 f9be 893a c93f e49a 65bc
000002c0: dbed 0fbf 0090 5ebf 8dc1 e43d e80a 523b
000002d0: 4ae3 a7bf 3d8a 2d3f bc74 763e 15d7 b7bf
000002e0: 350e 953f 4d62 de3e 128c da3c 5834 50bf
000002f0: 2604 ad3d e16d 5c3e 4957 69be 620c 5a3f
00000300: e526 d2be a315 063f de76 29bd 95ac e0be
00000310: 7b43 72be 1fa3 87be 764e 6fbf ae49 aa3d
00000320: 3558 ec3d fa4d 38be b90b 9abc 924d 4b3e
00000330: 08bf 17bd 2028 9f3d 74ef 45bf 8cf9 bebd
00000340: 0508 e33e 2043 88be 7abd b4be c264 7b3e
00000350: 4509 ac3d c5ea 65bd ad32 f83e 9556 b73e
00000360: 521e 4b3e 3685 2d3f de48 cdbe 126e 2ebe
00000370: 0b10 5cbe 92d5 b8bf 8223 4b3d 583c 2cbf
00000380: 0fde 8abe 5939 b7be 2481 85bd 6f9e aa3d
00000390: 5600 663e 00ae 9cbe 1a68 e23e 3343 24be
000003a0: f6c0 adbe 0f71 00bf 5073 6a3e 0cfd 163f
000003b0: 1149 603f f472 71be 2b9c 87be e0e7 8dbd
000003c0: 14e8 36be 071e cf3e 97f1 0e3f de4d 433f
000003d0: 2353 923e e70d 8e3d e713 dc3e b14e 2abf
000003e0: 7a20 e7be 9bea 3c3f 68cb dc3e 75c0 8fbf
000003f0: 30f8 60be f396 00bf f9d9 8f3d 04f1 9f3f

weight_hh_l1 f4 [300, 100]
-0.2646432 -0.63734496 0.41184473 0.20692858 0.836596 -0.11945609 -0.106733985 -1.0114168
0.18215005 0.3602115 -0.88129026 -0.0027177483 0.40173617 -0.11884552 -0.15873691 0.23505527
0.08212545 0.3948414 -0.018793995 -0.05381451 -1.1965472 -0.48531544 -0.7088378 0.041076884
-0.31254396 -0.4337848 -0.33189645 -0.22717062 -0.25832698 -0.82970756 0.16662286 -0.10177477
0.12108219 -0.32397878 0.93578184 -0.11404772 0.3213149 -0.30153212 -0.27684423 0.4887281
-0.74196106 -0.02899867 -0.3933088 0.2896179 0.09035423 -0.33907425 -0.035744514 0.048268184
0.8106969 -0.39336157 -0.28276527 0.2777067 -0.23096515 0.20464931 -1.1703591 0.08895982
0.1914143 -0.068692595 -0.06836636 -0.41165578 0.47025418 -0.62890035 0.52143 0.25197294
-0.4449281 -0.42645013 -0.25209445 0.23193109 0.16059943 0.19558181 0.30516663 0.24291563
0.352368 -1.1630306 0.5572033 -0.4383722 -0.26626208 0.47965917 0.41099504 -0.8391351
-0.13586058 -0.9984279 1.3778936 -1.6572214 -0.52133197 0.2498679 0.24777108 -1.613538
-0.17032152 -0.39782953 -0.44806582 0.082581624 0.036716405 -0.297972 0.20987666 0.3328012
-0.14647336 0.10238963 0.9495936 0.853024 -0.22793129 -0.44069844 -0.5569497 -0.16979508
-0.19780283 -0.39422208 0.25118247 -0.16047642 -0.5828547 0.46497765 -0.34178925 0.35033384
0.2090657 -0.2035976 -0.19041653 0.7822607 0.12756363 0.13268317 0.48770612 0.23418719
0.07356709 -0.12193836 0.36783475 -0.46064946 0.4064451 -0.16989233 -0.1479667 0.4264161
-0.023186216 -0.37261793 0.14439906 -0.36703464 0.104524985 -0.25331122 -0.011171814 -0.12364362
-0.17102543 -0.69240105 0.118647516 0.46781713 0.5452481 0.22932653 1.0994849 0.05716097
0.12132248 -0.09768489 0.119719855 -0.051636055 -0.35278684 0.9106567 0.04788081 -0.8953742
-0.48773974 0.1308994 0.85674065 -0.16359182 -0.20364091 -0.553457 0.58128923 0.8710955
0.009516539 -0.14563842 0.27660272 -0.25018328 -0.69847983 -0.40997905 -0.008771785 0.18797739
-0.53011566 0.26525274 0.20365843 0.016808856 -0.18475412 -0.25454414 -0.17607558 0.89067817
-0.29987133 0.18431018 -0.053505223 -0.43578383 -0.5176736 -0.7557061 -0.26708388 0.2929843
-0.87070817 -0.076725885 -0.024531132 -0.5471328 -0.24998899 -0.13171446 0.03539991 0.112817556
0.25016853 -0.05225956 -0.18161282 -0.06910443 0.23850733 -0.088734806 -0.25667256 -0.04152399
0.17795458 -0.37795696 -0.2465454 0.50775164 -0.48446897 -0.08713567 -0.040871847 0.08335521
-0.079654 0.22557607 0.11672828 -0.90151143 -0.12551048 -0.08540365 0.17255035 -1.0414743
-0.11824177 0.45287484 0.43023756 0.14593332 0.18570387 0.05768485 0.12538135 0.3305889
-1.5059799 -0.12060876 -0.12344926 0.27878615 -0.49397054 0.059052475 0.17269261 -0.0065483814
-0.16804919 0.16953729 0.36660954 -0.38520187 -0.73415893 0.49840832 -0.038748205 -0.3184486
0.10737354 0.07745607 -0.7187348 0.0004241221 -0.9005011 0.007987812 0.015473378 0.049212232
-0.38399214 -0.75177646 -0.41573763 0.32049894 -0.6011894 -0.1933143 -0.035767168 -0.06323866
00000000: 507f 87be 0a29 23bf 50dd d23e 16e5 533e
00000010: 282b 563f 65a5 f4bd 5997 dabd 1b76 81bf
00000020: 8b85 3a3e a46d b83e 3d9c 61bf 401c 32bb
00000030: 5db0 cd3e 4865 f3bd ee8b 22be 54b2 703e
00000040: 6331 a83d a728 ca3e ddf5 99bc 9b6c 5cbd
00000050: 7528 99bf 447b f8be 6576 35bf 3c40 283d
00000060: c305 a0be 0b19 debe 55ee a9be 6a9f 68be
00000070: 6f43 84be b767 54bf 2f9f 2a3e 4a6f d0bd
00000080: f0f9 f73d 8ce0 a5be 668f 6f3f da91 e9bd
00000090: 6383 a43e 6b62 9abe 87be 8dbe 923a fa3e
000000a0: 29f1 3dbf 9e8e edbc c55f c9be cc48 943e
000000b0: a30b b93d 249b adbe d768 12bd dcb4 453d
000000c0: d589 4f3f b066 c9be 9cc6 90be 932f 8e3e
000000d0: 2182 6cbe 978f 513e 54ce 95bf 9130 b63d
000000e0: 1c02 443e b4ae 8cbd aa03 8cbd 8cc4 d2be
000000f0: 28c5 f03e 9dff 20bf 707c 053f 9902 813e
00000100: 9ecd e3be ac57 dabe 8612 81be 587f 6d3e
00000110: 2d74 243e 9946 483e cd3e 9c3e e0be 783e
00000120: 9469 b43e 30de 94bf e0a4 0e3f 5272 e0be
00000130: 8153 88be e395 f53e f16d d23e 8fd1 56bf
00000140: 091f 0bbe f998 7fbf d15e b03f d51f d4bf
00000150: 0376 05bf 5fdd 7f3e b4b7 7d3e 6a88 cebf
00000160: c468 2ebe 50b0 cbbe e268 e5be 8e20 a93d
00000170: f163 163d c98f 98be e8e9 563e eb64 aa3e
00000180: 1dfd 15be a8b1 d13d 9118 733f c85f 5a3f
00000190: d266 69be 3aa3 e1be 4194 0ebf c3de 2dbe
000001a0: d38c 4abe 7ad7 c9be fd9a 803e ee53 24be
000001b0: f735 15bf 8d11 ee3e 00ff aebe f55e b33e
000001c0: 5215 563e e47b 50be 8dfc 42be 3d42 483f
000001d0: 0aa0 023e 19de 073e 9eb4 f93e c4ce 6f3e
000001e0: 58aa 963d d2ba f9bd d654 bc3e 3fda ebbe
000001f0: 9219 d03e 41f8 2dbe 9584 17be 3653 da3e
00000200: 05f1 bdbc c7c7 bebe 59dd 133e f7eb bbbe
00000210: 3211 d63d 02b2 81be fc09 37bc de38 fdbd
00000220: 4a21 2fbe 3241 31bf 78fd f23d ba85 ef3e
00000230: 6195 0b3f 93d4 6a3e ecbb 8c3f 9f21 6a3d
00000240: ec77 f83d 040f c8bd af2f f53d 5480 53bd
00000250: 7aa0 b4be cc20 693f ab1e 443d 3e37 65bf
00000260: 06b9 f9be 7e0a 063e 5b53 5b3f 9d84 27be
00000270: 3e87 50be 5caf 0dbf 5fcf 143f 1d00 5f3f
00000280: 42eb 1b3c 3d22 15be df9e 8d3e 0618 80be
00000290: 93cf 32bf c6e8 d1be 88b7 0fbc 257d 403e
000002a0: a9b5 07bf 35cf 873e d68b 503e bab2 893c
000002b0: 2f30 3dbe 9c53 82be 284d 34be 7c03 643f
000002c0: bc88 99be cfbb 3c3e 4b28 5bbd 0f1f dfbe
000002d0: 4286 04bf f475 41bf 38bf 88be 0a02 963e
000002e0: bbe6 5ebf 7622 9dbd 83f5 c8bc e510 0cbf
000002f0: 1dfd 7fbe 28e0 06be 7fff 103d e40c e73d
00000300: 1716 803e 1f0e 56bd b6f8 39be a086 8dbd
00000310: 443b 743e 98ba b5bd 966a 83be 0f15 2abd
00000320: ba39 363e 9383 c1be 6676 7cbe 03fc 013f
00000330: 510c f8be 3074 b2bd 3d69 27bd 23b6 aa3d
00000340: a321 a3bd 6afd 663e 3d0f ef3d 74c9 66bf
00000350: d285 00be 1ce8 aebd 0ab1 303e 084f 85bf
00000360: be28 f2bd 36df e73e 1948 dc3e 8b6f 153e
00000370: 2829 3e3e f346 6c3d f863 003e f342 a93e
00000380: f3c3 c0bf ba01 f7bd f7d2 fcbd 0fbd 8e3e
00000390: b5e9 fcbe 02e1 713d 55d6 303e ce93 d6bb
000003a0: 1615 2cbe 2f9b 2d3e 3fb4 bb3e 2e39 c5be
000003b0: d7f1 3bbf 602f ff3e 70b6 1ebd b20b a3be
000003c0: a9e6 db3d 4aa1 9e3d 01ff 37bf b45c de39
000003d0: 3d87 66bf 50df 023c 0d84 7d3c c492 493d
000003e0: 9e9a c4be 6c74 40bf 90db d4be 7018 a43e
000003f0: 8ce7 19bf 2ff4 45be 9880 12bd 4583 81bd

bias_ih_l1 f4 [300]
-0.13148804 -0.0069125644 -0.043304175 0.009735603 -0.23956104 0.13342443 0.14254728 -0.04311055
-0.027745105 -0.053137448 -0.008004955 -0.10068267 -0.035350658 -0.073379874 -0.19748904 -0.19380717
0.09760365 -0.08746145 -0.40397814 -0.046041794 -0.15368894 0.07653685 -0.45102897 0.054768626
0.023003286 0.25085574 -0.05712832 -0.08137586 -0.16098806 -0.46748903 -0.27266556 0.11984699
-0.019754915 0.16190018 -0.062001575 -0.2239926 0.07955529 -0.00036819035 -0.19856295 -0.00017304951
0.047821123 0.22545661 0.15755491 -0.01079442 -0.35057065 0.08093663 0.06926646 -0.003860636
-0.1739579 0.020089177 -0.1817374 -0.08191877 0.032290537 -0.07833925 0.02893389 -0.017568318
0.036271576 0.026066462 0.068141244 -0.07170908 0.092091665 -0.25465888 0.12050569 0.0517501
-0.028942607 -0.15358168 0.3985677 0.18174379 0.0035435213 -0.22480619 0.08650084 -0.006236127
-0.03982856 0.068104796 0.015253437 -0.03111876 -0.26991934 -0.08149537 -0.2087284 -0.050849665
0.05633179 0.0338778 0.07920647 -0.22776107 -0.078611486 -0.062414378 0.12410298 0.23365481
-0.23728767 -0.045935217 -0.12802882 0.09627912 0.05602624 -0.31900263 -0.25269377 0.24216259
-0.028032685 0.13099305 0.09023919 -0.05744452 -0.47985962 -0.1776254 -0.3919537 -0.33678153
-0.26400247 -0.17341249 0.2499084 -0.17766869 -0.24579434 -0.31629837 -0.34942085 -0.33398443
-0.4503753 -0.11259918 -0.2616301 -0.6596509 0.0065720244 -0.5476131 -0.45829296 0.14856532
-0.086688116 1.1893272 -0.7272554 0.314198 -0.54234827 0.0020061925 -0.40004548 -0.37173358
-0.024107404 -0.45419776 0.5704639 -0.11443261 -0.46627244 -0.015586363 -0.26481646 0.053568177
-0.056061797 -0.41826785 -0.39217928 -0.44233567 -0.27473465 0.48835415 0.50188786 -0.2577695
0.12588973 0.092877254 -0.06737647 -0.4125329 -0.37026188 -0.31160468 -0.27414674 -0.155608
0.019636156 0.15466572 -0.008479009 0.030408064 -0.007723273 -0.053719345 0.30525178 -0.54849064
0.22540556 -0.056322467 -0.474368 -0.15554294 -0.15098697 -0.17476909 -0.28840378 -0.32455865
0.18286619 -0.37442476 0.22079067 -0.026995346 -0.30530176 -0.35868803 0.06690761 0.06522467
-0.42396438 -0.7052423 -0.36987182 0.02636208 -0.84905726 -0.6010908 -0.48993644 -0.10800305
-0.42045197 -0.28640077 0.059744015 0.009137873 -0.24043123 -0.010594882 0.29673955 -0.32555446
-0.24875492 -0.36745182 0.20337218 -0.20400979 -0.3870282 -0.4103156 0.38128796 -0.13944611
0.07893042 0.06839481 -0.018300075 -0.050437935 0.023396153 0.14298955 -0.11242842 0.04370515
-0.05169879 -0.02104117 0.13038671 -0.21482447 0.033052415 0.18475236 -0.06280534 -0.08992198
-0.25394195 0.061592598 0.004677568 0.02079865 -0.11363364 0.0907432 -0.019329755 -0.23217756
-0.032187738 0.10363121 0.3426863 0.10440819 -0.051816065 -0.015555305 -0.019036178 0.12182541
0.0926475 0.15337999 0.18976599 -0.021693744 0.27235967 0.25719753 0.047701042 0.009647594
-0.029328965 -0.17387444 -0.09751372 -0.23636486 -0.08250205 0.23104332 -0.23969424 0.28900284
0.104243696 0.09216303 0.069656536 0.13506086 0.07664119 0.23461981 -0.070482075 0.10242452
00000000: cda4 06be cb82 e2bb b85f 31bd 1482 1f3c
00000010: 7d4f 75be 6aa0 083e eaf7 113e b094 30bd
00000020: b449 e3bc a7a6 59bd 3727 03bc b732 cebd
00000030: dacb 10bd 3048 96bd 913a 4abe 6375 46be
00000040: 6ce4 c73d fd1e b3bd 39d6 cebe 5296 3cbd
00000050: a260 1dbe 5abf 9c3d 45ed e6be 1155 603d
00000060: 6371 bc3c 2a70 803e 63ff 69bd 63a8 a6bd
00000070: 0eda 24be b95a efbe d29a 8bbe 5772 f53d
00000080: 0fd5 a1bc 29c9 253e 5df5 7dbd 515e 65be
00000090: e2ed a23d ac09 c1b9 1654 4bbe a074 35b9
000000a0: 15e0 433d 19de 663e 1356 213e 14db 30bc
000000b0: ff7d b3be 1bc2 a53d 93db 8d3d b902 7dbb
000000c0: 0522 32be 0f92 a43c 5e19 3abe 07c5 a7bd
000000d0: 1543 043d 5470 a0bd c406 ed3c 6feb 8fbc
000000e0: 8191 143d 5589 d53c a38d 8b3d 36dc 92bd
000000f0: 8e9a bc3d a662 82be b0cb f63d eaf7 533d
00000100: 0c19 edbc 8444 1dbe 1111 cc3e 0b1b 3a3e
00000110: 6c3a 683b 9833 66be 5a27 b13d 6d58 ccbb
00000120: 4623 23bd 877a 8b3d 8de9 793c c5ec febc
00000130: de32 8abe 0be7 a6bd e6bc 55be bd47 50bd
00000140: 2abc 663d 73c3 0a3d 0037 a23d 333a 69be
00000150: 0fff a0bd 38a6 7fbd b429 fe3d 3543 6f3e
00000160: 8afb 72be 9126 3cbd fd19 03be fd2d c53d
00000170: c57b 653d 5054 a3be 1461 81be 78f9 773e
00000180: cda4 e5bc 0b23 063e 53cf b83d f24a 6bbd
00000190: 29b0 f5be 6fe3 35be 28ae c8be a16e acbe
000001a0: 552b 87be 0b93 31be fde7 7f3e c8ee 35be
000001b0: 83b1 7bbe dcf1 a1be 4ae7 b2be 0200 abbe
000001c0: 9797 e6be 669a e6bd 61f4 85be e2de 28bf
000001d0: 235a d73b 5f30 0cbf 60a5 eabe 8221 183e
000001e0: 8a89 b1bd e03b 983f 692d 3abf 8fde a03e
000001f0: 56d7 0abf 537a 033b c3d2 ccbe dd53 bebe
00000200: e47c c5bc 9c8c e8be ec09 123f a55b eabd
00000210: 43bb eebe f25d 7fbc 0696 87be 4e6a 5b3d
00000220: 0ea1 65bd 3427 d6be b9cb c8be d279 e2be
00000230: 05aa 8cbe 8e09 fa3e b97b 003f 5dfa 83be
00000240: 3de9 003e 6e36 be3d adfc 89bd 8337 d3be
00000250: f792 bdbe a68a 9fbe f65c 8cbe b457 1fbe
00000260: 01dc a03c b160 1e3e 8beb 0abc 551a f93c
00000270: 8213 fdbb d108 5cbd f649 9c3e e269 0cbf
00000280: b7d0 663e 63b2 66bd 5de0 f2be a646 1fbe
00000290: 549c 1abe abf6 32be a9a9 93be 8d2c a6be
000002a0: 4641 3b3e 9ab4 bfbe f316 623e 5825 ddbc
000002b0: 8350 9cbe f5a5 b7be db06 893d 8394 853d
000002c0: dc11 d9be c28a 34bf d75f bdbe 4af5 d73c
000002d0: d15b 59bf 16e1 19bf f3d8 fabe b430 ddbd
000002e0: 7b45 d7be 1fa3 92be 24b6 743d 04b7 153c
000002f0: 9b33 76be 2896 2dbc 3fee 973e 13af a6be
00000300: 9cb9 7ebe a522 bcbe cc40 503e f1e7 50be
00000310: 8f28 c6be e314 d2be 2d38 c33e f6ca 0ebe
00000320: 46a6 a13d 9412 8c3d 0aea 95bc 0298 4ebd
00000330: 4aa9 bf3c da6b 123e df40 e6bd 2c04 333d
00000340: 1cc2 53bd 885e acbc 1884 053e f2fa 5bbe
00000350: f861 073d b92f 3d3e 16a0 80bd 0429 b8bd
00000360: ae04 82be 8548 7c3d 4946 993b ee61 aa3c
00000370: c1b8 e8bd 92d7 b93d 6f59 9ebc f4bf 6dbe
00000380: 4ad7 03bd 9a3c d43d 9474 af3e f6d3 d53d
00000390: 153d 54bd aedb 7ebc c2f1 9bbc 9a7f f93d
000003a0: f9bd bd3d a50f 1d3e 0452 423e 14b7 b1bc
000003b0: ba72 8b3e 65af 833e 2b62 433d f110 1e3c
000003c0: 4c43 f0bc 240c 32be 46b5 c7bd a109 72be
000003d0: d6f6 a8bd 9f96 6c3e 6872 75be 2ef8 933e
000003e0: b87d d53d f8bf bc3d 16a8 8e3d 654d 0a3e
000003f0: 0ef6 9c3d 2d40 703e e858 90bd f2c3 d13d
