shakespeare.pt (torch, 327216 bytes, 7 tensors)

weight f4 [100, 100]
000000 2c 29 95 3d 95 73 ba 3f cf 49 a1 3f d6 d6 21 3d
       0.072832435 1.4566523 1.260065 0.039511524
000010 e2 15 eb 3e 0e 43 b4 bf a0 01 e4 be ae 94 07 3d
       0.45915133 -1.4082963 -0.4453249 0.033100776
000020 f7 6d 25 be 00 d1 23 3f 5d 97 33 bf 2d 21 5a bf
       -0.1615523 0.63990784 -0.7015284 -0.8520687
000030 52 35 e3 be 80 0e a9 3f aa 87 bb be 32 9d a5 3d
       -0.44376618 1.320755 -0.3662694 0.08086623
000040 a5 74 d8 bf 2f 1a 10 3f 7c 54 f4 3d 29 3d ac be
       -1.6910597 0.56289953 0.119301766 -0.33640411
000050 0a 8a 0a 3f ea a2 d4 be a0 f0 2b 3e 5b 3d 5e bf
       0.5411688 -0.41530544 0.1679101 -0.8681237
000060 0d f6 4d bf 44 42 8f 3f 47 c4 d7 3e fa eb 83 bf
       -0.8045357 1.1192098 0.42141935 -1.0306389
000070 8c 42 4c bf d8 f0 ed 3f 27 29 88 3f bf 29 53 bd
       -0.7978904 1.8589125 1.0637559 -0.051553484
000080 b9 a6 51 bf 5a 1a cc 3f af d3 97 be 58 2a 2f 3f
       -0.81895024 1.5945542 -0.2965369 0.68423986
000090 85 80 ab 3f e7 ac 47 be 89 9c 26 bf 68 f3 bc 3d
       1.3398596 -0.19499551 -0.65082604 0.092261136
0000a0 a0 d7 a0 3f af 3e 4d 3f bb 89 0d 3e b5 35 3e c0
       1.2565804 0.8017377 0.13822071 -2.972028
0000b0 f4 2b 77 3f d5 86 d5 3e 46 15 86 3f e5 a3 75 3e
       0.9655144 0.4170443 1.0475242 0.23988302
0000c0 16 f0 ed bf 25 8d c9 3f b1 ae 37 3e af 36 32 3f
       -1.8588893 1.5746199 0.17937733 0.6961469
0000d0 a8 40 31 bf d1 5f 4b 3f fe bb 74 3f b6 7e 82 3f
       -0.6923928 0.7944308 0.95599353 1.0194919
0000e0 46 40 89 3f be 61 e7 bf 3e c6 8e bf fe a3 a2 bf
       1.072274 -1.8076704 -1.1154249 -1.2706296
0000f0 e9 8d 76 be da a6 dd 3c 6b 80 b7 bf 6f 44 7c bd
       -0.24077572 0.0270571 -1.4336065 -0.0615887
000100 a2 be 2c 3d 3f 93 92 bd e3 1e b4 3f ef c1 af 3e
       0.04217399 -0.07156991 1.4071926 0.34327647
000110 45 f2 94 3e b5 65 29 3f db 48 41 3f c2 02 57 3f
       0.29091087 0.6617082 0.75501794 0.83988583
000120 ff 0c 0d c0 2c 02 ef 3f f0 42 8f bf 7c ab 87 3e
       -2.2039182 1.8672538 -1.1192303 0.2649802
000130 7f b4 7d be 12 f5 e1 bf 7f 9c 0b 3f 49 66 18 3e
       -0.24775885 -1.7652915 0.5453567 0.14882769
000140 2b ff 2c 3e 9f 9b 1d bf 29 3e a2 be 0c e3 a1 be
       0.16894214 -0.61565584 -0.3168805 -0.31618536
000150 fd 07 82 3d 16 f3 cb bd 9a 03 bc bf e8 c3 76 3e
       0.0634918 -0.09958474 -1.4688599 0.2409817
000160 3b 82 99 3f 08 f9 b7 3e 46 d4 fa 3d 80 65 59 bd
       1.1992868 0.35932183 0.12247519 -0.053075314
000170 c6 5e 8e be 1d c0 58 3e ed 24 34 bf 8e c1 2f 3f
       -0.2780668 0.21167035 -0.70368844 0.68654716
000180 75 d6 3c 3d 1f c3 4a 3f 3b c7 1b 3f 79 4a cf bf
       0.04610296 0.7920398 0.60850877 -1.6194602
000190 99 ee ff bf cc 32 5c 3f f0 fd ea be 2d 8b af 3e
       -1.9994689 0.8601501 -0.45896864 0.3428587
0001a0 cd 3d 03 bf ab 42 a2 be b0 21 8d 3f 82 a3 af bf
       -0.51266176 -0.3169149 1.1025906 -1.3721774
0001b0 4d 5e 41 bf 33 e7 6e 3f b2 c5 ec 3f 68 15 e9 3e
       -0.75534517 0.9332153 1.8497832 0.45524144
0001c0 6b 6a 8d 3f 91 ba 46 3f 1e 20 c6 bd fa 49 1d bf
       1.1048101 0.7762843 -0.096740946 -0.61441004
0001d0 b5 5e c7 be c8 1f 81 bd 24 c2 01 3e 71 26 a2 3f
       -0.38939443 -0.0630489 0.12671715 1.2667981
0001e0 0d e3 b2 3d 6b 2d e1 bf d7 4e 1f bf 25 08 b5 be
       0.08734713 -1.7591985 -0.62229675 -0.35357776
0001f0 03 fa 32 be 62 f9 83 be a8 04 7d bf 56 5d 68 be
       -0.17478184 -0.257762 -0.9883523 -0.22691855
000200 a9 33 6e be 52 36 d8 3f 08 a7 87 bd f8 d1 e4 bf
       -0.23261894 1.6891577 -0.066236556 -1.7876577
000210 3e e6 bd bf 3f fc 29 3e f0 57 d7 be 06 34 a5 3f
       -1.4835889 0.1660013 -0.42059278 1.2906501
000220 a1 19 65 be 8f 13 63 bf 3f 40 66 bf 53 06 ed 3f
       -0.22373058 -0.8870172 -0.8994178 1.8517555
000230 44 06 e1 3e 8d 5f ad bf e8 14 06 bd 0f 12 03 bf
       0.43950093 -1.3544785 -0.03273478 -0.5119943
000240 4a 54 ac 3f 07 2a 04 bf 1a cc 58 40 27 5d f4 bf
       1.3463223 -0.5162663 3.3874574 -1.9090928
000250 05 e6 55 bf 3f 3d 82 3f 32 ef 44 bf 1c 1b df 3f
       -0.83554107 1.0174941 -0.76927483 1.7430148
000260 15 5b e7 bf 4d ab 16 3f 50 1c 98 be b1 6c 00 be
       -1.8074671 0.58855134 -0.297091 -0.12541462
000270 91 00 f4 be 1f 4a 25 bd 61 6d bb bf 55 99 9f bf
       -0.47656682 -0.04035389 -1.4642755 -1.2468668
000280 75 82 8a bf 69 80 41 bf d4 ba 3d 3f 24 40 9e 3f
       -1.0821062 -0.75586563 0.741132 1.2363324
000290 ec c2 da 3f c1 15 0d bf 79 5d 16 3f a1 ec 12 3d
       1.7090735 -0.5511132 0.5873638 0.0358702
0002a0 ae 9a 9d 3f 65 a2 92 bd f7 6e 58 3e 0b 26 77 be
       1.231283 -0.071598805 0.2113608 -0.24135606
0002b0 59 bf 5b 3e db 74 49 3f 46 ae 26 bf 7e 08 68 bf
       0.21459712 0.7869393 -0.6510967 -0.9063796
0002c0 d5 45 fe 3e 8a 9f ea 3d a4 75 59 3b 79 78 0d be
       0.49662653 0.11456211 0.0033181692 -0.13815488
0002d0 3f 30 5e 3f eb 4c c9 3e e2 e7 87 3f fb 8a 9a bf
       0.8679237 0.39316496 1.061764 -1.2073663
0002e0 e6 bd 81 be 7f de 89 3d 9c d0 8c 3f 1b bf d2 3e
       -0.25340194 0.06731891 1.1001163 0.41161427
0002f0 4b 39 9b bf 44 e0 6b be 14 f5 46 bd ad 9c 95 3f
       -1.212686 -0.2303477 -0.04857357 1.1688439
000300 3d 78 6a 3f e2 83 e2 bf 46 c2 51 be 3b a4 ce 3e
       0.9158972 -1.7696497 -0.20484266 0.40359673
000310 c1 96 83 bd 66 09 c4 3f f3 e6 8a be c3 15 ac bf
       -0.064252384 1.5315368 -0.27129325 -1.3444141
000320 71 96 58 3f 90 3c 29 40 e9 8e 33 3f f0 b4 b3 bf
       0.84604555 2.6443214 0.7013994 -1.4039593
000330 a9 fe cd bf ff 89 94 be 92 d8 29 3f fe b5 08 3f
       -1.6093341 -0.29011533 0.66346085 0.534027
000340 b0 16 9a bf d2 8f 26 be 1d f6 83 3e 96 54 a8 bf
       -1.2038174 -0.162658 0.25773707 -1.3150814
000350 d6 7e 21 bf 93 5f 8d bf 2a e7 9c 3e 8d 87 d8 bf
       -0.6308416 -1.1044792 0.30645114 -1.6916367
000360 3b 20 4c 3f 28 28 be 3e a0 1b e0 3f e0 f1 2b be
       0.7973668 0.37140012 1.750843 -0.16791487
000370 2c 65 48 bf 98 ac ac bd fd f7 25 3f ba ff 31 bf
       -0.78279376 -0.08431357 0.64831525 -0.6953083
000380 ee b3 8a 3f c5 98 da bd fc 14 9c 3f 1e bb a6 3f
       1.083616 -0.1067367 1.2193904 1.3025854
000390 68 2a 06 40 fd a4 e3 3e d2 c5 91 be e6 23 a4 3e
       2.0963383 0.44461814 -0.28471237 0.32058638
0003a0 3d 43 b5 bc 03 64 88 bf a2 75 07 bf cb d8 31 3f
       -0.022126788 -1.0655521 -0.5291387 0.69471425
0003b0 18 f6 fd 3f 62 9c 5b bd 65 4d 12 c0 49 e5 fd be
       1.9840727 -0.053615935 -2.2859738 -0.49588993
0003c0 d7 ae 06 bf 4a e0 4f bf 4f 0c c2 3e 10 c1 ed bf
       -0.52610534 -0.8120161 0.37900016 -1.8574543
0003d0 e6 de 13 3f c5 53 56 3f e4 15 ab bf 37 83 ef 3e
       0.5776199 0.8372157 -1.3366055 0.46779796
0003e0 a5 58 2b 3f 75 82 1a 3f 71 da 4a be f1 49 26 3f
       0.66932136 0.6035531 -0.19809891 0.64956576
0003f0 5f 3e 1d 40 55 14 10 3f a1 46 dd 3f 44 33 0a 3e
       2.4569318 0.56281024 1.7287179 0.13496119

weight_ih_l0 f4 [300, 100]
000000 06 b9 89 bc 12 3a 02 3e 93 0b 97 3e 9e aa e2 bc
       -0.016811859 0.12717465 0.29501018 -0.027669247
000010 cd b7 9a 3e 3a f5 52 3d cb 47 2f bd 9c 2a d2 bd
       0.30218354 0.051503398 -0.042793076 -0.10262033
000020 95 49 ad bd 6c df c7 be f5 2e 2b 3e f0 5f 1e 3e
       -0.084613 -0.39037645 0.16717131 0.15466285
000030 72 3a bc be b4 f4 0f be 9d 10 bd 3d f2 50 80 be
       -0.3676334 -0.1405819 0.09231684 -0.25061756
000040 36 fb d7 bd ca da 30 be a7 5f de bd fb e1 97 be
       -0.105459616 -0.17270961 -0.10858088 -0.29664597
000050 4d 5d 87 3d d3 e1 ef bd 8e 7d 8a be a2 91 8b 3e
       0.066095926 -0.117129944 -0.27048916 0.27259547
000060 00 0c 64 3e cd f0 9d 3d d5 32 bc bb 3d e3 ae bd
       0.22270203 0.07711945 -0.0057433643 -0.08539436
000070 02 cc 1e 3e 60 38 e8 3d 5d be 54 3e 48 53 73 3e
       0.1550751 0.11338878 0.20775743 0.23762238
000080 22 39 08 3c a3 3f 86 be f9 82 90 3e 0a 2b 8d be
       0.008314403 -0.26220426 0.28224924 -0.275719
000090 7c e3 15 be 2e a9 4e be ea 1f d3 bd ee e9 64 bd
       -0.1463756 -0.20181724 -0.103088215 -0.055887155
0000a0 12 7a bc be 0b 8a 4d 3e 72 59 10 3c 7d 9e 8c 3d
       -0.36811882 0.2007219 0.008810388 0.06866167
0000b0 fe 78 ee 3c d0 9b 06 3d 22 e9 0d 3e a5 ea 99 be
       0.029110428 0.032863438 0.13858464 -0.30061832
0000c0 db e9 94 3d f6 5a 3c bd a6 34 4f 3d 28 03 2a bb
       0.07271167 -0.045985185 0.05058732 -0.0025941823
0000d0 dd 43 50 3e c7 5f 08 be 5a 32 1f be fb 5b a9 be
       0.20338388 -0.13317786 -0.15546551 -0.33077988
0000e0 20 9f 6f 3a 8b 38 66 be 8b 3a d5 bd 90 72 86 3e
       0.0009140838 -0.22482507 -0.10411557 0.2625928
0000f0 7b ca 96 be 8e 6d 77 bd 35 ce 61 3e f2 b4 14 3d
       -0.29451355 -0.060407214 0.22051318 0.036305375
000100 67 f2 a9 3e 57 3a 87 be b2 5e 53 bd a2 99 17 bd
       0.3319275 -0.26411697 -0.05160398 -0.03701175
000110 d6 0f 9f 3e 89 02 69 3d 4a 54 1a be f2 01 2e 3e
       0.3106677 0.056887183 -0.15071216 0.1699293
000120 2b da 01 3e 90 57 aa be bc 47 55 3e e7 7e aa 3d
       0.1268088 -0.3326993 0.20828146 0.08324986
000130 a4 05 6f bc 35 a7 6e 3e 8d 65 de bd b3 de 69 be
       -0.014588747 0.23305972 -0.10859213 -0.2283886
000140 c3 59 58 be 82 e5 4a 3e 2b f0 14 3e 3e 4e 81 be
       -0.21127991 0.19814113 0.14544742 -0.25255007
000150 1f bd 8c 3e 8a b9 1d 3e 4e 13 aa 3e 69 0b 84 bd
       0.27488038 0.15402809 0.33217853 -0.06447489
000160 85 f2 75 3d 5e 04 a9 bb 08 0c 80 be 3a 70 16 be
       0.060045738 -0.0051579913 -0.2500918 -0.14691249
000170 09 b2 55 be 01 d9 92 3d 0e 5a cb 3c b7 91 ca be
       -0.20868696 0.071702965 0.024823215 -0.39564297
000180 0c 4d 84 3e c3 ca 8e 3e e3 d5 ee bc ff 26 01 3e
       0.25840032 0.2788907 -0.029154724 0.12612532
000190 2d d1 8f bd 94 c7 dd bd ee 5c 38 3c 1e 57 9a 3e
       -0.07022319 -0.10829082 0.011252625 0.3014459
0001a0 f0 09 66 39 cd 43 0d be e1 3c 6b be 5a f8 f2 bd
       0.00021938211 -0.13795395 -0.22972442 -0.118637756
0001b0 92 5c 75 bd e5 47 4a be 90 46 23 be 92 c6 2d bc
       -0.059902735 -0.19753988 -0.15944886 -0.010606425
0001c0 de 5a 40 be e8 e2 e2 bd 78 ae 96 3d b0 8a 01 bc
       -0.18784663 -0.11078435 0.07357496 -0.007906601
0001d0 79 d0 a6 bd df 88 ab 3d f0 ad 0c bd 93 17 da bc
       -0.08145232 0.083757155 -0.034345567 -0.02662257
0001e0 a0 aa 85 bc a5 58 db 3d 10 2c 9b bd 1c d3 26 3e
       -0.016316712 0.10710267 -0.07576764 0.1629147
0001f0 74 5c 17 be 6b 47 02 3c 5b 22 7a be 6e 53 90 3d
       -0.14781362 0.007951598 -0.24427168 0.07047163
000200 33 6a 95 3e e6 c9 03 3e ce 70 3a 3e 7e 5f bd 3d
       0.29182586 0.12869987 0.18207094 0.09246729
000210 ac 99 97 bd 1e 74 7e be 3e 95 07 3e 2c ca 2f bd
       -0.074023575 -0.24848983 0.13240525 -0.042917415
000220 b0 b9 05 3e 55 33 cf bd ce cc af bc cf fb a0 3d
       0.13059115 -0.10117213 -0.021459963 0.07860529
000230 1e bc 69 be a0 fb fa 3d 3e ec 33 3e 77 65 9f 3c
       -0.22825667 0.12255025 0.17570588 0.019457562
000240 0a dc 8d 3c ad f1 23 3e 91 82 ae bd 38 6f 77 bd
       0.017316837 0.1601016 -0.08520997 -0.0604088
000250 c6 6d 16 be 2a 35 71 bd 5e 95 ac bd b1 2f 9f 3c
       -0.14690313 -0.05888859 -0.08426927 0.01943192
000260 08 a1 bc bc 93 2a 65 be e4 01 a4 3d 78 d6 81 bd
       -0.023026004 -0.22379522 0.08008173 -0.06339735
000270 b3 26 2d 3e 6a 68 f2 3d 1a f2 af 3c c0 e9 17 3e
       0.16909294 0.11836322 0.021477748 0.14835262
000280 b8 1d e2 3d 28 02 6b 3e 1e 70 1d 3e a8 fa 10 3d
       0.11040825 0.22950041 0.153748 0.035395294
000290 d0 66 9a 3d 66 17 67 bd 7f 7f 8f bd ab 85 a0 bc
       0.07539141 -0.0564188 -0.0700674 -0.019594988
0002a0 ba 1f 2c be 9b ce 71 be 1f 87 c1 bc 02 4f 0d 3e
       -0.16808978 -0.2361397 -0.023624001 0.1379967
0002b0 88 0c f5 3d 1f 4a 81 3e f2 68 86 3a 88 4b 42 be
       0.11965281 0.25251862 0.0010254665 -0.18974125
0002c0 ca 8a 04 3d 75 49 31 3e ec 40 b9 3d f6 33 9a 3d
       0.032358922 0.17313178 0.09045586 0.07529442
0002d0 d6 48 17 bc 24 b4 2d 3e 7a 3c 79 3c b0 34 c7 3c
       -0.009233674 0.1696325 0.015212173 0.024317116
0002e0 1a 87 f8 3d 9c ee dd bd a6 0c 27 3e 0d d3 a9 bd
       0.121351436 -0.10836527 0.16313419 -0.08292208
0002f0 78 c6 02 be 1e 9c 8a bc d1 88 e3 bd 37 8a 10 be
       -0.12771022 -0.016920146 -0.1111008 -0.14115225
000300 0d 07 32 be 9e e1 c7 bd dd 0b 9f 3d c4 b2 34 3e
       -0.17385502 -0.0975983 0.077659346 0.17646319
000310 bd 93 0f be ef 5f 3b bc 55 b4 fc 3d 9c eb da 3d
       -0.14021201 -0.011436447 0.12339083 0.1068947
000320 5a 71 11 3e ae 9c 0d bc e3 a2 8a 3d 22 98 96 be
       0.14203396 -0.008643312 0.067693494 -0.29412943
000330 4b 5f 28 bd 45 64 9b be 5e 89 a8 bc 0c 4d 8e 3d
       -0.041106503 -0.30349937 -0.020573314 0.06948289
000340 0c c7 8b bd f9 03 84 be 63 6b b3 3d aa a7 d7 bd
       -0.068250746 -0.2578428 0.08760717 -0.10530026
000350 92 c6 69 bd 0a 98 d6 3d a8 0c a7 bd af 90 0c bc
       -0.057074137 0.10478218 -0.08156711 -0.008579417
000360 f3 ca 77 be e4 90 28 3e 30 a0 37 3e 45 4e c1 bd
       -0.24198513 0.16461521 0.179322 -0.09438757
000370 2c 66 cf 3c 52 4c 32 bd 25 5a 7a 3d 99 46 37 be
       0.025317274 -0.043529816 0.061121125 -0.17898025
000380 4f 75 b7 bd d8 b6 11 3e af 02 5a bd d8 8f 0c bb
       -0.08957922 0.14229906 -0.053225216 -0.0021448042
000390 68 0f 43 be d6 04 ec 3c 63 f9 0f be 98 99 b3 3d
       -0.19048846 0.0288109 -0.14059977 0.0876953
0003a0 f2 08 93 3e ee 69 26 be f6 b7 5c 3e c6 ab d4 3d
       0.28717762 -0.16251346 0.2155455 0.10384326
0003b0 62 63 0c bd 90 55 0c be be 07 ac bd 82 51 a0 be
       -0.034274466 -0.13704515 -0.08399914 -0.31312186
0003c0 44 61 1c 3e 5c 2b fa bd a9 da ba bb 6f 0d 7c 3c
       0.15271479 -0.122153014 -0.005702336 0.015384062
0003d0 b5 a9 9f 3d 7c 0b 81 be 26 cb 37 3e 6a 35 64 be
       0.07796041 -0.25204074 0.17948589 -0.22286001
0003e0 91 45 df 3d d3 cb 5e 3d 7a 33 c2 bc 3c 01 8f 3b
       0.109019406 0.0543936 -0.023706187 0.004364161
0003f0 c2 e8 81 3c a6 23 15 3e 5f e6 92 3d e2 eb a5 3c
       0.015858058 0.1456438 0.07172846 0.02025408

weight_hh_l0 f4 [300, 100]
000000 ef 56 01 be ad 98 92 be 3f 97 43 be 90 82 d6 3a
       -0.12630819 -0.28632107 -0.19100665 0.0016365815
000010 45 29 53 bb 45 72 84 be 9d c0 ab be cd 56 13 be
       -0.0032220643 -0.2586843 -0.3354539 -0.1438858
000020 65 a9 ae be 6d 87 86 3d cb e3 11 be 29 9a 63 bd
       -0.34113613 0.06568799 -0.14247052 -0.05556694
000030 21 5f f7 3d 57 64 a4 bd 1a 77 04 3e e7 68 d1 3c
       0.12078691 -0.08026951 0.12936059 0.025562717
000040 03 35 08 3e be de 84 3e 1e c0 2b be 03 2d 6a bd
       0.13301472 0.2595119 -0.16772506 -0.057171833
000050 7a d3 c3 3d 76 37 f8 3d 8c 58 fa 3d 66 a7 df bd
       0.0956182 0.12119953 0.1222392 -0.109206006
000060 e5 16 5e 3d ab ba bd 3c c8 8e 26 3a 27 1d b3 be
       0.054221053 0.0231603 0.00063536735 -0.3498318
000070 51 aa a1 bd b6 39 24 bd 95 53 81 3e d0 bc 91 3e
       -0.078938134 -0.0400941 0.2525908 0.28464365
000080 c1 b0 10 3e 45 90 0f be 17 3b f3 bd 12 bd bd bd
       0.14129926 -0.14019878 -0.11876505 -0.09264578
000090 04 5f 25 3e 0f 29 8f be b8 ef 0d be 85 0f 48 3e
       0.16149527 -0.27961013 -0.13860977 0.1953717
0000a0 4f 52 00 be db f7 63 3c e5 f9 ab bd de 69 9b bd
       -0.12531398 0.013914074 -0.08397273 -0.07588552
0000b0 d8 de 1c be 20 38 a9 3e ce b4 cd 3e 85 9a a0 bc
       -0.15319383 0.33050632 0.40177006 -0.01960493
0000c0 db a7 b4 3e b7 56 b1 3e 11 1d 47 3e ad 00 01 be
       0.35284314 0.3463647 0.19444682 -0.12597914
0000d0 ae 3a fb bc fa 57 60 bd 6f 33 0e 3e 44 2b 0c 3e
       -0.03066763 -0.0547714 0.13886808 0.1368838
0000e0 ae f7 f6 bd 75 c4 c3 be b7 2f 41 be fa 38 2c 3e
       -0.1205896 -0.38235822 -0.18865858 0.1681861
0000f0 82 67 30 bd bd 2f 28 be bf ac 94 bd 86 09 a4 3e
       -0.043067463 -0.1642446 -0.07259511 0.32038516
000100 97 5b 4a bd cd 6a 7f be ab 2f 10 3e e6 cb 83 3d
       -0.049403753 -0.24943085 0.14080684 0.06435375
000110 cd 5b 8a be ae 24 f7 3b 42 2a 93 3e 96 37 49 3e
       -0.27023163 0.0075422144 0.28743178 0.1965011
000120 be ff d4 3d 45 4e 8c bd 95 22 f9 3d ee 12 36 3d
       0.104003415 -0.06850866 0.12164799 0.044451647
000130 83 6b 48 be 49 24 cd 3d f0 d8 c6 3e eb f5 d6 3c
       -0.19572262 0.100166865 0.38837385 0.02624031
000140 58 66 67 3e 0b b7 ca 3d 2a 78 9e be 0f 80 93 3d
       0.22597635 0.09898194 -0.30951053 0.072021596
000150 6a d7 f6 3d 2f e6 08 be 4d bc 3f be 3a 19 4b bd
       0.12052806 -0.13369058 -0.18724175 -0.049584605
000160 f9 ff 99 3e 66 86 d0 3d 55 66 26 be 9b ff de bd
       0.30078104 0.101818845 -0.16249974 -0.108885966
000170 a4 7a ac bd 46 ab d3 bc 9b 86 95 3d 21 eb b9 3e
       -0.08421829 -0.025838505 0.073010646 0.36312202
000180 38 fe 46 bc a0 62 23 bd c0 d1 b4 ba 5c d5 f7 bd
       -0.012145571 -0.039888978 -0.001379542 -0.12101242
000190 a0 73 76 3e 5c 96 be 3e 9e ee 0f 3d 08 f8 cd 3c
       0.24067545 0.3722409 0.035139672 0.025142685
0001a0 6d dd 42 bc 33 82 de 3e c5 02 78 3e c3 34 a3 3c
       -0.011893612 0.4345871 0.24219806 0.01992262
0001b0 cd e5 2f be aa 0c 6d be 89 05 63 3e 65 4d 98 bd
       -0.17177506 -0.23149362 0.2217008 -0.07436637
0001c0 7d 81 20 3e 02 81 92 3d 92 9d ab 3d 7a 05 41 bc
       0.15674396 0.071535125 0.083796635 -0.011781091
0001d0 39 d7 ce 3e 10 77 3a bd 66 02 e8 3d 50 3a 1a 3c
       0.40398577 -0.045523703 0.113285825 0.009413317
0001e0 36 01 4f be dd d6 ae bd 2b f5 04 be 36 3c 5b 3e
       -0.20215306 -0.08537076 -0.12984149 0.21409687
0001f0 53 27 34 bd 36 0d 24 3d 19 29 03 bf 66 00 99 be
       -0.043982815 0.04005166 -0.51234585 -0.29883116
000200 c6 d1 91 3e e8 41 29 be 7a d8 6d be 75 7c 54 3d
       0.28480357 -0.16529047 -0.2322711 0.051876504
000210 99 36 96 3d f8 0d 49 be c6 b5 c0 3e d3 2a 77 3e
       0.073346324 -0.19634235 0.37638682 0.2413743
000220 6d 05 b5 3e 53 02 89 3e 65 ec d9 3e e4 58 5f bd
       0.35355702 0.26759586 0.42563167 -0.054528132
000230 ca d7 9c 3d 3a 01 79 bd 3b 84 88 be 5e f5 84 bc
       0.07658346 -0.060792185 -0.26663384 -0.016230281
000240 76 b5 b3 be 91 30 1d 3e da c7 ca be 54 03 ad bd
       -0.3509938 0.15350558 -0.396056 -0.084479004
000250 ba f0 b0 bd 33 0f 80 3d 40 51 43 be 0f 40 38 bc
       -0.08639665 0.06252899 -0.19073963 -0.0112457415
000260 95 42 a1 be 12 f9 25 be 47 12 e9 bd 99 84 22 be
       -0.3149611 -0.16208294 -0.11380439 -0.15870894
000270 6d 06 1c be ed b1 26 be 83 40 d5 bc 2e e2 8c bc
       -0.15236826 -0.16278811 -0.026031738 -0.017197695
000280 05 d9 9b 3e c8 cb 0f 3e a6 82 8e 3d 22 0f 03 3e
       0.3043901 0.1404258 0.06958513 0.12798741
000290 81 e2 51 3d be c3 cd 3b 25 d2 b6 3e 85 58 d1 bd
       0.0512414 0.006279438 0.35707203 -0.10221962
0002a0 e3 47 8a 3e 22 10 64 3e 48 a5 80 bd 43 6e 3f be
       0.2700797 0.22271779 -0.06281525 -0.18694405
0002b0 b9 f8 e0 3d 3a aa 6d 3e 58 12 d9 bd d0 01 8f bd
       0.1098494 0.23209468 -0.10599202 -0.069827676
0002c0 18 b1 69 3d 4d 52 27 bc 32 13 e1 3e 93 f4 82 be
       0.057053655 -0.010212493 0.43959957 -0.2557722
0002d0 67 28 93 bd 5c 8b f4 bc 0c 2c 2f be 9b 09 5f 3e
       -0.071854405 -0.029851608 -0.17106646 0.21781008
0002e0 13 5d ea bd b7 a7 c0 3c 21 51 b2 bc 16 1d 23 3d
       -0.11443534 0.023517473 -0.0217672 0.03982266
0002f0 47 da a6 3d 7a 7a d0 be c7 80 af 3d 8c d0 73 3d
       0.08147102 -0.40718442 0.08569484 0.059525058
000300 fb d0 c1 bd 9b 86 0d 3e da b0 bb 3d e8 22 31 3e
       -0.09463688 0.13820879 0.09164591 0.17298472
000310 61 66 2c 3d 9a ac 3e 3c 3e 8c 73 bc a3 7e 57 3d
       0.042089824 0.011637831 -0.014864979 0.052611005
000320 81 80 91 3d b1 7f 99 3d 19 de 9a bc 31 cc 37 3c
       0.07104588 0.07495058 -0.018904733 0.011218117
000330 0a a9 86 3d 8a e6 02 3e 43 3d 2d 3e 93 53 95 bc
       0.065752104 0.12783256 0.169179 -0.018228328
000340 bf e8 63 be 60 ef 5e bc f0 13 0d 3e c2 85 e2 bd
       -0.22256754 -0.013606876 0.13777137 -0.110606685
000350 d1 0a ae 3d 1f 55 2a be 7f e6 83 bd 6f 5b 2a be
       0.08498157 -0.16634034 -0.06440448 -0.16636442
000360 e9 53 78 3d 43 7a fb 3d 19 29 c4 3d 66 ce 54 be
       0.060626898 0.12279179 0.09578151 -0.2078186
000370 b1 5b 38 3e 14 9f 18 3e 0f 27 a9 bd ec 61 2e be
       0.18003727 0.14904433 -0.08259403 -0.17029542
000380 d8 c8 5d 3d 19 7a 13 bd 1c c4 04 3e 8b fc 0d be
       0.054146618 -0.036005113 0.12965435 -0.13865869
000390 03 e8 b5 3d 7b 03 3e bd e7 93 3a be 9f b7 05 3c
       0.08882143 -0.046390038 -0.18220483 0.008161454
0003a0 90 d0 7a bd 12 3d 7b bc b7 3f 87 be 14 4f e4 bd
       -0.061234057 -0.0153343845 -0.26415798 -0.111478955
0003b0 8d 48 06 3e e9 a4 4a bd 4d 8e 96 3e 3e 94 40 3e
       0.13113613 -0.049473677 0.29405442 0.1880655
0003c0 b2 55 f1 3c 89 78 56 3d cf e4 84 bd 77 aa e6 bd
       0.029459808 0.052361045 -0.06488954 -0.11262982
0003d0 16 ee 67 be eb 51 17 3c 5a 1f c6 3d 60 e4 24 be
       -0.22649416 0.009235839 0.096739486 -0.16102743
0003e0 d3 02 14 be e7 5c 75 3c 17 a4 8d bd f0 1d ff bd
       -0.14454202 0.014975763 -0.06916063 -0.12456882
0003f0 28 d8 38 3d 61 dd 85 bd c9 69 60 bd 89 2f 55 bd
       0.045128018 -0.06536365 -0.054788385 -0.052047286

bias_ih_l0 f4 [300]
000000 98 3e 5b bd 32 9d 8b 3d 68 90 2d 3c 46 f6 0d bd
       -0.05352649 0.06817092 0.010593511 -0.034658693
000010 91 b5 0d 3e 7d 3e 9a bd db 2a c9 3c 29 0a e3 3d
       0.13838793 -0.0753145 0.024556568 0.11085922
000020 04 fd 0d 3c 25 7e 90 bc 7f 9c 82 3d f2 4e b7 3d
       0.008666281 -0.017638275 0.063775055 0.089506045
000030 5e fe 49 bd 5b 8e f4 bd f6 0c ae 3d 87 a2 2b bd
       -0.04931485 -0.11941215 0.08498566 -0.041903045
000040 da e8 bb bb cd 5a 23 3e bd b3 84 3d 81 11 d4 bd
       -0.005734545 0.15952606 0.06479595 -0.10354901
000050 f8 0c 51 bd 03 e9 37 3d c7 ea f4 3d 37 32 a4 3d
       -0.05103776 0.04489995 0.11958843 0.0801739
000060 ff b3 30 bb c0 b5 35 3b fe 7e 4f 3c 01 a3 4c 3c
       -0.0026962755 0.002772674 0.012664555 0.012490035
000070 4f d6 10 be 2f 9a 33 bd 24 88 06 bd 90 59 83 bc
       -0.14144252 -0.043848213 -0.032844678 -0.016033918
000080 fb 3b e5 3d a6 ff 04 be 43 68 c2 3c 04 63 f8 bd
       0.11193081 -0.12988147 0.023731356 -0.12128261
000090 47 73 83 bd 82 1e 04 bd 46 4f 16 bc e6 c9 3d 3e
       -0.06418472 -0.032255657 -0.009174174 0.1853405
0000a0 76 b9 a6 3c 2e 71 b2 3d 6d 68 dd 3c ef 7f 55 3d
       0.020352107 0.087129936 0.027027333 0.05212396
0000b0 fc 3b b9 bd 8c 80 aa bb 69 b5 7c bc d2 50 98 3d
       -0.09044644 -0.0052033123 -0.015424111 0.0743729
0000c0 68 17 26 bd 03 42 38 bd 75 e2 d6 3d 8c 17 0a 3e
       -0.040549666 -0.04498483 0.10492412 0.13485545
0000d0 d9 ec d6 bd 9e 6a f0 3d 68 b1 39 bd f0 c5 4d 3e
       -0.10494394 0.117390856 -0.045335203 0.20095038
0000e0 e0 09 87 bc 66 44 87 bd 8a 79 74 bd 75 20 40 be
       -0.016484201 -0.06604843 -0.05968622 -0.18762381
0000f0 a8 b9 fb 3c d3 65 35 bd 36 27 cc bd ca 47 28 3d
       0.030728176 -0.04428656 -0.099684164 0.04108409
000100 3a 5c 90 3d 17 a2 c4 bd 5b e0 c1 bc 7e 16 8b 3d
       0.07048841 -0.09601229 -0.023666551 0.067913994
000110 18 e6 26 3a 90 0a 46 3a 00 78 08 bd 04 b7 2d 3e
       0.0006366684 0.00075546745 -0.033317566 0.16964346
000120 90 46 e4 bd 09 d6 37 3d 0e 46 89 3d 71 8b c4 bb
       -0.11146271 0.044881854 0.06702815 -0.005998068
000130 5f a5 10 be d7 ab 28 bb 3b ee e0 bd ce 3c bb bd
       -0.14125584 -0.002573719 -0.10982939 -0.09142457
000140 92 5a df 3d d2 4f 6e b9 45 75 45 3c 69 c6 97 bd
       0.10905947 -0.00022727184 0.012051885 -0.074108906
000150 b1 47 a6 3d f0 f1 ff bc 49 02 d4 bd 54 f5 35 3d
       0.08119143 -0.031243294 -0.10351998 0.044423416
000160 8c fb 37 3e 2d e6 2a bd 6c 2d 90 3d 83 21 09 3d
       0.17967051 -0.04172342 0.070399135 0.033479225
000170 d7 e1 fd 3d 8f ec 99 3d 41 12 ae bd ad eb a1 bd
       0.12396591 0.07515823 -0.084995754 -0.0790628
000180 44 2a 7d 3d 62 88 ed 3d 35 40 9a 3d c7 60 eb 3c
       0.061807886 0.115982786 0.07531778 0.02873267
000190 76 cc 9f 3b 81 e7 15 be 88 92 1f bd ca de fe bd
       0.0048766686 -0.14639093 -0.038958102 -0.124448374
0001a0 09 70 46 be 35 8c 64 bd 8c 3d 88 be 6f 04 30 3d
       -0.19378676 -0.055797774 -0.26609457 0.04297298
0001b0 24 87 be bd ce c4 04 bd 84 a8 9b bd c7 82 31 bd
       -0.0930312 -0.03241425 -0.07600501 -0.04333761
0001c0 76 8c 06 be 82 7c d1 bd fb 9d 7d bd 72 b8 a1 bd
       -0.13139519 -0.10228826 -0.06191824 -0.07896508
0001d0 37 e1 18 be 27 a0 01 be 2f 75 cd bd 5c 9e 08 be
       -0.14929663 -0.1265875 -0.100321166 -0.1334166
0001e0 c2 74 04 be ac 36 89 bc 92 35 08 be 27 5b 09 3d
       -0.12935165 -0.016749702 -0.13301685 0.033534195
0001f0 b2 c4 66 bd 69 d4 57 3d dd dc 77 be c8 15 a5 be
       -0.056339927 0.052692804 -0.24205346 -0.3224318
000200 fd a5 2c be 7e 68 5e be 07 68 2f be 6c 18 09 bc
       -0.16860195 -0.21719548 -0.17129527 -0.008367639
000210 e1 4a 0d be c9 81 35 be de 19 de bd ad 4c 32 3b
       -0.13798095 -0.1772529 -0.108447775 0.0027206347
000220 1a 61 eb bb 6a 7f 00 be d7 af 08 3c 2e 0e 6b be
       -0.0071832063 -0.12548605 0.008342705 -0.22954628
000230 b7 dd 42 be 19 b9 a3 bd 1e 35 cf bd ae e0 23 be
       -0.1902989 -0.07994289 -0.10117553 -0.16003677
000240 90 f5 c6 bd 3d 39 0d be 28 37 69 be ff 5e 23 be
       -0.09714806 -0.13791366 -0.22774947 -0.15954207
000250 fa 0f a0 bc 04 28 d4 bd ed 1b 3f be aa 67 73 bd
       -0.019538868 -0.10359195 -0.18662997 -0.059425034
000260 6e 03 37 be 1c 52 23 bd 7b 13 08 be 5b fc b4 bd
       -0.17872402 -0.039873227 -0.13288681 -0.088371955
000270 47 42 e2 bd 39 e1 82 be 5c 17 5c 3d cf 61 2b be
       -0.11047798 -0.25562456 0.053733215 -0.1673653
000280 6a 0f 07 be 13 68 60 be 54 dc 5c be d9 5c a9 bc
       -0.13189474 -0.21914701 -0.21568424 -0.020674156
000290 b8 69 de 3d 64 60 12 be 3d 2e 07 bd c6 04 5b bd
       0.10860008 -0.14294583 -0.03300308 -0.05347135
0002a0 c4 8f 2f be 6b e2 6c be 65 2c a4 bd e2 a4 ba 3b
       -0.17144686 -0.23133247 -0.0801628 0.005695925
0002b0 67 4a 78 bd 5a c2 19 be fb 34 26 be 61 b7 9d 3d
       -0.06061783 -0.15015545 -0.16231148 0.077009924
0002c0 e2 14 0c be e2 41 28 be de 2c bd bd e2 3b c9 bd
       -0.13679841 -0.16431382 -0.09237073 -0.09825875
0002d0 d4 d1 d1 bd 70 3c 32 be a6 29 24 be 9b 19 c4 bc
       -0.102451 -0.17405868 -0.16031513 -0.02393799
0002e0 a4 64 08 3c a6 d7 99 bd ad 86 a4 3d 9b 96 45 be
       0.008324776 -0.07511835 0.080335 -0.19295733
0002f0 63 94 0c 3e bd bb f8 bd aa d2 50 bd 00 27 3b 3a
       0.1372848 -0.12145183 -0.050982155 0.00071392953
000300 97 2d 9d 3c 86 be ae bb 7a e7 ed bd 9e f7 42 be
       0.019186778 -0.0053327708 -0.11616416 -0.19039771
000310 c8 51 12 3d eb e8 51 be c2 dd 52 be af 92 02 be
       0.035722524 -0.20499007 -0.20592406 -0.12751268
000320 0a 72 5a bd 60 08 e0 3c 75 aa 03 3e f7 c1 14 3e
       -0.053331412 0.027347744 0.12857993 0.14527117
000330 77 44 24 be 5a ec 79 bd 09 06 20 3d 54 0c 24 3e
       -0.16041742 -0.061016418 0.039068256 0.16020328
000340 88 9a 7f 3d 15 b1 db 3c 4f f7 1a bb 5c 15 15 be
       0.06240323 0.026817838 -0.0023645943 -0.14558929
000350 53 e4 92 3d ad 09 0d bb 3c 48 a9 bd 48 67 0d 3e
       0.07172456 -0.002152066 -0.08265731 0.1380893
000360 a0 7a 54 bb 0d 52 81 bc 29 ac 21 bd f3 25 92 3d
       -0.0032421723 -0.015786195 -0.039470825 0.071361445
000370 5f b4 6d bd ce f8 bf bd 54 89 33 be 92 3e 35 3c
       -0.058033343 -0.093736276 -0.17532855 0.011062281
000380 50 a6 93 bc a8 05 f2 3d b6 21 bd 3d 42 8b 6b 3b
       -0.01802364 0.11817485 0.092349455 0.0035941158
000390 2c f8 c0 bd 29 fb 62 bc f6 78 04 3d be 38 9d 3d
       -0.09422335 -0.013853827 0.03234192 0.07676838
0003a0 78 42 0d be b3 e8 fd bd 56 8c 18 3d 53 04 c8 bc
       -0.13794887 -0.123978995 0.03724321 -0.024416124
0003b0 c3 8a e7 bd 25 47 12 bc d2 3f 69 bc b5 f9 26 3d
       -0.113057636 -0.008928095 -0.014236407 0.040765483
0003c0 31 3c 2d 3e 73 f8 0f be 35 c8 64 bd 3f c8 f5 3c
       0.16917492 -0.1405962 -0.055854995 0.030002711
0003d0 0b a8 36 bd a7 94 b4 3c 31 d8 1d be 22 71 23 3e
       -0.044593852 0.02204354 -0.15414502 0.15961125
0003e0 be 8f f8 bd bc c6 60 bd 45 9e 3c 3d b7 5b 5b 3e
       -0.12136792 -0.054877028 0.046049375 0.21421705
0003f0 f9 09 65 3d 99 52 a5 bd 32 32 23 be 76 49 2a be
       0.055917714 -0.08072395 -0.15937117 -0.16629586

bias_hh_l0 f4 [300]
000000 d4 15 db bd d6 17 fd bc 2c ca b0 3d 9c d5 98 ba
       -0.10697523 -0.030895155 0.08632311 -0.001166034
000010 54 92 df 3c 3c f3 12 3c ea e5 ed 3d db 0e aa bc
       0.027291454 0.008969124 0.11616118 -0.020759037
000020 67 b1 0b be b0 e9 bf 3d 7d 23 ff bc 10 97 83 3c
       -0.13641892 0.09370744 -0.031144852 0.016063243
000030 6e 7f 0c 3c b6 f4 02 be 2c 51 e2 3d 5d 98 d0 bd
       0.0085753035 -0.12788662 0.110506386 -0.10185311
000040 da fe 5b 3d f7 89 19 3e c5 78 91 3d 6b 51 dc bd
       0.053709842 0.14994036 0.07103113 -0.10757717
000050 10 3d 8f 3c e0 95 57 3b 31 20 4d 3d 21 7e 43 3c
       0.017485172 0.003289573 0.05007953 0.011931927
000060 3f 5a ca bb 74 17 b6 3d 84 fb b9 bd 55 83 8b bd
       -0.006175309 0.08891192 -0.09081176 -0.06812159
000070 88 4a 38 3a 8f 9f 4f 3c 96 c4 4f bc 50 17 a7 bd
       0.0007030149 0.012672319 -0.012681147 -0.081587434
000080 7f bc d1 3d 17 e9 62 bd 76 2a 01 3e d3 4d 9e bd
       0.10241031 -0.055398073 0.12613854 -0.077296875
000090 97 db 1c bd 63 0a bf bb 83 48 0d be 61 ab 17 3e
       -0.038295355 -0.0058300956 -0.13797192 0.1481147
0000a0 16 be 81 bd fd 4d 76 3d 93 e3 98 3b 65 41 57 bc
       -0.06335084 0.06013297 0.004665801 -0.01313815
0000b0 ff 0a 8c bd b8 68 8c bd 90 bd 93 bd 3f ed 14 3e
       -0.06838035 -0.06855911 -0.072138906 0.14543627
0000c0 5a 54 9f 3c d9 c4 73 3d 33 f6 78 3c c7 b5 49 3e
       0.019449402 0.0595139 0.015195417 0.19698249
0000d0 85 09 14 bb 9c 0f 06 3e 82 0f 34 bd 57 a5 8b 3d
       -0.0022588682 0.13091892 -0.043960102 0.068186454
0000e0 29 b2 06 3d 4f ec 12 bd 17 4f ab bd ed 4e 05 be
       0.03288475 -0.035869893 -0.083646946 -0.13018389
0000f0 bc f8 c9 3d 84 e2 9c 3d 88 aa 26 bd 6b d8 bc 3c
       0.098618954 0.07660392 -0.040689975 0.023052415
000100 d5 9b 0a bc 1d 5c 5c bd b1 9c e2 bd d3 bb 6c 3d
       -0.008460005 -0.053798784 -0.11065043 0.05779631
000110 69 51 61 3d a5 79 2d bc 59 bc ea 3c 08 02 c9 3d
       0.05500928 -0.010588084 0.028654264 0.098148406
000120 9e 06 e5 bd ee d6 6d 3c c0 2d 9e 3d 01 4f 0c bd
       -0.11182903 0.014516575 0.0772357 -0.03425503
000130 dc ae b2 3b b8 38 50 bd d4 6a 59 bd 99 35 f8 bc
       0.005452974 -0.05083534 -0.053080395 -0.030298995
000140 e0 e3 43 bd d8 28 9e 3d 4c 25 26 3d 17 6e 55 bd
       -0.04782474 0.07722634 0.040562913 -0.052106943
000150 35 02 60 bd 92 bb cf bd 4d fb ae bd 0a ad 2b 3c
       -0.054689605 -0.10143198 -0.085440256 0.010478267
000160 74 71 30 3d ff 1d 8e 3d ac 73 13 bc a9 58 d2 3d
       0.043076947 0.06939315 -0.008999746 0.10270817
000170 d2 46 da 3c a6 4d 23 3d a9 1e 55 bd 99 04 a9 bd
       0.026645098 0.039868973 -0.052031193 -0.0825283
000180 57 07 20 3c d6 65 d3 3d 01 99 df 3d e0 b9 80 bd
       0.009767375 0.10322158 0.10917855 -0.06285453
000190 b4 d5 60 bd 76 cd ef bd 24 d3 35 be 49 13 20 be
       -0.054891303 -0.117091104 -0.17756325 -0.15632357
0001a0 83 00 2f be 81 ef 17 be 41 8b 66 be a2 0e ea 3d
       -0.17090039 -0.14837457 -0.22514059 0.11428572
0001b0 03 76 78 bd bf 5b 50 be 9b 71 2e be ba 29 3a be
       -0.06065942 -0.20347498 -0.17035525 -0.1817998
0001c0 03 bf 04 3d 9e 5f c2 bd a1 60 31 bd b4 21 4c be
       0.032408725 -0.09490894 -0.043305043 -0.19934732
0001d0 ec 46 5e bd c4 68 6b bd 9b a4 77 be 14 dd 00 be
       -0.054266855 -0.05747296 -0.24183886 -0.12584335
0001e0 6b 54 6e be fc dc 02 be d5 6e 62 bd 0a 3c 02 3e
       -0.2327439 -0.12779611 -0.05528148 0.12718216
0001f0 e8 b2 1f bd 38 3c ef bd 2a f7 42 be 37 ec 5e be
       -0.038988978 -0.11681408 -0.19039598 -0.21769796
000200 6f 83 76 be fa 6c 60 bd 29 86 1e be 85 1b f1 bd
       -0.24073575 -0.05479143 -0.15480866 -0.11772827
000210 76 ed 66 be df 6e 18 be 0a 5d 55 be 89 86 62 bd
       -0.22551522 -0.14886044 -0.20836273 -0.055304084
000220 95 22 d1 bd ca 55 2f be 64 1d c4 3c 96 0c 7e be
       -0.10211674 -0.1712257 0.023939796 -0.24809489
000230 65 9a 11 be 14 fe 93 3c 3c 49 e8 bd 84 ff 48 be
       -0.14219053 0.01806549 -0.11342093 -0.19628721
000240 77 ec 29 be 2b c0 d6 bd d0 fb 5d be d9 cc 4d be
       -0.1659411 -0.10485872 -0.2167809 -0.20097674
000250 f6 d4 ed bd ea 8e 68 be dd 78 38 be e4 ce 08 bd
       -0.11612885 -0.22710767 -0.18014856 -0.03340043
000260 e9 d9 14 be 53 7c d1 bd 31 25 bd bd 1b 0f 4c be
       -0.14536251 -0.10228791 -0.09235609 -0.19927637
000270 0b 41 d2 bd e5 3e 3c be 68 e9 b1 bd 55 82 61 be
       -0.10266312 -0.18383367 -0.08687097 -0.22022374
000280 68 6c 5a be 29 be 16 be f8 ac 77 be 20 58 0b bd
       -0.21330416 -0.14720978 -0.24187076 -0.03401959
000290 f9 4d 25 bd 07 eb 1d be 2b 50 2e be a3 b2 f5 bd
       -0.040357564 -0.15421687 -0.17022769 -0.11996963
0002a0 c4 0f f9 bc da 58 37 be 8a 54 2f be ba d1 91 bd
       -0.030403025 -0.17904988 -0.17122093 -0.0712008
0002b0 d1 61 b4 bd 08 40 a1 bd 5b 74 5c be b1 5c 35 3e
       -0.088077195 -0.07873541 -0.21528761 0.1771114
0002c0 a4 dd 67 be 84 e1 05 bd a6 ab 6e be 82 49 2b be
       -0.22643143 -0.03268577 -0.23307666 -0.1672726
0002d0 92 b6 e5 bd d6 9c 57 be 90 48 36 be cf 60 58 bd
       -0.11216463 -0.21055922 -0.17801118 -0.0528267
0002e0 64 0c c5 bd 2e ba aa bd 59 98 58 bd a1 e3 a7 bd
       -0.09621504 -0.08336292 -0.052879665 -0.08197714
0002f0 c7 40 fc 3d ad c3 47 be 31 f9 4c bd c1 86 f3 bd
       0.12317043 -0.19508238 -0.050042335 -0.11890937
000300 25 98 ee bd c6 58 93 3c db 68 59 be d4 aa bb bd
       -0.11650113 0.017986666 -0.21231405 -0.09163442
000310 96 be 71 bd e5 6a 5f be ec 1b 6d be a3 ce 7a bc
       -0.059019648 -0.21818121 -0.23155183 -0.015308055
000320 e2 94 11 3e 6c ba ce 3d 67 f1 1c 3e 28 d5 1d 3e
       0.1421695 0.10094151 0.15326463 0.15413344
000330 10 f9 3c be d3 fb 70 3d 29 85 2f 3c b4 8c 1e 3d
       -0.18454385 0.05883391 0.0107129 0.038708404
000340 73 c5 5f 3d 3b 3f ad bd 50 45 60 bd 6b 53 2a bc
       0.05463166 -0.08459326 -0.0547536 -0.010395865
000350 9e de a7 bc 88 52 07 3d 05 4a cf bd 0e 60 26 3e
       -0.020491894 0.033037692 -0.1012154 0.1624758
000360 a6 6a f4 bb e2 f6 ed ba b6 13 2c be 64 7b e1 3d
       -0.0074590025 -0.0018155242 -0.16804394 0.11009863
000370 37 e4 1f bd c6 e3 32 be 33 30 6b be d6 b1 64 3e
       -0.039036002 -0.17469701 -0.22967605 0.22333464
000380 ce a1 93 bd b2 f3 2b 3e 12 f4 33 bd 4b dd b2 bd
       -0.07208596 0.16792181 -0.043933935 -0.087336145
000390 33 41 f5 bc 2a 93 1b be 4e 3b c4 3d a3 18 a3 3d
       -0.029938316 -0.15192857 0.09581624 0.079636835
0003a0 d8 9e 13 bd b5 1b cb bb 77 f4 3f bd 96 06 33 3d
       -0.036040157 -0.0061983713 -0.046864 0.043707453
0003b0 08 4c ce 3d df ae 83 3d 76 34 56 3d 9c 91 29 bd
       0.100730956 0.064298384 0.052296124 -0.04139863
0003c0 2b cb 2c 3e fd fc ca bd aa 70 51 bd 39 c0 24 3e
       0.16874377 -0.09911535 -0.051132835 0.16088952
0003d0 05 cd a4 3d 9c 2e 25 bc 53 26 0e be f1 d2 26 3e
       0.08046917 -0.010081913 -0.13881807 0.16291405
0003e0 28 ce 07 be 17 03 23 be 64 79 fc 3d 99 1e 4a 3e
       -0.13262236 -0.15919147 0.12327841 0.19738235
0003f0 9f 7b ae 3d a2 38 13 be fb 34 90 bd 52 22 01 be
       0.085196726 -0.14377072 -0.07041355 -0.12610748

weight f4 [100, 100]
000000 dc 5f 8d 3d 5f 75 46 be 8f 7c a4 bd f9 43 43 be
       0.06903049 -0.19380711 -0.0803157 -0.19068898
000010 92 84 82 3d 0c 76 32 bd 1e bd cb 3d 48 e5 43 bd
       0.06372942 -0.04356961 0.099481806 -0.04782608
000020 be d7 d5 bd 04 f7 0e 3c 99 99 0c 3e 2b be 29 3e
       -0.1044154 0.008725885 0.13730468 0.1657645
000030 ba fb d9 3d 80 b7 b8 bc 42 de 41 3d fc f2 7c be
       0.10643716 -0.022548437 0.047331102 -0.24702066
000040 e0 d9 84 3d 17 e3 f0 bd bd a9 e1 3d 2e 2b 06 be
       0.06486869 -0.11762064 0.11018703 -0.13102409
000050 07 1d 16 bd 4c 76 53 3e 94 93 b8 3d af 90 43 be
       -0.036648776 0.20650595 0.09012523 -0.19098161
000060 50 92 40 3e 6f 24 51 be 5b c6 9a bd ec 3e 32 bc
       0.18805814 -0.20424055 -0.075573646 -0.01087926
000070 d8 fd 79 3a 4f f9 2a 3e 1e 29 e4 bd 29 a5 35 be
       0.0009536422 0.16696666 -0.11140655 -0.17738785
000080 64 a6 df 3c c7 cb a0 bc 2a db f6 3d 62 a2 24 be
       0.02730102 -0.019628419 0.12053521 -0.16077569
000090 41 de f8 bd 24 21 46 3e b7 82 80 3d 1e 5a 97 bc
       -0.121517666 0.1934858 0.06274932 -0.018475588
0000a0 7a 27 8f bd fc e9 73 3e 22 4b bb bb 82 0d 1e be
       -0.069899514 0.23819727 -0.0057157436 -0.1543484
0000b0 29 92 df 3d fa a3 ec 3c 86 e1 38 3e a2 10 e3 bc
       0.1091655 0.028886784 0.1805478 -0.027717892
0000c0 9e 4f c1 bd d0 1b 06 3e 88 5c 15 be 57 87 59 be
       -0.09439014 0.13096547 -0.14586079 -0.21243034
0000d0 2a 4a dd bc 2e 0d 3d 3e 8e d7 a6 3d 85 0b b3 3d
       -0.027012903 0.18462059 0.081465825 0.087424316
0000e0 f2 b0 dc 3c 52 98 f0 bd 23 2c 06 be 35 0b 2b be
       0.026939843 -0.11747803 -0.13102774 -0.16703494
0000f0 8f 30 30 be 33 8d f7 bd 12 bf 30 be 1a 90 3f 3e
       -0.17206024 -0.120874785 -0.17260388 0.18707314
000100 6a 4b 57 bd ca a9 d2 3d e1 97 28 be f2 5a 5b 3e
       -0.052562155 0.10286291 -0.16464187 0.21421412
000110 54 ab a3 bd 01 80 e1 3d 41 29 07 be f7 06 66 3e
       -0.079916626 0.11010743 -0.13199331 0.22463594
000120 51 6f 0a 3d 95 72 14 be df a1 11 be 46 49 40 3e
       0.033797566 -0.14496835 -0.14221905 0.18777952
000130 a0 e0 97 bb 9d 21 59 bd 0b 92 07 bd b0 f8 cb 3d
       -0.0046349317 -0.05301057 -0.03309826 0.09959543
000140 b0 8d c4 3d bf 5e 56 3e a4 8f d9 bc fe 19 3d bd
       0.09597337 0.2093458 -0.026557751 -0.046167366
000150 d5 71 39 3e 97 3f b2 3d e3 17 a0 bd 0c 58 3a be
       0.1810983 0.08703535 -0.07817056 -0.1819765
000160 a1 5a cc 3d 8e 80 e8 bc 49 1a 5c be d3 8f e2 bd
       0.099782236 -0.028381612 -0.21494402 -0.110625885
000170 a9 2c 20 3e a1 7f 6d 3e a1 4b d5 bd 96 46 10 3e
       0.15642036 0.23193218 -0.10414816 0.14089426
000180 fd 7d 50 be b7 be 01 be 82 f5 29 be a5 47 99 bd
       -0.2036056 -0.12670408 -0.1659756 -0.07484368
000190 ab ba b2 3d 0d 47 df bd 21 77 f4 bc c0 f0 d2 bd
       0.0872701 -0.10902224 -0.029841961 -0.10299826
0001a0 f6 2e 24 3e fa 24 02 bd c8 86 91 3d a3 3e 2c be
       0.16033539 -0.031773545 0.071057856 -0.16820769
0001b0 90 b2 48 be 9d 9e f0 3d a7 57 2e 3d c5 7d 3a 3e
       -0.19599366 0.11749003 0.04256406 0.1821204
0001c0 a4 6a 5e 3e 79 38 79 bd a1 dd b1 3d a8 ae b8 bd
       0.21720368 -0.060844872 0.086848505 -0.09017688
0001d0 2b c9 e7 bb 0d 5c aa bc 17 d9 c3 3d ec 2a c3 3c
       -0.0070735416 -0.020795846 0.09562891 0.023824178
0001e0 12 14 a1 bd b2 2e 15 3e d5 db 12 3e df 10 bf bd
       -0.07865156 0.14568594 0.14341672 -0.0932939
0001f0 47 14 1e 3e 30 94 cd bc d7 af 71 3d b8 10 b3 3d
       0.15437423 -0.025095075 0.059005585 0.08743423
000200 62 5d b9 bd 4d f6 97 3d b6 87 ae bc 11 b8 3e be
       -0.090510145 0.07420025 -0.021304946 -0.18624903
000210 cf c5 1c 3e 52 e7 b6 3c af ed 5f 3d 2f f1 d2 bc
       0.15309833 0.022327099 0.054670032 -0.02574977
000220 fc 8b 0a be 62 37 46 3e 63 ce f6 bd e3 8c a1 bd
       -0.13529962 0.19357064 -0.12051084 -0.078882
000230 c8 a4 56 bd 15 a5 62 3e 2c b5 9f bd 2e ed 05 be
       -0.05240324 0.22133286 -0.07798228 -0.13078758
000240 86 75 a8 3d a8 79 0a 3e 21 38 14 3e a7 86 1c be
       0.08225541 0.1352297 0.14474536 -0.15285741
000250 eb 70 1c 3d 41 79 ff 3d 1a c2 3a be 2b 7e 33 be
       0.038193624 0.12474299 -0.18238106 -0.17528598
000260 1f df 53 bd a7 15 4e 3e 02 09 03 3e 31 5c 38 3e
       -0.051726457 0.20125447 0.12796405 0.18003918
000270 71 1c fb 3c 29 79 ca bd ee 84 f5 bd ac e0 b3 bd
       0.03065321 -0.09886391 -0.11988245 -0.08783087
000280 1a 84 5a be c4 ee cc bd ef 18 f2 bb a2 fb 85 3d
       -0.21339455 -0.100064784 -0.007388226 0.06542136
000290 dd a0 4f be 92 9a 41 bb 2b 66 75 be af 9c 62 3e
       -0.20276208 -0.0029541594 -0.23964755 0.22130083
0002a0 82 7c f1 bd 45 a7 4a 3e 3f a2 1a be 1f 72 4a 3e
       -0.11791326 0.19790371 -0.15100954 0.19770096
0002b0 d8 2b 83 3d e5 3c 04 be d5 df 53 bd a2 38 2b 3e
       0.06404847 -0.12913854 -0.051727135 0.16720822
0002c0 94 0d f5 3d a1 eb 13 be 59 91 40 3d 97 ee 90 3d
       0.119654804 -0.14445354 0.047013614 0.070767574
0002d0 fb d3 1d 3e 26 70 eb 3d a3 79 27 bc 9e 16 13 be
       0.15412895 0.11496 -0.010221872 -0.14364097
0002e0 e5 64 de 3d e0 28 ce 3d 7a 4b 23 be 99 31 47 be
       0.10859088 0.1006639 -0.15946761 -0.19452514
0002f0 a5 46 48 3d ec 69 75 3d 20 5d 61 be 18 5c 33 be
       0.048895497 0.059915468 -0.2200818 -0.175156
000300 f8 ac e7 3d 77 9a 37 3e 7d d1 65 bd 1a 30 12 3e
       0.11312288 0.17930017 -0.056107987 0.14276162
000310 2a 8d c5 bd a1 d5 29 be 00 f1 21 be 48 f1 e7 bc
       -0.096460655 -0.16585399 -0.1581459 -0.028313294
000320 7e 1b c5 3d 47 4e cd bd 28 8f b9 bd 28 ce 20 be
       0.09624384 -0.10024696 -0.09060508 -0.15703642
000330 f2 c3 36 3e 38 40 06 bd 2b 2f 9b 3d 25 22 f5 bd
       0.17848185 -0.032776088 0.07577356 -0.11969403
000340 ec 6d 43 be 01 6e c5 3c 28 95 4b 3a 4b 91 0d 3e
       -0.190849 0.024100306 0.00077660615 0.13824956
000350 ed 83 41 3e af b4 3e bc 2c c5 3d 3e 21 fd df bd
       0.18897982 -0.011639758 0.18532246 -0.109369524
000360 2a 25 de 3d 8a 83 7d bd 5a 00 3d 3d 3b b7 b2 bd
       0.10846932 -0.061893024 0.046142913 -0.08726355
000370 03 1e 4c 3d 1f cb 55 3e 5b 6c b3 3d 94 07 55 be
       0.04983331 0.20878266 0.087609015 -0.20803672
000380 73 6b 46 3d ea 74 1d be 46 f9 ce bd 08 b4 eb 3d
       0.048442315 -0.1537663 -0.10106139 0.115089476
000390 ae ee 6d bd 82 99 8d 3d 6d 33 21 be b4 0b 8b bd
       -0.05808895 0.06914045 -0.15742274 -0.067893416
0003a0 d8 af c8 3c d4 21 c6 3c d0 90 09 3e 02 aa 67 bd
       0.024497911 0.024186052 0.13434148 -0.056558616
0003b0 42 fa 29 be df ad 85 3d 84 c1 b2 3c f8 eb c7 bb
       -0.16599372 0.06527304 0.021820791 -0.0061011277
0003c0 e7 6c 05 be 7a b3 16 3e 01 30 12 bd be 99 89 bd
       -0.13029824 0.14716902 -0.03569031 -0.06718777
0003d0 9f 06 d7 bc 0f 21 9d 3c 32 f0 77 3e f6 26 42 be
       -0.026248274 0.019180803 0.24212721 -0.18960175
0003e0 72 27 1a 3c 92 b9 96 3d c4 5a 14 be 3a 6b 5e be
       0.009408819 0.073596135 -0.1448775 -0.21720591
0003f0 0b 3a 23 bd b5 30 54 3d d7 ec 9c 3d 91 66 2f 3e
       -0.039850276 0.051804263 0.07662361 0.1712897

bias f4 [100]
000000 18 d5 1d be a3 be 4b bd 6c ad 68 be b1 41 a9 bd
       -0.1541332 -0.049742352 -0.22722405 -0.08264483
000010 d7 2a 2c be bf 0d dd bd d2 44 44 bd ee ad 52 be
       -0.16813217 -0.107936375 -0.047917195 -0.20574161
000020 60 fd ad bd e3 5c 6a be 04 06 dc 3c fd ba ad bd
       -0.08495593 -0.22886996 0.026858337 -0.08482931
000030 e3 32 7f bd d2 b9 7a 3a 39 7f 66 3d 23 3d b8 3c
       -0.06230439 0.00095644325 0.056273673 0.02249009
000040 ae b4 d9 bc 8c d3 9e 3d 14 09 82 3d 6d 95 85 bd
       -0.026575413 0.07755193 0.06349388 -0.06522641
000050 3a 88 64 bb a0 ae 42 3e 86 e6 89 3c e5 4f 0b 3e
       -0.0034871236 0.19011927 0.016833555 0.13604696
000060 11 01 f7 3d 40 62 d1 bd eb e6 0a be 13 75 c7 3d
       0.1206075 -0.10223818 -0.1356465 0.09739127
000070 a3 9f 1d 3e f2 57 c9 3d 4b 53 94 3d 5a ed dd bd
       0.15392928 0.09831227 0.072424494 -0.10836287
000080 fd b3 db 3c 2d d6 34 be 1b 12 19 3c 9b fe a4 bd
       0.026819224 -0.17659827 0.009342696 -0.08056375
000090 12 e8 2b 3b b8 8f e1 bd 47 6f a8 3c b5 1c 91 bb
       0.0026230854 -0.1101374 0.020560874 -0.004428471
0000a0 e8 e3 04 3e f1 3b 29 be a9 97 f1 bd d5 c2 99 bc
       0.12977564 -0.16526772 -0.11796505 -0.018769661
0000b0 09 c7 f0 3d cb 9c 6b bd 0d 03 34 bd 4a 4b cf bd
       0.11756713 -0.057522576 -0.043948222 -0.10121782
0000c0 41 46 03 bd c6 3a ff 3c ab a1 3e bd ca 59 11 be
       -0.03204942 0.031155955 -0.046540897 -0.14194408
0000d0 08 c8 ae bd fd e2 cd bd 8f 15 c7 3c 90 3a 2c 3d
       -0.08534247 -0.1005306 0.024302272 0.042048037
0000e0 df ce 95 bd 13 af 8e bd e9 63 4c 3c 03 ee 33 be
       -0.07314848 -0.069669865 0.012474992 -0.17571263
0000f0 c7 6e 03 be d5 02 01 be 0e 7a cc 3b 48 66 f7 bd
       -0.12835227 -0.12598737 0.006240136 -0.120800555
000100 ae b2 56 be a5 4a e2 bd 22 3e 4a be 3f 50 d6 bd
       -0.20966598 -0.110493936 -0.19750264 -0.104645245
000110 d7 8e a2 bd 8c 9a 63 be a8 d0 dd bc e7 90 2f be
       -0.07937401 -0.22226924 -0.027077034 -0.1714512
000120 f3 c7 30 bd 09 a0 46 3d 3a cd 8e bd 1d a1 e0 bc
       -0.043159436 0.048492465 -0.069727376 -0.027420575
000130 7b 90 67 be 6c 2e b2 3d 36 55 4b bc b2 47 55 be
       -0.22613709 0.087002605 -0.012410453 -0.20828131
000140 08 c9 26 be a0 08 1e be f6 4a 01 be f3 90 11 be
       -0.16287625 -0.15432978 -0.12626252 -0.1421545
000150 98 54 25 be 4b 86 1a be 90 31 ee bd 5f fe 32 be
       -0.16145551 -0.15090291 -0.11630547 -0.17479847
000160 ec 41 50 be b9 07 15 be a5 ad 40 be a1 68 43 bd
       -0.20337647 -0.14553727 -0.1881624 -0.047707204
000170 7b 7c 12 be 13 ed 50 be 89 43 03 3e 2e 51 ad bd
       -0.14305298 -0.20402937 0.12818731 -0.084627494
000180 7f 90 24 3e c2 19 32 bd 56 b2 04 be 1b cb fc bd
       0.16070746 -0.043481596 -0.12958655 -0.12343427
